02_deep3D/model/model_iw.pt (torch, 750886 bytes, 25 tensors)

reduce1.weight f4 [64, 1, 4, 4, 4]
00000000: 4a4c d1bd a564 7dbd 1bec e2bd e405 c7bd
00000010: 11f3 02be 4aca 5b3c 9e25 aabd 6e2b dd3d
00000020: d6de 2fbd 6f84 dfbd 235c acbd 4aed dd3b
00000030: 2a0a 87bd 7c3c b5bd 0573 3bbd dfa6 a03d
00000040: 8663 183d c86c fdbc bcd8 a8bd d519 3bbc
00000050: cb13 a7bd 5830 fd3c 8776 f23d a33a cd3c
00000060: f39b 95bd 10e0 973d 4333 fc3d 8d70 edbd
00000070: bba7 f1bd 0c3d 4c3d 2069 9b3d 6ec6 eabd
00000080: b0f2 b7bd 3193 353d 858d 393d c58a ecbd
00000090: fe76 833c 3d19 d33d b7ee aa3c 2e6f 043d
000000a0: e269 85bd 7c26 adbd 47f2 8ebc 9bed b13d
000000b0: eb25 42bd b6b7 b4bd ee18 8dbd 1461 53bd
000000c0: bd5e 063d 0931 70bd 9c8b 83bd ffca 19bd
000000d0: f4c6 8dbd 7c63 96bd b307 223d c388 8f3d
000000e0: 97e8 833d d3c7 423d f855 cb3d a206 873c
000000f0: 841b 79bd 24e2 653c 1b64 ee3d 3b81 bf3c
00000100: f661 2a3c 7f99 fa3b a4c3 3b3d 8d94 f2bd
00000110: 6b40 8fbb cba3 f13d fab7 2cbb 60fa dd3d
00000120: 0fc1 72ba 28e0 aabd 336c 93bd 42a6 99bd
00000130: 534f cd3d e146 90bd 88aa be3d fe22 ccbd
00000140: 7f54 61bd 9cfb 623d 6bb4 403c f399 c83d
00000150: 7d81 6f3d 4ef8 79bc b310 83bd c510 8e3d
00000160: b974 dd3d 87ba 06ba 3a33 38bc 56de f3bd
00000170: cf8e bcbd cecd f2bd 4415 ee3d 7079 1b3c
00000180: 91fa 76bd e8e4 33bc 9417 ff3d cd53 39bd
00000190: bed5 873d 3a50 cebd 408a 87bd 3a04 8b3d
000001a0: e72f c63d b373 e63d 2485 143d 6867 3c3d
000001b0: af02 c33d fbb2 87bc 0e75 6abd dd82 4b3d
000001c0: 2c8d 36bd 8634 bb3c 2ed8 a9bd cc66 813d
000001d0: f8c8 91bd fcec d6bd cb6a 1ebd e1e7 28bd
000001e0: 8717 ae3d 88d4 a13d 08ba c0bc 2ecc 9cbd
000001f0: 3333 9dbd a7d0 69bc 6d3b bd3d 7360 f9bd
00000200: 0af4 f2bc a1a1 8c3d 6c4c a73d 5f9d c7bd
00000210: d89f f43c 48ab 11bd 8648 a9bd d8f2 623d
00000220: 15af 933d 7bba e1bd 7e6c 933d 8cad a23d
00000230: 358d 813d b097 e9bd 9251 71bd 0a39 86bd
00000240: 9819 94bc da6f 6bbc 1358 8bbd 9c5b c93c
00000250: 1cf2 cfbd c236 1cbd 8e92 8abd 89ed 763c
00000260: d162 573b b775 dc3d 17e1 b33c a1b1 913d
00000270: e987 e8bd 32c9 8dbd a6b3 5bbd 6898 c8bd
00000280: f670 df3d c9ef a0bd 5c7a a13c 13b5 fe3d
00000290: f5c4 a53d d156 23bb f942 e5bb bfc8 5d3d
000002a0: 9042 63bd e071 59bd cd84 cbbd 88ad ddbd
000002b0: 45d1 82bd 3aba 22bc dc97 99bd 4e6d ecbc
000002c0: 8a1d aabc 3e2e 973d d704 e33d d3ba b93d
000002d0: 3ead 1cbd 6215 e53a 6034 bbbc e190 0d3b
000002e0: 8f33 e33d f0fe 87bd fe3b 0ebc 0d4c 103d
000002f0: 762b 9b3c 9d9c c5bd 7e66 2e3c f80b b0bd
00000300: 522b 48bd 6bc1 863d 0cf9 433d c8d2 bbbc
00000310: 8b07 9c3d 64ab c0bd f267 afbd c713 eeba
00000320: 74b8 acbc 4c02 fe3d d4a7 db3d 83b5 2e3c
00000330: fc24 b1bd 7df7 e93c 9a48 f73d b8de dc3c
00000340: 129f 8fbb 0d16 e8bd d73f 05bd fff5 b53d
00000350: e23a dc3d 567f 0abd 012c 903d 8a47 683d
00000360: 9941 c63d d1d5 3b3d 4934 c6bd 75f5 db3d
00000370: 81ba a33c 95b4 c7bd edfa 38bc 9149 803c
00000380: eb02 453d ded4 603a 6721 f3bd df15 f1bd
00000390: 74d0 043e 6d0a 2d3d af81 f5bd bc94 92bd
000003a0: 2fe1 073d 17d1 d3bd dbfc bebc b986 813d
000003b0: be33 d9bd 0f75 4fbd 5353 e9bc 5511 3c3d
000003c0: be82 1cbc 4bb1 c63b 2949 dd3d 547a 94bb
000003d0: ab8b f83c faf1 c2bd bd4e 7bbd d31f 633d
000003e0: 25d4 703b fa92 a4bd 00be fcbd 5e67 5ebd
000003f0: c117 e4bc 52ec e53c cf05 313d 3468 31bb
-0.10219629 -0.06186356 -0.1108019 -0.097179204 -0.12788035 0.013414929 -0.08307956 0.10799299
-0.042937122 -0.109139316 -0.08416011 0.006772672 -0.065937355 -0.08849427 -0.045763988 0.07844328
0.037204288 -0.03093566 -0.08244464 -0.011419733 -0.08158072 0.030906841 0.118390135 0.025052374
-0.073051356 0.074157834 0.12314465 -0.11593733 -0.1179957 0.049862906 0.075884104 -0.11463629
-0.08981836 0.044329826 0.04530098 -0.11549906 0.01604795 0.10307548 0.020865781 0.03233259
-0.06514336 -0.08454606 -0.017449511 0.08687898 -0.047399443 -0.088241026 -0.068895206 -0.051606253
0.032805193 -0.058640514 -0.06423113 -0.037547108 -0.06922713 -0.07343194 0.039558124 0.07008507
0.06440847 0.04755385 0.099285066 0.016482655 -0.060817257 0.014030967 0.11640187 0.023377052
0.010399332 0.0076476927 0.045840874 -0.1184474 -0.004371693 0.11798819 -0.0026354776 0.10838771
-0.00092603354 -0.08343536 -0.07198372 -0.07502414 0.100248955 -0.07044769 0.0930987 -0.09967612
-0.055012222 0.055415735 0.011761765 0.097949885 0.0584731 -0.015256954 -0.063996695 0.06936792
0.10813279 -0.0005139489 -0.011242682 -0.119076416 -0.09206926 -0.118556604 0.1162515 0.009489402
-0.060297552 -0.0109798685 0.12455669 -0.045245934 0.06632565 -0.10073896 -0.06618166 0.067879155
0.096771054 0.112525366 0.036259785 0.045997053 0.09521996 -0.016564837 -0.05724054 0.049685348
-0.044568226 0.022852194 -0.08293186 0.06318435 -0.0711841 -0.1049442 -0.038676064 -0.041236762
0.08500581 0.07901865 -0.023526207 -0.07656132 -0.07675781 -0.014270938 0.0923985 -0.12176599
-0.029657383 0.06866766 0.08168873 -0.09746813 0.029861376 -0.035563737 -0.08265786 0.055407375
0.072111286 -0.110218965 0.071984276 0.07943258 0.06325761 -0.11405885 -0.058915682 -0.06553848
-0.01807861 -0.014369929 -0.06803908 0.024579816 -0.101536006 -0.03813816 -0.06766234 0.015071281
0.0032865296 0.1076464 0.021957917 0.07113958 -0.11354048 -0.069231406 -0.053638123 -0.09794694
0.109102175 -0.078582354 0.019711666 0.12436881 0.08094207 -0.0024923573 -0.006996509 0.054146525
-0.0554834 -0.053087115 -0.09937439 -0.10824114 -0.06387571 -0.009932095 -0.07499668 -0.028860714
-0.020766038 0.07381867 0.110849075 0.09068837 -0.038251154 0.0017477686 -0.022852123 0.0021601247
0.110938184 -0.06640422 -0.008681295 0.035228778 0.018941622 -0.09649012 0.010644553 -0.08596033
-0.04886944 0.0657986 0.04784493 -0.022927657 0.07618626 -0.0940769 -0.08564748 -0.0018163853
-0.021084048 0.12402782 0.1072537 0.010663393 -0.08649632 0.028560394 0.120743945 0.02696167
-0.0043829763 -0.11332331 -0.032531586 0.08884811 0.107534185 -0.033812843 0.07039643 0.05670885
0.096804805 0.045858208 -0.09677941 0.107401766 0.019986393 -0.0975124 -0.011290294 0.01566008
0.048098486 0.00085766416 -0.11871605 -0.1177175 0.12970144 0.04224627 -0.11987626 -0.07157275
0.033173736 -0.10342615 -0.02331393 0.063245244 -0.10605572 -0.050648745 -0.028482115 0.045914967
-0.009552656 0.0060636154 0.1080497 -0.004531184 0.030340036 -0.095188096 -0.061354388 0.05545027
0.0036747542 -0.08035846 -0.12340927 -0.054297797 -0.027843358 0.028066788 0.04321843 -0.0027070167

reduce1.bias f4 [64]
00000000: 100e 5dbd a6d9 a7bd e6f9 c93d 08e6 77bc
00000010: 167d 473d 946f 11bd 8813 e7bd b539 e5bc
00000020: c27e 983d 5c13 f9bd 9e02 103b 56f3 c3bd
00000030: e877 2e3d ee8f f0bd 86e8 94bd 7e33 803d
00000040: e7b9 2cbd 14fd fb3d 7c26 1a3d 94bb 91bd
00000050: d819 c4bc b184 8fbc cdc9 ba3d 80b3 21bd
00000060: 2157 2bbd 1592 ca3d 9031 7dbd 60b2 003e
00000070: bfeb bc3c b19e 2f3d 9632 183d 5482 ba39
00000080: e8e2 c4bd c08c 233d 2fab 08bd 1f61 8cbd
00000090: b139 d2bd aa02 e63d 9ecb f03d ab19 05bd
000000a0: 174d 00bd d28a e93d 10dc f23d 9861 e23d
000000b0: fb8b b63d 787c d93c cfd7 8d3b 02be c03d
000000c0: 5b05 d03c fe18 a4bc a993 5bbd eb13 dfb8
000000d0: 1bc4 673d 35b4 a1bd 5947 953d 5113 e03d
000000e0: bffc f83d f040 403d effc 92ba 8860 8c3d
000000f0: a403 94bd 5e07 083d 0bf3 143d adb1 673c
-0.05396849 -0.0819581 0.098621175 -0.015130527 0.048703276 -0.0355068 -0.11283022 -0.027981618
0.07446052 -0.12161896 0.0021974216 -0.09567897 0.04259482 -0.117462024 -0.07270913 0.06259821
-0.042169478 0.1230413 0.037634358 -0.07115856 -0.023938105 -0.017519327 0.09120522 -0.039477825
-0.04183114 0.09891144 -0.061814845 0.12568045 0.023061631 0.04287595 0.037157618 0.00035573787
-0.096135914 0.03992915 -0.03336638 -0.06854462 -0.1026491 0.11230977 0.11757587 -0.032495182
-0.03132352 0.11403431 0.1185838 0.11053771 0.08913418 0.02654861 0.004328705 0.09411241
0.025393179 -0.020031448 -0.053607617 -0.00010637179 0.056583505 -0.078957 0.07288999 0.10941184
0.121575825 0.04693693 -0.0011214296 0.068543494 -0.07227257 0.03321015 0.036364596 0.014141482

nonreduce1_1.weight f4 [32, 64, 3, 3, 3]
00000000: 5344 353b ec68 343c ccb2 25bc 7626 423c
00000010: b5f7 8abb 5008 97bc 7109 dfbb 3fac 563c
00000020: 6197 60bc d750 44bc 90ab 423c c8db 7e3c
00000030: 0736 153b aa53 7abc d121 71bc 4bc5 993b
00000040: 2c3c 883b 2c9c c53a fee8 53bc d025 9a3c
00000050: 4419 a9bc d373 b9bc ec41 5cbc dc01 443c
00000060: 7dad ac3c 5d3b 23bb 7888 b9bc b0ea f0bb
00000070: a421 b73c 8759 40bc f3f4 41bc 9135 3ebb
00000080: 189f c63b 5b3f 863b 6906 9f3c 8391 ec3b
00000090: d669 b0bc 1a3e 69bc 583a 93bc fc43 1d3c
000000a0: 448f e73b d4fc c73a 1c05 593c c449 203c
000000b0: 728d 9ebc 87f8 353b a283 663c 9f78 9d3c
000000c0: a089 9bbc 3491 0c3c a1fb bebb ec9b 45bc
000000d0: b4bf a73c 47a1 3dbc b15c 863c 0e54 78bb
000000e0: dd04 41ba 028c 273c 972f 1ebc aedc a8bc
000000f0: 1581 0e3c a18f c3bc cb12 843c c56c b1bc
00000100: d333 e1bb 4873 213c b4d4 593c 2039 583a
00000110: 13ca 44bc f64d d1bc 464e d4bb f3ae 92bc
00000120: 8475 44bc acd8 6cbc 9d48 29bc 6362 89bc
00000130: 53a3 6b3b 0d62 af3b b85a c3bc 8c71 3bb9
00000140: b77a 98bc 3a5f 453c 2f99 9fbc 1b4b 58ba
00000150: 5e5a 9ebc 9a72 06bc 2f37 e53b f63d 00bc
00000160: 2515 463c 2d09 2bbb 6f63 b23c bc6a 7ebc
00000170: 97e5 e2bb 123e 2cb8 8042 86bc 6f9f 68bc
00000180: 7031 253c f194 42bb 4abd dfbb 457a 2f3c
00000190: 9bbb 58bc fc35 8b3c 0fc8 6cbc 5788 7bbc
000001a0: 8139 4439 b416 b9bc 1be1 1fba a3b1 9d3c
000001b0: 0754 613b d9fc 66bc 0c9a 4abc 88f9 1bbc
000001c0: f196 163c d151 183b 02e4 ef3b bb29 a03c
000001d0: b11f c0bb 12c5 cd3c 79aa c9bc 378f a2bc
000001e0: b188 d2ba dd6e 01bc c71c 1e3b 8212 1b3a
000001f0: be2e 57bc 3d7f b4bc f37e b43c 8077 1ebc
00000200: 948e 97bc 18ff 43bc 513f 1a3c 6917 1a3c
00000210: e2c9 fa3b 9083 8dbb d0d4 723c 32c8 b8bc
00000220: ed2d a73b 84de aebc 9756 5c3c 6a44 11bc
00000230: 9b83 183b 6e98 293c d5fc 23bc 9fd6 8ebc
00000240: eda9 3d3c 340f 8dbc de14 96bb 7b86 95bc
00000250: efc8 44bc 3159 6d3b ac73 57bc eee1 adbb
00000260: 5f37 22bc 1b8a 46bc 50de 253c 9f0f 9739
00000270: f725 58bc e2fc 83bc 63e8 0a3b 86d8 81bc
00000280: cd1c 993b 660d 58ba 3d00 173c ad1e 4abc
00000290: 7883 c23c 6f0f 52bc 65dc aa3c cf02 4dbc
000002a0: e111 a53c 2235 92bc 2c66 94bc dfd0 883c
000002b0: f554 c2bc 2e75 d1bb d966 aebc f1a0 7e3c
000002c0: d4a8 c6ba 2065 1c3c d315 0fbc e197 aab9
000002d0: 59f5 0ebc 9b69 943b 0a71 afbc dd63 a83b
000002e0: 01c6 83bc 2714 f43a 1afe c03c 1a31 94bb
000002f0: 1173 2dbc c661 e13b 810c c7bb 24d4 4d3b
00000300: e43b bbbc 310b 833c 1039 433b 97e9 9b3c
00000310: daed c7bb 8e73 6e3c f575 eebb 6f87 a43c
00000320: 61f2 51bc 20f0 433c 8455 fdbb 54a2 a33b
00000330: 0d9d a03c 8bfb 85bc b2b9 613b e24c b0bb
00000340: 70db e73b 8c7d c83b c599 103b ed15 8b3c
00000350: 78fd a43c 478b 0fba 09f1 93bb 6b7d 8939
00000360: 6def e83b 3475 21bc 782f 813c f532 d5bc
00000370: d031 b73b be32 69bc abec af3c d8d9 c2bc
00000380: 3c79 d1ba 7a09 42bc 4926 0c3c cf48 583c
00000390: 87b2 aa3b 55de b2b8 8bbb 8dbc 73a9 fd3b
000003a0: e087 3a3c 00ee 4c3b b0b6 d0bc 72ea a0bc
000003b0: a1b4 68bb 0d8a 9c3c ea55 843c e1ae 853a
000003c0: 8d14 ddbb 2bdd 903c 735d 573c 15c9 91bc
000003d0: dd15 5e3c 3729 24bc 5882 9fbb 5373 aebc
000003e0: 3320 7abc 27d4 0d3c 7093 763a 454e d53b
000003f0: 9502 853b 8d80 9e3b 52bf a9bc 1735 71bc
0.0027659133 0.011011343 -0.010113429 0.01184999 -0.0042409548 -0.01843658 -0.0068065454 0.01310259
-0.013707967 -0.011982164 0.011881724 0.01555533 0.0022767799 -0.015278736 -0.014717535 0.0046927086
0.0041575637 0.001507645 -0.012933968 0.018816859 -0.02064193 -0.022638237 -0.013443451 0.011963334
0.02107882 -0.002490721 -0.022648081 -0.0073521957 0.022354908 -0.011740095 -0.011838186 -0.0029023627
0.006061446 0.004096908 0.019412236 0.007219495 -0.021534842 -0.014235998 -0.017972156 0.009598728
0.007066639 0.0015257844 0.013245847 0.009783212 -0.019354556 0.0027766542 0.01406947 0.019222556
-0.018986523 0.008579541 -0.0058283363 -0.0120611 0.020477153 -0.011574096 0.01640162 -0.0037891897
-0.00073630904 0.010226252 -0.009654901 -0.02061304 0.008697768 -0.023872199 0.016122242 -0.02165831
-0.006872633 0.009854145 0.013295341 0.00082482584 -0.012011069 -0.02554987 -0.0064790575 -0.017905688
-0.0119909085 -0.0144559555 -0.010332254 -0.016770547 0.0035955503 0.0053522647 -0.023846969 -0.00017876009
-0.018613202 0.01204663 -0.019482223 -0.00082509377 -0.0193302 -0.008206034 0.006995104 -0.007827273
0.012090002 -0.0026097998 0.02177593 -0.015528377 -0.006924342 -4.1065803e-05 -0.016389132 -0.014198168
0.010082588 -0.0029690827 -0.006827985 0.010710304 -0.013228322 0.016993515 -0.014451995 -0.01535233
0.00018713438 -0.022593834 -0.0006098912 0.019249743 0.003438236 -0.0140983695 -0.012365829 -0.009519942
0.009191261 0.0023242126 0.007320882 0.019551149 -0.005863153 0.025118385 -0.02461742 -0.01984368
-0.0016062466 -0.007899967 0.002412604 0.00059155386 -0.013133703 -0.022033328 0.02203319 -0.009672046
-0.018500604 -0.011962675 0.00941451 0.0094049955 0.007653461 -0.004318662 0.014821246 -0.022556398
0.0051019103 -0.021346338 0.013448379 -0.008866409 0.0023271802 0.0103512835 -0.01000901 -0.017436324
0.011576158 -0.017219163 -0.0045801243 -0.018252602 -0.012010797 0.0036216492 -0.013150137 -0.005306474
-0.009900897 -0.012117888 0.010123804 0.00028812603 -0.013192645 -0.016111795 0.0021195642 -0.015850317
0.004672623 -0.00082417426 0.009216365 -0.012336415 0.02374433 -0.0128210625 0.020857045 -0.012512877
0.020150127 -0.017847601 -0.018115126 0.01670116 -0.023722151 -0.0063921427 -0.021289276 0.015541301
-0.0015156516 0.009545594 -0.008733231 -0.00032538085 -0.008725488 0.0045291907 -0.021416206 0.0051388578
-0.016085627 0.0018621729 0.023558665 -0.004522455 -0.010586516 0.0068781106 -0.0060744886 0.0031406963
-0.022855707 0.015996547 0.002978865 0.019032283 -0.006101352 0.014553918 -0.007277245 0.020084111
-0.012814135 0.011959106 -0.0077311415 0.0049937163 0.019606138 -0.016355297 0.0034442958 -0.005380259
0.0070757195 0.006118482 0.002206431 0.016978228 0.020140395 -0.0005475771 -0.0045148176 0.0002622412
0.00710862 -0.009854604 0.015769705 -0.026025275 0.005590655 -0.014233289 0.021475157 -0.023785517
-0.0015981565 -0.01184308 0.00855405 0.013200953 0.0052092704 -8.529114e-05 -0.017301342 0.007741147
0.011384934 0.0031269789 -0.025477737 -0.019643042 -0.0035508054 0.019108796 0.016154248 0.0010199213
-0.0067468346 0.017683586 0.013144839 -0.017796079 0.013555017 -0.010019592 -0.004867833 -0.021295225
-0.015266466 0.008656538 0.0009406125 0.0065095746 0.0040591457 0.004837102 -0.020721111 -0.01472213

nonreduce1_1.bias f4 [32]
00000000: 37f8 08bc 129d a1bc c128 8c3c 75c5 543c
00000010: 0980 fe3b 4a17 2f3c acc7 3f3b 2eed a0bc
00000020: b0c3 b63c d9d9 203c 033b 843c 1c27 c7bb
00000030: cc5e 953c 0fb2 963c a03c dd3c cdec 1d3c
00000040: f17c 5dbc b9e7 6dbc dab2 4e3c fc07 e53b
00000050: 3960 fbba 8558 33bc d518 7f3c 909b a6bb
00000060: 666b a6bc e260 073a 62f7 5e3b 058d 4f3c
00000070: f8c8 2fbc bd77 9e3c b532 5abc 09a8 abbb
-0.00835996 -0.019728217 0.017109277 0.012986531 0.007766728 0.010686705 0.00292633 -0.019644346
0.022310108 0.009817564 0.01614142 -0.0060776602 0.01823368 0.018395452 0.027006447 0.009638977
-0.013518558 -0.014520579 0.012615884 0.006989477 -0.0019178457 -0.010946398 0.015569885 -0.0050844625
-0.020314883 0.0005164278 0.0034021963 0.012667899 -0.010729067 0.019344205 -0.013317754 -0.005238537

nonreduce1_2.weight f4 [32, 32, 3, 3, 3]
00000000: 51e3 dabc a23c a23c 965b 9bbc a8fd 633c
00000010: bbd2 cebc b018 493c 0362 fabc b47b 373c
00000020: c981 0f3d 88db c1bb 5797 b93c c28f f9ba
00000030: d960 053d 7f6e 09bc 8850 e6bc 7025 453c
00000040: 7824 a73c 4db0 bd3c 5cd7 be3c eaf6 98bc
00000050: 7a5c 4dbc 3692 2ebc ef93 033b 6b69 91bc
00000060: 1d05 873c 8568 473c 2a70 bbbc 3693 c2bc
00000070: d602 ecbc ad85 a33c 3203 303c 256d b4bb
00000080: 5681 2dbc 8863 87bc ae7d b0bc cad1 a5bb
00000090: 8991 79bc c929 1ebc f6bb b63c c407 c03c
000000a0: 6209 933c 1d70 89bc f970 efbc 74e6 bd3c
000000b0: 6dcf fa3b c552 eabb a1ff 20bc 7ffa 8fbc
000000c0: 08c1 edbc c72e 68bb c210 6bbc f2a9 a8bc
000000d0: 1d96 d3bc e57e f5bc 1620 683c 838d 66bc
000000e0: 4d8f f73c a056 073d 33ff 003d 9aef cb3c
000000f0: e8bb ccbc bbe0 e0bb 2b73 9bbc 84ee 0b3d
00000100: 8fc7 f4bc e9a7 8fbc 9921 f7ba c1ea 9c3c
00000110: 1107 2fbc 9e6a 20bb 0851 043b 9dde f73c
00000120: 02a2 f63c 7ee0 7a3c 593c b53b 9ccb e0bc
00000130: fb49 e13c 100c 7a3c 8460 44bc b754 28bc
00000140: 4513 8f3b e123 ec3b 5b5e 1ebc 1b28 113b
00000150: 751c 5c3c 3f77 e73c 18e4 083d 79ae 9eba
00000160: 07b8 bf3c 1b20 bbbb 730c fb3c 23eb 07bd
00000170: aaea 73bc 0aef 29bc b8bc f13c 070e 593c
00000180: d8b8 c03c 7270 fcbc 56ac bf3c 3bdf 9fbc
00000190: 2a2e 4cbc 6850 373c bad0 f83c 986d a8bc
000001a0: 47ac c93c 5100 81bc b833 8a3c 6eb2 063d
000001b0: 1984 043d dea4 853b e1ec 943c 4cc4 8a3c
000001c0: 5553 d3bc 0977 0f3d d18e 633b 406e cebc
000001d0: dc76 c5bc 0de0 cb3c f87c 353c 05e5 df3c
000001e0: b8d2 9bbc fbf6 843c ef23 4d3c deda cc3c
000001f0: 844b 873c bea1 c3bc 08f3 973b fd01 09bd
00000200: 36bf e0bc 32d9 ccbb 2984 ef3c 1f50 fabc
00000210: a069 fdbb d4fb 55bc 606b f43c 8845 883c
00000220: 930e fcbb 178e e3bc d5e8 21bc dec9 ccbc
00000230: 3c65 94bc b2ca 283c bd2d 3dbc 5b9d 433a
00000240: a8f3 8c3c 0e3b a7bc 2cf5 6bbc b410 5e3c
00000250: 01f5 d0ba 94c0 80bc abfe 9c3c 4ec9 99bc
00000260: 8dd9 adbc f6ff 04bb da15 82ba 17fb 7abb
00000270: 56b8 e13c 5dc1 0bbd b042 083d f254 763c
00000280: ea98 e63c a6b0 9dbc f0d4 b53c 102a e8bb
00000290: b7fd a53a b15b a33c 841d d43c 2aa2 84bc
000002a0: 3c1c fc3c 6911 cc3c 7a0f 3a3b ab19 e5bc
000002b0: 321e 03bd d78b f8bc 782d 8e3c 45d2 db3c
000002c0: 44ce 5fbc bd23 4a3c a17b e4bc ff11 663c
000002d0: 23f6 a9bc 8327 fbbb b877 5f3c 6620 cf3c
000002e0: dd77 0f3d 6992 56bb 29b3 2dbc fd81 bc3c
000002f0: e1e0 e8bc 23aa edbc 75a4 de3c c60d 97bb
00000300: b330 643b 1ada 00bd 8f90 83bc 8f12 83bc
00000310: f122 25bb f240 063d fb3e 7cbc 6a3b 023d
00000320: 7f79 883c f617 d0bc d962 fabb e617 ff3c
00000330: 645f b8ba 6891 00bd b6ff ac3c cf43 623c
00000340: 134a 6c3c 659d 09bd 522b 0a3d 4cb7 043d
00000350: a441 e1ba ecf3 ba3b 33cb 683c 82e8 933c
00000360: 47e3 cf3c 5a00 e6ba 4f09 b03c 546d d0bc
00000370: 3cc3 2a3c 05a5 e73c 7997 ae3b 75c9 00bd
00000380: cac2 f93c 10f2 933c 964a 1fbc b03e d43c
00000390: 61b2 ecbc c006 0b3c c0d2 d0bb e737 30bc
000003a0: 77d0 ff3c 5a54 00bd 6740 043d a7af cd3b
000003b0: 0924 2bbc 4b58 cebc dcbd 98bc 1516 bdbc
000003c0: ec49 edbb 15c1 853b 1600 03bd 5e29 b73a
000003d0: 49ad 73bc 27ea 4e3c 798b db3c 044c 5abc
000003e0: 5b20 5dbc 39eb 6fbb 2d1d 23bc dab6 c5bc
000003f0: 03fe b6bc dfbd 80bc 718a c1bc ba3d bf3c
-0.026719721 0.019804303 -0.01896457 0.013915457 -0.025246968 0.012273952 -0.030564314 0.011198927
0.035035882 -0.0059160627 0.022655172 -0.0019040036 0.032563064 -0.008388161 -0.028114572 0.012032852
0.020403132 0.023155356 0.02329605 -0.018672425 -0.012534255 -0.010654977 0.002007719 -0.017750463
0.01648193 0.0121709155 -0.022880632 -0.023751836 -0.028809946 0.019961203 0.010742949 -0.005506175
-0.010589918 -0.016526952 -0.021544304 -0.005060409 -0.015232452 -0.009653517 0.022306424 0.023441203
0.01794881 -0.016777093 -0.029228674 0.023181178 0.0076541216 -0.00715098 -0.009826572 -0.0175755
-0.029022709 -0.0035428272 -0.014347257 -0.020588849 -0.025828416 -0.029967735 0.014167806 -0.014071825
0.030219698 0.033041596 0.031493377 0.024894524 -0.024991944 -0.0068627275 -0.018975815 0.034163013
-0.029880313 -0.01753612 -0.0018854617 0.019154908 -0.010682837 -0.0024477611 0.00201899 0.030257517
0.030106548 0.015312312 0.0055308756 -0.027440839 0.027501097 0.015261665 -0.011985902 -0.010274104
0.004366311 0.0072064255 -0.009666051 0.002214915 0.013434519 0.028255103 0.033420652 -0.001210644
0.02340318 -0.0057106144 0.030645585 -0.03318323 -0.014887491 -0.010371933 0.029508933 0.013247973
0.02352564 -0.030815337 0.023397606 -0.019515624 -0.012462178 0.011188604 0.030372966 -0.02056007
0.024618281 -0.015747221 0.016870365 0.032885008 0.03235254 0.0040784916 0.018179359 0.016939305
-0.025796572 0.03502563 0.0034722576 -0.025199056 -0.024104528 0.02488711 0.011077158 0.027330885
-0.019021377 0.01623105 0.012520774 0.025006708 0.0165155 -0.023880836 0.004637126 -0.03344916
-0.027434926 -0.0062514776 0.029237824 -0.030555783 -0.0077335387 -0.013060529 0.029836357 0.016634718
-0.007692167 -0.027777715 -0.009882172 -0.024998602 -0.018114679 0.010302233 -0.011546549 0.00074621075
0.017206028 -0.020413902 -0.014401715 0.013553787 -0.0015942157 -0.015716828 0.019164404 -0.018772747
-0.0212219 -0.0020294166 -0.0009924725 -0.0038296634 0.027553719 -0.034119952 0.033266723 0.015034901
0.028149087 -0.019249272 0.022196263 -0.0070850924 0.0012664114 0.019941183 0.02589298 -0.016190607
0.030775182 0.024910646 0.0028390572 -0.027966341 -0.03201122 -0.030340118 0.017355666 0.026833663
-0.013660017 0.012337622 -0.027890982 0.014042377 -0.02074725 -0.0076646223 0.013639383 0.025284003
0.03502642 -0.0032741076 -0.010601797 0.023011202 -0.028427543 -0.029011792 0.027178029 -0.004609796
0.0034819066 -0.031457998 -0.016060142 -0.01600006 -0.0025197829 0.03277678 -0.015395875 0.031794943
0.016659496 -0.02540205 -0.007641178 0.031139325 -0.0014066515 -0.03138867 0.021118026 0.013810112
0.014421958 -0.03359737 0.03373272 0.032401368 -0.00171857 0.0057053473 0.014208603 0.018055204
0.025376929 -0.0017547712 0.021488814 -0.025442757 0.010422524 0.02827693 0.0053281155 -0.031442124
0.03048839 0.01805976 -0.0097223725 0.025908798 -0.028893651 0.008485496 -0.0063727796 -0.010755516
0.031227333 -0.031330444 0.03228798 0.006277043 -0.010445603 -0.025188586 -0.01864522 -0.023081819
-0.007241478 0.004081855 -0.031982504 0.001397412 -0.014872857 0.012629068 0.026799904 -0.013323788
-0.013496484 -0.003660871 -0.0099556865 -0.024135042 -0.02233792 -0.015715538 -0.023625584 0.023344863

nonreduce1_2.bias f4 [32]
00000000: e987 8cbb c74a fa3c e430 243b 08cd 7b3c
00000010: 917e 9bbc 51ba 3abb 9aea 273b c9d6 0f3c
00000020: 4978 aa3a 86dd a93b d02a f53c a2d1 793c
00000030: 3431 dcbb f6a6 66bc dc12 96bb 6908 d9bc
00000040: 65fe 083d 0478 903c 0ab6 193c cb31 19bb
00000050: 403c bbbc ef39 febc 6d2f b5bb dc63 acbc
00000060: fc58 a7bc 610b 383c b32e b3bc 623f f33c
00000070: 7060 a5bc 5c75 e93c 44f6 393c 003e 07bc
-0.0042886627 0.030553235 0.0025053555 0.0153687075 -0.01898125 -0.00284924 0.002562201 0.008779236
0.0013005818 0.0051838784 0.029927641 0.015247734 -0.0067197327 -0.0140778925 -0.004579885 -0.026493268
0.033445735 0.017635353 0.00938178 -0.0023375626 -0.022855878 -0.031033484 -0.0055293352 -0.02104371
-0.020428173 0.011233182 -0.021872854 0.02969331 -0.020187587 0.028498344 0.011350218 -0.008254528

nonreduce1_3.weight f4 [32, 32, 3, 3, 3]
00000000: a6d9 b13c 2d14 053d 0907 e83c 7c13 253b
00000010: 49aa 8e3c 7179 c6bc cfb5 a2bb a0f6 c5bc
00000020: 8f91 0a3d 7e50 bfbc 0d07 9b3c 2d3b 123c
00000030: 4082 0cbd 35ff 96bb 93d0 a83c af0e 9f3c
00000040: bcea f53b 56cd c13c 9586 c93a 2703 bb3b
00000050: ed25 dd3c 40c7 983b 34ce c43c 2d18 593c
00000060: 7bb5 cd3c c8f6 a5bc 4f1f dbba dee3 01bb
00000070: 94ba e33b 3b6a 1f3d 846d acbb ae48 04bc
00000080: dbca 723c 37e8 2e3d 8c02 9ebb 57f4 48bc
00000090: e554 203d 2069 af3c 4371 e43c b623 17bc
000000a0: acb1 d73c 82d6 07bd 9c54 393d f6a9 5ebc
000000b0: 8527 0a3b 4d0a b43c 3052 e2ba c52d 29bc
000000c0: f8e8 90ba ea11 51bc 5efb bfbc 951c 9a3c
000000d0: e96d 073d 7275 bc3c 1a0f 793c d96d 613c
000000e0: c090 a7bb 3d72 c3bb 9f2b 673c 2d6e 573c
000000f0: 7f6d 0838 16da e6bc 6ede a43c 4d01 efbc
00000100: aece 87bc 3e81 afbc 65d4 4c3c f8d2 c83c
00000110: b92b 27bd 2ace 9ebc af1d 793a 93b7 11bd
00000120: 3706 b4bc b80d 8abc 9b30 a73a 64ff f9bc
00000130: 1a57 aabc fbd8 efbc 8a1f 04bd 2290 8d3b
00000140: aa91 eb3c 1ccb c5bc b1c1 f4bc 9d32 aa3c
00000150: 0084 debb 4b82 583c de2a 093d d8ca 06bb
00000160: bb39 a73c 15ff ca3c e5e8 18bc b2f2 dc3c
00000170: 7cd0 a1bc 66a3 9cbb f500 063c 80fb 7ebc
00000180: c89d c3bc 1139 073d e7e4 86bb 232e d6bb
00000190: c9d6 0d3d 4660 89bc 8de5 72bc 1e6d 693c
000001a0: 4cc1 b8bb 305e 64bc d871 4ebc 3917 133d
000001b0: 630d f33c 80d4 0fbc 2e43 223c a4f8 723c
000001c0: 5b16 87bc 5f1f b8bc 69e3 573c 84d2 11bd
000001d0: 366b d6ba 69b8 f03b c3a3 4abb 5f80 ce3b
000001e0: 9c64 b53c 8509 8f3b 4c4b dabc c0bf adbc
000001f0: 3e4b 02bd 0f25 e3bb 8a0f 7b3c 1ddd d73c
00000200: b3b7 23bc 1185 073d c78d 90bc f237 d1bc
00000210: a556 383b d40f 023d 3bd0 a53c 1948 8dbc
00000220: cfd7 cdbc 8b1c 2fba 7e72 283a b5bf 39bc
00000230: 227f e0bc a3b7 0839 9e31 15bc a6fc ca3c
00000240: 54ad a7bc f914 cd3c c156 70bb 0aeb a2bb
00000250: 3d01 b3bc 8b4b ff3c af97 93bc 503d e93a
00000260: df7f ab39 fb93 c2bb 0c2f ee3b e9b3 d6bb
00000270: ed4b 0ebc 2078 e6bc 9fbc d9bb 8112 f6bc
00000280: eedb 033d 86f8 0b3d fe20 96bc 284e e7bb
00000290: 7ce1 52bc 4d85 85b9 0013 88bc 6ca5 d4bc
000002a0: d41b 13ba 6e6a efbc 5a14 4dbb d827 d13b
000002b0: 722a 133c 77b8 babc ffe4 463c 863b 40bc
000002c0: e020 c83b ce7e aa3c 9583 0cbc c437 61bc
000002d0: 1d30 cebc 1af3 a73c d3d4 eabc 392c 3cbc
000002e0: fb07 b83c 5667 73bc eb9c d5bc a11a 50bc
000002f0: 0ba9 fcbb 4a32 de3c 629d e13c 3354 c0bc
00000300: 081a c23c afb1 efbb 19ca 983c 94cc 8dbc
00000310: ae82 083d eb01 e4bc 80bd bebc 4672 933c
00000320: d066 dc3c b271 97bc 2aca cfbc a676 c73c
00000330: 3c7d febc daee 653c a67e e73c 625d 4cbc
00000340: bfb4 8c3c c083 f0bc 7b81 fbba d340 ccba
00000350: fde3 d6bc 80a3 e63b 51f1 b93b 1f0b f13c
00000360: 036f 65bc f289 0fbd e528 6bbc 5b04 f9bb
00000370: cc17 e6bc 11c7 90bc 32f3 acbc 9e2d 1fbb
00000380: e5b1 c7bc dbf7 cabc 3beb 31bc 00db edbc
00000390: d644 d93c b012 af3b 192e debc 44bf 11bd
000003a0: b89b f0bc 5e8f 463c 96a5 cebc 62f5 bf3c
000003b0: fff8 34bc d476 cfbc 8fcc 94bc 0c30 efbc
000003c0: 6543 02bc 9996 47b5 3810 163d 4f13 903c
000003d0: ba0f d7bb f722 0b3d ca98 9cb9 e049 4cbc
000003e0: 51c2 843c f414 633c 5ee1 eabb 3a04 14bc
000003f0: d096 fe3c 00a4 d33b c217 f53c 21b5 bb3c
0.021710228 0.032489944 0.028323667 0.0025188616 0.017415183 -0.02422783 -0.004965521 -0.024165452
0.03383022 -0.023353811 0.01892426 0.008925241 -0.034303904 -0.00460806 0.020607268 0.019416181
0.007504789 0.023657482 0.0015375192 0.005707163 0.026995623 0.0046624243 0.024024107 0.013250393
0.02511095 -0.020259276 -0.0016717705 -0.0019819657 0.006949732 0.03891967 -0.0052620787 -0.008073969
0.014818872 0.042701926 -0.004822081 -0.012265286 0.03914346 0.021412432 0.027886039 -0.009224823
0.026329838 -0.033163555 0.045246705 -0.0135903265 0.0021080684 0.021977568 -0.0017266925 -0.010325854
-0.0011055758 -0.012760619 -0.02343529 0.018812457 0.033063803 0.023005221 0.015201354 0.0137591
-0.005113691 -0.005964546 0.014109521 0.013148827 3.2526903e-05 -0.028180163 0.020125594 -0.029175425
-0.016578045 -0.021423932 0.012501811 0.02451466 -0.04081318 -0.019385416 0.00095030194 -0.03557546
-0.02197562 -0.016852245 0.0012755574 -0.030517288 -0.020793486 -0.029278269 -0.03225664 0.0043201605
0.028755981 -0.024144702 -0.029877516 0.020776087 -0.006790638 0.013214658 0.033488147 -0.0020567682
0.02041327 0.024779836 -0.00933287 0.026971195 -0.019752733 -0.004780221 0.008178939 -0.015562892
-0.023878947 0.033013407 -0.0041166428 -0.0065362616 0.034628663 -0.01676954 -0.014825237 0.014247207
-0.005638277 -0.013938472 -0.012600385 0.03591082 0.02966947 -0.008778691 0.009903712 0.014829788
-0.016490152 -0.022475896 0.013176777 -0.035601154 -0.0016358856 0.007346202 -0.0030920363 0.006301924
0.0221427 0.0043651485 -0.026647232 -0.021209598 -0.031810038 -0.006931908 0.015323529 0.026350552
-0.009992528 0.033085886 -0.01764573 -0.025539372 0.0028127816 0.031753376 0.020240894 -0.017246293
-0.02512732 -0.00066799734 0.0006425752 -0.01133721 -0.027404372 0.0001303838 -0.009106068 0.024778675
-0.020468391 0.025034415 -0.0036672803 -0.0049718665 -0.021851176 0.031163951 -0.018016664 0.0017794762
0.00032710933 -0.005938051 0.007268792 -0.0065522087 -0.008685094 -0.028133452 -0.0066448 -0.03003812
0.032192163 0.034172557 -0.018326279 -0.0070588775 -0.0128711425 -0.00025467054 -0.016610622 -0.025957786
-0.00056117517 -0.029225554 -0.0031292648 0.0063829236 0.008982288 -0.022793038 0.012139558 -0.0117329415
0.0061074346 0.020812418 -0.0085762935 -0.013746206 -0.025169427 0.020501662 -0.028665936 -0.011485153
0.022464743 -0.01485618 -0.0260758 -0.012701661 -0.007710581 0.027123589 0.027540866 -0.02347765
0.023694053 -0.0073148827 0.018651055 -0.017309465 0.03332775 -0.027832946 -0.02328372 0.017998826
0.026904494 -0.018486831 -0.025364954 0.024348568 -0.031065576 0.014033997 0.028258633 -0.012473436
0.01717603 -0.029359698 -0.0019188368 -0.0015583284 -0.02623176 0.0070385337 0.005674519 0.029424248
-0.014003518 -0.035043664 -0.014353012 -0.007599396 -0.02808752 -0.017673047 -0.021112058 -0.0024288665
-0.024376819 -0.02477639 -0.010859306 -0.029035091 0.026522081 0.005342804 -0.02712159 -0.035582796
-0.029371127 0.012119142 -0.025225442 0.023432437 -0.011045693 -0.025325216 -0.018163947 -0.029197715
-0.007950638 -7.4352425e-07 0.03663656 0.017587332 -0.006563154 0.033968892 -0.00029868475 -0.012468785
0.016205939 0.013859976 -0.007167979 -0.009034211 0.031077772 0.0064587593 0.029918555 0.022913517

nonreduce1_3.bias f4 [32]
00000000: 4683 033d e1ff 9dbb 54e5 4ebc 4134 cbbb
00000010: 76da b2bc c553 ed3c 7ba0 01bd ff67 823c
00000020: d17d 8e3c 4880 adbc fa7b 1b3c cc9d 0abd
00000030: 1ccb 1d3c a5ab 113d e096 473c cf40 99bb
00000040: 1e89 f1bb 83c9 84bc 6874 d73c ee8e 5e3c
00000050: 2820 703c c729 63b9 a528 6b3c 95ab 3fbc
00000060: cbfd 6abc a1b7 a83c dc0b 8c3c 16a1 daba
00000070: 291a 9abc a66f ea3c be1f c53b 14ae e8bc
0.032107614 -0.004821763 -0.012627918 -0.0062012975 -0.021832686 0.028970608 -0.031647187 0.01591873
0.017393978 -0.021179333 0.009490008 -0.033841893 0.009630945 0.035564084 0.0121819675 -0.0046769152
-0.007371082 -0.01620937 0.026300624 0.013583882 0.014656104 -0.0002166397 0.014352952 -0.011698623
-0.0143427355 0.020595374 0.017095499 -0.0016680087 -0.018811302 0.028617691 0.006015747 -0.02840332

reduce2.weight f4 [16, 32, 4, 4, 4]
00000000: 57b3 9abc acbb 0cbc 4fd4 36bc 7c35 8dbb
00000010: 55af 363c a7f0 43bc 50f6 c7bc 2ddd 36bc
00000020: b6ef acbc 9981 d6b9 1cb8 92ba b85f 353c
00000030: 6e69 07bc cbc3 6f3c 51d5 a9bc 81a7 8b3c
00000040: 8b98 253c 446a 61bc 3421 e5bc 5dab f63a
00000050: b394 e8bc 6e8f b13b 6912 02bd 4ff5 3e3c
00000060: 74af 7d3c bff4 623c d398 c5bb c8c4 363c
00000070: 015c a738 eab5 8abc 6026 c8bc 0c84 11bc
00000080: c988 cfba 9306 493c 735c 363c 07ef f9bc
00000090: f5ba 2ebd b2ec 8bbc 1d4d f7bc b1c6 e0bc
000000a0: 1a39 5fbc e95a 623b e502 77bc 207e 223c
000000b0: 54a4 10bc 433b cbbc 7658 aabc bc42 bbbc
000000c0: 2791 e7bc f37a 78bc 50f3 d53b 84b7 87bb
000000d0: 61e5 13bd 373d d03b 007c 74bc 04ae cfbc
000000e0: e1a3 3dbc 67f4 473c 6aa0 dd3b b68e 97bc
000000f0: c247 dbbb 9f63 9cbc 70b5 afbc 06d2 223c
00000100: 790c 3f3c 36b5 253c db82 93bc 1f84 8a3c
00000110: 38bb a33b 52dc 8c3c b990 af3c 0b3a 783c
00000120: 0ca2 c43c 495f 493c 98f0 823c e86e 783c
00000130: 3606 3dbc 7920 ab3c 3e2b 90b9 1504 9dbc
00000140: 8e44 60bb bb8f 263b 8298 633c f17c 4b3c
00000150: af17 9c3c 9371 a4ba b9f9 c9ba ae70 5cbc
00000160: 5dec 573c 6a27 a8bc e342 86b9 6b3a a2bc
00000170: eb21 83ba eb78 033c 08c3 b23b c8ef 463c
00000180: d8c0 40bc ae98 74bc ba84 933b 5e61 343c
00000190: 22ca 6e3c 3904 b1bb ff7a b43c 6432 9dbc
000001a0: adf8 2bbc c7c0 803c 6122 b63c 5947 233a
000001b0: 2466 9f3c bc94 9d3c f17a d6bb 7391 b33a
000001c0: 09ec a23b 0979 9dbc a870 54bc 191a b63c
000001d0: 2359 06bb 7049 eebb ea3c 80bc e344 563c
000001e0: dcc5 333c 1f28 783c b10d a0bc f9d0 0c3b
000001f0: f581 393b 94cc 7b3c 0f5b 843c 634e 763b
00000200: 2bd6 473c 9ff6 6bbc 7da6 863c a6ec 863b
00000210: ec56 81bc 22e5 4dbb 209a 80bc 5c97 963c
00000220: d1cc c4bb 9493 c53c 92e9 c03c 3613 be3c
00000230: 19ae 563b 5643 76bc 4373 2f3a 6232 4fbc
00000240: 180b 20bc 892c b03b 6ff8 4dba 9b2b 1b3c
00000250: e535 bc3a 7bab 35bc 7667 a63c 76bd 9eba
00000260: 920d 22bc 56fa 90bb 516d 66ba c7ff b038
00000270: 3023 5bbc d446 883b 4e74 f53a 9c9b b83c
00000280: 8d15 7e3c 5502 55bc c8e6 99bb f86f 9bbb
00000290: c8bb cb3b 5b67 b63b bd66 ddbb 2f88 aa3c
000002a0: d4c5 b33c 2b53 93bc 4143 9d3c e1db 8a3c
000002b0: 7541 65bc d374 943c 1638 82bc 5d3f a9bc
000002c0: cc81 e3bb c06f 63bc 044b f1bb 7c6c 913c
000002d0: db2e 79bc dfe4 a63a fc32 6abc 5a44 a13c
000002e0: 7360 b33c 4338 1ebc 545b e33b e677 223b
000002f0: ad82 e3ba 0afa 89bc 5373 45bc 3ba0 9b3c
00000300: 1107 8b3a c840 d0bb 5b1b 53bc 7d81 9dbc
00000310: be5e 903c 100d 3cbb e095 ac3c 49c8 3b3c
00000320: 1788 d1ba f5e8 f13b 4a49 9cbc c9b1 07bc
00000330: 8d62 643c f833 743b 5460 af3c 294d be3c
00000340: 1856 60bc 3f62 3abc b4b5 013c 1590 683c
00000350: c597 d8bb eea5 8d3c 2c98 95bb 717a e4ba
00000360: 5176 4cbc b5f7 35bc e60a 5a3c 2bae 0bbc
00000370: 93e1 51bc 00a7 88bb 982a bd3b 585d 4d3b
00000380: 4a36 303c 5ef8 9dbc 4c51 c53b 9f09 9b3c
00000390: b212 983c 7113 88bc 847e b3bc 65bc 2839
000003a0: 1631 d9ba 10ba fb3b 0416 abbc 3a97 5b3c
000003b0: f92b babb d87e a5bc b50f a1bc 3f15 663b
000003c0: 76ee 973b 499f 603c e1bc d739 04bf 673c
000003d0: 3094 483c f99e 0abc 628b c9bc 1ee2 96bc
000003e0: 64a4 18b9 10c4 89b9 024f 3f3c 4849 20bc
000003f0: e51b c6bc a158 d93b 11c6 b1bc d526 a7bc
-0.018884344 -0.008589666 -0.011159017 -0.0043093543 0.011150201 -0.011959231 -0.024409443 -0.011161131
-0.021110397 -0.00040913819 -0.0011193785 0.011070184 -0.0082648825 0.014634083 -0.0207316 0.017047646
0.01010717 -0.013758246 -0.027969934 0.0018819381 -0.028391218 0.0054187095 -0.03175584 0.011655166
0.015483726 0.013852297 -0.006030181 0.011155315 7.9803176e-05 -0.016932447 -0.024432361 -0.00888158
-0.0015833612 0.012269634 0.01113044 -0.030509485 -0.042658765 -0.017080639 -0.030188138 -0.027438493
-0.013624454 0.003453905 -0.015076374 0.009917766 -0.008828241 -0.024808532 -0.020794135 -0.02285897
-0.028267456 -0.015166032 0.0065292493 -0.00414175 -0.036107425 0.0063549536 -0.014922142 -0.025351532
-0.011574716 0.012204266 0.0067635076 -0.018500667 -0.006691904 -0.019090472 -0.02144882 0.009937769
0.011660689 0.010114005 -0.018006733 0.016908703 0.0049966834 0.0171949 0.021431314 0.015150557
0.024003051 0.012290784 0.015983865 0.015163161 -0.011537125 0.020889508 -0.00027498038 -0.019166986
-0.003422055 0.002541526 0.013891341 0.012419925 0.019054262 -0.0012546055 -0.0015409506 -0.013454599
0.013178912 -0.020526607 -0.00025608306 -0.019803246 -0.0010004615 0.008024435 0.0054553784 0.012142129
-0.0117647275 -0.01492898 0.004501906 0.011009542 0.014574559 -0.0054021147 0.022031305 -0.019189067
-0.010496301 0.015716923 0.02223319 0.0006228588 0.019457884 0.019235961 -0.0065454175 0.0013699963
0.0049719852 -0.019222753 -0.0129663125 0.022229241 -0.0020499907 -0.007271938 -0.015654046 0.013077947
0.010972466 0.015146284 -0.019537779 0.0021486862 0.002830622 0.015368599 0.016156701 0.0037583343
0.012197058 -0.014402061 0.01643681 0.004117566 -0.015788518 -0.0031417091 -0.015698493 0.01838272
-0.0060058613 0.024118222 0.023548875 0.02320252 0.003275758 -0.015030703 0.00066928955 -0.01264629
-0.00976827 0.0053764028 -0.0007857149 0.009470846 0.0014359324 -0.011088247 0.020313006 -0.0012110907
-0.009890931 -0.0044243736 -0.0008790093 8.439976e-05 -0.013375089 0.004158834 0.0018726678 0.022535138
0.015508068 -0.013001044 -0.0046967007 -0.0047435723 0.0062174536 0.00556652 -0.006756632 0.02081689
0.021944918 -0.017983994 0.019197108 0.01695055 -0.013992657 0.018122112 -0.015895884 -0.020660097
-0.006942963 -0.013881624 -0.007363679 0.017751925 -0.015208925 0.0012733004 -0.014294382 0.019685913
0.021896577 -0.0096569685 0.0069383774 0.0024790703 -0.001735767 -0.01684286 -0.012051421 0.018997302
0.0010606964 -0.006355379 -0.01288494 -0.019226784 0.017623302 -0.002869431 0.02106756 0.011461326
-0.0015985993 0.007382507 -0.019077916 -0.008282133 0.013939512 0.003726242 0.021408238 0.023230152
-0.013692401 -0.011375963 0.007916857 0.014194508 -0.006609889 0.017291036 -0.0045652594 -0.001743151
-0.012479381 -0.011106421 0.013308262 -0.008525412 -0.012810129 -0.0041702986 0.0057729 0.0031336155
0.010755131 -0.01928347 0.0060216542 0.018925486 0.018563602 -0.016610833 -0.021910913 0.00016091911
-0.0016570415 0.0076820925 -0.020884521 0.013402754 -0.0056815115 -0.020202085 -0.01966081 0.0035107879
0.004636581 0.013709852 0.0004114872 0.014144663 0.012242362 -0.008460754 -0.024602596 -0.018418368
-0.0001455709 -0.00026276754 0.011676552 -0.009783097 -0.024183223 0.00663288 -0.02170089 -0.020404259

reduce2.bias f4 [16]
00000000: f12b a53c cc8e b83a 27dd a3bc 9d31 a2bb
00000010: 1629 bdbb 417d 3f3c cb86 873c 339c 19ba
00000020: 2378 ad3c 9676 943c 9cbc 6bbb 9801 c2bc
00000030: 8fc2 d23b 1736 7b3c 5ee9 8d3c d0d0 a1bc
0.020162554 0.0014080643 -0.020002915 -0.004949762 -0.00577272 0.011687578 0.016543766 -0.00058597623
0.02117545 0.018122952 -0.0035970574 -0.0236824 0.0064318846 0.01533272 0.017323192 -0.01975289

nonreduce2_1.weight f4 [16, 16, 3, 3, 3]
00000000: 2ffe ab3b fa62 223d 032b 63bc 5b6c 17bd
00000010: 2423 31bd 2d2c 49bd 1409 0d3d cb61 efbc
00000020: 9096 3ebc 8783 2c3d 1958 d937 7cdf 27bd
00000030: 1458 1ebd 6ccb c43c ec49 e03c 6fa9 823c
00000040: 454c d73c ce1f 83bc cb95 fcbc 3321 f13c
00000050: 3139 b83c 8e62 b3bc b7d1 2abd 00e1 343d
00000060: a054 7dbc f6af de3c f0fa 833c 0ac5 1f3d
00000070: 26c7 0fbd 4e90 c53c 8b2f 3fbd 2117 e83c
00000080: 707d 2cbd 8cb2 91bc eb64 d1bc 9750 1abc
00000090: 5510 d0bc 9efd f93b e725 c9bb fc3d 443c
000000a0: efee 55bc 23ae 9ebc 72e6 abbc adf9 7fbc
000000b0: 322a 2bbd 4579 4f3d 2957 b23c 8a4d 2d3d
000000c0: 9d96 a23c 6c9e a9bc 9eb4 bc3c 3329 b63c
000000d0: f14d 97bc 5b23 153d b53c edba 09fd 953c
000000e0: 3bf8 da3c 2dde 32bd 9d9e e93c 9265 fa39
000000f0: 5bc0 55bd dbd3 25bd 45d1 3abd 2a45 c9bc
00000100: 218c 303d b5de b13c 4a86 aabc 7bc0 bfbc
00000110: 5abe 993c 88c5 2cbd 3aec 19bd c5f9 dfbc
00000120: c9e3 1a3d 5874 91bb 3bea 12bd 0395 40bd
00000130: 60d4 b1bb b426 853b b991 9e3c 1e10 a93b
00000140: cb83 0cbd 8476 8ebc 3950 0ebd 8862 ed3c
00000150: 04f3 a6bc 03bc 1ebd 9b59 02bd f213 10bd
00000160: 1602 aabc fa2f 1f3d c3b2 213d 7246 073d
00000170: b4c4 b43c ae0a f03c e4f3 cf3c 32af 9dbc
00000180: 27c4 40bc d946 223d 16bc 82bb 4383 be3b
00000190: c4e7 003d d50c babb 8e53 08bd 69b0 f83c
000001a0: 463b 30bc 49be 003d e2e8 3abc b5dd 2bbd
000001b0: a4f4 09bd d5b4 ccbb bd4d ddbc 76e4 453d
000001c0: f255 b23a ab95 2e3d 4926 3bbd 8f80 3fbd
000001d0: a42f 3e3d d0d6 dabc ebd3 a93c 0b99 b53c
000001e0: c3dd b43b dfa1 21bd 3907 07bd 5704 f8bc
000001f0: ba19 1fbd 3d96 333d 88d7 35bc 4649 ecbc
00000200: e999 36bd b628 06bd e2ff de3c 4ad5 e53c
00000210: 4b15 2a3c 7bbf 2abd c3a1 473d 216a f6bc
00000220: 43fd 91bc e3b6 91bb cf38 69bc 54e6 2fbd
00000230: 4bbb efbc 9e4a c73b 9e1f e53c 777f 123d
00000240: efdf 353d 2b06 ed3b 0520 1cbd 497d e9bc
00000250: 2317 063c f896 a9bc 85d1 453d c2b6 033d
00000260: 450d 28bd cac4 f63b 219e 8cbc 7c3c 2c3d
00000270: 21ef c7bc 75ca 3e3d c726 6cbc d011 3d3d
00000280: f266 e23c 2259 3e3d 01a4 f3bc e9aa 723b
00000290: 65d6 c0bb fa81 103d 5dce 423c cd67 a0ba
000002a0: 3408 493d f94c 743c 8baa e93b d135 8b3c
000002b0: 21a9 3c3d 7028 d43b af93 da3c 0cc3 a23c
000002c0: fe39 1bbc 4ed5 fd3c 297a 133d 1a31 ebbc
000002d0: 7779 023c 251c f439 23cc f93c 9ad6 f2bb
000002e0: adf6 333c 21f2 47bd 9423 3dbd 5462 28bc
000002f0: b212 003c 69b2 00bd e634 ec3c d1eb 0e39
00000300: 4537 27bd 2cdd 463d 69a6 9e3b 730c a1bb
00000310: 0bbf dcbc 5eac b23b 6557 103d c762 22bb
00000320: 3390 cf3c 5b01 3ebd c7e2 13bd 985f d43c
00000330: f551 593c d11f 243d b1e8 ddbc 8f07 053d
00000340: bfcd 263b ab57 f0bc 411c 92bc ec8d 4d3c
00000350: 577e 2abb 9a2a 1ebd b285 17bc dd49 d5bc
00000360: 9617 23bd 1c19 a83b 5c06 243d 4422 363a
00000370: bca1 ddbc eeef 103d 1570 a0bb 36b7 243d
00000380: 6078 ce3c 80a7 e3bc c79b f439 2ce3 993c
00000390: 31bf d03c b13c c1bc 3f80 68bb c541 ccbc
000003a0: b53b afbc 640c 50bd c152 003d 58f6 4b3b
000003b0: ccbf 5d3d 8014 36bc 459c 463d a07b 123d
000003c0: c94c 193d 3468 dcbc de32 5e3d 3e0e 3d3d
000003d0: 7246 02bd 5d2b 0fbc 7132 2c3d d6b8 93ba
000003e0: 2090 5b3c e322 48bd a425 e23b ac62 e2bc
000003f0: d526 01bd 8064 42bd d467 fabc 05e6 9d3c
0.005248807 0.039645173 -0.013865235 -0.03696857 -0.043246403 -0.049114395 0.034432486 -0.029221436
-0.011632577 0.04211762 2.590944e-05 -0.040984616 -0.038658217 0.02402278 0.027378999 0.015949933
0.026281485 -0.016006377 -0.030833146 0.029434776 0.022488208 -0.02189758 -0.041703906 0.04415989
-0.015462071 0.027183514 0.016110867 0.03900627 -0.035102032 0.024116661 -0.0466762 0.028331341
-0.042111814 -0.017785333 -0.025560817 -0.009418628 -0.025398413 0.0076291105 -0.0061385515 0.011977669
-0.0130574545 -0.019370144 -0.020983908 -0.015623492 -0.041788287 0.05065276 0.021770077 0.042310275
0.019847209 -0.020705424 0.023035344 0.022236442 -0.018469783 0.03641067 -0.0018099757 0.018309133
0.026729694 -0.043668915 0.028518016 0.00047759392 -0.052185398 -0.040485244 -0.04560973 -0.024569113
0.043102387 0.02171264 -0.020815987 -0.023407212 0.018767525 -0.042180568 -0.0375788 -0.02734078
0.03781489 -0.004438918 -0.03586791 -0.04701711 -0.0054269284 0.0040634517 0.019356595 0.005159392
-0.034305375 -0.017390497 -0.034744475 0.028977647 -0.02037955 -0.03875352 -0.031823736 -0.03517527
-0.020752948 0.038864113 0.03947712 0.033026166 0.022066452 0.029301967 0.02538485 -0.019248579
-0.011765516 0.039618347 -0.0039897067 0.0058139875 0.03147103 -0.005677799 -0.03328281 0.030357556
-0.010756319 0.03143147 -0.011408063 -0.041959483 -0.033680573 -0.006247143 -0.027014608 0.04831358
0.0013605936 0.042623203 -0.04569081 -0.046753462 0.046432152 -0.026713759 0.020730933 0.022167703
0.0055196 -0.039461013 -0.032965872 -0.030275507 -0.038842894 0.04384445 -0.01109875 -0.028843533
-0.044580374 -0.03275367 0.027221624 0.028055806 0.010381053 -0.041686516 0.048738252 -0.030079903
-0.01782096 -0.0044468506 -0.014234736 -0.042944267 -0.029264113 0.006081893 0.027969178 0.03576609
0.044403013 0.0072334013 -0.038116474 -0.028502123 0.008184227 -0.02070187 0.048295517 0.032156713
-0.04102828 0.0075307833 -0.017165245 0.04204987 -0.024406018 0.046579797 -0.014413542 0.046159565
0.027636979 0.046471722 -0.02974129 0.003702814 -0.005884933 0.035280205 0.011890021 -0.0012237966
0.04908009 0.01491093 0.007130926 0.016993435 0.04605973 0.006474547 0.02668175 0.019868396
-0.009474276 0.0309855 0.036005173 -0.028709937 0.00796353 0.00046560276 0.030492848 -0.0074108364
0.010984105 -0.048814896 -0.046176508 -0.0102773495 0.007816957 -0.031420145 0.028833818 0.00013630024
-0.040824194 0.04855077 0.004841615 -0.004914814 -0.026946565 0.0054526767 0.035239596 -0.0024778114
0.025337314 -0.04638801 -0.036104944 0.025924489 0.013264169 0.040069405 -0.027088495 0.03247791
0.0025452224 -0.029338678 -0.017835738 0.012546044 -0.0026015246 -0.038614847 -0.009248184 -0.026036197
-0.039817415 0.0051299464 0.040045127 0.0006947855 -0.02705466 0.035385065 -0.0048961737 0.040213786
0.025203884 -0.027789831 0.0004665537 0.018785082 0.025481792 -0.02358851 -0.0035476831 -0.024933705
-0.021390775 -0.050793067 0.03132892 0.0031122174 0.05413799 -0.011113286 0.048488874 0.03576243
0.037426744 -0.026905157 0.05424773 0.04615616 -0.031805463 -0.008738366 0.042040292 -0.0011270295
0.013401061 -0.048861396 0.00690146 -0.027634941 -0.031531174 -0.047459126 -0.030567087 0.01927472

nonreduce2_1.bias f4 [16]
00000000: 9aec 39bd 6457 32bc 12a5 283d 063e 01bd
00000010: bbc2 423d ef3d 24bd cfe9 80bc b4e2 803c
00000020: 0176 4b3d 2499 14bd 85ce 18bb 8947 923c
00000030: 37f9 33bd cbd5 2d3d f09a f9bc 432e 23bd
-0.045391656 -0.010885093 0.04117305 -0.03155329 0.04754899 -0.040098127 -0.015736489 0.0157331
0.049673084 -0.03627886 -0.0023316455 0.017856376 -0.04393884 0.042440217 -0.030469388 -0.03983904

nonreduce2_2.weight f4 [16, 16, 3, 3, 3]
00000000: 7f1f 92bc ed36 2cbd dd41 34bd c634 25bc
00000010: 538a 2ebd 8204 a2bc 115f 8cbc bc0c a03c
00000020: 9e88 d3bc 8549 11bc b953 cb3b 5c52 73bc
00000030: f1dd a1ba b231 8b3c 719b fe3c e35d db3c
00000040: 14e2 34bd 402e 35bc 2506 e4bc 8c64 393b
00000050: 8b71 ecbc 8dfe 4bbd 67b8 683c 440e 0ebd
00000060: 4902 01bd d2c9 a6bc 327e 343d a709 2e3c
00000070: cd41 f43b f773 88bc 7983 e8ba 4129 d1b9
00000080: c9dc bbbc 140f 1f3c 08a4 7dbc d951 fe3c
00000090: a228 8abc a886 56bc fe7e 4a3d 1cd7 de3c
000000a0: 0b05 cf3c 7e7d 2f3b 5fad 1cbd e213 b3bc
000000b0: 7b86 0ebd 7602 a6bc 0c01 8d3c 4c60 923b
000000c0: 4da9 8dbc 9537 e3bc 8054 833c d476 1e3d
000000d0: 3af4 a8bb e071 ddbc 2b88 8c3c 38ac 2d3d
000000e0: cf2b c33b 194f dcbc 4ad5 0bbd 4d40 08bd
000000f0: 10d8 193d 684b 3e3d 657c 373d 36b5 eabc
00000100: dc3f 6ebc 9d6b 2f3d 61e8 e9bc 8743 d23c
00000110: b82a 2c3d d923 03bd a44d 7bbc 6fab 0e3d
00000120: dab4 1d3d ab47 c8bc f28e 353d 068e 313c
00000130: e6a9 ebbc 6481 bd3b b432 0fbc a8c5 333c
00000140: 0fa5 fb3c a2e8 bdbc ed1e 3fbd 12e5 2c3d
00000150: 1318 7cbb 1a26 403d c4a5 373d f79a 5ebb
00000160: ca77 bb3c 6249 363c 3e4b f53c 7ac9 2f3d
00000170: edbf 0bbd 9520 ecbc 4b2d abbb 057f 1fbc
00000180: 58fe 133d d41e 0f3c 2018 24bd ed45 25bd
00000190: b184 043d 42dc 5b3b 26e9 f2bb 94bc d53c
000001a0: bd89 24bd b599 cf3b 86b1 e1bb a77c 2abd
000001b0: c3cd 903c 00b7 c0bc fc78 c2ba 6ed3 003d
000001c0: a9db 803c 9f05 223d 31fc 093d 0a26 93bb
000001d0: 73c8 64bc f208 a2bc 4bd8 173d 78fa 1ebd
000001e0: ae20 17bd 109e acbb 5698 5d3c cb9c 38bd
000001f0: 47f5 d6bc bd4b bebb 81ba 76bc b664 313d
00000200: 8b8b 483c ff48 bd3a 6e73 643b 8bd9 5eba
00000210: a91d bc3b 9ef7 ebba 2fe8 fa3b 060c 2e3d
00000220: 4703 81bc 4b67 8d3c 8c4d 2c3a e496 8b3c
00000230: 93d9 be3c dec7 6a3c 96ee 4b3d 90eb 06bd
00000240: 2bea 94bb 45a0 eebb 26c4 ec3c 5bfa 043d
00000250: a711 0d3d 9a92 903c 2024 253d 7c4c 223b
00000260: 9b10 9fbc c875 dd3c 539f 03bd 70ef 2bbd
00000270: ba3c 0cbc fb43 fe3c e9ce 34bd acb6 0abd
00000280: 962b cbbc 006e 3e3d 7d07 e4bc 63cc 29bd
00000290: 4c25 843c 8262 d63c d1c1 5abb e42a 33bd
000002a0: b4d5 a9bc 06ad 9dbc d3a1 40bd 565e 3abd
000002b0: 599f 57bc 284d 8bbc d993 9d3c f71f 413d
000002c0: a4ce 183d b83e f73b 4bcf 83bc ef29 433d
000002d0: b3e7 133c 99b7 263d e860 09bc fe39 37bd
000002e0: a73e d33c 7fc4 523c 6490 793c 3914 44bd
000002f0: 4690 25bd 7509 423d f5f3 2bbd bf94 9c3c
00000300: 7134 893d ef6a ffbc 01ba b83c 2efe 2f3d
00000310: 1bd3 05bd b9e3 0e3c 707c 9abc 6195 14bd
00000320: cb52 82bc 4c34 063c 98d7 a0bb 6e19 ef3b
00000330: 4f10 94bc 09b9 1fbd 0ca4 01bb 1632 103c
00000340: ad5e ddbc b15b 1b3b 9adf 243d d669 2abd
00000350: ad34 323d bb73 c53c b1b0 e2bc 8acb 9f3c
00000360: 6d42 c63c c705 253d c7f7 33bd 8561 f1bb
00000370: 8879 233d 0d71 abbc bedc 1ebd 0145 95bc
00000380: 2b68 5fbb e050 213d ad15 08bd 270f 323d
00000390: 056f 65bc 2e68 fabb fb6d 05bd 05cb 7bbc
000003a0: ec66 383d cada 4dbc 9ff8 013d 7d52 2e3d
000003b0: 6715 033c 82a3 2bbd c83e 7e3c 8322 2fbc
000003c0: 7b74 32bd cab7 81bc 3934 c63a 6da0 133c
000003d0: 39fd 3cbc 77a6 1b3b b040 b1bc 9ffc dfbc
000003e0: 447d 243d 9e4e ed3b 0a39 d1bc 43a8 053d
000003f0: b4ac ec3c df1b 82bc 123c 433c ce47 fcbc
-0.017837284 -0.04204457 -0.044008125 -0.010083383 -0.042612385 -0.01977754 -0.017135175 0.019537322
-0.02582198 -0.008867626 0.006205049 -0.014851179 -0.0012349469 0.01699147 0.03107998 0.026778167
-0.044160917 -0.01105839 -0.027834961 0.002828869 -0.028862735 -0.049803305 0.014204121 -0.034681574
-0.03149632 -0.020359907 0.04406566 0.0106224185 0.007454133 -0.016656859 -0.0017739377 -0.00039894323
-0.022932427 0.009708185 -0.015481003 0.031044887 -0.016865078 -0.013093628 0.049437515 0.027202182
0.02527096 0.002677768 -0.038251277 -0.021860067 -0.03479622 -0.020264845 0.017212413 0.004467046
-0.017292643 -0.027736465 0.016031504 0.038687542 -0.005156067 -0.027031839 0.017154774 0.04240057
0.00595615 -0.026893185 -0.034138955 -0.033264447 0.03755957 0.04645863 0.044796366 -0.028650861
-0.014541592 0.042827237 -0.02855319 0.025666965 0.042032927 -0.03201661 -0.015338335 0.03483146
0.03850255 -0.024448236 0.044325776 0.010837084 -0.028767537 0.005783247 -0.008740116 0.010972418
0.030718355 -0.023182217 -0.046660352 0.042210646 -0.0038466498 0.046911336 0.04483582 -0.0033966878
0.022884268 0.011125894 0.029943105 0.042916752 -0.03411858 -0.02882413 -0.005223905 -0.009734874
0.036131233 0.008735377 -0.04006207 -0.04034989 0.032353107 0.0033548032 -0.0074130474 0.026090898
-0.04017042 0.006335462 -0.0068876175 -0.041622784 0.01767624 -0.023524761 -0.0014837082 0.031451635
0.015729742 0.039556142 0.033687774 -0.0044906186 -0.013963806 -0.019779656 0.037071507 -0.038813084
-0.0368964 -0.005267866 0.013525089 -0.045071404 -0.026240004 -0.0058073686 -0.015059114 0.043308936
0.012240301 0.001444131 0.003485884 -0.00085010444 0.0057408405 -0.0018002873 0.007657073 0.042491935
-0.015748633 0.017261168 0.00065728347 0.017039724 0.023297107 0.014329879 0.04978808 -0.032939494
-0.0045445166 -0.007282289 0.028902125 0.03246532 0.034440663 0.01764803 0.040317655 0.0024764827
-0.019417098 0.027033702 -0.032134365 -0.041976392 -0.0085594 0.031038275 -0.044142637 -0.033865616
-0.024801057 0.046491623 -0.027835602 -0.041454684 0.016131066 0.026170019 -0.0033379684 -0.043742076
-0.020731784 -0.019247543 -0.047029328 -0.045500122 -0.01316055 -0.017004564 0.019235538 0.047149625
0.037306443 0.0075453185 -0.016090056 0.047647413 0.009027409 0.040702436 -0.008384921 -0.04473304
0.02578671 0.012864231 0.015232179 -0.04787085 -0.040420793 0.0473723 -0.041980702 0.019113896
0.066994555 -0.03117892 0.022549631 0.042967014 -0.03267203 0.0087212855 -0.018858165 -0.03627527
-0.01590862 0.0081911795 -0.0049085133 0.0072967326 -0.018074183 -0.038994823 -0.0019781617 0.008801004
-0.027022684 0.0023705775 0.040252306 -0.04160484 0.043507267 0.024103036 -0.027672144 0.019506235
0.024201596 0.040288713 -0.04393747 -0.0073663616 0.039910823 -0.02092793 -0.038784735 -0.01822138
-0.0034089189 0.03938377 -0.033223797 0.04347148 -0.01400352 -0.0076418137 -0.03257559 -0.015368228
0.04502003 -0.01256437 0.031731244 0.042559136 0.008000708 -0.04190398 0.015517898 -0.010689381
-0.043568116 -0.015834708 0.0015121765 0.009010416 -0.011534982 0.0023750344 -0.02163729 -0.027342139
0.040158525 0.007242038 -0.025539894 0.03263117 0.028890945 -0.01588243 0.011916177 -0.030795958

nonreduce2_2.bias f4 [16]
00000000: 6d3d 523b 876e 71bc 02ff 263c 5ae8 8bbc
00000010: 514f e83c d5b7 a5bc 9235 b73c a1b9 42bd
00000020: 41fa 523c fb46 f0bc 2a22 d1bc b0b3 54bc
00000030: 0245 553a ac9c da3c 355a 893c 3ad7 3c3d
0.003208007 -0.014735824 0.010192635 -0.017078567 0.028358134 -0.02022926 0.022364412 -0.04754031
0.012877048 -0.029330721 -0.025528986 -0.012982294 0.0008135588 0.026686035 0.016766647 0.046103694
