02_deep3D/model/model_H.pt (torch, 739400 bytes, 25 tensors)

reduce1.weight f4 [64, 1, 4, 4, 4]
0	0x3cea0c0a	0.028570194
1	0xbd8e7e70	-0.0695771
2	0x3d62f619	0.05541048
3	0x3d23a25b	0.039949756
4	0xbd360925	-0.044442315
5	0x3cc8dcc5	0.024519334
6	0xbb90bf9b	-0.0044173724
7	0x3dfb605e	0.1227424
8	0xbdd31f4f	-0.10308706
9	0x3d064cfc	0.03278826
10	0x3d1ab270	0.037767828
11	0x3df27705	0.118391074
12	0x3bdf6b96	0.006818245
13	0xbd07e03e	-0.03317284
14	0xbb6b4bc2	-0.003590331
15	0x3dba53e8	0.09098035
16	0xbd04c223	-0.032411706
17	0x3c1ad9c7	0.009451336
18	0xbcdd5f93	-0.027023112
19	0x3b974fdf	0.0046176757
20	0x3dfa65a9	0.122264214
21	0x3bc59606	0.006029847
22	0x3ac01227	0.0014653847
23	0x3a8db709	0.0010811995
24	0xbdca2cde	-0.09871839
25	0x3dbd6807	0.09248357
26	0x3dc2adad	0.09505782
27	0xbdec0a3d	-0.1152539
28	0x3cd864cb	0.02641525
29	0x3d1f45c6	0.0388849
30	0x3d9e3ac9	0.07726056
31	0xbdd5e657	-0.104443245
32	0x3db682b7	0.08911651
33	0x3b0eeeb3	0.0021809756
34	0xbd261ad0	-0.040552914
35	0xbda6ca1b	-0.08144017
36	0x3cb140d6	0.021637361
37	0xbcdfcc83	-0.027319198
38	0xbdf6392d	-0.12022624
39	0xbd0a2be2	-0.033733256
40	0x3cbcafdc	0.023033075
41	0xbceaf24e	-0.028679993
42	0xbddc5ac4	-0.107595
43	0xbd71af0d	-0.059004832
44	0xbdceb7be	-0.1009364
45	0x3de22712	0.11042608
46	0xbccbd911	-0.024883779
47	0x3dc96362	0.09833409
48	0x3d940a1b	0.0722849
49	0xbd2b595f	-0.041833278
50	0x3ced4051	0.028961333
51	0x3d0dded6	0.03463634
52	0x3db011d7	0.08597153
53	0xbd3a42c8	-0.045473844
54	0xbcc59f43	-0.024123793
55	0x3cb61ce8	0.02223058
56	0x3cf39116	0.029732268
57	0x3acb026b	0.0015488392
58	0x3da7bf57	0.08190792
59	0xbdcde994	-0.10054317
60	0x3d51f99c	0.051263437
61	0xbce4b8ae	-0.027920093
62	0xbd8ab262	-0.06772305
63	0x3bcebfd4	0.006309489
64	0x3c8f0a83	0.017461067
65	0xbdfab1b6	-0.12240927
66	0xbd2642a9	-0.040590916
67	0xbd73bba6	-0.059505127
68	0x3c902be3	0.017599052
69	0xbd9b1eba	-0.0757422
70	0x3d1d93ab	0.038470905
71	0xbd14d96a	-0.036340155
72	0xbc7ec1ba	-0.015549118
73	0x3dd2f09e	0.102998
74	0xbd8a7ae8	-0.06761724
75	0xbd1a6e4b	-0.03770284
76	0x3ce5d0cd	0.028053666
77	0xbde0e474	-0.10981074
78	0xbdbce513	-0.0922338
79	0x3d5fb369	0.05461446
80	0x3db1edfc	0.0868797
81	0x3de1bea1	0.11022688
82	0xbd597182	-0.053086765
83	0x3dba0c0c	0.09084329
84	0x3daeb0c2	0.085298076
85	0xbb0c4a46	-0.0021406575
86	0xbd421028	-0.04737869
87	0xbd2a61bd	-0.041597117
88	0xbdb14c95	-0.08657185
89	0xbd24479f	-0.040107366
90	0xbdd68b7b	-0.104758225
91	0x3d0ee7a7	0.03488889
92	0xbcb7fda4	-0.022459812
93	0x3c3a341e	0.011364965
94	0xbd55dcaa	-0.052212395
95	0xbd700f84	-0.058608547
96	0xbdf2d4fa	-0.11857028
97	0x3d1fb962	0.038995154
98	0xbc320189	-0.010864624
99	0xbdc3877d	-0.09547327
100	0x3abe63b2	0.0014525561
101	0x3c4cc14f	0.01249726
102	0xbdb9e855	-0.09077517
103	0xbda1fe94	-0.07909885
104	0x3cfdd407	0.030984892
105	0x3d12ba8c	0.035822436
106	0xbdc4bd76	-0.09606449
107	0x3d5cd22c	0.053911373
108	0x3dc72f28	0.09725791
109	0x3decee84	0.11568931
110	0xbcbc51fa	-0.022988308
111	0x3c26cae9	0.0101802135
112	0xbc3a0244	-0.011353079
113	0xbd038939	-0.032113288
114	0xbd96fd9a	-0.073725894
115	0xbd5147b8	-0.051093787
116	0xbd6175cb	-0.055043977
117	0x3d889176	0.066683695
118	0xbdb87387	-0.0900641
119	0xbd9eaf8f	-0.07748329
120	0x3dd2b1c5	0.10287813
121	0xbddb2c1b	-0.10701772
122	0xbcbcc3d1	-0.023042591
123	0xbd2da1b7	-0.04239055
124	0x3d37055b	0.04468284
125	0xbdf6be77	-0.12048047
126	0xbbe105a4	-0.0068671275
127	0xbcf81fae	-0.030288544
128	0xbb879666	-0.004137802
129	0xbdcdb067	-0.10043412
130	0xbd72e8df	-0.059304114
131	0xbd8180d5	-0.06323401
132	0x3d5f99b2	0.054589935
133	0x3da8de68	0.082455456
134	0xbda5105f	-0.08059763
135	0x3d56ba7a	0.05242393
136	0xbca3ef82	-0.020011667
137	0x3b04708d	0.0020208687
138	0xbdf87168	-0.121310055
139	0xbcec4313	-0.028840577
140	0x3dceaadd	0.10091183
141	0x3d9cd605	0.076580085
142	0x3dd89d1e	0.10576843
143	0xbdcff368	-0.10153848
144	0xbca984a1	-0.020693125
145	0xbbcff33c	-0.0063461345
146	0xbb9b0819	-0.00473119
147	0x3cfaa216	0.030594867
148	0xbd88a371	-0.06671799
149	0x3d113ccf	0.035458382
150	0xbde0f4e4	-0.10984209
151	0xba7a4214	-0.00095465896
152	0x3d3cb464	0.04607047
153	0x3d251713	0.04030521
154	0x3d248473	0.040165376
155	0x3c76c495	0.015061517
156	0x3d466d92	0.04844434
157	0x3d30e2b6	0.04318496
158	0x3db0f5df	0.08640646
159	0x3dec736b	0.11545452
160	0xbdf199f2	-0.11796941
161	0x3d8d49b3	0.06898823
162	0x3db602e9	0.08887274
163	0xbdf07238	-0.117405355
164	0x3d4eda5c	0.050501212
165	0xbd1611d9	-0.036638115
166	0xbbe652ec	-0.007028928
167	0x3c209226	0.0098004695
168	0x3dde1414	0.10843673
169	0x3df28b3f	0.11842965
170	0x3dd096ee	0.101850376
171	0xbc8d0b85	-0.017217407
172	0x3d7b13a8	0.061298043
173	0x3d0a09d9	0.033700798
174	0xbd810e64	-0.06301573
175	0x3d9afa65	0.0756729
176	0xbd89b114	-0.06723228
177	0xbe010a35	-0.1260155
178	0xbcbbd442	-0.02292836
179	0xbccc1a2e	-0.024914827
180	0xbdc1e4ed	-0.09467492
181	0x3d75decb	0.060026925
182	0xbc9fa3fe	-0.019487377
183	0xbdbe4015	-0.092895664
184	0x3ddb8b44	0.10719922
185	0xbdee5232	-0.11636771
186	0x3d6cc6d6	0.057806812
187	0xbdbf6289	-0.09344966
188	0xbcd84142	-0.026398305
189	0xbd84f615	-0.06492249
190	0x3dcc2276	0.099675104
191	0xbdc46ec9	-0.09591443
192	0xbdaceabc	-0.084432095
193	0x3db63607	0.08897024
194	0xbdf87eb7	-0.12133544
195	0x3de851d5	0.11343733
196	0x3d54b8b9	0.051933978
197	0xbd8537c8	-0.0650478
198	0xbde3ec18	-0.11129016
199	0x3cf06b95	0.029348174
200	0x3cc45bc1	0.023969533
201	0xbd35fa17	-0.044427957
202	0xbd9dc816	-0.07704179
203	0xbdeb3104	-0.11483958
204	0xbc59df50	-0.013297871
205	0xbd8c40fa	-0.06848331
206	0xbcdfecac	-0.027334534
207	0xbdcdf11e	-0.10055755
208	0x3d4df30a	0.05028061
209	0x3d7ea084	0.0621648
210	0x3da5e381	0.081000336
211	0x3dbf4b63	0.09340551
212	0x3daac4d5	0.08338324
213	0xbd70ec4f	-0.05881911
214	0xbd9a092a	-0.07521279
215	0x3d3c7952	0.046014138
216	0xbdb1254f	-0.08649694
217	0xbdad8119	-0.08471889
218	0xbcaf3671	-0.021388264
219	0x3db4d3d0	0.088294625
220	0xbd4d06e0	-0.050055385
221	0x3df52c84	0.11971381
222	0x3d0fb268	0.03508225
223	0x3d3a89d2	0.045541592
224	0xbdf7b06e	-0.12094198
225	0x3d7fb193	0.062425207
226	0xbdd9820a	-0.10620506
227	0x3d00f112	0.031479903
228	0xbd17c8c2	-0.037056692
229	0xbd7f0f98	-0.06227073
230	0xbcbcb8f6	-0.023037415
231	0xbde29ea9	-0.11065418
232	0x3dfe46b9	0.12415833
233	0xbbe57cf1	-0.0070034196
234	0x3db84ad4	0.08998647
235	0x3d8f99a6	0.07011728
236	0xbc196f67	-0.009364939
237	0x3df10b90	0.117697835
238	0x3dfe2d7c	0.12411019
239	0xbccedfb4	-0.025253154
240	0xbcf8e700	-0.030383587
241	0x3b8c5e2e	0.004283688
242	0x3df053c3	0.11734726
243	0x3d9585a9	0.07300884
244	0xbc5d9f13	-0.013526696
245	0x3d98ebc3	0.07466843
246	0xbdd62b31	-0.10457457
247	0x3cf78916	0.030216735
248	0x3d15b684	0.036551014
249	0xbdab466c	-0.08363041
250	0x3cbc2fe7	0.02297206
251	0x3d8e8d8c	0.06960592
252	0x3dc86efd	0.09786794
253	0xbc99a8bb	-0.018757215
254	0x3d986ab5	0.07442228
255	0x3def270d	0.1167737

reduce1.bias f4 [64]
0	0x3db66e2d	0.08907733
1	0x3da46379	0.080267854
2	0xbdcac611	-0.099010594
3	0xbd450f0f	-0.048110064
4	0x3dd0e43e	0.10199784
5	0xbd6560a4	-0.056000367
6	0xbdd8e5ce	-0.10590707
7	0x3da8f791	0.082503445
8	0x3d2163f7	0.039401975
9	0xbd94c830	-0.07264745
10	0xbcf07e4b	-0.029357096
11	0x3daf43c3	0.085578464
12	0xbcbfb924	-0.023403712
13	0x3dcf8586	0.101328894
14	0xbc629527	-0.013829506
15	0xbbc9ba01	-0.0061562066
16	0x3c3bf8dd	0.011472908
17	0x3d98fe74	0.07470408
18	0x3d9125ab	0.07087263
19	0xbd79d5fc	-0.060995087
20	0x3bfb3726	0.0076664863
21	0x3cac6379	0.021043526
22	0xbd8eac7e	-0.06966494
23	0xbd9fa04e	-0.077942476
24	0x3deb2b83	0.114829086
25	0x3db8dbb1	0.09026278
26	0xbdd309d6	-0.103046104
27	0x3b147e68	0.0022658352
28	0x3d4dae89	0.050215278
29	0xbc9f1d6e	-0.019423213
30	0x3d055187	0.032548454
31	0xbda117d8	-0.07865876
32	0xbd0d4586	-0.03449013
33	0x3d9853b8	0.07437843
34	0xbd92959c	-0.07157442
35	0xbd28856e	-0.041142873
36	0x3b9b51fd	0.0047399984
37	0x3db98449	0.090584345
38	0x3d73e3b6	0.059543334
39	0x3dfa4fb4	0.122222334
40	0x3db8525b	0.09000083
41	0xbd12e9b8	-0.035867423
42	0x3cf4d30b	0.02988579
43	0x3deb2d61	0.11483265
44	0xbdccd4af	-0.10001504
45	0xbd388310	-0.045046866
46	0x3a989018	0.0011639623
47	0x3d658d59	0.056043003
48	0xbdc27a77	-0.094960146
49	0xbd97ab39	-0.07405705
50	0x3db420f8	0.08795351
51	0x3def38b8	0.1168074
52	0x3da8a767	0.082350545
53	0xbc3b5dec	-0.011435967
54	0x3dbc7120	0.092012644
55	0xbddfc784	-0.109267265
56	0xbc19d325	-0.00938872
57	0xbdcd1429	-0.10013611
58	0x3db213f9	0.08695216
59	0xbd19c800	-0.03754425
60	0x3cede979	0.029041993
61	0x3d01b254	0.031664208
62	0x3d88fbfa	0.06688686
63	0x3dd78336	0.105230734

nonreduce1_1.weight f4 [32, 64, 3, 3, 3]
0	0x3c8c4d7f	0.017126797
1	0x3cc82f0b	0.024436494
2	0x3cbed446	0.02329458
3	0xbbd27cf2	-0.006423586
4	0xbc940c88	-0.018072382
5	0xbc678ffd	-0.014133451
6	0xbc613d3a	-0.013747508
7	0x3c65937c	0.014012214
8	0xbbbb34e6	-0.005713093
9	0x3c1c005c	0.00952157
10	0xbc583fca	-0.013198802
11	0xbc9a5dd0	-0.018843561
12	0x3c71e5b0	0.014764234
13	0xb97a9c8d	-0.00023900178
14	0xbc83b161	-0.016075792
15	0x3a958370	0.0011406969
16	0xbcaea52b	-0.021318993
17	0x3cc0571d	0.023479039
18	0xbc804b7a	-0.01566099
19	0x3c913748	0.017726555
20	0x3bf90d1e	0.0076004406
21	0xbb07b0fb	-0.0020704854
22	0xbc6cf792	-0.014463322
23	0xbc872919	-0.01649909
24	0xbb1bcf4f	-0.0023774689
25	0x3c993055	0.018699804
26	0x3b677abe	0.0035320963
27	0x3bc0b338	0.0058807395
28	0x3bbf7056	0.005842249
29	0xbc46b968	-0.012129165
30	0x3c221554	0.00989278
31	0x3cc87e75	0.024474362
32	0xbca5b6cb	-0.020228764
33	0x3ca6a4f2	0.020342324
34	0x3b30090f	0.0026860868
35	0x3cab9eda	0.02094977
36	0x3c705eb9	0.014671021
37	0x3b5cc37e	0.0033685858
38	0xbc5e3938	-0.013563447
39	0x3bbaeb78	0.0057043396
40	0x3bbd3e47	0.0057752463
41	0xbcad45b1	-0.021151396
42	0x3c257573	0.010098803
43	0xbc824c6f	-0.015905587
44	0xbc9144a6	-0.01773293
45	0xbc2879fb	-0.010282989
46	0x3c9fc800	0.019504547
47	0xbca6427b	-0.020295372
48	0x3c9fe167	0.01951666
49	0x3b7a73a7	0.0038215907
50	0x3ba30bb0	0.0049757585
51	0x3c890128	0.016724184
52	0xbc8d1e00	-0.01722622
53	0xbbce66f8	-0.006298896
54	0x3c30ae20	0.010783702
55	0xbbdb7e60	-0.0066984147
56	0x3c873350	0.01650396
57	0x3c636be2	0.013880702
58	0x3cb4f8f8	0.022091374
59	0x3c840912	0.016117606
60	0xbbcf3e5e	-0.0063245734
61	0x3cb52d98	0.022116467
62	0xbbb423c8	-0.0054974295
63	0x3cb6d724	0.022319384
64	0xbb7f59ba	-0.0038963393
65	0x3ca430e6	0.020042848
66	0x3c234fae	0.009967728
67	0x3bdbc283	0.006706537
68	0xbc02449e	-0.00795093
69	0x3cadc75f	0.021213232
70	0x3cb53079	0.02211784
71	0x3ba61173	0.005067998
72	0x3c8a31d7	0.016869469
73	0x3c833484	0.016016252
74	0xbc20b7ff	-0.009809493
75	0x3c9acdc4	0.018896945
76	0x3cd3294a	0.025776524
77	0x3c3cdcc2	0.011527242
78	0x3ced746e	0.028986182
79	0x3c3fd14a	0.011707613
80	0xbb3490ca	-0.0027552121
81	0x3d9dd2ad	0.07706199
82	0x3d996f19	0.07491893
83	0x3d6908aa	0.05689303
84	0x3da7d033	0.08194008
85	0x3daf7f42	0.085691944
86	0x3d31a3bd	0.043369044
87	0x3d85b2d3	0.06528249
88	0x3d92e3d2	0.071723595
89	0x3da3a668	0.07990724
90	0x3da0bbd0	0.078483224
91	0x3d97981c	0.074020594
92	0x3dab69e4	0.083698064
93	0x3d67ce8c	0.056593463
94	0x3d83d4ab	0.064370476
95	0x3d83abbc	0.0642924
96	0x3da8af4b	0.082365595
97	0x3d84f3cb	0.06491812
98	0x3da7c60c	0.08192071
99	0x3d5fe0e2	0.054657824
100	0x3daa7fc5	0.08325151
101	0x3d7073aa	0.058704056
102	0x3dace604	0.084423095
103	0x3d69b1dc	0.057054386
104	0x3d95d490	0.07315934
105	0x3da8dd4e	0.082453355
106	0x3d5f9bd8	0.054591984
107	0x3d723b2d	0.059138466
108	0x3b8b763c	0.004256038
109	0xbc83332f	-0.016015617
110	0x3cb91e66	0.022597503
111	0xbc9d88c9	-0.019230263
112	0xbc9f68c0	-0.019459128
113	0xbca6d495	-0.020365039
114	0x3c8cf10a	0.01720478
115	0xbb934637	-0.0044944542
116	0x3c3d028f	0.011536255
117	0xbbef5ca1	-0.0073047434
118	0xbc0c9033	-0.008579302
119	0xbc23a7a1	-0.009988696
120	0xbc1d0603	-0.009583953
121	0x3aeb4590	0.0017949808
122	0xbca328f2	-0.019916985
123	0xb907f3ad	-0.0001296538
124	0xbc81f410	-0.015863448
125	0x3bc108ad	0.005890927
126	0x3b2d2be1	0.002642386
127	0xbb9660b4	-0.0045891646
128	0xbbfa1037	-0.0076313275
129	0x3c3b3419	0.011425995
130	0x3a8d3414	0.0010772967
131	0xbc4f8410	-0.0126657635
132	0x3c106a1c	0.008814361
133	0xbb257146	-0.0025244518
134	0x3cb5d38e	0.022195604
135	0x3a844d2f	0.0010093803
136	0x3be057ed	0.006846419
137	0xbbe9ae07	-0.0071313414
138	0xbbed351b	-0.0072389967
139	0x3cc0eb0c	0.02354958
140	0x3c12278a	0.00892056
141	0xbc8dd745	-0.017314563
142	0x3c856bc9	0.016286748
143	0xbc991070	-0.018684596
144	0x3ca055f0	0.019572228
145	0x3cab6423	0.020921772
146	0x3c86c6e3	0.016452258
147	0x3c554ead	0.013019246
148	0xbbc921d4	-0.006138066
149	0xbbca68a7	-0.0061770263
150	0x3c6de84e	0.014520718
151	0xbc28dcb7	-0.010306529
152	0xbc7ff926	-0.015623366
153	0xbc039dea	-0.008033255
154	0xbc065ff2	-0.008201586
155	0x3c176939	0.009241396
156	0x3cc52513	0.02406553
157	0x3c837427	0.016046597
158	0x3caa35b3	0.020777559
159	0xbc9f3882	-0.019436125
160	0xbc7fe1d2	-0.015617805
161	0x3c76a25a	0.015053356
162	0x3d15962e	0.036520176
163	0x3cc1add9	0.023642467
164	0x3c932aeb	0.0179648
165	0x3cb3fb41	0.021970393
166	0xbb10bf42	-0.0022086655
167	0x3cf9f95e	0.030514415
168	0x3d0c07ee	0.03418725
169	0xbbf68bcf	-0.0075239907
170	0xbb3a4bfb	-0.0028426636
171	0x3cf17dec	0.02947899
172	0x3c192ee0	0.009349555
173	0x3cf3b8a7	0.029751135
174	0x3b27240e	0.0025503668
175	0x3cc8d078	0.024513468
176	0x3cd3c25b	0.025849512
177	0xbbc50f33	-0.006013775
178	0x3d06ebcb	0.032939713
179	0x3d0111d1	0.03151113
180	0xbbe80972	-0.007081204
181	0x3c0b96f2	0.008519875
182	0x3d0d8365	0.034549136
183	0xbb032724	-0.0020012343
184	0x3cd89a19	0.026440667
185	0x3c3ca6fa	0.01151442
186	0x3b759b4f	0.0037476604
187	0x3bf67f11	0.0075224717
188	0x3bd86481	0.006603778
189	0xbc12fe04	-0.008971695
190	0x3b984fdc	0.004648192
191	0xbae2992b	-0.0017288079
192	0xbbef07ca	-0.0072946297
193	0x3ca80664	0.02051086
194	0xbc3c29bc	-0.01148456
195	0x3c898d9f	0.016791163
196	0xbac2850e	-0.0014840679
197	0xbcaf0fbc	-0.021369807
198	0xbc6fe849	-0.014642783
199	0x3c28d22d	0.010304016
200	0xbaad73db	-0.001323338
201	0xbc01b342	-0.007916274
202	0x3c8e7e12	0.0173941
203	0xbcb9c708	-0.022677913
204	0xbb31f419	-0.002715355
205	0x3c68b7c1	0.014203967
206	0xbc317077	-0.010830036
207	0xbcaed8a9	-0.021343546
208	0x3b5ee145	0.0034008783
209	0x3cbc5ded	0.022994006
210	0x3c262a1c	0.010141876
211	0x3cb2523b	0.021767726
212	0xbb175d7c	-0.0023096493
213	0xbb2e4e9d	-0.002659715
214	0xbcacf514	-0.021112956
215	0xbc29b327	-0.010357655
216	0x3ce4d6b3	0.027934408
217	0x3d3c9b78	0.046046704
218	0x3d8d10b5	0.06887952
219	0xbaaf8a2b	-0.0013392618
220	0x3c414792	0.011796849
221	0x3c952624	0.018206663
222	0xbc47a921	-0.01218632
223	0x3c52aa93	0.012858051
224	0xbbc90d05	-0.0061355853
225	0x3d1709f2	0.03687472
226	0x3c9d4e43	0.019202357
227	0x3dbc56c4	0.09196237
228	0x3cb4144f	0.02198234
229	0x3aef3b56	0.0018251936
230	0x3c80efdf	0.01573938
231	0xbc601149	-0.013675996
232	0x3cf78201	0.030213358
233	0x3c0b7460	0.008511633
234	0x3d15a0bd	0.036530245
235	0x3d8560f9	0.06512637
236	0x3d4f47c1	0.05060554
237	0x3d1f7ca0	0.03893721
238	0xba825637	-0.0009943907
239	0x3d15bc2e	0.036556415
240	0xbc68e2cb	-0.014214228
241	0x3c699233	0.014256048
242	0x3c209381	0.009800793
243	0x3c95e600	0.01829815
244	0x3b1d8692	0.002403651
245	0xbc8190fc	-0.015816204
246	0xbc672806	-0.014108663
247	0xbc2b2176	-0.010444989
248	0xbc863fcc	-0.016387843
249	0x3cb7c68e	0.022433545
250	0xbc6c9a84	-0.014441136
251	0x3c8b4ae6	0.017003488
252	0xbb05c127	-0.0020409317
253	0xbc5673ea	-0.0130891595
254	0x3bd3c992	0.006463238
255	0x3c84012a	0.016113836

nonreduce1_1.bias f4 [32]
0	0xbc8615fa	-0.016367901
1	0x3bbda9f0	0.0057880804
2	0xbbb60761	-0.005555079
3	0xbb611983	-0.0034347482
4	0xba847a32	-0.0010107218
5	0x3c6f187d	0.014593241
6	0x3b738a72	0.0037161377
7	0x3b14bd4c	0.0022695838
8	0xbc16a081	-0.009193541
9	0xbbb9c74e	-0.005669511
10	0xbc138a7f	-0.009005188
11	0x3bb43b68	0.005500246
12	0xbc0d25a8	-0.008614935
13	0x3cb8181c	0.022472434
14	0xbcb64d4b	-0.022253653
15	0xbc0dc8ee	-0.008653862
16	0x3a4561be	0.00075295183
17	0x3c4cf023	0.012508425
18	0xbca78fda	-0.020454336
19	0xbc3a654b	-0.011376689
20	0x3c82e586	0.015978586
21	0x3a32005f	0.00067902164
22	0xbc6facc0	-0.014628589
23	0x3c3ffd21	0.0117180655
24	0xbc1b827b	-0.009491558
25	0x3a4ce15a	0.00078155624
26	0x3ca03dfc	0.019560806
27	0xbbc7b63f	-0.0060947235
28	0x3c7aa7ca	0.015298793
29	0xbc06d2a0	-0.008228928
30	0x3c438f34	0.011935998
31	0xbc835506	-0.016031753

nonreduce1_2.weight f4 [32, 32, 3, 3, 3]
0	0x3cb05373	0.021524167
1	0x3cc291d5	0.023751179
2	0xbbbbfa92	-0.0057366574
3	0xbce9b8c2	-0.028530482
4	0xbbab31c5	-0.005224439
5	0xbcfee2c3	-0.031113988
6	0x3ce48159	0.027893709
7	0xbc1a505c	-0.009418573
8	0x3ce8dd53	0.028425848
9	0xbc8bf273	-0.017083382
10	0xb9a72429	-0.00031879664
11	0xbbc1c08c	-0.005912846
12	0xbcd260e8	-0.025680974
13	0xbce7ccf9	-0.02829598
14	0x3d07701c	0.0330659
15	0xbc46e393	-0.012139219
16	0x3cc7d84c	0.02439513
17	0xbbdf53a1	-0.0068153893
18	0xbcef6306	-0.029222023
19	0x3d013302	0.031542785
20	0xbcaa3ae6	-0.020780038
21	0x3c630c19	0.013857865
22	0x3be4807c	0.0069733243
23	0xbb9b2e50	-0.0047357455
24	0xbbc467bc	-0.0059938114
25	0xbd0b3f38	-0.033995837
26	0x3ca4181b	0.020031026
27	0x3cb5b4e0	0.022180974
28	0xbbd13a0b	-0.006385093
29	0xbcf7e202	-0.030259136
30	0xbc19dacb	-0.009390543
31	0xbc91c3cf	-0.017793564
32	0x3b4bed38	0.0031116735
33	0xbcec5613	-0.028849637
34	0x3d07440f	0.03302389
35	0xb98d2559	-0.00026921442
36	0x3aa1ef67	0.0012354673
37	0x3c11b57e	0.008893369
38	0xbcf8d451	-0.030374678
39	0xbbb18923	-0.0054179593
40	0x3aee35cc	0.0018173992
41	0xbc0bd976	-0.008535733
42	0x3d0a5ccc	0.033779904
43	0xbc02420b	-0.007950316
44	0x3d00cd84	0.031445995
45	0xbca2a3e1	-0.019853534
46	0x3a8de89e	0.0010826772
47	0xbc954fd1	-0.018226536
48	0xbc68f2b1	-0.014218018
49	0xbc3f6d2d	-0.011683744
50	0xbac8caaf	-0.0015319193
51	0x3ca2ccbf	0.019873021
52	0xbcbc595d	-0.02299183
53	0x3d063260	0.032762885
54	0xbbc8947d	-0.006121217
55	0x3d168050	0.036743462
56	0xbc15d12e	-0.009144111
57	0x3c6be6d1	0.014398293
58	0x3d075991	0.0330444
59	0x3c8edd1f	0.017439423
60	0x3cb3fd1d	0.02197128
61	0x3c48a844	0.012247149
62	0x3d1b673f	0.03794026
63	0x3cc65bbc	0.024213664
64	0x3c894fea	0.016761739
65	0x3cb050b9	0.021522867
66	0x3c3e3daa	0.011611382
67	0xbc28cabd	-0.010302243
68	0x3d0da8cb	0.0345848
69	0xbba09788	-0.0049008764
70	0x3bb0212f	0.0053750495
71	0xbc4637f7	-0.012098304
72	0x3d1a613c	0.037690386
73	0x3d104cd5	0.035229523
74	0x3aa7a203	0.0012789372
75	0x3d1e33c2	0.03862358
76	0x3d055948	0.03255585
77	0x3b93ee63	0.004514502
78	0xbba43d29	-0.0050121737
79	0xbc277017	-0.010219595
80	0xbca956b7	-0.020671232
81	0xbca083ad	-0.019594038
82	0x3d03b699	0.03215656
83	0x3c15cf53	0.009143668
84	0x3c691ae4	0.014227603
85	0x3ac4f2c1	0.001502596
86	0xbc7d4278	-0.015457742
87	0xbb9be8c4	-0.0047579724
88	0xbcf986f7	-0.030459864
89	0x3ad32aba	0.0016110756
90	0x3ce223f4	0.027605034
91	0x3c0bc039	0.008529716
92	0xbb8d7f9d	-0.004318191
93	0x3c1440f6	0.009048691
94	0x3cb0fb6e	0.021604266
95	0x3d0aa77f	0.033851143
96	0x3c67ac73	0.014140236
97	0x3cc9dbaf	0.024640886
98	0x3c3c9f34	0.011512566
99	0x3cfaa9d7	0.030598564
100	0xba748241	-0.00093272707
101	0x3c82911e	0.015938338
102	0x3ccdc8a7	0.025120093
103	0x3d034659	0.03204951
104	0xbb5ec3d2	-0.003399123
105	0x3caf1d46	0.021376263
106	0xbba16a56	-0.0049260063
107	0x39b18e3a	0.00033866038
108	0x3c5e881c	0.013582256
109	0x3c45da8d	0.012076032
110	0x3975819c	0.00023413304
111	0x3b294e6e	0.0025834101
112	0xbcfa80ff	-0.030579088
113	0xbcca0d52	-0.024664555
114	0xb91abbf3	-0.00014756601
115	0xbcaf7f85	-0.02142311
116	0xbb422cc1	-0.0029628726
117	0x3d0a2536	0.033726893
118	0xbad4eb24	-0.0016244394
119	0xbd0eee3b	-0.034895163
120	0x3c091232	0.0083661545
121	0xbc699fae	-0.014259262
122	0x3d04a658	0.0323852
123	0x3c014503	0.007889989
124	0x3cbc9f27	0.023025109
125	0xbce65f01	-0.028121473
126	0xbb9da8ba	-0.0048113735
127	0xbcf46088	-0.029831186
128	0xbc533d0c	-0.012892973
129	0xbcb55a12	-0.022137675
130	0xbb82c4af	-0.0039907317
131	0xbd06f944	-0.032952562
132	0xbcf026ad	-0.029315317
133	0xbc3d1ab0	-0.011542007
134	0xbca6f002	-0.020378117
135	0xba047fef	-0.0005054464
136	0x3c719141	0.014744104
137	0x3be39835	0.0069456347
138	0xbce88c87	-0.028387321
139	0xba1a313c	-0.000588197
140	0x3cf1f78c	0.029536985
141	0xbbbf881a	-0.005845082
142	0xbab8ce2b	-0.0014099529
143	0xbc2206f3	-0.009889352
144	0x3c3533aa	0.011059681
145	0xbcb9b1e6	-0.022667836
146	0x3d03ad1b	0.032147508
147	0xbcf2aac0	-0.029622436
148	0x3ce5540b	0.027994176
149	0x3d00795e	0.031365745
150	0x3c7109cf	0.014711811
151	0xbc1edce9	-0.009696224
152	0xbc60bc35	-0.013716747
153	0xbd03d4ad	-0.032185245
154	0x3ce5b465	0.02804012
155	0x3cc42cb3	0.023947095
156	0x3b323057	0.0027189457
157	0xbcd0297d	-0.025410408
158	0x3bf0a95e	0.007344409
159	0x3d01ce89	0.031691108
160	0x3caab039	0.020835983
161	0xbae60234	-0.0017548264
162	0x3bafd15d	0.005365534
163	0x3bf25242	0.00739506
164	0xbb03adcc	-0.0020092605
165	0xbd0a79a8	-0.033807427
166	0x3aa96f80	0.0012926906
167	0xbc67ce9f	-0.014148383
168	0xbcf1da9b	-0.029523185
169	0x3c717e9d	0.01473966
170	0x3ce5ea30	0.02806577
171	0x3c3b935f	0.01144871
172	0xbcec6aa8	-0.028859451
173	0xbd0b2bf6	-0.03397747
174	0x3c89a0c1	0.016800286
175	0x3cb07aeb	0.021542987
176	0x3c2da296	0.010597846
177	0xbc971b5f	-0.018445669
178	0x3b5a6817	0.0033326203
179	0x3c065122	0.0081980545
180	0x3b65b891	0.0035052637
181	0xbc2c933e	-0.010533152
182	0x3b37cf8f	0.0028047299
183	0x3c673555	0.014111836
184	0xbc877a56	-0.016537827
185	0xbc1c5439	-0.009541565
186	0xbcc677be	-0.02422702
187	0xbc1faa2e	-0.009745164
188	0x3bf475a8	0.007460315
189	0x3cb68942	0.022282247
190	0x3d0d94f4	0.03456588
191	0x3cf3f9b1	0.029782148
192	0xbccbd313	-0.024880921
193	0xbc1a23ec	-0.0094079785
194	0xbba191e5	-0.004930722
195	0xbcbbacbd	-0.022909516
196	0x3d0091fb	0.031389218
197	0x3c05453e	0.008134184
198	0x3cb16f8a	0.021659631
199	0xbcf1135f	-0.029428182
200	0x3ca23769	0.019801812
201	0x3bed7def	0.0072476785
202	0xbca90488	-0.020632043
203	0x3c3c9897	0.01151099
204	0x3bf7f820	0.0075674206
205	0xbceb2288	-0.02870299
206	0xbc6135fd	-0.013745782
207	0xbcd85d5c	-0.026411705
208	0x3cd36a5f	0.025807558
209	0xbccdc3f7	-0.025117857
210	0xbc8e843d	-0.01739704
211	0xbc213516	-0.009839317
212	0xbb9e7160	-0.0048352927
213	0xbca5d5ef	-0.020243613
214	0x3c2f4dd8	0.010699712
215	0x3b9179e4	0.0044395793
216	0x3cbba6c3	0.022906667
217	0xbcbe0ce9	-0.023199515
218	0x3b2530ea	0.0025206157
219	0xbc8e928c	-0.017403863
220	0xbce27fc4	-0.027648814
221	0xba907188	-0.0011020163
222	0xbc0a9958	-0.008459412
223	0xbcb12a4c	-0.021626614
224	0xbcca9165	-0.024727533
225	0x3c3a4b8f	0.011370554
226	0xbccdfaab	-0.025143942
227	0xbc9e4596	-0.01932029
228	0xbc94d66c	-0.01816865
229	0xbb90f9ec	-0.0044243243
230	0xbc067874	-0.008207429
231	0x3c11e666	0.008905029
232	0x3ab0655b	0.0013457941
233	0xbace3318	-0.001573178
234	0xbc1a0c42	-0.009402337
235	0x3c838fce	0.016059782
236	0x3cfac9cc	0.030613802
237	0x3c9b8019	0.01898198
238	0x3cbcd4ce	0.023050692
239	0x3a5cda94	0.00084249047
240	0xbbd0050b	-0.0063482574
241	0x3d06467b	0.03278206
242	0x3cccbda2	0.024992768
243	0xbcdcd660	-0.02695769
244	0x3cfe46c2	0.0310396
245	0xbc8faf64	-0.017539687
246	0xbc7d8d20	-0.015475541
247	0xbbc7141b	-0.006075395
248	0xbc36e0db	-0.011162008
249	0xbd021f92	-0.03176839
250	0x3c50bbf0	0.01274012
251	0xbc5c17e4	-0.01343343
252	0x3c7ad682	0.015309932
253	0x3ce138ab	0.027492842
254	0x3ce389eb	0.027775725
255	0x3ca2165d	0.019786054

nonreduce1_2.bias f4 [32]
0	0x3cac1d0a	0.02100994
1	0xbc2d18d2	-0.010565
2	0x3d07946d	0.033100534
3	0xbbe8e8d7	-0.007107835
4	0x3c477303	0.012173417
5	0x3cb0d482	0.021585707
6	0x3c1552bf	0.0091139665
7	0x3d045386	0.032306217
8	0x3c8bc61e	0.017062243
9	0xbc5a2b1e	-0.013315944
10	0xbce1ebe0	-0.027578294
11	0xbca9611c	-0.020676188
12	0x3cc6acb4	0.024252273
13	0x3c42cb67	0.011889315
14	0xbba6b7b5	-0.0050878176
15	0xbcb8b4a5	-0.022547076
16	0x3d0ab2a9	0.03386179
17	0x3ce30874	0.027713992
18	0x3cd12414	0.025529899
19	0x3bc14e5d	0.005899234
20	0x3a3678a8	0.0006960728
21	0x3d1968ba	0.03745339
22	0x3cae5bf2	0.021284077
23	0x3c8897dc	0.016673975
24	0x3d0a4a7f	0.03376245
25	0x3ce0d6ac	0.027446114
26	0x3ca6d9cc	0.020367526
27	0x3cfc53f8	0.030801758
28	0x3c204d24	0.009784017
29	0xbce18e6b	-0.02753373
30	0x3cbfd924	0.02341897
31	0xbce51582	-0.027964357

nonreduce1_3.weight f4 [32, 32, 3, 3, 3]
0	0xbb2e8700	-0.002663076
1	0x3c79bd05	0.01524282
2	0x3c0a2dbc	0.0084337555
3	0xbca993ae	-0.020700302
4	0x3cdc1ebf	0.02687013
5	0xbc73b65a	-0.014875019
6	0x3ce84e9c	0.028357796
7	0xbcdeb6be	-0.027186748
8	0x3ce5395e	0.027981456
9	0xbcbfdee2	-0.023421708
10	0xbcd40215	-0.025879899
11	0x3d0709b9	0.032968257
12	0x3caf6347	0.021409644
13	0x3bf74e6f	0.007547192
14	0xba43086d	-0.0007439915
15	0x3ce89c5d	0.028394872
16	0x3cab8aa6	0.020940136
17	0xbc94d68d	-0.018168712
18	0x3ce6f202	0.02819157
19	0x3bf7fb14	0.0075677726
20	0x3c4ae179	0.012382858
21	0xbc95f804	-0.01830674
22	0x3b83875c	0.004013939
23	0x3c311b61	0.01080975
24	0x3d11139d	0.035419095
25	0x3b470dde	0.0030373256
26	0x3ce97829	0.02849968
27	0xbcec159b	-0.028818896
28	0xbccbbd2e	-0.024870481
29	0x3ca76dc6	0.020438086
30	0x3d0b9b9a	0.03408394
31	0x3c6b76da	0.014371598
32	0xbcbfd48d	-0.023416782
33	0x3c689f21	0.014198096
34	0x3c879109	0.01654865
35	0xbc84cc13	-0.016210591
36	0x3c8a075d	0.016849214
37	0x3ce7ee9b	0.028312018
38	0xbcb389dc	-0.021916322
39	0xbc30c60c	-0.010789406
40	0xbc25c026	-0.010116613
41	0x3cf223d5	0.029558102
42	0x3b7dcf4f	0.0038728302
43	0xbcea9cb2	-0.028639171
44	0x3caf8e40	0.021430135
45	0x3d08b428	0.033374935
46	0xbcfc82b1	-0.030824037
47	0x3c995779	0.018718468
48	0xbc5747ea	-0.013139704
49	0xbbfa0d83	-0.0076310053
50	0xbcac3077	-0.021019204
51	0x3bc90ab2	0.006135308
52	0xbce78af9	-0.02826451
53	0xbca7c846	-0.02048124
54	0xbce878da	-0.028377939
55	0xbcdbbd1d	-0.026823575
56	0xbc852ade	-0.016255792
57	0xbc9fa063	-0.019485658
58	0x3ce8fb41	0.02844012
59	0xbc2d4934	-0.010576535
60	0xbcd4473b	-0.025912872
61	0x3c426374	0.011864532
62	0x3c61f195	0.013790508
63	0xbc42844a	-0.0118723605
64	0x3ae359e6	0.0017345517
65	0x3c250dc5	0.010074084
66	0x3bd750c3	0.006570907
67	0x3cbb5187	0.022866024
68	0xbcfdd984	-0.030987509
69	0xbc32b31b	-0.01090696
70	0x3c044c80	0.00807488
71	0xbd01f940	-0.031731844
72	0xbc855c22	-0.016279284
73	0xbc641ae7	-0.01392243
74	0xbca96de2	-0.020682279
75	0x3c9c6b76	0.01909421
76	0xbcbf8ffb	-0.023384085
77	0xbc9a3a74	-0.0188267
78	0x3cfb7fbe	0.03070056
79	0x3a93f8c7	0.0011289351
80	0xbcb373da	-0.021905828
81	0x3c897e96	0.016783994
82	0x3cbbf5ea	0.02294441
83	0xbcc4b390	-0.024011403
84	0xbca9fdfd	-0.020750994
85	0x3d12d6a1	0.035849217
86	0xbc669a31	-0.014074848
87	0xbb4dc3f0	-0.0031397305
88	0xbce96e44	-0.028494962
89	0x3c88a7eb	0.016681632
90	0x3c660f85	0.014041786
91	0x3c40f4d5	0.0117771225
92	0xbca6b160	-0.02034825
93	0x3ce12f97	0.027488513
94	0xbc322779	-0.010873669
95	0xbcc27bf6	-0.02374075
96	0xbbe63ed9	-0.007026535
97	0x3ca26e1b	0.019827893
98	0x3cd7c02a	0.026336748
99	0xbcf001c6	-0.02929772
100	0xbd01299b	-0.03153382
101	0x3cb7e902	0.022449974
102	0x3c239f7e	0.009986756
103	0xbd02d4bf	-0.03194117
104	0x3cbeaa28	0.023274496
105	0x3d023c84	0.031795993
106	0xbbcbba11	-0.006217249
107	0x3c23d18a	0.0099986885
108	0x3a945a98	0.0011318503
109	0xbc91e13d	-0.017807597
110	0xbcccb8e4	-0.024990506
111	0xbc7e67ab	-0.015527646
112	0xbc802c37	-0.015646083
113	0x3c218820	0.009859115
114	0xbcea25f8	-0.028582558
115	0xbc62a06e	-0.013832195
116	0xbce0e836	-0.027454477
117	0x3c8bb6d0	0.017054945
118	0x3ca503d8	0.020143434
119	0xbc8636c7	-0.016383542
120	0xbc390ec6	-0.011295026
121	0x3d15559e	0.036458604
122	0xbc772830	-0.015085265
123	0x3c8cb03c	0.017173879
124	0x3cf0ac8a	0.029379148
125	0x3c8943f0	0.016756028
126	0xbcf47af5	-0.029843787
127	0xbced7d01	-0.02899027
128	0xbce528a2	-0.027973477
129	0xbcbfb99b	-0.023403933
130	0xbcdce8fa	-0.02696656
131	0x3c032085	0.008003359
132	0x3cc34c26	0.023840021
133	0xbc9722be	-0.018449184
134	0x3cf6cab2	0.03012595
135	0x3d104a61	0.035227183
136	0xbc15aa0a	-0.009134779
137	0x3b5f5815	0.00340796
138	0x3c58811d	0.013214377
139	0x3cf1d7d0	0.029521853
140	0xbca83313	-0.020532167
141	0xbcf8ee45	-0.030387053
142	0xbbf00286	-0.0073245196
143	0xbc074a50	-0.008257464
144	0x3d1645f0	0.03668779
145	0xbb0310f2	-0.0019999114
146	0x3d086c05	0.03330614
147	0xbc612e09	-0.013743886
148	0x3cc57c85	0.024107227
149	0x3bdf07fd	0.006806372
150	0x3d15f9b1	0.036615077
151	0x3d12d7d2	0.035850354
152	0xbbb5dc11	-0.0055499156
153	0x3d107c89	0.035275016
154	0xbc60ff8d	-0.013732803
155	0x3cdea417	0.027177854
156	0x3cb03c06	0.021512996
157	0x37cf3150	2.4699286e-05
158	0xbc05e3da	-0.008172
159	0x3b21ed39	0.0024708046
160	0x3d0253ab	0.031818073
161	0xbcf07e63	-0.02935714
162	0xba9afbbb	-0.0011824289
163	0xbb1a9e4e	-0.0023592892
164	0x3c9a6d91	0.018851073
165	0xbc17835e	-0.009247629
166	0x3cf363fa	0.029710758
167	0x3c810a11	0.01575187
168	0xbcdad89a	-0.026714612
169	0x3d06afa0	0.032882333
170	0x3ccc6846	0.024952065
171	0x3a8b91d7	0.0010648322
172	0x3d027760	0.031852126
173	0x3cd14cbb	0.025549283
174	0x3c24f8e2	0.010069104
175	0xba76e7ce	-0.0009418697
176	0x3bd760d2	0.006572821
177	0xb93ac2e6	-0.00017810948
178	0xbccdb738	-0.02511178
179	0xbc81ec8a	-0.01585986
180	0xbc8a1bd2	-0.016858969
181	0xbc3775e4	-0.011197541
182	0xbc27de88	-0.010245927
183	0x3b2e71c6	0.0026618107
184	0xbcf3da00	-0.029767036
185	0x3d0a1e60	0.033720374
186	0x3c250a02	0.010073187
187	0x3ca8448d	0.0205405
188	0x3c48b1c1	0.012249411
189	0x3c062b3a	0.008189017
190	0x3c9b7e11	0.018981012
191	0x3b2f57be	0.002675518
192	0xbc81a779	-0.015826927
193	0xbbb01cc4	-0.005374523
194	0xbc5aeb1f	-0.013361721
195	0xbcbf79f2	-0.023373578
196	0x3c617707	0.0137612885
197	0xbbfdee2a	-0.0077493386
198	0xbc9d3853	-0.019191897
199	0x3c241051	0.010013656
200	0xbabc75af	-0.0014378334
201	0x3cfe6003	0.031051641
202	0xbc11acf4	-0.008891333
203	0xbcc7d7be	-0.024394866
204	0x3ccf0139	0.025269138
205	0xbce6d3a9	-0.0281771
206	0x3be0ebb7	0.006864037
207	0x3ccf3f48	0.02529873
208	0x3cf655d6	0.030070227
209	0xbc925371	-0.017862054
210	0x3c51bcf7	0.0128014
211	0xbcd7b5d1	-0.026331814
212	0x3d08bfa1	0.033385877
213	0x3cb0ddf9	0.02159022
214	0x3cda209b	0.026626876
215	0x3d005d30	0.03133887
216	0x3c38818e	0.011261357
217	0x3d0e5680	0.03475046
218	0x3c07e235	0.008293678
219	0xbc038c12	-0.008029001
220	0x3cd05313	0.025430238
221	0x3cc9674e	0.024585392
222	0x3c351911	0.01105334
223	0xbad795fa	-0.0016447895
224	0xbc956b05	-0.018239507
225	0x3b8f0b5d	0.0043653683
226	0xbbdac8c9	-0.0066767675
227	0xbca10519	-0.019655751
228	0x3cf17d5c	0.029478721
229	0x3d042b64	0.032267943
230	0xbca08935	-0.019596675
231	0x3b7a4bda	0.0038192184
232	0x3cfa913d	0.030586833
233	0x3ca71f3f	0.020400641
234	0xbc57610a	-0.0131456945
235	0xbc4c4612	-0.012467878
236	0xbb8547bb	-0.004067389
237	0xbbc5664d	-0.006024158
238	0x3b342b3e	0.0027491595
239	0xbc321f15	-0.010871668
240	0x3d007cc6	0.031368993
241	0x3c94a0a6	0.01814301
242	0xbba7af00	-0.005117297
243	0xbbe44085	-0.006965699
244	0x3d07224c	0.032991692
245	0xbc55aa46	-0.013041085
246	0x3cac7986	0.02105404
247	0x3c37e59a	0.011224175
248	0xbb7d4599	-0.003864622
249	0x3d18f8bd	0.03734659
250	0x397c7391	0.00024075645
251	0x3d15c4b9	0.036564562
252	0x3c8918ca	0.016735453
253	0x3d0b1a1d	0.03396045
254	0xbc810a12	-0.015751872
255	0x3c874de2	0.01651663

nonreduce1_3.bias f4 [32]
0	0x3c89afaa	0.016807396
1	0x3c083671	0.008313761
2	0x3d05b806	0.0326462
3	0xbcbb09ab	-0.022831758
4	0x3aefe765	0.0018303214
5	0x3b8b5c3d	0.004252939
6	0x3c99886c	0.018741809
7	0x3c81b6c4	0.01583422
8	0xbcfcdfc0	-0.030868411
9	0xbc0758b6	-0.008260896
10	0x3cf5fb8f	0.030027179
11	0x3d113645	0.035452146
12	0xbca930cf	-0.020653157
13	0x3b806773	0.003918582
14	0xbcda6ca8	-0.02666314
15	0x3c0622aa	0.0081869755
16	0x3c0b99b2	0.008520531
17	0xbc1e449d	-0.009659913
18	0x3c6c889d	0.014436868
19	0xbbffd4b3	-0.007807338
20	0x3ba82769	0.005131651
21	0xbaebc8b0	-0.0017988887
22	0x3bcd31ac	0.006262025
23	0x3cc34373	0.023835873
24	0x3ca8ced3	0.020606434
25	0x3c76b5a3	0.015057954
26	0x3cdb242a	0.026750643
27	0x3bc706fa	0.0060738297
28	0x3c5172f0	0.012783751
29	0xbcc5ba55	-0.024136702
30	0x3c3f5ef9	0.011680358
31	0xbccac710	-0.024753124

reduce2.weight f4 [16, 32, 4, 4, 4]
0	0x3c840744	0.016116746
1	0x3c954abd	0.018224115
2	0xbc145b02	-0.009054901
3	0x3c9a385e	0.018825706
4	0xbba9c261	-0.0051806425
5	0x3c142021	0.009040863
6	0x3c48c42c	0.012253802
7	0x3c4ad927	0.012380875
8	0x3c2c9c70	0.0105353445
9	0x3cb46c49	0.02202429
10	0x3c9c5d28	0.01908739
11	0x3760584a	1.3371997e-05
12	0x3c28c607	0.01030112
13	0xbc94ca1e	-0.018162783
14	0x3c9452b4	0.018105842
15	0x3cb1654e	0.021654751
16	0xbc85c0bf	-0.01632726
17	0xbc533ebc	-0.012893375
18	0x3c2bef83	0.010494116
19	0x3cafa1c5	0.021439442
20	0x3cbf4d18	0.02335219
21	0x3c7fafe2	0.015605899
22	0xbc4b6764	-0.012414787
23	0x3c914965	0.017735193
24	0x3cb77e2d	0.022399032
25	0x3a67e6e8	0.00088463584
26	0xbc50ecb1	-0.012751744
27	0x3cb6941a	0.022287417
28	0x3cb72d90	0.022360593
29	0x39f33246	0.00046386028
30	0xbc86c699	-0.01645212
31	0xbc8dea35	-0.017323593
32	0xbad52775	-0.001626237
33	0xbba2062c	-0.0049445834
34	0x3c42f4e4	0.011899207
35	0xbbc2ff87	-0.0059508714
36	0x3c5c5c38	0.013449721
37	0xbc7cab8d	-0.01542176
38	0xbc5bc3b0	-0.013413355
39	0xbc953181	-0.018212082
40	0xb9900aba	-0.00027473812
41	0xbc590bec	-0.013247471
42	0x3c04dce6	0.008109307
43	0x3ba64ca6	0.005075055
44	0x3a8fbc29	0.001096611
45	0xbc6dd5e4	-0.0145163275
46	0x3c6f4b48	0.014605351
47	0xbc9b9986	-0.018994104
48	0xbc853aee	-0.016263451
49	0xbbd66934	-0.006543303
50	0xbc644add	-0.013933864
51	0xbc8322fe	-0.016007897
52	0xbc45cf00	-0.012073278
53	0xbb95fd50	-0.0045773163
54	0x3cbdb327	0.023156716
55	0xbc729eba	-0.014808351
56	0xbb529dac	-0.0032137437
57	0xba3f97c2	-0.00073086855
58	0x3c8e64e2	0.017382089
59	0xbbc25b3b	-0.0059312857
60	0x3bdf8fe9	0.0068225753
61	0xbc4ee164	-0.0126269795
62	0xbc8edac8	-0.017438307
63	0x3bb73073	0.0055904924
64	0xbc5a6405	-0.013329511
65	0x3c13cd34	0.009021092
66	0x3bed5f58	0.007244032
67	0xbb7a8bf8	-0.00382304
68	0xbb82f45d	-0.0039964155
69	0xbc71a47b	-0.014748688
70	0xbb93b6c3	-0.004507871
71	0x3cb7d92c	0.022442423
72	0x3ce3a314	0.027787723
73	0x3ca64a5a	0.020299125
74	0x3a51b806	0.0008000139
75	0x3bcf52e5	0.0063270205
76	0x3c1a7679	0.00942766
77	0x3cc2ac39	0.023763763
78	0x3c5415e6	0.012944674
79	0x3bf97698	0.0076130144
80	0xbc8fcd0c	-0.017553829
81	0xbb330da2	-0.0027321358
82	0x3c820cc6	0.015875231
83	0x3ccf5095	0.02530698
84	0x3c88c256	0.01669423
85	0xbc649766	-0.013952112
86	0x3bf6607a	0.007518825
87	0xbc2b227e	-0.010445235
88	0xbc6d9d4b	-0.014502834
89	0xb9ef0b60	-0.00045594107
90	0xbbf87495	-0.007582257
91	0x3b184079	0.0023231788
92	0x3cbce496	0.023058217
93	0xbc1c4c80	-0.009539723
94	0x3caf5743	0.021403914
95	0x3cba2aa6	0.022725414
96	0xbb8345d2	-0.004006126
97	0xba81842c	-0.0009881309
98	0xbbcde0f2	-0.006282919
99	0xbc23a4c2	-0.009988012
100	0xbba91655	-0.005160133
101	0xbb34e277	-0.0027600804
102	0xbb01673a	-0.0019745366
103	0x3c6b5434	0.014363337
104	0xbbde8be4	-0.0067915786
105	0x3c5e9c41	0.0135870585
106	0xbb1df0f6	-0.0024099923
107	0x3cb32959	0.021870302
108	0x3c316d01	0.010829211
109	0xbcb1592f	-0.021648971
110	0x3c42787d	0.011869547
111	0x3d067888	0.03282979
112	0xbb940eee	-0.0045183813
113	0xbc5e5641	-0.013570369
114	0x3a746c6a	0.0009324016
115	0x3c29e2bf	0.010369002
116	0xbc5267c9	-0.012842127
117	0xbc3b7e8e	-0.011443747
118	0x39d9d785	0.0004155004
119	0x3bada6b1	0.005299412
120	0xbb7ace34	-0.003826988
121	0x3b79c069	0.003810907
122	0xbbaf9753	-0.0053586154
123	0xbbd924e8	-0.006626714
124	0x3c01f910	0.007932916
125	0xbbc6d18b	-0.00606746
126	0xbc3183b9	-0.010834628
127	0xbbfdedab	-0.0077492795
128	0x3b8fe67c	0.0043914896
129	0x3ca52e02	0.02016354
130	0xbc45596d	-0.012045247
131	0x3ca33258	0.019921467
132	0x3be0a570	0.006855659
133	0xbb294f58	-0.0025834646
134	0xbc1a9eaa	-0.0094372425
135	0xba83ca79	-0.0010054848
136	0xbc327057	-0.010891042
137	0x3caa842f	0.020814983
138	0x3c056651	0.00814207
139	0xbc429b38	-0.011877827
140	0xbb51110c	-0.003190103
141	0x3c176ae7	0.009241796
142	0x3bef81c3	0.00730917
143	0xbbe56d85	-0.007001581
144	0x3ca96fc4	0.020683177
145	0x3bf78f3c	0.0075549167
146	0xb99d5352	-0.00030007452
147	0xbc4bd437	-0.012440733
148	0x3caf6bcd	0.021413708
149	0x3c1939cb	0.009352158
150	0x3c5396d1	0.012914375
151	0x3b89f3e1	0.004209981
152	0x3adddcf7	0.0016926815
153	0x3bb4a9dd	0.0055134133
154	0x3c84c7ae	0.016208496
155	0x3c6e47d6	0.014543494
156	0x3c35f886	0.011106616
157	0xbc28c184	-0.010300044
158	0x3a9818a5	0.0011604024
159	0x3cc4483e	0.023960229
160	0x3a523be8	0.0008019791
161	0x3bfbe5b9	0.007687297
162	0xbc8390b7	-0.016060216
163	0x3c037c6a	0.008025268
164	0x3ca5aee2	0.020224992
165	0x3b56c483	0.0032770939
166	0x3cb08db4	0.021551944
167	0x3ca61f1c	0.020278506
168	0x3c6d9082	0.014499785
169	0x3c5ead2a	0.01359109
170	0xbc0d4791	-0.00862302
171	0x3ca54746	0.020175587
172	0xbb0f0785	-0.002182455
173	0x3c1dce05	0.009631638
174	0xbb03fce8	-0.0020139758
175	0xbb97d77b	-0.0046338416
176	0x3c32f8ae	0.010923548
177	0xbacd83e7	-0.0015679569
178	0x3c813e7a	0.015776861
179	0x3c5f92a7	0.0136458045
180	0x3be1a0f8	0.006885644
181	0xbab93c96	-0.0014132436
182	0xbc4ac7b8	-0.012376718
183	0x3b7ff956	0.0039058528
184	0x3b6a171a	0.0035719336
185	0x39fa62a3	0.00047757206
186	0xbbd4bffb	-0.0064926124
187	0x3cc53fe2	0.024078313
188	0x3ba8e600	0.0051543713
189	0x3b4003b2	0.0029299078
190	0xbbee4f73	-0.0072726547
191	0x3c74c4fa	0.014939541
192	0x3c02dcf3	0.007987249
193	0x3bfb0fa8	0.0076617785
194	0x3c8ad82c	0.016948782
195	0xbc808c01	-0.015691759
196	0xbbfb0896	-0.0076609356
197	0xbc9cd742	-0.019145612
198	0xbb8d8297	-0.004318546
199	0x3c8d4f01	0.017249586
200	0xbc0f180f	-0.008733763
201	0xbc1310eb	-0.0089762015
202	0xbc971e78	-0.018447146
203	0xbbc979fb	-0.0061485744
204	0x3b440413	0.0029909655
205	0xbb446c9d	-0.0029971965
206	0xbb6f5f6e	-0.0036525386
207	0x3c808a05	0.015690813
208	0x3c581021	0.013187439
209	0x3b81294b	0.00394169
210	0xbc25a9bf	-0.010111271
211	0x3c3dcf49	0.011585065
212	0xbc2ba9c5	-0.010477488
213	0xbb94344f	-0.004522837
214	0xbc1db553	-0.009625751
215	0xbbebbc37	-0.007194068
216	0xbc514ac1	-0.01277417
217	0xbc5d5825	-0.013509785
218	0x3c2cc5ee	0.010545237
219	0x3bffddc9	0.0078084213
220	0xbcadcb07	-0.021214975
221	0x3c60d775	0.013723244
222	0xbbce1a5b	-0.006289763
223	0xbcc03918	-0.023464724
224	0xbb4238b0	-0.002963584
225	0xbc9cc699	-0.019137667
226	0x3bba92d6	0.0056937737
227	0xbc805bcd	-0.015668774
228	0xbc7d0552	-0.015443163
229	0x3bfdc80a	0.007744794
230	0x3beebb6a	0.007285525
231	0xbbf25226	-0.0073950468
232	0x3c3f2139	0.011665636
233	0xbca9bce3	-0.020719951
234	0xbcc31055	-0.023811499
235	0x3c7ae583	0.015313509
236	0x3c47f2e5	0.012203907
237	0xbc96dc57	-0.018415613
238	0x3c29b299	0.010357522
239	0x3c597124	0.013271604
240	0x3ba5af19	0.0050562737
241	0xbc929f9b	-0.017898371
242	0xb9e7a459	-0.00044182202
243	0x3b3c6a74	0.0028749974
244	0x3c40eb31	0.011774824
245	0xbbf6f17d	-0.007536112
246	0x3caf978e	0.021434572
247	0x3bfa4a90	0.007638283
248	0x3b66b8a8	0.0035205279
249	0x3c806efa	0.015677918
250	0x3c9586c2	0.018252734
251	0xbbb3315e	-0.0054685315
252	0xbb7dc0bd	-0.0038719617
253	0xbb004786	-0.0019573881
254	0xbb28ba3a	-0.0025745765
255	0xbc70114f	-0.014652564

reduce2.bias f4 [16]
0	0x3c93d54a	0.01804604
1	0x3ca4b235	0.020104507
2	0x3c9ff288	0.019524828
3	0x3ca52ce1	0.020163001
4	0x3c2f2fe1	0.010692568
5	0xbca9fc65	-0.020750234
6	0xbb94abfd	-0.004537104
7	0xbb3263ac	-0.0027220054
8	0x3cac98e4	0.021068998
9	0xbbc5be35	-0.0060346373
10	0xbc149ea3	-0.009071025
11	0xbc555ef3	-0.013023126
12	0x3cbe41e8	0.023224786
13	0xbcb34844	-0.021885045
14	0xbc2e06ac	-0.010621708
15	0x3c593e09	0.013259419

nonreduce2_1.weight f4 [16, 16, 3, 3, 3]
0	0x3cadeaea	0.02123018
1	0x3d44729b	0.04796086
2	0xbd372bfa	-0.044719674
3	0xbc7a474f	-0.01527579
4	0xbb89ab48	-0.0042013265
5	0x3a002d56	0.0004889568
6	0xbd07f8f3	-0.0331964
7	0x3d1de9ba	0.038552977
8	0xbb5e7b31	-0.003394794
9	0x3caca8d5	0.0210766
10	0xbd38e478	-0.04513976
11	0x3cfe891b	0.031071236
12	0x3d39a2c2	0.045321234
13	0xbb4f06f1	-0.003158983
14	0x3c8e27aa	0.017352898
15	0x3d1a8f93	0.03773458
16	0xbd3d5b59	-0.046229694
17	0x3d19bf14	0.037535742
18	0x3d3a71d8	0.045518726
19	0x3b51eb6c	0.0032031192
20	0x3d0e61d4	0.034761265
21	0x3b69f9e1	0.0035701918
22	0x3c13ac56	0.009013256
23	0x3bc1b9e3	0.005912052
24	0x3c82159a	0.015879441
25	0x3cdfba36	0.027310472
26	0xbd2eee43	-0.042707693
27	0x3cd842c6	0.026399028
28	0x3d3137b9	0.043266032
29	0x3d34b346	0.04411628
30	0xbd2e1154	-0.042496994
31	0x3ce66a71	0.028126927
32	0x3ce83244	0.028344281
33	0xbce1a453	-0.027544176
34	0x3d0243b1	0.031802837
35	0x3c9ce8d9	0.019154
36	0xbc87b6c9	-0.016566651
37	0xbcc79011	-0.024360688
38	0xbc931c24	-0.017957754
39	0x3aa0e84b	0.001227626
40	0xbb37da33	-0.002805364
41	0xbcf67c1a	-0.030088473
42	0xbd0a0a69	-0.033701334
43	0xbc5cf246	-0.013485497
44	0xbbe2017b	-0.006897149
45	0xbc284e1f	-0.010272532
46	0xbc88ac94	-0.016683854
47	0x3cf8e535	0.030382732
48	0xbc0848ef	-0.00831817
49	0xbd080f56	-0.03321775
50	0xbd430aa2	-0.047617562
51	0xbbd2928a	-0.00642616
52	0x3d366877	0.04453322
53	0xbd38a973	-0.045083474
54	0xbd0b82a1	-0.034060124
55	0xbd227fcf	-0.03967267
56	0xbd0ca2ff	-0.034335133
57	0x3b07fc4c	0.0020749746
58	0xbcb3afc1	-0.021934392
59	0x3b8c2395	0.0042767026
60	0xbcc3b6d4	-0.02389089
61	0x3d039c1b	0.032131296
62	0xbd2d0d9d	-0.04224931
63	0xbd015091	-0.031570975
64	0x3c088046	0.008331364
65	0xbc54b7d9	-0.012983286
66	0xbc85182c	-0.016246878
67	0x3d1d8013	0.03845222
68	0x3b354565	0.002765977
69	0xbb8a68e7	-0.004223931
70	0x3b4afc1f	0.003097303
71	0x3ce91e20	0.028456748
72	0x3d297550	0.041371644
73	0x3d060083	0.03271533
74	0xbc9a668e	-0.01884773
75	0x3ca68bf8	0.020330414
76	0xbd1638ca	-0.036675252
77	0xbd101e86	-0.03518536
78	0xbd41a173	-0.04727311
79	0x3c54c943	0.012987438
80	0xbc30ea69	-0.010798075
81	0xbd2d6a79	-0.04233787
82	0x3cb03dfd	0.021513933
83	0x3d38844e	0.04504805
84	0x3d288812	0.04114539
85	0xbbc6b832	-0.0060644383
86	0x3d346e9b	0.044050794
87	0x3bfc276c	0.007695129
88	0x3a12196d	0.0005573247
89	0x3c8a263f	0.01686394
90	0x3c2dc5c6	0.010606235
91	0x3d1732a3	0.036913525
92	0xbd39574a	-0.04524926
93	0xbbe847c3	-0.007088633
94	0xbcacdbe5	-0.021100948
95	0xbcb7f7a0	-0.022456944
96	0x3c93aa2d	0.018025482
97	0xbd3f3b4f	-0.04668742
98	0xbc1e8cf7	-0.009677163
99	0xbd388e5a	-0.045057632
100	0x3bc34490	0.005959101
101	0x3cb34e5b	0.021887949
102	0xbbe0597d	-0.0068466053
103	0x3c4cb11b	0.012493397
104	0xbada286d	-0.0016644128
105	0x3cd37d2b	0.02581652
106	0x3ca6a031	0.020340057
107	0x3cd4b8ce	0.025967028
108	0xbd07da5e	-0.033167236
109	0xbc50054b	-0.012696574
110	0x3ccfa907	0.025349153
111	0xbd35f12a	-0.044419445
112	0x3d49450f	0.049138125
113	0xbd012dc8	-0.0315378
114	0xbc2d6636	-0.010583451
115	0xbd0b1c2d	-0.033962417
116	0x3d06510d	0.03279214
117	0x3d0e735e	0.03477799
118	0xbd34bdf6	-0.044126473
119	0xbb5fcdd4	-0.0034149783
120	0xbc846e09	-0.01616575
121	0xbc513d8b	-0.012771021
122	0x3b881dd0	0.0041539446
123	0xbcc4398c	-0.023953222
124	0x3b8941a3	0.0041887327
125	0xbc8feca8	-0.017568901
126	0x3d149590	0.036275446
127	0xbd2474ee	-0.040150575
128	0xbb5c00cb	-0.0033569809
129	0xbacae10e	-0.0015478448
130	0xbd1e497d	-0.038644303
131	0x3c171435	0.009221126
132	0x3ce912a4	0.028451271
133	0x3c39a9d9	0.011331999
134	0xbd3e267d	-0.046423424
135	0xbcda3419	-0.02663617
136	0xbccf2367	-0.025285436
137	0xbcac7c62	-0.021055404
138	0x3c876e42	0.016532067
139	0xbd155fc3	-0.03646828
140	0xbd25c2a3	-0.040468823
141	0x3d14bce5	0.036312956
142	0x3b2b9de1	0.0026186632
143	0xbc4e5202	-0.012592794
144	0xbc89250e	-0.016741302
145	0xbc9285ca	-0.017886061
146	0x3cf6a489	0.030107753
147	0xbca76acd	-0.020436669
148	0x3d32e347	0.04367378
149	0xbcf6cbf8	-0.030126557
150	0xbc07c6d1	-0.008287148
151	0xbbf54829	-0.007485409
152	0xba5c5f0d	-0.00084064977
153	0x3d1fb1c6	0.038987897
154	0x3bac57ec	0.0052595045
155	0xba378d49	-0.0007001949
156	0x3c03f44a	0.0080538485
157	0x3d3ef66d	0.04662173
158	0xbcdaaa0d	-0.026692415
159	0x3cb00660	0.021487415
160	0x3d2c7602	0.04210473
161	0xbccd4b18	-0.025060222
162	0xba46f59e	-0.00075897004
163	0x3c001489	0.007817396
164	0xbc3b4fed	-0.01143263
165	0x3d0ca933	0.03434105
166	0x3d364f5d	0.04450928
167	0xbccf2fc6	-0.025291335
168	0xbbe2fddd	-0.0069272355
169	0x3bcf4722	0.0063256184
170	0x3d3f7196	0.046739183
171	0xbcad14e0	-0.021128118
172	0x3d28aab2	0.041178413
173	0x3d24d4fb	0.040242177
174	0xbd062d75	-0.032758195
175	0x3d3e5e5a	0.0464767
176	0x3d3b3576	0.04570528
177	0xbd215698	-0.039389223
178	0x3cdcc20a	0.026947994
179	0x3c029980	0.007971168
180	0x3d3208d3	0.043465447
181	0xbc454fbd	-0.012042937
182	0x3a6e803a	0.0009098087
183	0x3c99cefd	0.018775458
184	0xbc876a8b	-0.016530296
185	0xbd4149cf	-0.04718953
186	0xbcfe3758	-0.03103225
187	0x3c87ee8e	0.016593244
188	0xbc1fc7e6	-0.009752249
189	0xbcc98215	-0.02459816
190	0xbcc5db0b	-0.0241523
191	0x38bc1da1	8.9700574e-05
192	0x3bd21d73	0.006412202
193	0xbcd86985	-0.026417503
194	0xbd4e9774	-0.050437406
195	0xbd1913f2	-0.037372537
196	0x3a9da2c9	0.0012026663
197	0x3d32541a	0.043537237
198	0xbc25dcc8	-0.010123439
199	0xbd1e1fcd	-0.038604546
200	0x3bd8d832	0.0066175694
201	0x3cada4e1	0.021196784
202	0xbb40bf69	-0.0029410964
203	0x3d3762ab	0.04477183
204	0xbc0ecbfe	-0.008715628
205	0x3d189d6a	0.037259497
206	0xbd010fc5	-0.03150918
207	0xbc3e33cf	-0.011609032
208	0xbc8a5d6b	-0.016890248
209	0xbc1b0371	-0.00946127
210	0x3c1c6d06	0.009547478
211	0x3bbe5044	0.0058079083
212	0x3d0995f2	0.033590265
213	0xbd24980b	-0.040184062
214	0xbcb34e60	-0.021887958
215	0x3cccc25f	0.024995027
216	0x3ca70cc4	0.02039183
217	0x3cd66d33	0.026175117
218	0x3d219916	0.039452635
219	0xbb3d9ff2	-0.0028934446
220	0xbd1661dc	-0.03671442
221	0xbd38ad24	-0.045086995
222	0xbd0385ea	-0.032110132
223	0xb98e8716	-0.00027184997
224	0x3d1b2bc7	0.037883546
225	0xbd00bc31	-0.031429473
226	0x3d071122	0.032975323
227	0xbb6202a3	-0.0034486435
228	0xbc19725a	-0.009365642
229	0xbcd095a6	-0.025461983
230	0xbc7a3f52	-0.015273886
231	0xbd3b4fba	-0.04573033
232	0xbbd596e2	-0.006518231
233	0x3c569308	0.013096578
234	0x3b7d8b37	0.0038687715
235	0xbd2475ad	-0.040151287
236	0x3bfe0389	0.0077518863
237	0x3c167755	0.009183724
238	0xbcf366c0	-0.029712081
239	0xbc135e81	-0.008994699
240	0x39d3ba47	0.00040383844
241	0xbbd3a11d	-0.006458415
242	0x3d3bd492	0.04585702
243	0xbcf95832	-0.030437563
244	0xba6b7393	-0.00089817605
245	0x3cf8898d	0.030339027
246	0xbc46003d	-0.012085018
247	0x3d42a89d	0.047524083
248	0x3cc6748d	0.024225498
249	0xbcdce732	-0.026965711
250	0x3d2a2855	0.04154237
251	0xbbd9b58c	-0.0066439565
252	0x3cc28930	0.023747057
253	0x3d069fd8	0.032867283
254	0x3c9f011e	0.019409712
255	0x3d073e9b	0.03301869

nonreduce2_1.bias f4 [16]
0	0xbcabcc70	-0.020971507
1	0xbcb2cd00	-0.021826267
2	0x3bf287ed	0.0074014575
3	0x3c528524	0.012849126
4	0x3d109a35	0.035303313
5	0x3b4baea1	0.0031079429
6	0xbd36f2bf	-0.044665094
7	0xbcd454fb	-0.025919428
8	0xbd04d137	-0.032426085
9	0xbd499c88	-0.049221545
10	0x3d409c9a	0.047024347
11	0x3cdfb838	0.027309522
12	0xbd0eff92	-0.0349117
13	0xbd3996cd	-0.04530983
14	0x3c037971	0.008024559
15	0xbb74cac9	-0.0037352315
