02_deep3D/model/model_He.pt (torch, 739878 bytes, 25 tensors)

reduce1.weight f4 [64, 1, 4, 4, 4]
0	0x3d320b3d	0.04346775
1	0x3bd8ab1b	0.0066121942
2	0x3db386f1	0.087659724
3	0xbda63ffd	-0.081176735
4	0x3c96d46d	0.01841184
5	0x3dc401d0	0.09570658
6	0xbdcbf17d	-0.099581696
7	0xbd0cda82	-0.034388073
8	0x3daf4d0c	0.085596174
9	0x3ca002fa	0.01953267
10	0xbc5ee22b	-0.013603727
11	0xbdd4bc2c	-0.103874534
12	0xbda6f2f9	-0.08151812
13	0xbdbd2e29	-0.0923732
14	0xbde833d8	-0.113380134
15	0xbd33bfc4	-0.043884054
16	0x3cbaf51f	0.022821961
17	0x3dee7e0a	0.11645134
18	0x3d550082	0.052002437
19	0xbcdee7c2	-0.02721012
20	0x3def6a2e	0.11690174
21	0xbd7d6567	-0.061864283
22	0x3dd1993f	0.102343075
23	0xbd8e06d1	-0.06934894
24	0xbd29ca98	-0.041452974
25	0x3c862cad	0.016378725
26	0xbd85e9b4	-0.06538716
27	0xbd0e661b	-0.034765344
28	0x3cd02ff3	0.025413489
29	0xbdd53f73	-0.104124926
30	0xbd8326da	-0.06403895
31	0xbdff16fb	-0.12455555
32	0xbd98457e	-0.074351296
33	0x3d3f7697	0.046743955
34	0xbd3ac2ab	-0.045595806
35	0xbdec2a8b	-0.11531552
36	0x3dc5b2ef	0.096532695
37	0x3ce2308b	0.027611038
38	0xbdce3a9e	-0.10069774
39	0xbdc10e5d	-0.09426568
40	0x3b874d49	0.004129086
41	0xbbc44a39	-0.0059902933
42	0x3de56a73	0.11201944
43	0xbde07399	-0.109595485
44	0xbc4f295d	-0.012644139
45	0xbd33a5a2	-0.04385913
46	0x3c4ff893	0.012693542
47	0x3d0a039f	0.03369486
48	0x3d24c673	0.04022832
49	0x3d71bae7	0.059016135
50	0x3d8fb355	0.07016627
51	0x3d8a1a7e	0.06743334
52	0x3dba83a1	0.091071375
53	0x3d116627	0.03549781
54	0xbd9a7cf0	-0.07543361
55	0x3d0f5093	0.03498895
56	0xbd9c11c5	-0.07620577
57	0xbc7fc6df	-0.015611379
58	0x3de7ea08	0.11323935
59	0xbdfad477	-0.12247556
60	0xbda74970	-0.08168304
61	0xbcd2a2d4	-0.025712408
62	0x3d54c671	0.05194706
63	0x3de1bb67	0.11022072
64	0x3d3b8be7	0.04578772
65	0x3b1fe404	0.0024397383
66	0x3dd0bec2	0.10192634
67	0xbd8cde26	-0.06878309
68	0xbba7738d	-0.0051102103
69	0xbd8976cb	-0.06712111
70	0x3dca78b2	0.09886302
71	0xbd1c3e12	-0.038145132
72	0xbdd7bd29	-0.10534126
73	0x3d8832ff	0.06650352
74	0xbd167524	-0.036732808
75	0x3df33771	0.11875809
76	0x3b4cdaaa	0.0031258264
77	0xbda257d4	-0.07926908
78	0xbd64932d	-0.05580442
79	0x3dec5712	0.11540045
80	0xbdbafeda	-0.0913064
81	0xbdb6c2fb	-0.08923908
82	0xbdc58618	-0.09644717
83	0x3da6e443	0.08149006
84	0x3d9305ad	0.07178817
85	0xbc9027d0	-0.01759711
86	0x3debabd2	0.115073815
87	0xbc11e94a	-0.008905718
88	0xbdef118d	-0.116732694
89	0xbd054397	-0.03253516
90	0x3c120e04	0.008914474
91	0x3d11835b	0.03552566
92	0x3df348a7	0.11879092
93	0xbd934249	-0.07190377
94	0xbdb97dba	-0.090571836
95	0x3d8bed42	0.06832363
96	0xbd5bcc0e	-0.0536614
97	0xbd1be5c0	-0.038060904
98	0xbdcca702	-0.09992792
99	0x3c3646ce	0.01112528
100	0xbd80a162	-0.06280781
101	0x3da46e16	0.0802881
102	0xbbed63f7	-0.0072445828
103	0xbdde9ce8	-0.10869771
104	0xbd9ae2c1	-0.07562781
105	0x3dbc8197	0.09204405
106	0x3de4e49b	0.111764155
107	0xbc1e4a8a	-0.009661326
108	0x3d2ba63e	0.041906588
109	0xbccc1798	-0.024913594
110	0xbddaa804	-0.10676578
111	0xbdb541e4	-0.08850458
112	0xba273014	-0.00063777086
113	0xbdc4af19	-0.0960371
114	0xbdbface1	-0.09359146
115	0x3dca813e	0.09887932
116	0xbdfb95b3	-0.12284412
117	0x3dba29d9	0.09090013
118	0xbd7137cb	-0.0588911
119	0x3df9a953	0.12190499
120	0xbd643d06	-0.05572226
121	0x3d7defa7	0.06199613
122	0x3ccd8707	0.0250888
123	0xbdd0f379	-0.10202689
124	0xbd7639d6	-0.06011375
125	0xbd31df43	-0.04342581
126	0xbd9582d6	-0.073003456
127	0x3ce71f73	0.028213238
128	0x3dbe4080	0.09289646
129	0x3d85720d	0.06515894
130	0xbdd2d0e9	-0.10293753
131	0xbd55fc8e	-0.052242808
132	0x3da582e1	0.08081604
133	0xbdc6ef3b	-0.09713598
134	0xbc874c25	-0.0165158
135	0x3dfac1ab	0.122439705
136	0x3d4e1442	0.050312288
137	0x3d961690	0.07328522
138	0xbdf74460	-0.12073588
139	0xbd510071	-0.05102581
140	0x3db37092	0.087617055
141	0xbd2f9482	-0.042866237
142	0x3ba8e531	0.005154275
143	0x3d1dd4b7	0.03853294
144	0x3d9be796	0.07612531
145	0xbd8951dd	-0.06705067
146	0xbd455ebc	-0.04818605
147	0xbd53deff	-0.051726338
148	0xbdc2dc65	-0.09514693
149	0x3bff6e1f	0.00779511
150	0xbdd60424	-0.104500085
151	0x3d38efe6	0.04515066
152	0x3d8fee3f	0.07027864
153	0x3d091a2f	0.033472236
154	0x3dfde7f0	0.12397754
155	0xbc6ff5de	-0.014646022
156	0x3ce7b0a2	0.028282467
157	0xbdcd2fd4	-0.10018888
158	0x3db9d66e	0.09074102
159	0x3deed27c	0.116612405
160	0x3d87acf8	0.06624788
161	0x3b7d97fa	0.0038695321
162	0xbd9f3b7b	-0.07775017
163	0xbdecd203	-0.11563494
164	0x3d520d82	0.051282413
165	0x3cf8611d	0.030319745
166	0xbd88c716	-0.06678598
167	0xbdb7f993	-0.089831494
168	0x3c9c7faf	0.019103853
169	0xbd8457a7	-0.06462031
170	0xbde0873b	-0.10963293
171	0xbbd00140	-0.0063478053
172	0xbd9a483c	-0.07533309
173	0xbce71830	-0.028209776
174	0x3daf6baa	0.08565457
175	0xbd207629	-0.039175186
176	0xbcf1c46e	-0.02951261
177	0xbdfea1ba	-0.12433191
178	0x3dcf3867	0.1011818
179	0x3d116341	0.035495047
180	0x3d9cb2c6	0.07651286
181	0xbd5a30cc	-0.053269193
182	0xbc8ceca7	-0.017202688
183	0xbd8ef1f1	-0.069797404
184	0x3d30d6d3	0.043173622
185	0xbd52e408	-0.051487
186	0x3ca90b36	0.020635229
187	0xbda997f7	-0.08280938
188	0xbd1b6612	-0.03793914
189	0x3dd6952c	0.10477671
190	0xbd49583f	-0.049156424
191	0x3da4753d	0.08030174
192	0x3d5043ba	0.05084584
193	0xbd5bd43d	-0.053669203
194	0xbdb0ed62	-0.08639027
195	0x3dd10cc0	0.1020751
196	0x3d3c64d0	0.04599458
197	0x3dc02776	0.093825266
198	0xbdaeee8e	-0.085415944
199	0x3def5c98	0.11687583
200	0xbdd6ffe6	-0.104980275
201	0xbd92e32e	-0.07172237
202	0xbc13088a	-0.008974204
203	0xbdaffc9e	-0.08593105
204	0x3d78c071	0.0607304
205	0x3d35bfd2	0.044372387
206	0xbd91e637	-0.07123988
207	0x3df0f26a	0.11764987
208	0x3a42fb26	0.0007437937
209	0x3dcf444d	0.10120449
210	0x3ca9f660	0.020747364
211	0x3dab9b71	0.083792575
212	0x3dd48dbd	0.10378597
213	0xbd9d0f3d	-0.07668922
214	0x3d3d65d0	0.046239674
215	0x3d53dcb2	0.051724143
216	0x3d862edc	0.065519065
217	0xbc95555f	-0.018229185
218	0x3d09b1b1	0.033616725
219	0xbdf05f3d	-0.11736915
220	0xbdff75ab	-0.12473615
221	0xbd10843d	-0.035282362
222	0xbdd48cdb	-0.103784285
223	0xbd49ddc6	-0.049283765
224	0xbb041ff8	-0.0020160656
225	0xbd8fa5d0	-0.07014048
226	0xbbe5d6f9	-0.007014152
227	0xbcabac30	-0.020956129
228	0x3dad8f3d	0.08474586
229	0xbdee987d	-0.116501786
230	0xbc060ba1	-0.0081814835
231	0x3c6b62e8	0.014366843
232	0x3decd21b	0.11563512
233	0x3d82891a	0.06373806
234	0xbdb36c80	-0.08760929
235	0x3deb49bb	0.11488672
236	0xbdbb1480	-0.091347694
237	0xbde08b6e	-0.10964094
238	0x3ce3c8bc	0.027805679
239	0x3d517ebc	0.051146254
240	0x3daeae0f	0.08529293
241	0xbdab3489	-0.0835963
242	0x3da4e7fe	0.080520615
243	0xbcbc2a3e	-0.022969361
244	0xbd3e4dd9	-0.04646096
245	0xbdf0c86c	-0.117569774
246	0xbdb1c645	-0.08680395
247	0x3dd67e2f	0.10473286
248	0x3d72248b	0.05911688
249	0xbdd614b1	-0.10453165
250	0xbd2f39bb	-0.042779665
251	0xbd288301	-0.04114056
252	0x3d0b3792	0.033988543
253	0x3c85244f	0.016252665
254	0x3b3c42a7	0.0028726251
255	0xbdb59af4	-0.088674456

reduce1.bias f4 [64]
0	0x3df470f4	0.119356066
1	0x3da40381	0.08008481
2	0x3c4900d7	0.012268267
3	0xbd7c2808	-0.061561614
4	0x3df211d4	0.11819807
5	0x3b3cc6f6	0.0028805113
6	0xbcc3edc8	-0.023917094
7	0x3d8b3bf0	0.067985415
8	0xbde73483	-0.11289313
9	0xbdd64844	-0.10463002
10	0xbd452025	-0.04812636
11	0xbd15e84d	-0.036598492
12	0x3deb8e67	0.115017705
13	0xbd911cf3	-0.070856
14	0x3dd506ab	0.104016624
15	0xbd44a13a	-0.04800532
16	0xbdd78cb3	-0.10524883
17	0x3df4716b	0.11935695
18	0xbde90c64	-0.113793164
19	0x3cf74f7d	0.03018927
20	0x3cec9410	0.028879195
21	0xbdc799c0	-0.09746122
22	0x3bc82c04	0.0061087627
23	0x3dfd2bc1	0.12361861
24	0xbd787300	-0.060656548
25	0x3dc43b8b	0.095816694
26	0xbdfba102	-0.12286569
27	0x3dab65bc	0.08369014
28	0x3b842e8a	0.004033868
29	0xbdba2907	-0.090898566
30	0xbdfc9541	-0.123331554
31	0x3df48af6	0.11940567
32	0xba2037d3	-0.0006111834
33	0xbd95f522	-0.07322146
34	0x3d720dae	0.059095077
35	0x3d94b681	0.07261372
36	0x3dd835e9	0.105571575
37	0x3c12bf54	0.008956749
38	0x3da42fe3	0.08016946
39	0xbcec8a99	-0.028874682
40	0xbd8b5783	-0.06803801
41	0xbdba48f0	-0.09095943
42	0xbcb96df6	-0.022635441
43	0xbdcb2337	-0.09918826
44	0x3dea8391	0.114508756
45	0x3d99f0cb	0.07516631
46	0x3ce759d3	0.028241074
47	0x3d38aec9	0.045088563
48	0xbd4ee9fc	-0.050516114
49	0x3e00d790	0.1258223
50	0xbc623ee1	-0.013808937
51	0x3c0446f2	0.008073555
52	0xbd1562ea	-0.036471285
53	0x3de57050	0.112030625
54	0x3be7dad4	0.007075647
55	0x3da123f7	0.07868188
56	0xbdaa1a2b	-0.083057724
57	0xbd82bd52	-0.06383766
58	0x3dde2b4d	0.10848103
59	0x3d60c0f9	0.054871533
60	0xbd4ff32a	-0.05076901
61	0x3dda5a29	0.10661728
62	0xbc275ebc	-0.0102154575
63	0xbdb34e9a	-0.087552264

nonreduce1_1.weight f4 [32, 64, 3, 3, 3]
0	0xbc586263	-0.013207051
1	0xbbd7f971	-0.006591015
2	0xbc2cb37a	-0.010540837
3	0x3aa492de	0.0012555977
4	0x3b5a395d	0.0033298351
5	0xbc98b058	-0.018638775
6	0xbc7a13da	-0.015263522
7	0x3cb3daf8	0.021954998
8	0xbc0c2eac	-0.008556049
9	0x3cc9df7d	0.0246427
10	0x3bb72083	0.0055885925
11	0xb8e98e93	-0.00011136862
12	0xbaacb737	-0.0013177161
13	0x3ba22c1e	0.004949107
14	0x3c2eb0a2	0.01066223
15	0xb8d12762	-9.973232e-05
16	0x3b9d3398	0.00479741
17	0x3cb8e1ab	0.022568544
18	0x3cd9363a	0.026515115
19	0xbc6aa57d	-0.014321682
20	0xbbc908a5	-0.0061350637
21	0xbc78c196	-0.015182873
22	0xbc8a1f5b	-0.016860655
23	0x3ca9efbe	0.0207442
24	0xbc641b4f	-0.0139225265
25	0xbc99b319	-0.018762158
26	0x3c5fd936	0.013662627
27	0xbca2ebd2	-0.019887839
28	0xbc7e6a38	-0.015528254
29	0x3bb954a9	0.005655844
30	0xbc28f691	-0.010312692
31	0x3a5a48ab	0.00083268684
32	0x3cb7b80c	0.022426628
33	0x3bfc1370	0.007692747
34	0x3b463b08	0.0030247588
35	0x3bbf7b6e	0.0058435714
36	0x3cce4c62	0.025182907
37	0xbba51c5d	-0.0050387816
38	0x3bf69ce0	0.007526025
39	0xbca7b910	-0.020473987
40	0xbb3d1420	-0.0028851107
41	0x3c40dd17	0.011771462
42	0x3cb69c24	0.02229125
43	0xbc24e4de	-0.010064332
44	0xb8bfe5de	-9.150406e-05
45	0xbb3da982	-0.0028940146
46	0xbca86fbc	-0.020561092
47	0x3a8e7ca4	0.0010870886
48	0x3b7c794c	0.0038524447
49	0xba068a5a	-0.00051323103
50	0x3b9d4cba	0.0048004063
51	0xbbe255c9	-0.006907199
52	0x3bde5633	0.006785178
53	0x3b0f52f3	0.002186951
54	0xbc2ec7bd	-0.0106677385
55	0xbbc98807	-0.006150249
56	0x3bb7b672	0.005606466
57	0x3882bc31	6.2339364e-05
58	0xbb8b5b30	-0.0042528138
59	0x3cb64caf	0.022253362
60	0xbc4e602b	-0.01259617
61	0x3ca010fc	0.019539349
62	0x3c137a54	0.009001333
63	0x3c2fb2e0	0.0107237995
64	0x3c65794e	0.014005972
65	0x3c74ce0f	0.014941706
66	0xbb5b122c	-0.003342758
67	0x3ac51dd4	0.0015038797
68	0xbb6b2d51	-0.0035885165
69	0x3b40659c	0.002935744
70	0x3bba0149	0.0056764227
71	0x3cca2408	0.024675384
72	0xbbfabb5f	-0.007651731
73	0xbbf1aa06	-0.0073750047
74	0x3cd32942	0.02577651
75	0x3cdafb92	0.026731286
76	0xb9f91a13	-0.00047512408
77	0xbc92bc9b	-0.0179122
78	0x3cb86388	0.022508398
79	0xbc615b3c	-0.013754662
80	0x3c34df4a	0.011039564
81	0xbb882a52	-0.0041554356
82	0x3cc42b17	0.023946328
83	0xbc940af1	-0.018071624
84	0x3c93ecef	0.018057315
85	0x3c5db912	0.013532894
86	0x3a3ed1ad	0.0007279169
87	0x3c8c9d7b	0.017164936
88	0x3bbd32a3	0.0057738586
89	0x3a188197	0.000581765
90	0x3bf38be3	0.0074324473
91	0xbca206b9	-0.019778596
92	0xbb29510e	-0.0025835666
93	0xbc92f723	-0.01794011
94	0xbcae0b31	-0.02124557
95	0x3cb79859	0.022411512
96	0xbc9a255c	-0.018816642
97	0x3bb22850	0.0054369345
98	0x3a4c350b	0.00077898864
99	0x3ca60afe	0.020268913
100	0x3a748130	0.0009327112
101	0x3b8d9c62	0.004321621
102	0xbb942b67	-0.0045217755
103	0xbca81913	-0.020519769
104	0x3ca510d5	0.020149628
105	0xbc92d864	-0.017925449
106	0xbc35923e	-0.01108223
107	0x3c02a32a	0.007973472
108	0x3cc97ea6	0.024596523
109	0xbb0b831c	-0.0021287864
110	0xbb77c020	-0.0037803724
111	0x3ca9a834	0.020710088
112	0x3c3f3e9b	0.011672641
113	0x3c2563e8	0.01009462
114	0x3cd48dcb	0.025946518
115	0xbc9f9a6c	-0.019482814
116	0x3cc1ef67	0.023673726
117	0xbbfb3846	-0.0076666204
118	0x3c55b9f0	0.013044819
119	0x3c354e6c	0.0110660605
120	0x3cd90837	0.026493175
121	0xbb459c7a	-0.0030153082
122	0x3cbeec2a	0.023305971
123	0x3b7d3b60	0.0038640127
124	0x3c1d179c	0.009588148
125	0xbbc65309	-0.006052379
126	0x3c993153	0.018700277
127	0x3cc5a1c3	0.024124986
128	0x3c870f58	0.016486809
129	0x3cc397dd	0.023876125
130	0xbc8df62c	-0.017329298
131	0xbca1cdfd	-0.019751543
132	0x3c35e809	0.011102685
133	0x3ca1efcc	0.019767664
134	0x3a8838eb	0.001039294
135	0x3d4f68f8	0.050637215
136	0x3d34221a	0.043977834
137	0x3d22f45c	0.03978382
138	0x3d9a825b	0.075443946
139	0x3d80bd8a	0.06286152
140	0x3d3bde06	0.045866035
141	0x3d9040db	0.0704362
142	0x3de4ddcc	0.11175117
143	0x3de638a1	0.1124127
144	0x3ca4c95e	0.02011555
145	0x3d5ef697	0.054434385
146	0x3cd8103e	0.026374932
147	0x3d77b007	0.060470607
148	0x3d96c0d4	0.07360998
149	0x3d80c157	0.06286877
150	0x3d9517bf	0.0727992
151	0x3db69222	0.08914591
152	0x3dea78f8	0.11448854
153	0x3d6fc0b3	0.05853338
154	0x3d29d156	0.041459404
155	0x3d2b946f	0.041889604
156	0x3d5ab3bd	0.053394068
157	0x3d644e16	0.05573853
158	0x3d7e970a	0.06215576
159	0x3de1165b	0.10990592
160	0x3db81c32	0.08989753
161	0x3dc5a9d0	0.0965153
162	0x3cdb4b7e	0.026769396
163	0xbc9e59aa	-0.019329865
164	0xbc8b9a4b	-0.017041346
165	0x3cdbcf40	0.026832223
166	0xbc7286b7	-0.014802626
167	0xbbceaf69	-0.0063075316
168	0xbc47afb5	-0.012187888
169	0x3c840753	0.016116774
170	0x3b898d11	0.0041977246
171	0xbc1dd74b	-0.009633849
172	0x3cd6c7cf	0.026218323
173	0x3ce10a72	0.027470801
174	0x3c9d1a38	0.019177541
175	0xbc8e3836	-0.017360788
176	0xbc72132b	-0.014775078
177	0xbc6a2789	-0.0142916525
178	0xbc390a0c	-0.011293899
179	0x3c1ae111	0.009453074
180	0x3cbdd126	0.023171019
181	0xbc74a301	-0.014931441
182	0x3ca9a5cc	0.02070894
183	0x3ca936f1	0.02065608
184	0x3c3b8c92	0.011447089
185	0x3c952810	0.01820758
186	0xbc6077b1	-0.013700412
187	0x3c08e519	0.008355402
188	0x3c928dbd	0.017889852
189	0x3c0bb65c	0.008527365
190	0xbbaf33e4	-0.005346762
191	0x3cea1dc0	0.028578639
192	0x3c94e1aa	0.018174011
193	0x3b7f4301	0.003894985
194	0x3cef5ded	0.029219592
195	0xbc23fe40	-0.010009348
196	0x3d0c447f	0.03424501
197	0x3ca4d66b	0.020121774
198	0x3ac9b418	0.0015388755
199	0x3c90cbca	0.0176753
200	0x3cffe4ee	0.031237092
201	0x3d0742ab	0.033022564
202	0xbaf1ca9f	-0.0018447227
203	0x3c831575	0.016001442
204	0xbbf81fb4	-0.0075721387
205	0x3bd5940e	0.0065178936
206	0x3c86c321	0.016450467
207	0x3d239ff4	0.039947465
208	0x3bc5a83d	0.0060320185
209	0x3d06fd9d	0.03295671
210	0x3ad5c15e	0.0016308238
211	0x3aaaa136	0.0013018015
212	0x3c01ed79	0.007930153
213	0x3ce19a57	0.027539415
214	0xbbb2c13b	-0.005455164
215	0xbc227ca2	-0.00991741
216	0xbbe4eb67	-0.00698607
217	0xbca4d048	-0.020118847
218	0x3afd3d83	0.00193207
219	0xbb8e5830	-0.004344009
220	0x3c4bf722	0.012449058
221	0xbc3cfed9	-0.01153537
222	0x3c2e577f	0.010640978
223	0xbc25af85	-0.010112648
224	0x3ba60dde	0.005067571
225	0x3bccbc83	0.0062480583
226	0x3c2b7bae	0.010466499
227	0x3bd8a5f4	0.00661158
228	0x3c5da95e	0.01352915
229	0x3cce708e	0.025200155
230	0xbc2359f2	-0.009970175
231	0x3c9019dc	0.017590456
232	0x3cbd1d87	0.023085369
233	0x3c17a3ec	0.009255391
234	0x3c150d31	0.009097383
235	0x3b6c08fa	0.0036016093
236	0x3c77e3a7	0.01512996
237	0x3c7c3696	0.015393874
238	0x3c3b8d72	0.011447297
239	0xbc56fb99	-0.013121509
240	0x3c9e692d	0.019337261
241	0x3c88e209	0.016709344
242	0x3c8afc11	0.016965898
243	0x3b576e3c	0.0032872101
244	0x3cddb0d3	0.027061855
245	0x39e05c4c	0.00042793376
246	0x3cb70537	0.022341354
247	0xbbf7c25b	-0.007561011
248	0xbbe8fea0	-0.007110432
249	0x3cc0aa2c	0.023518644
250	0x3cc20b7d	0.023687119
251	0xbc07af51	-0.008281545
252	0xbc98b9d5	-0.0186433
253	0x38a6c203	7.951634e-05
254	0x3c0b8992	0.008516686
255	0x3c5766c0	0.013147056

nonreduce1_1.bias f4 [32]
0	0xbaf9c4e6	-0.0019055873
1	0xbc867a9d	-0.016415888
2	0xbaa4f72f	-0.0012585873
3	0xbc92fb6d	-0.017942155
4	0x3c16bf44	0.009200875
5	0xbc58621c	-0.013206985
6	0xbc251a72	-0.010077106
7	0xbc9d147e	-0.01917481
8	0xbb600858	-0.003418466
9	0xbcc0e42b	-0.023546299
10	0x3cb50176	0.022095423
11	0x3c835ab9	0.01603447
12	0xbc920f58	-0.017829582
13	0xbc37f54c	-0.011227917
14	0x3bc81da5	0.0061070495
15	0xbc5c3812	-0.013441103
16	0x3c251a70	0.010077104
17	0x3bd2224b	0.0064127794
18	0xbc18340f	-0.0092897555
19	0x3bafff23	0.005370991
20	0x3cb3cd9b	0.021948626
21	0x3a8a92ae	0.0010572278
22	0x3c72c40a	0.014817247
23	0xbc94d022	-0.018165652
24	0xbbee22c1	-0.0072673266
25	0x3cbee023	0.023300236
26	0x39b12255	0.0003378565
27	0x3cbe8727	0.023257805
28	0xbbe0271c	-0.0068405997
29	0x3ba88773	0.0051431
30	0xbc014be5	-0.00789163
31	0xbb2ae4b5	-0.0026076261

nonreduce1_2.weight f4 [32, 32, 3, 3, 3]
0	0xbc2a0444	-0.010376994
1	0xbcbc3664	-0.022975154
2	0xbb5cb0e7	-0.0033674778
3	0xbc27c32c	-0.010239404
4	0x3d0b1f00	0.03396511
5	0x3bbc31b9	0.005743232
6	0x3ce7a61d	0.028277451
7	0xbc26b94f	-0.010176017
8	0x3cde1055	0.027107397
9	0xbc04f315	-0.008114596
10	0x3b78ea29	0.0037981367
11	0x3cf18ab8	0.029485092
12	0x3ab9f72d	0.0014188044
13	0x3b446806	0.002996923
14	0x3b10aa5f	0.0022074205
15	0x3bc3fcda	0.00598107
16	0xbcd8c8c3	-0.026462918
17	0x3cf6e089	0.030136364
18	0xbaa62405	-0.001267553
19	0x3cb74ed4	0.022376455
20	0xbc9687f6	-0.018375378
21	0x3cc84a17	0.024449391
22	0x3caa6c0b	0.020803472
23	0x3d05e984	0.0326934
24	0xbcf0088c	-0.02930095
25	0xbca402ca	-0.020020861
26	0xbcc731d1	-0.024315747
27	0x3bafbfc4	0.0053634364
28	0xbb8ef6c5	-0.0043629133
29	0xbcfc3c02	-0.030790333
30	0xbcd58114	-0.026062526
31	0x3ccdf142	0.025139455
32	0x3b1191f0	0.002221223
33	0x3ce9346c	0.02846738
34	0x3d0af450	0.0339244
35	0x3bb96596	0.005657862
36	0xbcfa0eb3	-0.030524587
37	0x3c21c174	0.009872783
38	0xbc9049a8	-0.017613247
39	0x3ccaa735	0.024737934
40	0x3c8d3d81	0.017241241
41	0xbc454ed4	-0.01204272
42	0x3c34052e	0.010987563
43	0xbcde109b	-0.027107527
44	0x3c23015e	0.009949056
45	0x3c7ab199	0.015301132
46	0x3c6b1506	0.014348274
47	0xbceb97c2	-0.028758887
48	0x3c31cc7f	0.010851978
49	0x3b9436b3	0.004523122
50	0xbbe84712	-0.0070885504
51	0xbce42438	-0.027849302
52	0x3ccad2fc	0.024758808
53	0x3c919704	0.017772205
54	0x3d0f88fc	0.035042748
55	0x3c3b615b	0.011436786
56	0xb7f92bae	-2.9703453e-05
57	0x3ae78a5d	0.0017665137
58	0xbc78e054	-0.015190203
59	0xbb87f385	-0.004148903
60	0xbcb2ccdd	-0.021826202
61	0x3b19f5e1	0.0023492503
62	0xbc01162d	-0.007878822
63	0x3c7b8f73	0.015354025
64	0x3c1c97c0	0.009557664
65	0xbc6af28a	-0.014340052
66	0xbcda35de	-0.026637014
67	0xbcea7810	-0.028621703
68	0xbc502b50	-0.012705639
69	0x3cc78ac7	0.024358166
70	0x3ca3a4dc	0.019976072
71	0x3cfa8076	0.030578833
72	0xbbf177ef	-0.0073690335
73	0x3be4d78f	0.0069837044
74	0x3ca71ff6	0.020400982
75	0xbcc84e3a	-0.024451364
76	0x3cb28349	0.021791117
77	0x3cd754ec	0.026285611
78	0xbb21d5ed	-0.002469416
79	0xbbc65383	-0.006052436
80	0x3cc5582e	0.024089899
81	0xbd05fbf9	-0.032711003
82	0x3ca505d1	0.020144375
83	0xbc7972ff	-0.015225171
84	0x3c9389fa	0.018010128
85	0xbcc0f888	-0.023556009
86	0x3b305de2	0.0026911427
87	0x3cd37f91	0.025817664
88	0xbc2c5277	-0.010517708
89	0xbca3995d	-0.01997059
90	0x3c7209de	0.01477286
91	0xbd02ed2e	-0.031964473
92	0xbc94c69a	-0.018161107
93	0x3cd7eb75	0.026357392
94	0x3cda51e8	0.026650384
95	0x3c9b2e41	0.018942954
96	0x3cdcefea	0.026969869
97	0xbcf4b859	-0.02987306
98	0xbcacf80e	-0.021114375
99	0x3c34052b	0.01098756
100	0x3b8af476	0.004240568
101	0x3caa1283	0.02076078
102	0x3d08df96	0.033416353
103	0xba949f68	-0.0011339011
104	0xbc9fc938	-0.019505128
105	0xbc03a0ae	-0.0080339145
106	0xbc1e45df	-0.009660213
107	0xbd0a1d33	-0.033719253
108	0x3c6114e4	0.013737891
109	0xbb7d3e12	-0.0038641733
110	0x3c06255a	0.008187616
111	0xbc0bcf10	-0.008533254
112	0x3c8cdac6	0.017194163
113	0x3ba76586	0.005108538
114	0xbcdf2cf4	-0.027243115
115	0x3d0d2a37	0.034464087
116	0xbce0ebe9	-0.02745624
117	0xbc8e786c	-0.017391406
118	0xbcd5dc4b	-0.02610602
119	0x3c61e2a2	0.013786944
120	0xbb52aca3	-0.0032146357
121	0xbc061a4f	-0.008184983
122	0x3af35fcb	0.0018567977
123	0xbca161c3	-0.019699937
124	0x3ca5e090	0.020248681
125	0xbce904da	-0.028444696
126	0x3d11fd84	0.035642162
127	0xba880978	-0.0010378798
128	0x3ccaef43	0.024772292
129	0x3c5a0827	0.013307608
130	0xbd015d7d	-0.031583298
131	0x3c126f28	0.0089376345
132	0x3ced7a0e	0.028988864
133	0x3b05e12d	0.0020428405
134	0xbc56cb16	-0.013109943
135	0x3c00fe45	0.007873123
136	0x3c51e53c	0.012811001
137	0xbd01df3b	-0.03170703
138	0xbc975121	-0.018471302
139	0x3c9f4674	0.019442774
140	0x3b4addbe	0.0030954923
141	0xbc823613	-0.015894925
142	0x3cfa2360	0.030534446
143	0x3c58ad6f	0.013224944
144	0x3c0f61ce	0.008751346
145	0xbcb74481	-0.022371532
146	0xb93f8a9e	-0.00018266818
147	0x3d0dfab7	0.03466293
148	0xbc2f0964	-0.010683391
149	0xbc42241a	-0.011849428
150	0xbc1c894c	-0.0095542185
151	0x3cc4d0a9	0.024025278
152	0xbcedd1ee	-0.029030766
153	0x3b8cf38b	0.0043014935
154	0xbcf170ed	-0.029472793
155	0x3d1483b0	0.0362584
156	0x3c59dd2d	0.013297361
157	0x3bdc38f2	0.0067206556
158	0x3cc7a156	0.024368923
159	0xbb96fb5e	-0.004607602
160	0x3aefcf3a	0.0018296011
161	0xbc2db4b3	-0.010602164
162	0xbc8343d9	-0.016023563
163	0xbc27a57c	-0.010232326
164	0x3c24768d	0.01003803
165	0xbb08d68f	-0.002087984
166	0x3b077de6	0.0020674407
167	0x3c99161e	0.018687304
168	0x3c9a81c6	0.018860709
169	0x3ac1808a	0.0014763039
170	0xbc6fc2a9	-0.014633813
171	0x3c1afeb0	0.009460136
172	0x3d06971b	0.03285895
173	0x3c18b5eb	0.009320716
174	0xbcfd9e32	-0.030959222
175	0x3c1fb827	0.009748495
176	0xbceac778	-0.028659567
177	0x3cc145de	0.023592886
178	0x3cd633e3	0.026147788
179	0xbc1938f7	-0.00935196
180	0xbd02193f	-0.031762358
181	0x3aca56aa	0.0015437205
182	0xbcaf8833	-0.02142725
183	0xba7f2f03	-0.00097344833
184	0xbc9b6d6c	-0.018973075
185	0x3c8708c3	0.01648367
186	0x3c004a39	0.007830196
187	0x39c441f5	0.00037433175
188	0xbd0116a6	-0.03151574
189	0xbce0c139	-0.027435886
190	0x3d064f4b	0.032790463
191	0xbcc81bdb	-0.024427345
192	0xbc8f0bd4	-0.017461695
193	0xbcad7e24	-0.021178313
194	0x3d023fb3	0.03179903
195	0x3c9fcf95	0.019508163
196	0x3ce71d8a	0.028212328
197	0x3cad54c0	0.021158576
198	0xbc4386e6	-0.011934018
199	0x3ce55a51	0.027997168
200	0xbc056905	-0.008142714
201	0x3c09b460	0.008404821
202	0xbd03b99d	-0.032159436
203	0x3c26e367	0.010186053
204	0xbc8fcce1	-0.017553749
205	0x3c8321d9	0.01600735
206	0xbac1c73f	-0.0014784111
207	0x3c1ee682	0.009698512
208	0x3c9c1183	0.019051319
209	0x3997a774	0.00028925727
210	0xbc56be97	-0.013106964
211	0xbcf3c721	-0.029758038
212	0xbcf84d2a	-0.030310232
213	0xbccd7a7b	-0.025082817
214	0x3c9c5edc	0.019088201
215	0xbce9b8dd	-0.028530532
216	0xbbc002d5	-0.0058597126
217	0x3cc9d986	0.024639856
218	0xbce3aac8	-0.027791396
219	0xbbc63901	-0.006049276
220	0xbce9646b	-0.028490266
221	0xbc8f3941	-0.017483355
222	0xbc3eb9b4	-0.011640955
223	0x3c1da245	0.009621208
224	0x3ccd614d	0.02507081
225	0xbbebfdca	-0.007201885
226	0x3d0b7e88	0.034056216
227	0xbbbf7825	-0.0058431798
228	0xbbfc100e	-0.0076923436
229	0xb9c0ed99	-0.00036798118
230	0x3cb3fe9b	0.021971991
231	0xbb24927f	-0.0025111733
232	0xbcf4c8bd	-0.029880876
233	0xbc948069	-0.018127637
234	0xbcccb14a	-0.024986882
235	0xbce855ab	-0.028361162
236	0xbcc6dd3a	-0.02427541
237	0x3bb68ca7	0.0055709663
238	0xbce7d17c	-0.028298132
239	0xbcc375cb	-0.023859879
240	0xbcc5ef87	-0.024162067
241	0x3c472c18	0.012156509
242	0x3ba56573	0.005047494
243	0x3cf4cf04	0.029883869
244	0x3c878e3a	0.016547311
245	0xbc98a24b	-0.018632075
246	0x3d009cee	0.03139966
247	0xbc81f5d5	-0.015864292
248	0x3c157a2d	0.009123367
249	0x3cd882df	0.026429592
250	0xbb654edc	-0.003498963
251	0xbcbafa20	-0.022824347
252	0x3c465443	0.0121050505
253	0xbc32a6c7	-0.010904021
254	0xbccd4e74	-0.025061823
255	0xbc836274	-0.016038157

nonreduce1_2.bias f4 [32]
0	0xbc052de1	-0.008128614
1	0xbb672d45	-0.0035274785
2	0x3ce092f6	0.027413826
3	0x3b80c376	0.0039295508
4	0x3c6929f2	0.014231192
5	0xbc2bb499	-0.01048007
6	0xba98a821	-0.0011646786
7	0xbcb5aa7a	-0.022176016
8	0xbb5ab434	-0.003337157
9	0x3ccddce2	0.02512974
10	0xbcded04e	-0.027198937
11	0x3cd8698a	0.026417512
12	0xbcca6ceb	-0.02471014
13	0x3be49562	0.0069758156
14	0x3d0a187b	0.033714753
15	0x3cdc0e74	0.02686236
16	0xbcc5057f	-0.024050472
17	0xba32307e	-0.0006797387
18	0xbce4e4db	-0.027941158
19	0xbc9436b9	-0.0180925
20	0x3ce9d22c	0.0285426
21	0x3a903899	0.0011003196
22	0x3c171d80	0.009223342
23	0xbc5779b5	-0.013151576
24	0x3d066073	0.032806825
25	0x3cc9503d	0.024574393
26	0xbb951d03	-0.0045505776
27	0x3ccd03f8	0.025026307
28	0xbcf6daf1	-0.030133696
29	0xbb38bd61	-0.002818905
30	0x38c31078	9.301392e-05
31	0xbb972fd9	-0.004613858

nonreduce1_3.weight f4 [32, 32, 3, 3, 3]
0	0xbba50406	-0.00503588
1	0xbc6fedf6	-0.014644137
2	0x3b697b3c	0.0035626432
3	0xbcac37c6	-0.021022689
4	0xbc41b089	-0.011821874
5	0x3bbadf46	0.005702886
6	0x3ca4c5a5	0.020113776
7	0xbce384ba	-0.02777325
8	0x3c9c6e6f	0.019095628
9	0xbcdf26d7	-0.0272402
10	0xbbbb733b	-0.0057205237
11	0xbcf375fa	-0.029719342
12	0x3c408eb1	0.01175277
13	0x3c5f3d6b	0.013625483
14	0x3d0ecc36	0.03486272
15	0xbc4be666	-0.012445068
16	0x3b0e9b01	0.002175987
17	0x3cc92bdb	0.024557045
18	0xbcf172d1	-0.029473694
19	0x3cfcd3f3	0.030862784
20	0xbcf3c69a	-0.029757787
21	0x3cd293c1	0.02570522
22	0x3ca0a6c7	0.019610776
23	0x37bcd65c	2.2511165e-05
24	0x3c9d8014	0.019226111
25	0x3cdd48e7	0.027012302
26	0x3ca6595a	0.020306278
27	0x3cd96ad9	0.026540207
28	0xbc609b50	-0.013708904
29	0x3c919ad4	0.017774023
30	0xbcc5e41e	-0.024156626
31	0xbcc77d8a	-0.024351854
32	0xbcfcc3f7	-0.030855162
33	0xbcb95a07	-0.022625936
34	0xbcb0bb29	-0.02157362
35	0x3cea882e	0.028629389
36	0x3cb533cb	0.022119423
37	0x3cd9b21a	0.026574183
38	0xbc9d263d	-0.019183272
39	0xbc5ea2a9	-0.013588586
40	0xbcba1ebe	-0.022719737
41	0xbb6d28f7	-0.0036187747
42	0x3ca7418b	0.020416996
43	0x3c901101	0.017586233
44	0xbce14f34	-0.027503587
45	0xbcc5aeb9	-0.024131166
46	0xbcba2c3d	-0.022726173
47	0x3c6c8828	0.014436759
48	0xbcebcf9f	-0.028785525
49	0xbce8a5e1	-0.02839941
50	0x3d07d3a1	0.03316081
51	0x3b8358eb	0.0040084026
52	0xbcc28ba1	-0.02374822
53	0x3cd030af	0.02541384
54	0xbc532499	-0.0128871435
55	0x3cb42e8d	0.021994853
56	0xbce9ce64	-0.028540798
57	0xbbc83c5e	-0.006110712
58	0xbc3e181f	-0.011602431
59	0xbcc81d91	-0.02442816
60	0x3cbd71dc	0.023125581
61	0xbcc93041	-0.024559142
62	0x3c1a2b8c	0.009409796
63	0xbce3d466	-0.02781124
64	0x3bf36244	0.0074274857
65	0x3c61577a	0.013753766
66	0x3cea8f7b	0.02863287
67	0xbc6d7bb4	-0.014494825
68	0x3d0336bb	0.032034617
69	0xbc0196d9	-0.0079095
70	0xbc578a38	-0.0131555125
71	0x3b93e266	0.004513073
72	0x3b26990b	0.002542081
73	0x3cadb494	0.02120427
74	0x3d0fa2d7	0.035067406
75	0x3d0e4478	0.034733266
76	0xbc9b6f68	-0.018974021
77	0x3cbeca55	0.023289839
78	0xbcaa8580	-0.02081561
79	0xbc9dbf6c	-0.019256316
80	0x3ce5e3d4	0.028062738
81	0x3bade5ad	0.0053069205
82	0xbc9659e8	-0.018353418
83	0x37e630f4	2.7440932e-05
84	0xbca08380	-0.019593954
85	0x3bc194f1	0.005907648
86	0xbccbd85c	-0.024883442
87	0xbcaf096d	-0.0213668
88	0xbcbed668	-0.023295596
89	0x3bd289c4	0.0064251143
90	0x3c409b05	0.01175571
91	0x3d110201	0.0354023
92	0xbc79c72a	-0.015245238
93	0xbc21b1e9	-0.009869077
94	0xbbbc661c	-0.005749477
95	0x3cc01388	0.023446813
96	0xbcb3c22a	-0.02194317
97	0xbc9c61fc	-0.019089691
98	0x3cfaef56	0.030631702
99	0xbb7dc536	-0.0038722283
100	0x3d123777	0.035697427
101	0x3cac61bc	0.021042697
102	0x3a5b0df6	0.00083562674
103	0xbcb6211e	-0.022232588
104	0x3caa42b4	0.02078376
105	0x3ccca639	0.024981605
106	0x3cab15cf	0.020884423
107	0x3cba3003	0.022727972
108	0xbcb83091	-0.022484096
109	0xbb31ef2a	-0.002715061
110	0x3c26ccb8	0.010180645
111	0x3d1262ec	0.03573887
112	0x3c99884e	0.018741753
113	0xbc3d2bcc	-0.0115460865
114	0x3d1b0cc7	0.037853982
115	0xbbbe133c	-0.0058006328
116	0x3cb91ad2	0.022595797
117	0xbb1626e0	-0.0022911355
118	0x3c937fc8	0.018005267
119	0x3cec4c7e	0.028845068
120	0x3ca0b21b	0.019616177
121	0xbc9436b4	-0.01809249
122	0xbc86a1f8	-0.016434655
123	0xbb1eb6e5	-0.00242179
124	0x3cbb0c48	0.022833005
125	0x3b11e4cc	0.0022261618
126	0x3cd7ef76	0.026359301
127	0xbc4406a7	-0.011964477
128	0x3c185f55	0.009300073
129	0x3c3cd3bd	0.011525092
130	0x3d15828a	0.036501445
131	0x3d0d9dfe	0.0345745
132	0x3c99b82e	0.018764582
133	0x3cf9ab30	0.030477136
134	0xbb8e5016	-0.004343043
135	0xbc72a36e	-0.0148094725
136	0xbc163cfa	-0.009169811
137	0x3d1396dd	0.036032546
138	0x3d23f732	0.040030666
139	0xbcd66c79	-0.02617477
140	0xbcbda35d	-0.023149187
141	0x3ca65b91	0.020307334
142	0xbb97f2e6	-0.00463711
143	0xbce73f60	-0.028228462
144	0x3d254d18	0.040356725
145	0xbcf2091e	-0.029545363
146	0x3c9ed8ae	0.01939043
147	0xbc7e2dd9	-0.015513861
148	0xbc55ee52	-0.013057308
149	0x3cc57171	0.024101945
150	0x3d3bc97b	0.045846444
151	0x3c208419	0.00979712
152	0xbcd21373	-0.02564404
153	0xbcc03448	-0.02346243
154	0xbc53f559	-0.012936913
155	0xbce1c399	-0.027559089
156	0xbc71e0f1	-0.014763103
157	0x3b911589	0.004427616
158	0x3c9e91a7	0.019356562
159	0xbcac86fc	-0.02106046
160	0xbcdb43bf	-0.026765702
161	0xbc07802e	-0.0082703065
162	0x3ce7af27	0.028281761
163	0x3cacc845	0.02109159
164	0x3ccaf204	0.024773605
165	0x3ca06fbf	0.019584535
166	0x3bc344e5	0.0059591406
167	0x3d0ac25a	0.033876754
168	0x3d042520	0.032261968
169	0xba0191c3	-0.00049426797
170	0x3c855fe1	0.01628107
171	0x3ce06dee	0.027396169
172	0x3bce82ef	0.0063022296
173	0xbc386181	-0.0112537155
174	0xbc9bc5f0	-0.019015282
175	0x3b038577	0.0020068565
176	0xbcde1547	-0.027109755
177	0x3c9d4ca7	0.01920159
178	0xbc932230	-0.017960638
179	0x3cb197f0	0.021678895
180	0x3be3e138	0.0069543384
181	0x3c14c0e4	0.009079192
182	0xbcd5d5b7	-0.026102884
183	0xbcd9ad06	-0.026571762
184	0xbc50f720	-0.012754232
185	0xbcc1ef0c	-0.023673557
186	0x3d017cf2	0.031613298
187	0x3cc6a268	0.024247363
188	0xbc355e42	-0.011069836
189	0x3c56e030	0.013114974
190	0x3d142000	0.03616333
191	0xbb339c0f	-0.002740625
192	0x3c86c76e	0.016452517
193	0x3c470f13	0.01214959
194	0x3c17c9e8	0.009264447
195	0xb93101c2	-0.0001688069
196	0x3be4a602	0.0069777975
197	0x3d139b14	0.036036566
198	0xbb9f7f6b	-0.0048674843
199	0xba9f183d	-0.0012137961
200	0x3beacb6f	0.0071653645
201	0x3c242fe5	0.010021185
202	0xbcb59986	-0.022167932
203	0x3b3b96ec	0.0028623892
204	0x3d01e52a	0.03171269
205	0x3cfadde9	0.030623393
206	0x3c17f608	0.009274967
207	0x3d0615c7	0.032735612
208	0x3b85d8c3	0.004084678
209	0x3c54ea3e	0.012995301
210	0xbc270db7	-0.010196141
211	0xbcdf8820	-0.02728659
212	0xbc9b3d77	-0.018950207
213	0x3cd3f8c5	0.025875458
214	0xbc134b4e	-0.008990122
215	0x3cb7885e	0.022403892
216	0xbbd372d3	-0.006452897
217	0x3c247eb6	0.010039976
218	0x3d21141e	0.039325826
219	0x3d012f81	0.031539444
220	0x3bc744f9	0.00608122
221	0x3c96c0ac	0.01840242
222	0xbb6b671c	-0.0035919612
223	0x3cc3b3bf	0.02388942
224	0x3c472a78	0.012156121
225	0xbcc6812c	-0.024231516
226	0x3cab8dfd	0.020941729
227	0x3cd268a9	0.025684671
228	0x3c0b8388	0.008515246
229	0xbbcf018d	-0.0063173235
230	0xbcc4e422	-0.024034563
231	0xbc169d8e	-0.009192837
232	0xbc1cf2a6	-0.009579336
233	0xbc91b434	-0.017786123
234	0x3ca7565c	0.020426922
235	0x3d163881	0.03667498
236	0x3cd451f7	0.02591799
237	0xbc0032d2	-0.0078246165
238	0x3c9b198e	0.018933084
239	0xbc0236cc	-0.007947635
240	0x3cbc25d9	0.022967266
241	0x3cb64217	0.022248311
242	0x3d0668d5	0.03281482
243	0x3b9ea1a6	0.0048410473
244	0x3a952a5d	0.0011380423
245	0x3cc38b80	0.02387023
246	0x3a930945	0.0011217972
247	0x3d1b653d	0.037938345
248	0x3c6f9f55	0.01462539
249	0x3b4de72e	0.0031418311
250	0xbc85114f	-0.016243605
251	0xbc4aa07d	-0.012367365
252	0x3be0f5ec	0.0068652537
253	0x3d10555d	0.03523766
254	0xbcd236f9	-0.025660979
255	0xbc451a15	-0.012030144

nonreduce1_3.bias f4 [32]
0	0x3d12e2c8	0.035860807
1	0x3c8e10bc	0.017341964
2	0x3c0caf18	0.0085866675
3	0x3bdbfb70	0.0067133233
4	0x3c906077	0.017624123
5	0x3bcf20be	0.006321042
6	0x3d01124d	0.031511594
7	0x3cff968c	0.031199716
8	0xbc13c79c	-0.009019759
9	0xbd0c25f0	-0.034215868
10	0xbc11e893	-0.008905548
11	0xbc941176	-0.018074732
12	0x3c837f45	0.016051898
13	0xbac569e5	-0.0015061466
14	0x3c2d1205	0.010563378
15	0xbd0ed4a5	-0.034870762
16	0x3b18e540	0.0023330003
17	0xb954305e	-0.00020235914
18	0x3d0e3e71	0.034727518
19	0xbc3d23ce	-0.011544181
20	0xbc8cd630	-0.017191976
21	0xbcccb9a0	-0.024990857
22	0xbcb16e57	-0.02165906
23	0xbcfc4e4b	-0.030799052
24	0x3c4fe863	0.012689683
25	0x39a605ef	0.00031666408
26	0x3ce6b796	0.028163712
27	0x3c9e6f08	0.019340053
28	0x3cc9cab1	0.024632784
29	0x3b5523a0	0.0032522455
30	0x3d0869d0	0.033304036
31	0xbc707477	-0.014676205

reduce2.weight f4 [16, 32, 4, 4, 4]
0	0x3b8fb6c5	0.0043858015
1	0x3c644b06	0.013933903
2	0x3c68ce05	0.014209275
3	0x3c72af6c	0.014812332
4	0x3c0cfbaa	0.008604923
5	0x3bca7b3b	0.006179241
6	0x3b8003e5	0.0039067143
7	0xbbde3586	-0.006781283
8	0xbc18f1d3	-0.009334999
9	0xbbbaf211	-0.005705126
10	0x3ca86c50	0.02055946
11	0xbc369ac0	-0.011145294
12	0x3c7582fe	0.014984844
13	0xbc29d9e7	-0.010366893
14	0x3bd2368d	0.0064151944
15	0x3c6bf710	0.014402166
16	0xbc41724f	-0.011807038
17	0x3a368d27	0.00069637824
18	0x3c944ccf	0.018103031
19	0xbb9de6b9	-0.004818764
20	0x39a97efd	0.00032328806
21	0x3c87e204	0.016587265
22	0x3bba59a3	0.005686955
23	0xbc96b099	-0.018394755
24	0xbb3dd0ce	-0.0028963569
25	0xbc713c55	-0.014723857
26	0xbc2d0803	-0.010560992
27	0x3c482794	0.012216467
28	0xbb74784c	-0.0037303148
29	0x3c788fed	0.015171033
30	0xbc6f59cf	-0.014608814
31	0xbb4ca6a2	-0.003122725
32	0x3a92b96d	0.0011194177
33	0x3cbedbf5	0.023298243
34	0x3b202692	0.0024437052
35	0xbca1efef	-0.01976773
36	0x3c035b71	0.008017407
37	0x3bb96a03	0.0056583895
38	0xbc6d8867	-0.014497853
39	0x3cbf325d	0.023339445
40	0xbca4098d	-0.020024085
41	0xbc6a744a	-0.014309952
42	0xbc5eca7a	-0.013598079
43	0x3c8f6233	0.01750288
44	0x3c16aa0f	0.009195819
45	0xbbac8bbf	-0.0052656825
46	0x3c5fc170	0.013656959
47	0xbc92b17b	-0.017906895
48	0xbbe8ffed	-0.007110587
49	0x3b2a2257	0.002596041
50	0x3b10d123	0.0022097311
51	0x3c4d3e29	0.012527027
52	0xbc5cc2f5	-0.013474216
53	0x3c474236	0.012161782
54	0xbc757c75	-0.014983286
55	0x3bbf8f9a	0.005845976
56	0x3ac9c413	0.0015393518
57	0xbc705179	-0.014667862
58	0x3ab91b55	0.0014122525
59	0x39df9f09	0.00042652365
60	0xbbdfcd7c	-0.0068299156
61	0xbbbdba1c	-0.005790008
62	0xbc4ea250	-0.0126119405
63	0x3c8779e2	0.01653761
64	0x3c208434	0.009797145
65	0x3af81195	0.0018926138
66	0xbc6fd5f9	-0.014638417
67	0x3c764068	0.015030004
68	0x3bd29349	0.006426249
69	0x3cac5c6f	0.02104017
70	0x3c56a11f	0.013099938
71	0x3c19533d	0.009358224
72	0xbc5f0e94	-0.013614316
73	0xbb11d1cb	-0.002225029
74	0x3a3ab60b	0.00071224634
75	0x3c8111fc	0.015755646
76	0x3c3357e2	0.010946246
77	0x3c998b1e	0.018743094
78	0xbc3ef550	-0.011655167
79	0x3b89e59d	0.0042082802
80	0x3c8044ca	0.015657801
81	0x3c42dd21	0.011893542
82	0x3bc221f9	0.00592446
83	0x3cb46480	0.022020578
84	0xbc47de96	-0.012199065
85	0x3c2ad96c	0.010427814
86	0xbb236af8	-0.0024935585
87	0x3c4c90e8	0.01248572
88	0xbc538290	-0.0129095465
89	0xbb5eb4f9	-0.003398238
90	0x3b3ddc6e	0.0028970498
91	0xbbaded59	-0.005307835
92	0x3c77207b	0.015083428
93	0xbb0f3002	-0.0021848683
94	0x3ca8da8d	0.020612026
95	0xbc6b2a78	-0.014353387
96	0x3c99d257	0.018777056
97	0x3a2d2566	0.0006604999
98	0x3bbfd97f	0.005854785
99	0x3c076e53	0.008266049
100	0xbc76b1db	-0.0150570525
101	0x3c53f82c	0.012937587
102	0xbb76d711	-0.003766481
103	0x3cb075ad	0.021540487
104	0xbc819174	-0.015816428
105	0x3b758c97	0.0037467831
106	0x3ba7cfa8	0.00512119
107	0xbc8791a1	-0.016548933
108	0x3b3279da	0.0027233274
109	0x3cbba22d	0.02290448
110	0xb91c00d4	-0.00014877628
111	0xbb72e02a	-0.0037059882
112	0xbb598fb8	-0.0033197235
113	0x3bbb51af	0.0057165246
114	0xbbbcf2dc	-0.005766256
115	0x3bda3417	0.0066590416
116	0x3c1754b2	0.0092365015
117	0x3c237698	0.009977005
118	0x3c56f2b8	0.013119392
119	0xbca1bd46	-0.019743573
120	0x3c5feeac	0.013667744
121	0x3bbdea3d	0.0057957456
122	0xbb040987	-0.002014728
123	0x3c840cfb	0.01611947
124	0xbc4c9f96	-0.01248922
125	0xbc103ed1	-0.008804039
126	0xbb9ae187	-0.004726592
127	0x3c9693c9	0.018381016
128	0x3bd34255	0.0064471164
129	0x3c5b4957	0.013384185
130	0xbc86852b	-0.016420921
131	0x3c01cf5b	0.007922973
132	0x3c127e3d	0.00894123
133	0x3c80ea95	0.015736857
134	0xbb432dd5	-0.0029781957
135	0x3c2ab1bf	0.0104183545
136	0x3ca1e992	0.019764695
137	0xbc975a6c	-0.018475734
138	0xbca76989	-0.020436065
139	0x3cbbec6d	0.022939885
140	0x3caeec73	0.021352982
141	0x3bb01680	0.005373776
142	0xbc91e4d2	-0.017809305
143	0x3c907481	0.017633678
144	0x3bdb956d	0.0067011626
145	0xbc8cf4b0	-0.01720652
146	0xbc128f11	-0.0089452425
147	0xba8da649	-0.0010807003
148	0x3a9ad586	0.0011812903
149	0xbb90d569	-0.0044199717
150	0xbc9ec711	-0.019382032
151	0x38d6198a	0.00010209072
152	0x3c94822c	0.018128477
153	0x3c3dc937	0.011583618
154	0x3c91cf09	0.017798917
155	0x3c78c4c5	0.015183632
156	0xbc3ec5c9	-0.011643835
157	0xba6d8bb5	-0.00090616505
158	0xbc79c2dd	-0.015244213
159	0xbc98ed56	-0.018667858
160	0xbc2a0432	-0.010376977
161	0xbbc551dc	-0.0060217213
162	0xbbb9c86e	-0.005669645
163	0x3c9ff5be	0.019526359
164	0xbc94d80f	-0.018169431
165	0x3bada980	0.005299747
166	0xba97de9d	-0.001158673
167	0xbc1989c6	-0.009371227
168	0x3b8b9711	0.004259952
169	0x3ca8c27c	0.02060055
170	0xbc10ee14	-0.008845825
171	0xbca2a91d	-0.01985603
172	0x3a93eb5b	0.0011285351
173	0xbc9064c3	-0.017626172
174	0x3c14aa25	0.009073769
175	0x3bf8c16a	0.007591416
176	0x3c78e4f4	0.015191305
177	0xbc4fa986	-0.012674695
178	0x3cc3a358	0.0238816
179	0xbc641905	-0.013921981
180	0xbc272768	-0.010202266
181	0x3c458bd4	0.012057263
182	0xbc2890ef	-0.010288461
183	0x3c78bd82	0.015181901
184	0x3ca76cf0	0.020437688
185	0x3b2e80d2	0.0026627076
186	0x3bbd38fa	0.0057746144
187	0x3c17841d	0.009247807
188	0x3c18dd43	0.009330097
189	0xbc08236b	-0.008309226
190	0x3c687e13	0.014190215
191	0x3caaeec3	0.020865804
192	0xbb6e6ec1	-0.0036381932
193	0xbc23edfe	-0.010005472
194	0xbbeaf2d3	-0.00717006
195	0x3c8c2b48	0.017110482
196	0xbbf23d21	-0.007392541
197	0x3b0ddc2c	0.0021646125
198	0xbb8c534d	-0.004282391
199	0x3cc65888	0.024212137
200	0x3811f0cb	3.479495e-05
201	0xba8a94c6	-0.0010572902
202	0x3c78614f	0.015159919
203	0xbb27d1e1	-0.0025607275
204	0xbcab4e38	-0.020911321
205	0xbca588b9	-0.020206796
206	0x3b5bd782	0.00335452
207	0xbc630d46	-0.013858145
208	0x3b0b4658	0.0021251645
209	0x3c0e482a	0.008684197
210	0x3c31ce3d	0.010852394
211	0x3cabd976	0.020977717
212	0x3988768f	0.00026028274
213	0x3c0cf1c7	0.008602566
214	0xba663efe	-0.000878319
215	0x3ca43bea	0.0200481
216	0xbc8847a8	-0.01663573
217	0xbc9364c3	-0.017992383
218	0x3ca533f6	0.020166378
219	0x3c1123c4	0.008858625
220	0xbb981b2e	-0.004641912
221	0x3c81a520	0.015825808
222	0x3c44d56d	0.012013775
223	0xbc423c06	-0.011855131
224	0x3bf0b976	0.0073463274
225	0x3b54ed96	0.0032490245
226	0x3c6e8b8e	0.01455964
227	0x3cb02f47	0.021506919
228	0xbc37caca	-0.011217782
229	0x3bfc743e	0.007704287
230	0xbc1a4c1f	-0.009417563
231	0xbbd069c5	-0.006360265
232	0x3ba687c8	0.0050821044
233	0x3c649ceb	0.013953428
234	0xbc8fdb0f	-0.01756051
235	0xbca88daa	-0.020575363
236	0x3cbcd7a7	0.02305205
237	0x3c893c5d	0.016752416
238	0x3c34c62b	0.011033575
239	0xbc228c35	-0.009921123
240	0x3c30aa6d	0.01078282
241	0x3c322c57	0.010874829
242	0xbbe8d88d	-0.007105893
243	0xbb28a5c9	-0.0025733581
244	0xbc1c3f0b	-0.009536515
245	0x3c04380a	0.008070001
246	0x3c812e8d	0.015769267
247	0x3c560fb0	0.013065264
248	0x3ca7ee11	0.020499261
249	0xbc0f7ae1	-0.008757324
250	0xbb05883f	-0.0020375398
251	0x3c4b5a54	0.012411673
252	0x3b71369b	0.003680623
253	0x3c0cb7b3	0.008588719
254	0x3b51a90a	0.0031991624
255	0xbbed6e2a	-0.0072457986

reduce2.bias f4 [16]
0	0x3cc1b7b6	0.02364717
1	0x3b9db413	0.0048127263
2	0x3c08dca8	0.00835339
3	0x3c9a7b8b	0.018857738
4	0x3b92e732	0.004483127
5	0xbc4e4170	-0.012588844
6	0x3c2790cb	0.010227392
7	0xb87538a6	-5.846531e-05
8	0xbc0fcd06	-0.008776909
9	0xbc838139	-0.01605283
10	0xbbbf320f	-0.005834825
11	0x3b88548f	0.004160471
12	0xbb0e7d17	-0.002174204
13	0x3ca50a51	0.02014652
14	0x3c54d890	0.012991086
15	0x3c315194	0.010822672

nonreduce2_1.weight f4 [16, 16, 3, 3, 3]
0	0x3a8d60ca	0.0010786292
1	0x3ba99db4	0.0051762704
2	0xbd1b2033	-0.037872504
3	0x3bd768f2	0.0065737898
4	0x3d2bd4f8	0.04195115
5	0x3d3516cc	0.044211194
6	0x3ae497da	0.0017440275
7	0xbcfbc1ef	-0.030732123
8	0x3a04fac0	0.0005072765
9	0xbcf6b20e	-0.0301142
10	0x3d0c88e6	0.034310244
11	0x3cc44e58	0.023963138
12	0xb9b147ea	-0.0003381365
13	0x3cac7ced	0.021055663
14	0xbd29b3ba	-0.041431166
15	0x3c042fd3	0.008068043
16	0x3bc10150	0.005890049
17	0x3cf9c192	0.03048781
18	0xbd31df90	-0.043426096
19	0x3cdebe48	0.027190343
20	0x3d1863a0	0.037204385
21	0xbcf6b930	-0.030117601
22	0x3ce19981	0.027539017
23	0x3b192bbc	0.0023372015
24	0xbc4de83e	-0.012567578
25	0xbcdfac4e	-0.027303841
26	0xbd08b8f7	-0.03337952
27	0xbd3717d3	-0.044700455
28	0xbc537688	-0.012906678
29	0xbc12dabc	-0.008963283
30	0x3d0ff484	0.035145298
31	0xbcc35f4f	-0.023849158
32	0xbb3f7ec2	-0.002921984
33	0xbcb79f7b	-0.022414913
34	0xbd252629	-0.040319595
35	0xba5c3729	-0.00084005535
36	0xbc514928	-0.012773789
37	0x3ce7988a	0.028270978
38	0x3d37d541	0.04488111
39	0x3d4a73fe	0.049427025
40	0x3cbf7a9f	0.0233739
41	0x3cfd17ab	0.030895075
42	0xbd281417	-0.041034784
43	0xbd2c9a44	-0.042139307
44	0x3abf2dfa	0.0014585846
45	0xbcf2fef9	-0.029662596
46	0x3c1a37c9	0.009412714
47	0xbcc66b92	-0.024221215
48	0xbce7f3e5	-0.02831454
49	0xbb058de2	-0.0020378758
50	0xbb2a59e7	-0.0025993527
51	0xbd21f18f	-0.03953701
52	0x3d131ced	0.035916258
53	0x3d09a860	0.03360784
54	0x3cca99fc	0.024731629
55	0xbc9f8445	-0.01947225
56	0xbc6c114f	-0.014408424
57	0xbd2cc1b9	-0.042176936
58	0xbd3e7adb	-0.046503883
59	0x3c28eb63	0.010310027
60	0x3c192b75	0.00934874
61	0xbc0e2370	-0.008675441
62	0x3cbb264f	0.022845415
63	0xbbc6353a	-0.0060488256
64	0x3c9b15dc	0.018931322
65	0x3cb8b3f6	0.02254675
66	0x3bc7683d	0.006085424
67	0xbd08b281	-0.03337336
68	0x3bf98759	0.0076150117
69	0x3b22fffb	0.0024871815
70	0xbc39e31d	-0.011345652
71	0xbcc4de80	-0.024031878
72	0x3d01b36a	0.031665243
73	0x3c15a3f6	0.00913333
74	0xbb3588a5	-0.0027699855
75	0x3bb134a1	0.005407885
76	0x3d4c9a02	0.04995156
77	0xbcd93ab8	-0.026517257
78	0x3c5d2584	0.013497714
79	0x3c578efe	0.013156651
80	0xbc30b18b	-0.010784517
81	0x3cb39cca	0.021925349
82	0x3cac1165	0.021004388
83	0x3bbe8591	0.005814262
84	0xbd3339fc	-0.04375647
85	0xbcdd5e93	-0.027022636
86	0x3cdd3653	0.027003443
87	0x3d4284df	0.047489997
88	0x3cabc9b9	0.020970212
89	0xbcd1a519	-0.02559142
90	0x3d16ce62	0.036817916
91	0x3d2efcd2	0.042721577
92	0xbad6ebe4	-0.0016397205
93	0xbac8c383	-0.0015317056
94	0x3ccc745d	0.02495783
95	0x3cd36fc4	0.02581013
96	0x3bc1b9ff	0.005912065
97	0xbbf5d50e	-0.0075022047
98	0x3c8ae416	0.016954463
99	0xbd277de9	-0.04089156
100	0xba814c1b	-0.00098646
101	0x3cd2a6b3	0.025714254
102	0x3d4158cd	0.047203828
103	0x3c0696f2	0.008214699
104	0x3c861f49	0.01637234
105	0x3d24298f	0.040078696
106	0x3d33a60e	0.043859534
107	0xbd1847e4	-0.037177935
108	0xbd0ee20b	-0.03488354
109	0xbd187aa8	-0.03722635
110	0x3d46d149	0.048539434
111	0xbd29fd2e	-0.041501217
112	0xbc5a27c2	-0.013315143
113	0x3d2af0bc	0.04173349
114	0xbc136fe5	-0.008998846
115	0x3c884da7	0.01663859
116	0xbd06e91f	-0.032937165
117	0x3ce63ca4	0.028105088
118	0xbd40a7d2	-0.047035046
119	0x3d07e2a7	0.033175137
120	0x3d0eb2be	0.03483843
121	0x3c1f9fb9	0.009742671
122	0x3d2dc73b	0.04242633
123	0xbd36da2e	-0.044641666
124	0xbb953a8b	-0.004554098
125	0xbd1dd7c5	-0.038535852
126	0xbcb63408	-0.022241607
127	0xbc81f9b2	-0.015866134
128	0x3cbbb7eb	0.022914847
129	0xbd082e21	-0.033247117
130	0x3c47cd67	0.012194968
131	0x3b5cf1f9	0.0033713563
132	0x3d47dad2	0.048792668
133	0x3d3f7304	0.046740547
134	0x3cbf0000	0.02331543
135	0x3d42d115	0.047562677
136	0xbcb186e2	-0.021670762
137	0x3d394f34	0.04524155
138	0x3c565e9a	0.013084078
139	0x3caaaf30	0.020835489
140	0x3d303f1a	0.04302893
141	0x3c9d5484	0.01920534
142	0x3cc88292	0.024476323
143	0x3c3657cd	0.011129332
144	0x3d13cb3f	0.036082502
145	0xbd43c320	-0.047793508
146	0xbc7c1445	-0.015385692
147	0x3cbfe891	0.023426326
148	0x3c9499fb	0.01813983
149	0x3d454fa1	0.048171643
150	0xbd1a8880	-0.037727833
151	0x3c77a50d	0.015115035
152	0x3cdf2b20	0.027242243
153	0xbcbf9860	-0.023388088
154	0xbd30dea1	-0.043181065
155	0xbcb46f15	-0.022025624
156	0xbc780efb	-0.01514029
157	0x3cd984b1	0.02655253
158	0xbd18c4c6	-0.037297033
159	0x3c148c9d	0.009066728
160	0x3d163c2a	0.03667847
161	0xbc2d52da	-0.010578835
162	0x3c19588e	0.009359492
163	0x3d06fd58	0.03295645
164	0x3d2d6a74	0.04233785
165	0x3d04630d	0.032321025
166	0x3baee0f7	0.0053368765
167	0x3d01625d	0.031587947
168	0x3caf2633	0.02138052
169	0x3c9f1d86	0.019423258
170	0x3d349d24	0.044095173
171	0x3bfc730f	0.0077041457
172	0x3d450ee5	0.048109908
173	0x3ca39da0	0.019972622
174	0xbcdf6786	-0.027271044
175	0x3d36d52d	0.044636894
176	0x3c803273	0.015649056
177	0xbd1289dc	-0.035776004
178	0xbc578750	-0.01315482
179	0x3c07992d	0.008276266
180	0x3cc2030d	0.023683095
181	0x3a2206ed	0.00061808416
182	0x3d0c6a22	0.034280904
183	0x3d347757	0.044059124
184	0xbd1690e4	-0.036759272
185	0x3c803fe6	0.01565547
186	0xbcd8bfae	-0.026458587
187	0xbaa56478	-0.0012618443
188	0x3cfce67f	0.030871628
189	0xbcb9d3ed	-0.022684062
190	0x3c89d5c3	0.016825562
191	0xba6c66a9	-0.0009017983
192	0xbc8c13e4	-0.017099328
193	0x3cd1845e	0.025575813
194	0xbbeaca1c	-0.0071652066
195	0x3d35b076	0.04435774
196	0xbd3fb7ea	-0.046806253
197	0x3cfbf876	0.030758124
198	0xbc30e24d	-0.010796142
199	0xbd242dd5	-0.04008277
200	0x3cf1d0f7	0.029518588
201	0x3c469149	0.0121196
202	0x3d3b3a85	0.045710105
203	0x3d120302	0.0356474
204	0xbcfa44c3	-0.030550366
205	0xbcabdfbb	-0.020980706
206	0xbbc7669f	-0.0060852314
207	0xbc408347	-0.011750049
208	0xbd31720d	-0.043321658
209	0x3b7b61da	0.0038357885
210	0xbba19bf9	-0.0049319235
211	0x3c182b41	0.009287656
212	0xbd04afbe	-0.032394163
213	0xbc30cf3f	-0.010791599
214	0x3d08ea26	0.033426426
215	0xbd3cc809	-0.046089206
216	0x3baa7ba4	0.0052027274
217	0x3c549f49	0.01297743
218	0xbc278506	-0.010224586
219	0xbd16640b	-0.036716502
220	0xbd0f3127	-0.034958985
221	0xbd1642fe	-0.036684982
222	0xbcbcde0b	-0.023055097
223	0x3d404b35	0.046946723
224	0x3c36eccf	0.011164858
225	0xbcde5038	-0.02713786
226	0x3c4af58e	0.012387646
227	0xbcf246b2	-0.029574726
228	0xbcb52c9c	-0.022115998
229	0xbcd7042e	-0.02624711
230	0x3d327c0d	0.043575335
231	0xbc59d8f6	-0.013296356
232	0xbc3c9242	-0.01150948
233	0x3cefc527	0.029268814
234	0x3bc26710	0.005932696
235	0x3d1919bb	0.037378054
236	0xbb611672	-0.0034345654
237	0x3d2e71e8	0.0425891
238	0x3cb831ff	0.022484777
239	0xbc18e03a	-0.0093308035
240	0xbcc76f65	-0.02434511
241	0x3d170383	0.036868583
242	0x3d0d379a	0.034476854
243	0xbd2857b0	-0.04109925
244	0x3c03c883	0.008043411
245	0x3d26df9b	0.04074059
246	0xbc7d56b5	-0.015462567
247	0x3bb43181	0.0054990654
248	0xbc11c50b	-0.008897076
249	0x3d021f95	0.0317684
250	0x3d0e4a23	0.03473867
251	0x3d373a85	0.044733543
252	0x3d091fac	0.03347747
253	0xbd1afe66	-0.03784027
254	0xbc7ece13	-0.015552062
255	0x3d2b8cd4	0.04188235

nonreduce2_1.bias f4 [16]
0	0x3d487e04	0.048948303
1	0x3c3d0bc5	0.011538451
2	0x3d428250	0.047487557
3	0x3bdf8ffd	0.0068225847
4	0x3cfdd97d	0.030987496
5	0x3c4964a8	0.012292065
6	0xbca1a942	-0.019734029
7	0x3cdfea3e	0.027333375
8	0xbcf0a8f8	-0.029377446
9	0x3b8c5c21	0.0042834436
10	0x3d209fe5	0.039214987
11	0x3bdd9bb5	0.0067629465
12	0xbc24183b	-0.010015543
13	0x3c98c3ab	0.01864799
14	0xbbc5a9eb	-0.0060322187
15	0x3c10b996	0.00883331
