02_deep3D/model/model_iw.pt (torch, 739878 bytes, 25 tensors)

reduce1.weight f4 [64, 1, 4, 4, 4]
0	0x3c783306	0.015148884
1	0xbdeb561a	-0.11491032
2	0xbda2c6c0	-0.07948065
3	0x3dde223d	0.10846374
4	0x3bc26623	0.005932586
5	0x3df35056	0.11880557
6	0x3db159be	0.08659695
7	0xbd7d13db	-0.061786514
8	0xbc69af44	-0.014262978
9	0x3cccefd8	0.02501671
10	0x3ba84df7	0.0051362473
11	0xbda8c87c	-0.08241364
12	0x3db5f539	0.08884663
13	0xbd0898f1	-0.03334898
14	0xbd2a42ac	-0.04156749
15	0x3d891556	0.06693523
16	0x3dd2ad29	0.10286934
17	0x3dc99010	0.09841931
18	0xbdec50d2	-0.11538853
19	0xbce2547c	-0.027628176
20	0xbd5b6e16	-0.053571783
21	0xbdbe6ade	-0.09297727
22	0x3d9680b5	0.07348768
23	0x3dab227a	0.08356185
24	0x3def8cfc	0.116968125
25	0x3c28ce16	0.010303041
26	0x3d09b029	0.033615265
27	0xbd400d72	-0.046887822
28	0xbd7f7625	-0.06236853
29	0xbd621afc	-0.055201516
30	0xbd2d9200	-0.042375565
31	0xbd5f6a5f	-0.054544803
32	0x3d87e853	0.06636109
33	0x3cc98971	0.02460167
34	0xbc393316	-0.011303684
35	0xbdf1fe14	-0.1181604
36	0xbd9ca036	-0.07647745
37	0x3c3c86f8	0.011506788
38	0xbc25559c	-0.010091212
39	0x3d78c11b	0.060731035
40	0x3ca2b68d	0.019862438
41	0x3bc4d8bb	0.0060072816
42	0x3df1490b	0.1178151
43	0xbd7b4d75	-0.061353166
44	0xbdfa4780	-0.12220669
45	0x3d5bd14c	0.053666398
46	0xbd91aad5	-0.07112662
47	0x3df2e770	0.118605494
48	0xbd921a32	-0.071339026
49	0xbdf2f598	-0.118632495
50	0x3ce77934	0.028256036
51	0x3dddab42	0.108236805
52	0xbb08c430	-0.002086889
53	0xbce2029d	-0.027589137
54	0x3d3f9076	0.046768628
55	0xbd3ad01c	-0.045608625
56	0x3deba142	0.11505367
57	0x3becea52	0.0072300816
58	0x3d806698	0.06269568
59	0xbd07076a	-0.032966055
60	0xbda2c690	-0.07948029
61	0xbdc1307f	-0.09433078
62	0x398834ed	0.00025979374
63	0x3d6ead0e	0.058270507
64	0x3dd7ac36	0.105308935
65	0xbde847ad	-0.11341796
66	0x3df5d30a	0.12003143
67	0x3d9d76ad	0.07688651
68	0x3d8458cc	0.06462249
69	0x3cdf0b49	0.02722706
70	0x3d6b79b0	0.057489097
71	0xbdf92267	-0.12164765
72	0xbc8de0eb	-0.017319163
73	0xbd01bc55	-0.031673748
74	0xbd10e1d0	-0.0353716
75	0x3c033fa5	0.0080107795
76	0xbdb6ada3	-0.08919837
77	0xbd924734	-0.07142487
78	0x3c7164d6	0.014733514
79	0xbd58b670	-0.05290836
80	0x3c4eab38	0.012614064
81	0xbd35c1f2	-0.044374414
82	0x3da85a7a	0.08220382
83	0x3dae9c12	0.08525862
84	0x3dfa3e32	0.12218894
85	0x3d8b2993	0.06795039
86	0x3d892e32	0.06698264
87	0xbbfec000	-0.007774353
88	0x3c8ba7ba	0.017047752
89	0x3d49f4a1	0.049305562
90	0xbd6d7e79	-0.05798194
91	0x3d9c54d9	0.07633371
92	0xbd0cfae5	-0.03441896
93	0x3c791289	0.015202173
94	0x3b544300	0.0032388568
95	0xbc779ff6	-0.015113821
96	0x3c8a8570	0.016909331
97	0x3d26a25e	0.04068219
98	0x3d6f25bf	0.058385607
99	0xbd2f2f05	-0.04276945
100	0x3d96153c	0.07328269
101	0xbd52b1fc	-0.05143927
102	0x3d866d06	0.06563763
103	0x3c1ab45b	0.009442414
104	0x3d5d0e55	0.053968746
105	0xbda37ad8	-0.07982415
106	0x39f0cad2	0.0004592748
107	0x3e007910	0.12546182
108	0xbd21cef2	-0.039504
109	0x3d91a96d	0.071123935
110	0xbc6b0700	-0.014344931
111	0x3de0255a	0.10944624
112	0xbccd5ad7	-0.02506773
113	0x3d21b6d7	0.03948101
114	0x3df3b0f8	0.118989885
115	0xbd5d879d	-0.05408441
116	0x3db86854	0.09004274
117	0x3d859d6b	0.06524166
118	0xbc23c80f	-0.009996428
119	0x3c694623	0.014237913
120	0x3d4376b2	0.04772062
121	0x3d4e9dc3	0.050443422
122	0x3c067409	0.008206376
123	0x3daf3f1d	0.0855696
124	0xba5435f4	-0.0008095198
125	0xbde289e4	-0.11061457
126	0x3ca9f8a1	0.020748438
127	0x3c080137	0.008301071
128	0x3d85c820	0.065323114
129	0x3c63a8f1	0.013895259
130	0x3ba2daa0	0.00496991
131	0x3d46bda7	0.04852071
132	0xbcbf4287	-0.023347152
133	0x3d8b0c02	0.067894
134	0xbdc157df	-0.09440588
135	0xbda0f546	-0.07859282
136	0x3d825119	0.063631244
137	0x3c844a74	0.016148783
138	0xbd23c91b	-0.03998671
139	0x3d86e9c8	0.06587559
140	0x3ddf3c98	0.10900229
141	0xbde3736d	-0.11106
142	0xbd81f918	-0.06346339
143	0xbd686980	-0.056741238
144	0xbd3b2fa5	-0.045699734
145	0xbc7b3cdd	-0.015334335
146	0xbd91f493	-0.07126727
147	0x3cc467a6	0.023975205
148	0xbc8a3619	-0.016871499
149	0xbdae5be3	-0.0851362
150	0xbbd9898e	-0.0066387122
151	0xbc15bc7a	-0.009139175
152	0xbd2ea153	-0.04263432
153	0xbd75a5b7	-0.05997249
154	0x3d7437ec	0.059623644
155	0x3de60e94	0.11233249
156	0x3c88db09	0.016706007
157	0xbd8202b2	-0.0634817
158	0x3da22108	0.079164565
159	0x3d8e878e	0.06959449
160	0x3df5fde9	0.1201132
161	0xbdf4cfc3	-0.1195369
162	0x3db3cdc5	0.08779482
163	0xbd2794d6	-0.040913425
164	0xbc3dec98	-0.011592053
165	0x3dfd3f83	0.123656295
166	0xbdc4f004	-0.09616092
167	0x3c46bb21	0.012129576
168	0x3d8c3066	0.06845169
169	0xbd2f5ae5	-0.042811293
170	0x3da81cc6	0.08208613
171	0x3de1fc89	0.110344954
172	0x3d25d68d	0.040487815
173	0xbd30f2fa	-0.04320047
174	0x3e011c78	0.12608516
175	0xbde16f26	-0.11007528
176	0x3de6f10f	0.11276447
177	0xbb2323e7	-0.0024893226
178	0x3bc6618b	0.0060541085
179	0x3cf1729d	0.029473597
180	0x3d0b3175	0.033982713
181	0x3b29ecfc	0.0025928607
182	0x3c4c308d	0.012462747
183	0xbcc63a6d	-0.024197781
184	0xbdcba185	-0.09942917
185	0xbcc0e246	-0.023545396
186	0xbdd6f4e9	-0.10495932
187	0xbc044008	-0.008071907
188	0x3db4e563	0.088328145
189	0x3db6e7f2	0.08930959
190	0xbd9f4269	-0.077763386
191	0x3c9297c0	0.017894626
192	0x3dfacdb7	0.12246268
193	0xbdc3fa80	-0.095692635
194	0xbdab1da9	-0.083552666
195	0xbaede754	-0.0018150606
196	0x3d4cf22d	0.050035644
197	0xbde981cb	-0.11401709
198	0xbb8c6923	-0.004284994
199	0xbc918a17	-0.017766042
200	0x3d90cebc	0.070706815
201	0x3d78cd18	0.060742468
202	0x3d62cbf6	0.055370294
203	0x3d7b4241	0.06134248
204	0x3dfb6326	0.122747704
205	0xbd22689a	-0.039650537
206	0x3d46b114	0.04850872
207	0x3d99cdef	0.07509982
208	0x3d0d5d67	0.034512904
209	0xbc61bb6c	-0.013777595
210	0xbd8c4180	-0.06848431
211	0x3ded7195	0.1159393
212	0xbda5c3a2	-0.080939546
213	0x3d900e65	0.070339955
214	0x3cd31de5	0.02577109
215	0xbddaed69	-0.10689814
216	0x3d82212b	0.063539825
217	0xbd6dbf7a	-0.058043934
218	0xbd778239	-0.060426924
219	0x3dfbaba9	0.12288601
220	0x3d7993d2	0.060931988
221	0xbdbf7de6	-0.09350185
222	0x3c164e8d	0.009174001
223	0x3cc4a255	0.024003187
224	0x3c884db0	0.016638607
225	0xbc0f9894	-0.008764405
226	0x3e03ec88	0.12883198
227	0xbdb185d7	-0.08668106
228	0xbd73962f	-0.059469398
229	0x3d18ad6a	0.037274756
230	0xbde91617	-0.113811664
231	0x39f4dafb	0.0004670246
232	0x3b492fed	0.0030698732
233	0xbb240ea4	-0.002503314
234	0x3c2243d2	0.009903865
235	0xbd8dda5a	-0.06926413
236	0xbd681a4d	-0.056665707
237	0x3df8c252	0.12146439
238	0x3bb48395	0.00550885
239	0xbce6e2bb	-0.028184285
240	0x3dfc75b0	0.123271346
241	0x3d36bef6	0.04461571
242	0xbde01757	-0.10941952
243	0x3bd254ae	0.006418786
244	0x3d8c345a	0.06845923
245	0x3c9b7f92	0.018981729
246	0xbd9794b4	-0.0740141
247	0x3d4df0c9	0.05027846
248	0xbb53aaed	-0.0032297925
249	0xbda32e36	-0.079677984
250	0xbdfbcf3e	-0.12295388
251	0xbc5e252c	-0.013558667
252	0xbcd8169f	-0.026377974
253	0xbbab37e1	-0.005225167
254	0xbdc201f6	-0.0947303
255	0xbdfa3685	-0.1221743

reduce1.bias f4 [64]
0	0xbc9c67f6	-0.019092541
1	0xbdf56198	-0.11981505
2	0xba1690ab	-0.0005743603
3	0xbc8976f8	-0.016780362
4	0x3d055ddb	0.03256021
5	0xbde2b189	-0.110690184
6	0xbdd866ac	-0.10566458
7	0xbdd0146f	-0.101601474
8	0x3d6784f0	0.056523263
9	0x3d319708	0.043356925
10	0xbd4d2244	-0.050081506
11	0x3d036b5f	0.03208482
12	0x3d840016	0.06445329
13	0xbcd26f2e	-0.02568778
14	0x3dd2c480	0.10291386
15	0x3deb3fb4	0.1148676
16	0x3dd8a04b	0.105774485
17	0x3d728c38	0.059215754
18	0xbdeb7c6d	-0.11498342
19	0xbdf03e5f	-0.11730646
20	0x3dd11cac	0.10210547
21	0x3ddafb2e	0.1069244
22	0x3d712d9c	0.058881387
23	0x3dc3747e	0.095437035
24	0x3dc7cd4a	0.09755953
25	0xbc0dd605	-0.008656983
26	0x3d1795a8	0.037007958
27	0xbd19e432	-0.03757114
28	0x3d001625	0.03127112
29	0x3d1f921e	0.038957708
30	0xbdd22594	-0.10261074
31	0x3c21a929	0.009866991
32	0xbda2b0d1	-0.07943881
33	0xbc94d8d0	-0.01816979
34	0xbda8f1d1	-0.08249248
35	0xbd616110	-0.055024207
36	0x3d6ca92b	0.05777852
37	0xbd5b1c5d	-0.053493846
38	0xbdde96cb	-0.10868605
39	0x3cf7ba87	0.03024031
40	0xbdb7fb14	-0.08983436
41	0x3cc665fd	0.024218554
42	0x3d4f4a4c	0.050607964
43	0x3cdee41a	0.027208377
44	0x3d85f90a	0.06541641
45	0xbd886225	-0.066593446
46	0x3d573aa0	0.052546144
47	0xbd8e0ab7	-0.069356374
48	0xbc93d1ed	-0.018044436
49	0xbaf3d6e7	-0.0018603475
50	0xbde48a8b	-0.111592375
51	0xbce3e775	-0.027820328
52	0x3dcdcaa0	0.10048413
53	0x3de42b70	0.111410975
54	0x3debfc12	0.11522688
55	0x3cb9e43f	0.022691844
56	0x3ccf4051	0.025299223
57	0x3d9a6061	0.07537914
58	0xbd4f8ae2	-0.05066956
59	0x3d6e61bb	0.05819867
60	0xbd8a55ec	-0.067546695
61	0xbce9719f	-0.028496562
62	0xbda6250e	-0.08112536
63	0xbd5a70c2	-0.05333019

nonreduce1_1.weight f4 [32, 64, 3, 3, 3]
0	0xbcad9001	-0.02118683
1	0xbbec0b2a	-0.0072034793
2	0xbc2a3b79	-0.010390156
3	0x3ca386e3	0.01996178
4	0xbc204c3f	-0.0097838035
5	0xbb0a5e4f	-0.0021113341
6	0x3c9deecb	0.019278904
7	0x3c5b2926	0.01337651
8	0x3b111ded	0.0022143081
9	0xbc277180	-0.010219932
10	0xbb903b8e	-0.0044016307
11	0x3c84e744	0.016223557
12	0x3c01c906	0.007921463
13	0x3ba928d2	0.005162337
14	0xbc2ce236	-0.01055198
15	0x3cd120ba	0.0255283
16	0x3cd6b0e2	0.026207391
17	0x3c6b12c1	0.014347733
18	0xbbe8c3c4	-0.007103415
19	0xbc07e7d0	-0.0082950145
20	0xbc6b230b	-0.014351617
21	0xbbee8163	-0.0072786077
22	0x3c847b29	0.016172009
23	0xbc96d8cf	-0.01841393
24	0xbc174e05	-0.00923491
25	0x3c5895a6	0.013219273
26	0xbc6c72be	-0.014431654
27	0xbc71b3dd	-0.014752355
28	0xbc191462	-0.009343239
29	0x3bc12fa2	0.005895571
30	0x3ca9fe2d	0.020751083
31	0xbcb74c21	-0.022375168
32	0xbc5a6745	-0.013330285
33	0x3bd134c9	0.0063844663
34	0xbc3b5e2e	-0.011436028
35	0xbc22c272	-0.009934055
36	0xbc8f9f56	-0.017532032
37	0xbc7520db	-0.014961447
38	0xba941050	-0.0011296365
39	0xbafff202	-0.001952708
40	0x3c3f43bc	0.011673864
41	0xbcc6f4cd	-0.024286652
42	0xbb704c67	-0.0036666633
43	0x3b5a868a	0.0033344352
44	0xbc8974ba	-0.016779292
45	0x3c944efc	0.018104069
46	0x3c05378c	0.008130919
47	0x3ca84100	0.020538807
48	0xbc86ce3f	-0.016455768
49	0x3aba5a50	0.0014217589
50	0xbc22ab5f	-0.009928553
51	0xbc854e30	-0.016272634
52	0x3adf1acb	0.0017021535
53	0x3cb0a66d	0.021563733
54	0x3ce05e2a	0.02738865
55	0x3cca1952	0.024670277
56	0x3c388759	0.011262738
57	0x3c8f0e07	0.017462743
58	0x3996c50a	0.00028757035
59	0xbc9a9842	-0.01887143
60	0xbc7ff2b9	-0.015621834
61	0xbb68aa3f	-0.0035501865
62	0x3c00bccd	0.007857514
63	0x3ca8512c	0.020546518
64	0xbc4eccf1	-0.012622104
65	0x3c65a2f4	0.014015902
66	0xbc6ff19a	-0.014645005
67	0x3b400c30	0.002930414
68	0xbc18eb2a	-0.009333411
69	0xbbef0000	-0.007293701
70	0x3cc07967	0.02349539
71	0x3c5e157e	0.013554929
72	0xba1f2f8e	-0.0006072455
73	0xbc415f5b	-0.01180252
74	0xbc99b489	-0.018762844
75	0xbb9958e6	-0.004679787
76	0xbc8a9729	-0.016917782
77	0xbba86d40	-0.0051399767
78	0x3c0eedb5	0.008723666
79	0x3c72e3f4	0.014824856
80	0xbcb689e7	-0.022282554
81	0x3d120948	0.035653383
82	0xbaf09937	-0.0018356208
83	0x3c9cdbba	0.019147743
84	0xbc375529	-0.011189737
85	0xbc6acfd1	-0.014331774
86	0x3c123fd8	0.008926354
87	0x3cb22291	0.021744998
88	0x3c0d984c	0.008642267
89	0xbcaf9378	-0.021432623
90	0x3d2c1c0e	0.042018943
91	0x3d071a5c	0.032984123
92	0xbc0ac8b0	-0.008470699
93	0x3cab3b6f	0.020902364
94	0x3ce67f8f	0.028136997
95	0x3beaef01	0.0071696048
96	0xbbaf3773	-0.0053471862
97	0x3c947bf9	0.018125521
98	0x3cc1ef3c	0.023673646
99	0x3ce3b932	0.027798269
100	0x3ccb5834	0.024822332
101	0xbc6f828e	-0.014618529
102	0x3cb61441	0.022226455
103	0x3c09bfea	0.008407572
104	0xbd112f40	-0.03544545
105	0xbc2dad9a	-0.010600472
106	0x3c967ea3	0.018370932
107	0xbcf63b94	-0.030057706
108	0x3bbd3060	0.005773589
109	0xbc1afa98	-0.00945916
110	0x3ce1790e	0.027523544
111	0x3c49e765	0.012323235
112	0xbb1e3287	-0.0024139003
113	0x3c4206ec	0.011842471
114	0x3b74afb7	0.003733618
115	0x3b9d0c17	0.004792701
116	0x3c5c09c1	0.01343006
117	0x3bf8aeaf	0.0075891833
118	0x3b8fdf04	0.004390599
119	0x3950e529	0.00019921795
120	0xbc436ee0	-0.01192829
121	0xbc6a3dd8	-0.014296971
122	0xba1b282e	-0.0005918768
123	0xbba1dfd0	-0.0049400106
124	0xbc59d936	-0.013296416
125	0xbbf2fb2f	-0.0074151973
126	0x3b736a5a	0.0037142248
127	0x3ccfbdf1	0.025359126
128	0x3ce58d03	0.028021341
129	0x3c48c2c1	0.012253464
130	0x3c5d71b7	0.013515881
131	0x3b9c9bcc	0.0047793146
132	0xbbed0f12	-0.0072344625
133	0x3cbeda79	0.023297535
134	0x3d1102e7	0.03540316
135	0xbc138096	-0.009002825
136	0x3c7737af	0.01508896
137	0x3bd5dd84	0.006526651
138	0xbc9cb550	-0.019129425
139	0x3c7ad13f	0.015308677
140	0xbc45be8a	-0.012069354
141	0xbcca810d	-0.02471974
142	0xbc835007	-0.016029371
143	0x3c21a420	0.009865791
144	0xbc24365c	-0.010022726
145	0x3c932dca	0.01796617
146	0x3c7f6c4e	0.015589787
147	0xbbe954e3	-0.007120715
148	0x3c875bc7	0.016523255
149	0xbc80f52d	-0.015741909
150	0xbc9feba3	-0.01952154
151	0x3cc43f9b	0.02395611
152	0x3bc6d1e7	0.006067503
153	0x3bdfef18	0.006833922
154	0xb9c3f3cb	-0.00037374938
155	0x3b9c0fb1	0.0047626127
156	0x3c81eefb	0.015861025
157	0x3c92f573	0.017939305
158	0xbb7ecc43	-0.0038879074
159	0xbcd24bb3	-0.025670862
160	0x3c01be04	0.007918838
161	0x3c93c2b6	0.018037181
162	0x3cad79a5	0.021176169
163	0x3cac136e	0.021005359
164	0x3c937af0	0.018002957
165	0xbc33f69d	-0.01098409
166	0xbbd38245	-0.0064547383
167	0xbcc8704e	-0.024467614
168	0xbb90b5c9	-0.0044162017
169	0x3bf33fdd	0.0074233846
170	0xbc533165	-0.012890195
171	0x3c653845	0.0139904665
172	0xbb3a75f9	-0.0028451665
173	0xbb4e9a11	-0.0031524936
174	0xbcbaa29c	-0.022782616
175	0xbc835a41	-0.016034247
176	0x3c250d58	0.010073982
177	0x3c94d8a0	0.018169701
178	0xbbc935be	-0.00614044
179	0xbc81f400	-0.015863419
180	0x3cb1aec1	0.021689774
181	0xba5e61ad	-0.0008483183
182	0xbb88abef	-0.0041708867
183	0x3c94870a	0.018130798
184	0xbbe596bb	-0.007006494
185	0x3c9f77ca	0.0194663
186	0xbc98cb2e	-0.018651571
187	0x3c24dfc1	0.010063113
188	0xbb5281e8	-0.0032120887
189	0xbc229459	-0.009923064
190	0xbc332509	-0.010934123
191	0xbc810bb4	-0.01575265
192	0x3c62791e	0.013822822
193	0xbc1d637d	-0.009606239
194	0xbc88cab0	-0.016698211
195	0x3c5b2a54	0.013376791
196	0x3bc1fae3	0.0059198006
197	0x3c4ccf83	0.0125006465
198	0xbc40f868	-0.011777975
199	0x3ca989a7	0.02069552
200	0x3c84abb4	0.016195156
201	0xbc3cb3c4	-0.011517469
202	0x3bfdf35d	0.0077499584
203	0xbca9c93f	-0.020725844
204	0x3c307fe8	0.010772683
205	0x3cabfc74	0.020994402
206	0x3c22ebbe	0.009943901
207	0xbbea0681	-0.0071418886
208	0x3c0e285b	0.008676614
209	0x3b03d0e0	0.0020113513
210	0x3c8c1b6e	0.017102923
211	0xbb011ec1	-0.0019702169
212	0x3c086941	0.008325876
213	0x3a842ded	0.0010084488
214	0x3c887c3d	0.016660804
215	0x3c02c3e0	0.007981271
216	0x3b65471e	0.0034985016
217	0x3c8c28da	0.017109323
218	0x3c461f6d	0.012092453
219	0x3bc116a3	0.005892591
220	0xba4bdb6e	-0.0007776533
221	0x3bb72a76	0.0055897785
222	0xbac27a07	-0.0014837392
223	0x3b649fd4	0.0034885304
224	0xbc19b8f3	-0.009382474
225	0xbba80029	-0.005126972
226	0xbc47e242	-0.01219994
227	0xba2b0f10	-0.0006525377
228	0x3b374c0f	0.0027968918
229	0x3c164adf	0.009173124
230	0x3c046237	0.008080057
231	0x3cc90fda	0.024543691
232	0x3c45798e	0.012052907
233	0x3c44103e	0.011966763
234	0xbaf71185	-0.0018849826
235	0xbcbfe21e	-0.02342325
236	0x399ba9ea	0.000296905
237	0x3cc8f490	0.024530679
238	0xbc6f9f82	-0.014625432
239	0x3b16746e	0.002295758
240	0xbb39b38e	-0.0028335783
241	0x3c37d8ca	0.01122112
242	0x3bfee469	0.0077786935
243	0xbbb03225	-0.0053770714
244	0x3c749c42	0.014929833
245	0x3ae4899e	0.0017436033
246	0xbd0df910	-0.034661353
247	0x3bb6b754	0.0055760536
248	0x3c468d0f	0.012118592
249	0xbd132726	-0.035926007
250	0xbc2208b6	-0.009889772
251	0xbbffa014	-0.007801065
252	0x3c8d3034	0.0172349
253	0x3cd4d8ee	0.025982346
254	0xbc8ec7d5	-0.017429272
255	0x3c057d86	0.008147603

nonreduce1_1.bias f4 [32]
0	0xbcb843b4	-0.02249322
1	0xbc23586e	-0.009969814
2	0x3c8dcdba	0.017310012
3	0x3b1a0bdb	0.0023505602
4	0xbc504d77	-0.012713782
5	0xbc19adb9	-0.009379798
6	0x3c8a7e38	0.016905889
7	0x3bab9603	0.0052363886
8	0x3c5da3fb	0.0135278655
9	0x3ca4c132	0.020111654
10	0xbca41694	-0.020030297
11	0x3c0886fc	0.008332964
12	0xbad67cf5	-0.0016364144
13	0xbba81be7	-0.0051302793
14	0xbca4394a	-0.020046849
15	0x3cba36da	0.022731233
16	0xbc9be145	-0.019028315
17	0x3c96fc6c	0.018430911
18	0xbb1e00cb	-0.002410936
19	0xbbbf2593	-0.0058333366
20	0xbb65d7c8	-0.0035071243
21	0x3aab4457	0.0013066632
22	0xbbdc3a2e	-0.0067208027
23	0x3cb13cc9	0.02163543
24	0x3cc4b4b3	0.024011945
25	0x3caac842	0.020847443
26	0xbb6ea2b0	-0.0036412887
27	0xbc9e2888	-0.019306436
28	0xbc6cb968	-0.014448501
29	0x3c082eba	0.008311922
30	0x3b4f5c75	0.0031640802
31	0xbccccf90	-0.025001317

nonreduce1_2.weight f4 [32, 32, 3, 3, 3]
0	0x3d110e57	0.035414066
1	0x3cf6c94c	0.030125283
2	0xbc7d1794	-0.015447516
3	0x3c24a986	0.010050183
4	0x3c91e0b9	0.017807351
5	0xbca63770	-0.020290107
6	0x3a2dac90	0.000662514
7	0xbc4b80ce	-0.012420846
8	0x3ce86a0e	0.028370883
9	0x3ccc7a06	0.024960529
10	0x3cbe98ae	0.023266163
11	0xbc314929	-0.010820665
12	0x3ca0ae92	0.019614492
13	0x3c723d3f	0.01478511
14	0xbca67c4c	-0.020322941
15	0xbc9e5aa6	-0.019330334
16	0xbcaa1059	-0.020759748
17	0x3c8f053b	0.017458549
18	0x3c9bb442	0.019006852
19	0x3ceeb57a	0.02913927
20	0x3cecb265	0.028893659
21	0xbc6c7dee	-0.014434321
22	0xbd26abce	-0.04069119
23	0xbc4ccf16	-0.012500545
24	0xbbf8027b	-0.007568655
25	0xbcaa3ad2	-0.02078
26	0x3d019a7a	0.03164146
27	0xbc53026a	-0.0128789935
28	0x3ca682ac	0.020325981
29	0x3cf2d5cc	0.029642962
30	0xbc7dd43c	-0.015492495
31	0xbc5e83ec	-0.013581257
32	0xbbeca980	-0.0072223544
33	0x3c50001a	0.012695337
34	0x3b1fbef2	0.0024375287
35	0xbcbc3724	-0.022975512
36	0xbcb93cde	-0.022612032
37	0x3c04ea40	0.00811249
38	0x3cfe99f1	0.031079264
39	0x3c56e825	0.013116871
40	0xbc2347b4	-0.009965826
41	0xbcb79405	-0.022409448
42	0x3c5915b2	0.0132498015
43	0x3cb1c1bb	0.021698823
44	0xb92bedfb	-0.00016396485
45	0xbc833c3d	-0.016019935
46	0xbcda8ab5	-0.026677469
47	0xbc2cdb37	-0.010550312
48	0xbca020e9	-0.019546943
49	0x3bb64503	0.005562426
50	0xbc51e47f	-0.012810825
51	0x3cea54f3	0.02860496
52	0xbaa09e3d	-0.001225419
53	0x3c861506	0.016367447
54	0x3cba0a66	0.022710036
55	0x3c948359	0.018129038
56	0x3d0c803a	0.034301974
57	0xb9cec4f5	-0.00039438126
58	0xbcb76cd2	-0.022390757
59	0xbc9debfe	-0.019277569
60	0x3c9701de	0.018433508
61	0xb8913073	-6.923163e-05
62	0xbb8f9813	-0.0043821423
63	0xbcd5b55b	-0.026087454
64	0xbd1e5c22	-0.038662083
65	0xbd0f1254	-0.03492959
66	0xbccfb522	-0.025354926
67	0xbc8744cc	-0.016512297
68	0xbc504b4c	-0.012713265
69	0x3d12fab8	0.035883635
70	0xbc94316e	-0.018089976
71	0xbcc3bd07	-0.023893846
72	0x3b155d27	0.0022791119
73	0xbc35d9b1	-0.011099265
74	0xbcea016c	-0.028565131
75	0xbb88ca8d	-0.0041745366
76	0x3c5000e5	0.012695526
77	0x3c5c38a2	0.013441237
78	0xbb8e30b5	-0.0043393024
79	0x3b505795	0.0031790484
80	0xbbbfe0ae	-0.0058556413
81	0x3bde57b0	0.0067853555
82	0x3b860f7f	0.0040912027
83	0x3cd6476b	0.026157102
84	0xbc260d83	-0.010135057
85	0xbca8b26b	-0.020592889
86	0x3abf8ff3	0.0014615044
87	0xbc831bc3	-0.016004449
88	0x3c2f8d3f	0.010714828
89	0xbc8a0ffe	-0.016853329
90	0xbcac3f9f	-0.02102643
91	0xbcad57a2	-0.02115995
92	0xbc84c4a3	-0.016207045
93	0xbbd90696	-0.0066230996
94	0xbc14dbf9	-0.009085649
95	0xbd0623cd	-0.032748986
96	0xbc79d1a2	-0.015247734
97	0x3d082fdf	0.03324878
98	0x3b85b832	0.0040807957
99	0xbc880a4d	-0.016606474
100	0xbcc418f2	-0.023937676
101	0xbcc3007a	-0.023803938
102	0xbcb9daa4	-0.022687264
103	0xbcadc114	-0.02121023
104	0xbbce60ac	-0.0062981453
105	0xbbd3ab5d	-0.006459637
106	0xbba8952f	-0.005144737
107	0xbce157bd	-0.027507657
108	0xbc924d20	-0.017859042
109	0x3c6754db	0.014119352
110	0xbc8165af	-0.015795557
111	0x3c29884e	0.010347439
112	0xbd0487a6	-0.032355927
113	0x3cc299d9	0.023755
114	0x3bdef5c7	0.0068042013
115	0x3c1f670c	0.009729158
116	0x3cc8b4b3	0.024500227
117	0x3c880eda	0.016608644
118	0xbb8daf73	-0.0043238937
119	0x3cbe68c6	0.02324332
120	0xbc06b151	-0.008220986
121	0x3c468c58	0.0121184215
122	0xbb989ea9	-0.0046575856
123	0xbbd3dec3	-0.0064657643
124	0x3ce4b5f0	0.027918786
125	0x3c41b849	0.011823722
126	0x3cc73c43	0.024320727
127	0x3b9453a9	0.0045265746
128	0xbbc3ad09	-0.005971555
129	0x3ce020a9	0.027359324
130	0x3cb85c61	0.022504987
131	0x3cc4304d	0.023948813
132	0x3ae3892c	0.0017359606
133	0xbd04ef1d	-0.0324546
134	0xbc8f8db6	-0.017523628
135	0xbccb21cb	-0.024796387
136	0x3cadff12	0.021239791
137	0x3bfc052d	0.0076910467
138	0xbbbed94a	-0.0058242427
139	0xbc96d691	-0.01841286
140	0x3c99e852	0.018787537
141	0xbcc132c4	-0.023583777
142	0xbcc4502e	-0.023964014
143	0xbc779134	-0.015110303
144	0x3c860234	0.016358472
145	0xbb5ed6f5	-0.0034002636
146	0x3d0e29c9	0.03470782
147	0x3c96e070	0.018417567
148	0x3cd5acd0	0.02608338
149	0xbc929b59	-0.017896341
150	0xbcca8544	-0.02472175
151	0xbc35faa1	-0.011107118
152	0xbc1303e8	-0.008973099
153	0xbbb9d0ba	-0.005670634
154	0xbca13d36	-0.019682508
155	0xbcb5d0eb	-0.022194346
156	0x3ca74e7f	0.020423172
157	0xbc921144	-0.017830499
158	0xbb6e549b	-0.0036366347
159	0x3c366071	0.011131392
160	0xbcbcfd64	-0.023070045
161	0x3cc0bd68	0.023527816
162	0xbcd446d5	-0.025912682
163	0xbcb36541	-0.021898868
164	0xbc8d4c46	-0.017248284
165	0xbc9b2655	-0.018939177
166	0x3c87d6b0	0.016581863
167	0xb725f38b	-9.891471e-06
168	0x3b84a316	0.0040477617
169	0xbcd8f88a	-0.0264857
170	0xbbd49d5e	-0.006488486
171	0xbc0d579d	-0.008626846
172	0xbd11ee52	-0.03562767
173	0xbc5f593f	-0.013632118
174	0x3c94167e	0.018077131
175	0x3c9d8b19	0.019231366
176	0xbbac04ea	-0.0052496092
177	0x3b356b3e	0.002768233
178	0x3c00f2ac	0.0078703575
179	0x3c26e623	0.010186705
180	0xbc3b99a2	-0.011450203
181	0xbc7a1847	-0.015264577
182	0xbc2bca46	-0.010485237
183	0xbb24492f	-0.0025068035
184	0xbd145479	-0.036213372
185	0xbcd9a357	-0.026567144
186	0x3c4a7d5a	0.012358988
187	0xbbcb74d7	-0.0062089968
188	0xbd29fdaa	-0.04150168
189	0xbc71c776	-0.014757028
190	0x3cf0a614	0.029376067
191	0x3c0ba591	0.008523361
192	0xbbe26eb3	-0.006910169
193	0xbcbc61e4	-0.022995897
194	0xbcdf59b1	-0.027264448
195	0xbc0929ee	-0.008371813
196	0x3cb1d5c8	0.021708384
197	0xbb1e02a5	-0.0024110463
198	0xbb679245	-0.0035334986
199	0xbd052860	-0.032509208
200	0x3a857907	0.0010183164
201	0x3c342097	0.010994098
202	0x3bbc8b7b	0.005753932
203	0x3cd0be3b	0.025481334
204	0xbcb7f552	-0.022455845
205	0x3d03cbf6	0.032176934
206	0xbc630c5c	-0.013857927
207	0x3cbb43e2	0.022859517
208	0xbc4ffbcd	-0.012694311
209	0x3d03fa0c	0.032220885
210	0x3c78b706	0.015180355
211	0xbc8ff65c	-0.017573528
212	0x3cefbca4	0.029264756
213	0xbcca50b4	-0.024696685
214	0xbc4262d9	-0.011864387
215	0xbbe2563c	-0.0069072526
216	0x3c76e28d	0.015068662
217	0xbc966a63	-0.018361276
218	0xbca0d0a9	-0.019630747
219	0xbcb2ec93	-0.021841323
220	0x3c0aebc4	0.0084790625
221	0xbd091b10	-0.033473074
222	0xbcac2893	-0.021015441
223	0xbc0041ba	-0.00782817
224	0xbd03380c	-0.032035872
225	0x3b062745	0.0020470184
226	0x3c644d2f	0.013934418
227	0xbcc61909	-0.02418186
228	0x3c68891a	0.014192844
229	0x3c86c59b	0.016451648
230	0x3c628071	0.013824568
231	0x3c213c6f	0.009841069
232	0x3c3d657f	0.011559843
233	0x3c517f51	0.012786702
234	0xbc4264d2	-0.011864858
235	0xbc55dd51	-0.013053254
236	0xbcbe17ff	-0.023204802
237	0xbcf04d6a	-0.029333789
238	0x3d088187	0.033326652
239	0xbcac4c39	-0.02103244
240	0xbb8a94d6	-0.0042291684
241	0x3c2ca5a8	0.010537542
242	0x3c11dff2	0.00890349
243	0xbcdf83a5	-0.027284453
244	0x3d0efb64	0.034907714
245	0xbcb603d1	-0.022218617
246	0xbce520bf	-0.027969716
247	0xbc828fe1	-0.015937747
248	0x3cd54340	0.026033044
249	0xbb9045ef	-0.004402868
250	0x3cd3e099	0.025863932
251	0xbc9834e2	-0.018579904
252	0x3ca23825	0.019802162
253	0xbc03b8a6	-0.008039629
254	0xbb8e610c	-0.004345065
255	0xbcb4f28a	-0.022088308

nonreduce1_2.bias f4 [32]
0	0xbc3486d1	-0.011018471
1	0x3cefcfcc	0.02927389
2	0x3ad19d5d	0.0015992332
3	0xbc4f29d2	-0.012644248
4	0xbca560f9	-0.020187842
5	0xbd03f0cf	-0.032212075
6	0xbc57a555	-0.013161977
7	0x3c4ade4b	0.0123821
8	0xbbb252a9	-0.0054419828
9	0x3c21bf27	0.009872234
10	0xbb39623f	-0.002828732
11	0x3ca084cb	0.01959457
12	0xbb41fc0f	-0.0029599702
13	0x3af4ca2d	0.0018675976
14	0xbca337c1	-0.019924046
15	0xbb365da8	-0.002782682
16	0x3ce79463	0.028268998
17	0xbd0e35c9	-0.034719262
18	0x3bc05d80	0.005870521
19	0xbc69bb3f	-0.014265834
20	0xbca92a66	-0.0206501
21	0xbba03f6a	-0.004890372
22	0xbce0f291	-0.027459415
23	0xbc1548d3	-0.009111601
24	0x3c82241d	0.01588636
25	0x3cd90e3f	0.02649605
26	0x3cf9cde3	0.030493682
27	0xbcf4ad31	-0.02986774
28	0xbcc86c34	-0.024465658
29	0x3d1d82c8	0.0384548
30	0x3c4e7b8f	0.012602701
31	0xbc1f39fe	-0.009718416

nonreduce1_3.weight f4 [32, 32, 3, 3, 3]
0	0xbcfb0510	-0.030642062
1	0x3c500040	0.012695372
2	0xbcfbd2ef	-0.03074023
3	0x3c95fad3	0.018308079
4	0x3c2874b1	0.010281728
5	0x3c9c08e0	0.0190472
6	0x3b8cefa2	0.0043010274
7	0x3c4b1993	0.012396234
8	0x3c647419	0.013943695
9	0x3c9c3594	0.019068517
10	0xbb15a355	-0.002283295
11	0xbccaf68a	-0.024775762
12	0xbc8d523a	-0.017251123
13	0x3c76cb85	0.015063171
14	0xbac457bc	-0.001497976
15	0x3cbdf4d8	0.02318804
16	0xbc93b6ee	-0.018031564
17	0xbd1624d7	-0.036656227
18	0x3cf1ff23	0.029540604
19	0x3babfdc1	0.0052487557
20	0x3c258645	0.010102813
21	0xbc2c3078	-0.010509603
22	0xbd0c47fc	-0.034248337
23	0x3cbc9d85	0.02302433
24	0xbd0382e2	-0.03210724
25	0xbce1a156	-0.027542751
26	0x3c350001	0.011047364
27	0xbcc28834	-0.023746587
28	0xbca4d1b9	-0.020119535
29	0xbcc8b9f9	-0.024502741
30	0xbce8523e	-0.028359529
31	0x3c16d7de	0.00920674
32	0x3c6911b8	0.014225416
33	0x3c996c07	0.01872827
34	0x3989c444	0.00026276906
35	0x3be7dc3b	0.007075814
36	0xbc916aea	-0.017751176
37	0xbc5eb2cf	-0.013592436
38	0x3c8b99ef	0.017041175
39	0x3c81c164	0.015839286
40	0x3c4c029c	0.012451794
41	0xbc9b642f	-0.01896867
42	0xbcdc4be8	-0.026891664
43	0xbb263117	-0.002535885
44	0xbd0f2c13	-0.03495414
45	0x3c1d002a	0.009582559
46	0xbc8db8b5	-0.01729999
47	0xbbea0c8e	-0.00714261
48	0x3c218ddd	0.009860483
49	0x3c52cb03	0.012865785
50	0x3c8f57a0	0.017497838
51	0x3c63123c	0.013859328
52	0xbc7932a7	-0.01520983
53	0x3cabf49c	0.020990662
54	0xbc5eb22c	-0.013592284
55	0x3d08d86d	0.033409525
56	0xbb645558	-0.0034840908
57	0x3cedb6df	0.029017864
58	0x39829933	0.00024909675
59	0xbc98f4e6	-0.018671464
60	0xbcbf7f63	-0.023376172
61	0x3bc881dd	0.0061189965
62	0x3cedda5f	0.029034792
63	0x3af37b27	0.0018576131
64	0x3d0411b0	0.03224343
65	0xbcf6da06	-0.030133259
66	0xbd007b60	-0.03136766
67	0x3cddc649	0.027072089
68	0x3baa1ced	0.0051914365
69	0x3cbbd4d8	0.02292864
70	0xbb842f8f	-0.0040339897
71	0xbcbb897b	-0.022892704
72	0x3ad8fb21	0.0016554334
73	0xbc8bd2dc	-0.017068319
74	0x3c69fcbf	0.014281451
75	0xbd02021e	-0.0317403
76	0xbc935b2e	-0.017987814
77	0x3c7d28f1	0.015451656
78	0xbc8ae6dd	-0.016955787
79	0x3d0bdce8	0.03414622
80	0xbc5c08c7	-0.013429827
81	0x3c497e83	0.012298229
82	0xbc0c4614	-0.00856163
83	0x3cc34a5b	0.023839166
84	0xbab75700	-0.001398772
85	0x3b4f0e66	0.0031594275
86	0x398796c0	0.00025861524
87	0x3ca526fd	0.020160193
88	0x3c193daf	0.009353085
89	0x3b833994	0.0040046666
90	0x3be42a05	0.006963017
91	0x3c90f2d8	0.017693922
92	0xbc6c7525	-0.014432226
93	0xbb33d938	-0.0027442705
94	0xbbdda7ef	-0.006764404
95	0xba058ffb	-0.0005095002
96	0xbcdb9ee6	-0.026809167
97	0x3c481e8f	0.012214317
98	0xbd036442	-0.032078035
99	0x3b57ebab	0.0032946866
100	0xbc986658	-0.018603489
101	0x3cbfd11e	0.023415145
102	0x3d089b8c	0.033351466
103	0x3bb55c6a	0.0055346983
104	0x3ce72f9a	0.02822094
105	0x3c80035a	0.015626598
106	0xbcd8b346	-0.026452672
107	0x3ab5f559	0.0013882323
108	0x3b6f1839	0.0036482944
109	0x3c462fc5	0.01209635
110	0x3be81db2	0.007083618
111	0xbc8632f7	-0.016381724
112	0xbc902862	-0.017597381
113	0x3c93fd80	0.018065214
114	0x3bce0365	0.0062870258
115	0xbcb2a7af	-0.021808473
116	0xbc8b5441	-0.017007949
117	0xbc12d702	-0.008962395
118	0x39b5fc85	0.00034711152
119	0xbc1b26d1	-0.009469704
120	0x3cf8a400	0.030351639
121	0x3c7dba85	0.015486364
122	0xbd019822	-0.031639226
123	0xbc9e46b4	-0.019320823
124	0xbc0d216e	-0.008613927
125	0x3ce6a454	0.02815453
126	0x3d0d262a	0.034460224
127	0xbc8aa5b1	-0.016924711
128	0xbb89f8f8	-0.0042105876
129	0x3d044260	0.032289863
130	0xb94a1a47	-0.0001927401
131	0x3c342076	0.010994067
132	0x3cc7fb2c	0.02441176
133	0xbc83bd05	-0.016081342
134	0xbca44fc5	-0.020057568
135	0x3cbfec0d	0.023427987
136	0xbc8270ea	-0.015922982
137	0xbc815d80	-0.015791655
138	0xbb6302fd	-0.0034639232
139	0x3c755f32	0.01497631
140	0xbccdea51	-0.025136145
141	0x3c912bb2	0.01772103
142	0x3cf72f1f	0.030173836
143	0x3cb6e5cc	0.022326373
144	0x3ca9e607	0.020739568
145	0xbc271cac	-0.010199707
146	0x3bf25a85	0.0073960447
147	0x3cba44db	0.022737911
148	0x3c93dada	0.018048692
149	0xbca9c6cd	-0.020724678
150	0xbcca4901	-0.024693014
151	0x3d082652	0.03323967
152	0x3c888e9e	0.016669568
153	0x3ad2227a	0.0016032003
154	0x3b8e7671	0.0043476154
155	0x3cb408a3	0.021976775
156	0xbb90b0d0	-0.004415609
157	0xbca1a3b1	-0.019731374
158	0x3ccb94f7	0.024851305
159	0x3cff5d4e	0.03117242
160	0xbc82b727	-0.015956474
161	0x3bcaa2e3	0.0061839684
162	0xbc551d9e	-0.01300755
163	0x3ccaa673	0.024737572
164	0x3d0e68b1	0.03476781
165	0x3c9ba48b	0.018999359
166	0xbc19007a	-0.0093384925
167	0x3d00012e	0.031251125
168	0xbc1c14bc	-0.009526428
169	0xbc91587f	-0.017742394
170	0x3d0d596a	0.0345091
171	0xbc4e33e9	-0.0125856185
172	0x3c771545	0.015080755
173	0xbd012d61	-0.031537417
174	0x3d0cc6e8	0.03436938
175	0xbc3f5f21	-0.011680395
176	0x39b24ccf	0.00034008033
177	0x3c63ada6	0.0138963815
178	0x3c9bb95a	0.019009281
179	0xbc6f11e1	-0.014591665
180	0x3cce91ed	0.025216067
181	0xbccf1ae4	-0.025281377
182	0x3cf1d701	0.029521467
183	0xbc749bcb	-0.014929722
184	0xbc753838	-0.014967017
185	0x3ce3dc4f	0.027815012
186	0xbbeb55d9	-0.0071818647
187	0xbcd62175	-0.026139
188	0xbb23c4e9	-0.0024989194
189	0xbc4b9b49	-0.01242716
190	0x3d09f3df	0.03367984
191	0x3cb200e7	0.021728946
192	0x3bf4aaf5	0.0074666687
193	0xbd031a3b	-0.032007437
194	0x3ce646aa	0.028109867
195	0xbc7f6ac5	-0.015589421
196	0xbcab31a9	-0.020897703
197	0x3c112e53	0.008861142
198	0xba02fcaa	-0.00049967563
199	0xbcc07847	-0.023494853
200	0x3cbcb63a	0.023036111
201	0xbbabe4f9	-0.0052458015
202	0x3d03d40f	0.032184657
203	0x3cbdda17	0.023175282
204	0xbc88f26b	-0.016717156
205	0xbc177ae8	-0.009245612
206	0xbc80826b	-0.015687188
207	0x3c89c1ff	0.016816137
208	0x3ce0b1d4	0.027428545
209	0x3c446cf4	0.011988867
210	0x3c8d61dc	0.017258577
211	0x3ccd2e2b	0.025046429
212	0x3cee5248	0.02909197
213	0xbbad5cd3	-0.0052906065
214	0x3cf2b7b2	0.029628608
215	0x3bf6d42b	0.0075326166
216	0x3b1ad3ec	0.002362485
217	0xbd50586d	-0.05086558
218	0x3c43e9eb	0.011957626
219	0x3c8dbb5b	0.017301252
220	0x3c16bcbb	0.00920027
221	0xbc2bb704	-0.010480646
222	0xbcf746e3	-0.030185169
223	0xbcf196cc	-0.02949085
224	0xbceb3094	-0.028709687
225	0x3b911f82	0.004428805
226	0xbcf34e40	-0.029700398
227	0xbd281f1e	-0.0410453
228	0xbc128a64	-0.008944128
229	0xbb510d18	-0.0031898674
230	0xbd35b74f	-0.04436427
231	0x3bfdfd9c	0.00775118
232	0xbcf89f32	-0.030349348
233	0xbbb00ad0	-0.0053723827
234	0x3d06edf5	0.032941777
235	0x3b44b467	0.0030014755
236	0x3c4005d1	0.011720137
237	0x3bb245d8	0.005440455
238	0x3bbc6772	0.0057496363
239	0x3c4372b5	0.011929204
240	0xbc62b726	-0.013837611
241	0x3bbe9057	0.0058155465
242	0xbaccc8f1	-0.001562385
243	0x3c842865	0.016132543
244	0xbcdc137e	-0.026864763
245	0x3bef9127	0.0073110047
246	0x3bb5dc92	0.0055499757
247	0xbba95ed5	-0.0051687756
248	0x3c73f887	0.0148907965
249	0x3cbdeb80	0.023183584
250	0x3bc6df77	0.0060691196
251	0x3d0ce598	0.034398645
252	0xba3e9c43	-0.00072712096
253	0xbce64caf	-0.028112737
254	0xbc8d9caf	-0.017286627
255	0x3ce7a2e6	0.028275918

nonreduce1_3.bias f4 [32]
0	0x3cf46f30	0.029838175
1	0xbcf3cb33	-0.029759979
2	0x3caf94f4	0.021433331
3	0x3c7244da	0.014786923
4	0xbcde115e	-0.02710789
5	0xbb8ef3a9	-0.0043625426
6	0xbba1e337	-0.004940416
7	0xbc351e63	-0.011054608
8	0x3c238950	0.009981468
9	0x3be1dbab	0.0068926415
10	0xbba0a399	-0.004902315
11	0x3cd99f9a	0.026565362
12	0x3be9ecfc	0.0071388464
13	0x3cf8f99e	0.030392464
14	0x3c2f9649	0.010716983
15	0x3d0b5d4f	0.034024533
16	0xbcb2da3b	-0.021832576
17	0x3cab8d83	0.020941501
18	0x3cc8bd06	0.024504196
19	0x3c3037b6	0.01075547
20	0x3d158fa1	0.03651393
21	0xbb5dbc0e	-0.0033834013
22	0x3ceb6697	0.028735442
23	0x3d262f3a	0.040572383
24	0xbccdc780	-0.025119543
25	0xbcc6c984	-0.024266012
26	0x3d1379b1	0.036004726
27	0xbc93ad29	-0.018026905
28	0x3d0381c3	0.032106172
29	0x3c43fb1d	0.011961726
30	0x3c039bb3	0.008032727
31	0xbc695d13	-0.014243382

reduce2.weight f4 [16, 32, 4, 4, 4]
0	0x3c26e92f	0.010187431
1	0xbc634246	-0.013870781
2	0xbb04b6c9	-0.002025055
3	0x3cbee489	0.023302333
4	0xbc943501	-0.01809168
5	0xbc904eb0	-0.017615646
6	0xbbaecc14	-0.0053343866
7	0x3a54292c	0.0008093293
8	0x3c4eceb4	0.012622524
9	0xbc2cba8b	-0.010542522
10	0x3ccf18c5	0.025280366
11	0xbc690b0f	-0.014223828
12	0x3ca56544	0.020189889
13	0xbb8fb2b1	-0.0043853153
14	0x3c8fb326	0.01754148
15	0x3c12e2b1	0.00896518
16	0xb813837d	-3.516999e-05
17	0xbca94c17	-0.020666165
18	0x3ba8425b	0.0051348633
19	0xbc55e8e0	-0.01305601
20	0x3cab6af7	0.020925028
21	0x3bdfbfda	0.0068282904
22	0x3c2f268f	0.010690345
23	0xbbb90d2b	-0.0056473217
24	0x3c9d9aa1	0.019238772
25	0x3c98725f	0.018609224
26	0xbbbc2b51	-0.0057424684
27	0x3b73f708	0.00372261
28	0xbc9f89f9	-0.01947497
29	0x3ca7d07a	0.020485152
30	0xbc02fc02	-0.007994654
31	0xbc0aa21d	-0.008461502
32	0x3c348438	0.0110178515
33	0x3c127ba7	0.008940614
34	0xbc8e5b92	-0.017377649
35	0x3c87a65c	0.016558819
36	0x3c475ba4	0.012167845
37	0xbc2217a0	-0.009893328
38	0x3997e851	0.00028974054
39	0xbb90d53a	-0.00441995
40	0x3b576569	0.0032866842
41	0xbb7b02a4	-0.0038301134
42	0xbbdf0895	-0.006806443
43	0x3c13e892	0.009027617
44	0xbc503ff8	-0.012710564
45	0xbc83b29f	-0.016076384
46	0xbc8b21b1	-0.016983839
47	0x39d24992	0.00040109135
48	0x3c0ddaf0	0.008658156
49	0xbc3469cf	-0.011011555
50	0xbc5da5b5	-0.013528277
51	0xbc883f9b	-0.016631892
52	0xba0ca5cd	-0.00053652824
53	0xb773edc5	-1.4539289e-05
54	0xbc13f9b0	-0.009031698
55	0x3c235b89	0.009970554
56	0x3c16c10f	0.009201302
57	0x3bb12d1e	0.0054069897
58	0x3c6976b5	0.014249493
59	0xbb6b25a9	-0.0035880601
60	0x3bb9f130	0.0056745037
61	0xbbfc379b	-0.0076970584
62	0xbc582b0c	-0.013193857
63	0xbc775509	-0.015095958
64	0xbabc6803	-0.001437426
65	0xbba7bc46	-0.0051188795
66	0xbbb34987	-0.0054714116
67	0xbb3c4a67	-0.002873087
68	0x3c93231c	0.017961077
69	0x3b5c874a	0.0033649975
70	0xbb3d6bd1	-0.0028903375
71	0xbbf0d3d7	-0.007349472
72	0x3c4a75a6	0.012357151
73	0x3cef28a9	0.029194193
74	0x3ccb4da2	0.024817292
75	0xbbfd98cf	-0.0077391635
76	0x3c6f20c5	0.014595215
77	0xbaf69064	-0.0018811342
78	0xbc2dce39	-0.010608249
79	0xbb2203ed	-0.0024721578
80	0xbc8f2ef0	-0.017478436
81	0x3c9df52e	0.01928195
82	0xbc67058f	-0.014100446
83	0xbba59435	-0.005053068
84	0xbc2e16d8	-0.010625564
85	0xbbd2df39	-0.0064353016
86	0x3bcb5eba	0.0062063606
87	0x3be3bd0c	0.0069500264
88	0x3cd427cb	0.025897881
89	0xbabe4ccb	-0.0014518736
90	0x3c79d2eb	0.015248041
91	0x3c4a9a4d	0.01236589
92	0x3ca8b43f	0.02059376
93	0xbbd3166b	-0.0064418814
94	0xbc8107fa	-0.015750874
95	0x3cd36a47	0.025807513
96	0xbcc550ed	-0.02408644
97	0xbcbf3994	-0.023342885
98	0x3c28927e	0.010288833
99	0xbc29ad73	-0.010356295
100	0xbcb2bc59	-0.021818327
101	0xbc077900	-0.008268595
102	0xbcb76cb5	-0.022390703
103	0xbbb7b4e8	-0.0056062825
104	0xbc5f0978	-0.013613097
105	0x3c466d0d	0.012110961
106	0x3aedb7c0	0.0018136427
107	0xbb0dd6a8	-0.0021642838
108	0x3c87d52f	0.016581146
109	0xbb35d4eb	-0.0027745317
110	0x3c99cb25	0.018773625
111	0x3bbff541	0.005858094
112	0xbc00a025	-0.007850681
113	0xbcb700d2	-0.022339258
114	0xbccb5cfb	-0.02482461
115	0x3becf235	0.0072310218
116	0x3c74bf87	0.014938242
117	0x3c24eaed	0.010065776
118	0xbcaf7b46	-0.021421086
119	0xbc976bf7	-0.018484099
120	0x3c34801d	0.011016873
121	0xbc65cfc8	-0.01402659
122	0xbc8de68e	-0.017321851
123	0x3ca21956	0.019787472
124	0xbc7e24c1	-0.0155116925
125	0xbc7eed78	-0.015559547
126	0x3beb385f	0.007178351
127	0xbb3cd46f	-0.0028813144
128	0x3c9ec18d	0.019379402
129	0xbb933438	-0.004492309
130	0x3c030885	0.007997637
131	0x3ca445f6	0.020052891
132	0xbb0f7492	-0.002188955
133	0xbbd71d52	-0.0065647746
134	0x3b1ca79d	0.0023903616
135	0x3a4ce93d	0.00078167376
136	0x3c98f261	0.018670263
137	0x3c8c52ea	0.01712938
138	0x3c0903e3	0.008362743
139	0xbc18c875	-0.009325136
140	0x3bdb393d	0.006690173
141	0x3ca4bcca	0.020109553
142	0x3b404a77	0.002934126
143	0x3b87726e	0.004133514
144	0xbc9b70b9	-0.018974649
145	0xbc0cf68d	-0.008603704
146	0x3c09bb5b	0.008406485
147	0xbbce1691	-0.006289311
148	0xbb174148	-0.0023079682
149	0x3b0c9a32	0.0021454212
150	0x3c0011b7	0.007816724
151	0x3bde55e8	0.006785143
152	0xbc733d33	-0.014846134
153	0x3b98322e	0.0046446538
154	0x3a099561	0.00052483944
155	0xbcadebfe	-0.021230694
156	0xbc399b88	-0.011328585
157	0xbbc027b9	-0.0058641103
158	0xbc67ae3b	-0.014140661
159	0xbc8c2909	-0.01710941
160	0xbbdda9c5	-0.006764623
161	0xbc885ce0	-0.016645849
162	0x3c4a9ea2	0.012366923
163	0xbc08fb8b	-0.008360754
164	0xbcbe52e9	-0.023232894
165	0xbc3750ea	-0.011188725
166	0xbc936b65	-0.017995546
167	0x3c6c960b	0.01444007
168	0xbc2780b4	-0.010223556
169	0xb9f3926f	-0.00046457673
170	0xbc0b015e	-0.008484213
171	0x3bfbf276	0.0076888157
172	0xbc3c26b7	-0.01148384
173	0x3b86117c	0.00409144
174	0xbcb383c4	-0.021913417
175	0x3b150fc5	0.0022744995
176	0xbcdc225d	-0.026871854
177	0xbcc8c25c	-0.02450674
178	0xbc27a4a3	-0.010232124
179	0xbba6ffaf	-0.005096398
180	0xbc3bd95c	-0.011465397
181	0xbcd5958e	-0.02607229
182	0xbcbc8edf	-0.023017345
183	0xbcdbaafa	-0.026814926
184	0xbc6f232c	-0.014595788
185	0xbcdb0907	-0.026737703
186	0xbca0baa6	-0.01962025
187	0xbbfe7016	-0.0077648265
188	0x3c59f7b2	0.013303684
189	0x3b5d6c69	0.0033786541
190	0xbc835169	-0.01603003
191	0xbc84b798	-0.016200826
192	0x3c7b81c0	0.015350759
193	0x3bcd96f9	0.006274101
194	0xbcae7e35	-0.021300415
195	0x3c430f23	0.011905464
196	0xbacba0b2	-0.0015535562
197	0xbc875474	-0.016519763
198	0xbc109eb6	-0.008826902
199	0xbb5f446d	-0.0034067885
200	0x3b8aef05	0.004239919
201	0x3bed7c0c	0.0072474536
202	0xbc54902b	-0.012973825
203	0x3bc1a01b	0.0059089786
204	0x3ba068d1	0.0048953076
205	0xbc2e041e	-0.010621099
206	0xbc6e1d30	-0.014533326
207	0xbb232cbb	-0.0024898488
208	0xbc53e193	-0.012932199
209	0x3d1343dc	0.035953388
210	0x3c312604	0.010812286
211	0x3c91cb28	0.017797068
212	0x3b566f76	0.0032720244
213	0x3ba9b9c6	0.0051796166
214	0xbc06029e	-0.008179335
215	0xbb704c9d	-0.0036666759
216	0x3bae44ce	0.0053182608
217	0x3c6d6138	0.014488511
218	0x3cb9aefa	0.022666443
219	0x3a8fe771	0.0010979009
220	0xbcae4246	-0.021271836
221	0x3cb62a58	0.022236988
222	0xbca564ef	-0.02018973
223	0x3ccf0a5a	0.02527349
224	0xbce45ae6	-0.027875375
225	0xbd083de7	-0.03326216
226	0xbcab5143	-0.020912772
227	0xbb8f4578	-0.004372295
228	0xbd134010	-0.035949767
229	0xbcd88025	-0.026428292
230	0xbcc449a3	-0.023960894
231	0xbc21be93	-0.009872097
232	0xbd00534a	-0.03132943
233	0xbcfe5129	-0.03104456
234	0xbc54dde2	-0.012992354
235	0x3c6eb1f4	0.0145687945
236	0xbcb867ae	-0.022510376
237	0xbd1fba45	-0.038996
238	0xbb8eb240	-0.004354745
239	0xbce0525b	-0.02738302
240	0xbd330e89	-0.043715034
241	0xbc06798c	-0.00820769
242	0xbd45cb08	-0.04828933
243	0xbcf7c037	-0.030243022
244	0xbd5c5586	-0.0537925
245	0xbcbe56ff	-0.023234842
246	0xbcc6ed0b	-0.024282953
247	0xbc0fb33b	-0.008770759
248	0xbce53afe	-0.027982231
249	0xbd3d9ed1	-0.046294037
250	0xbd821ffa	-0.06353755
251	0xbc26cceb	-0.010180692
252	0xbd454ee5	-0.048170943
253	0xbd33c700	-0.043890953
254	0xbd2e1ccf	-0.042507943
255	0xbd3a84f4	-0.04553695

reduce2.bias f4 [16]
0	0x3b897aad	0.0041955323
1	0xbbf6d76b	-0.007533004
2	0xbc86ba81	-0.016446354
3	0x3c8c5586	0.017130625
4	0xbc829d2f	-0.015944092
5	0x3c5e3edd	0.013564792
6	0x3c937376	0.017999392
7	0xbc522834	-0.012826968
8	0xbc1e7b95	-0.009673019
9	0x3cc1144b	0.023569247
10	0xbbf61dba	-0.007510868
11	0xbc8e79d0	-0.01739207
12	0x3a9cd30f	0.0011964756
13	0x3bd88972	0.0066081816
14	0x3ab8e605	0.0014106637
15	0x3c8551a1	0.016274275

nonreduce2_1.weight f4 [16, 16, 3, 3, 3]
0	0x3d45baa3	0.048273694
1	0x3c3bef8a	0.011470685
2	0x3d3cc7a8	0.046088845
3	0x3c3972b6	0.011318853
4	0xbc74b543	-0.014935794
5	0x3b637007	0.0034704225
6	0x3d00b3c1	0.031421427
7	0xbd0a37a0	-0.033744454
8	0xbbb74ea4	-0.0055940915
9	0x3d43a3d6	0.047763668
10	0xbc8c2bcd	-0.01711073
11	0x3bdeffaa	0.00680538
12	0xbc84538c	-0.01615312
13	0xbcbb464e	-0.022860672
14	0xbd0a7b2d	-0.033808876
15	0x3d1c1b68	0.038112074
16	0x3cd44b98	0.025914952
17	0xbb1190fb	-0.002221166
18	0x3d1fbead	0.039000202
19	0xbcda1f63	-0.026626294
20	0xbc65636d	-0.014000756
21	0x3d621e02	0.0552044
22	0x3b4f30c3	0.0031614758
23	0xbd01da68	-0.03170243
24	0xbd1b71c0	-0.037950277
25	0xbd07bf05	-0.033141155
26	0x3cbb1ba7	0.022840334
27	0xbc061d7f	-0.008185743
28	0xbc807286	-0.015679609
29	0xbc4bd9b9	-0.012442046
30	0xbd6a442a	-0.057193913
31	0xbcbb3fb2	-0.02285752
32	0xbc7be030	-0.015373275
33	0x3c4687a2	0.012117298
34	0xbcdc19e0	-0.026867807
35	0xbc79e648	-0.015252657
36	0x3d225bfe	0.03963851
37	0x3c9f3a94	0.019437112
38	0x39b5fc0c	0.000347108
39	0x3cc05961	0.02348012
40	0xbceb1458	-0.028696224
41	0x3cd0149b	0.02540045
42	0xbd2de21e	-0.04245197
43	0xbc66aca3	-0.014079246
44	0x3c89eb63	0.016835874
45	0xbc60a4ab	-0.013711135
46	0xbd41e887	-0.047340896
47	0x3b41fbd4	0.0029599564
48	0x3c6dc791	0.014512912
49	0xbcad38de	-0.02114528
50	0x3c0b6b22	0.008509429
51	0x3c5b9d5b	0.013404216
52	0x3bc3989f	0.0059691216
53	0x3c6a4c2a	0.0143003855
54	0xbab982e6	-0.0014153391
55	0xbd2edb75	-0.04268976
56	0xbb4cbd7e	-0.0031240876
57	0xbd251cf2	-0.040310808
58	0x3c9c706a	0.019096572
59	0xbb4af1a5	-0.0030966785
60	0xbd02f160	-0.031968474
61	0x3d3e4882	0.046455868
62	0xbc6497b9	-0.013952189
63	0x3c457e0e	0.01205398
64	0xbc63a015	-0.013893147
65	0xbce097cb	-0.02741613
66	0xbd33aba1	-0.04386485
67	0x3d10faaf	0.03539532
68	0xbb573687	-0.0032838897
69	0xbd1c2c42	-0.038128145
70	0xbba8c0da	-0.005149943
71	0x3c053abb	0.008131678
72	0xbc752aad	-0.014963788
73	0x3c2a3887	0.010389454
74	0x3d487bb6	0.048946105
75	0x3c5bdbe6	0.013419127
76	0xbc91287e	-0.017719503
77	0xbd1a2840	-0.03763604
78	0x3d10bdc5	0.03533723
79	0xbcac6da8	-0.021048382
80	0xbcb4b53f	-0.022059081
81	0xbc52e84c	-0.012872767
82	0x3d05e9fc	0.032693848
83	0xbcd4a9a4	-0.025959797
84	0xbd3d50ef	-0.046219762
85	0x3b1e7192	0.002417658
86	0xbc90880f	-0.017643003
87	0xbc05b4be	-0.008160768
88	0x3d1e6a1c	0.038675413
89	0xbd23904a	-0.039932527
90	0x3befb056	0.007314722
91	0xbc6d6aa8	-0.014490761
92	0x3d304069	0.043030176
93	0xbd2d5446	-0.042316698
94	0xbbc9ea0e	-0.0061619347
95	0x3d1a965e	0.037741058
96	0x3d18600c	0.037200972
97	0x3cf1d6b6	0.029521327
98	0x3d1d848a	0.038456477
99	0x3cd5be65	0.026091764
100	0xbd27cd55	-0.040967304
101	0x3bdd3903	0.006751181
102	0xbd0ec6e7	-0.034857657
103	0xbd004208	-0.031312972
104	0x3d343156	0.043992363
105	0xbce94a1a	-0.028477717
106	0x3d188396	0.037234865
107	0x3bf86055	0.007579843
108	0xbc2862ed	-0.010277492
109	0x3bcfaba1	0.0063375984
110	0xbcc3a07e	-0.02388024
111	0xbd285935	-0.0411007
112	0xbcca42a1	-0.024689974
113	0xbd0d48d9	-0.0344933
114	0xbcc6264a	-0.02418818
115	0xbc497193	-0.012295145
116	0xb9dc0ab1	-0.00041969636
117	0x3a154693	0.00056944153
118	0xbd096ada	-0.033549167
119	0x3b543719	0.0032381474
120	0xbcf2bd95	-0.029631415
121	0xbc5fc10f	-0.013656869
122	0xbd075eb4	-0.0330493
123	0xbb8ee217	-0.004360448
124	0x3bd64a26	0.006539601
125	0x3c934062	0.017975036
126	0xbcd220f7	-0.025650484
127	0xbd4796b9	-0.048727725
128	0xbceb0e8d	-0.028693462
129	0xbd0cc4e3	-0.034367453
130	0x3d031e94	0.032011583
131	0xbd2de77b	-0.042457085
132	0x3d112104	0.035431877
133	0xbcea16f8	-0.028575405
134	0xbb519880	-0.0031981766
135	0xbca9ac0f	-0.020711927
136	0x3c933f9c	0.017974667
137	0x3bb69583	0.0055720224
138	0xbcad9e86	-0.021193754
139	0x3cac49ef	0.021031348
140	0xbd001d21	-0.03127778
141	0xbcca120c	-0.024666809
142	0xbc93a4a7	-0.018022848
143	0x3c6884af	0.0141917905
144	0xbbbfd3d1	-0.005854108
145	0xbd047ce8	-0.032345682
146	0x3cf2bedb	0.029632023
147	0xbcf99aa5	-0.030469248
148	0x3d41eb0d	0.047343303
149	0x3d558530	0.05212897
150	0x3cfd865d	0.030947858
151	0xbcd10298	-0.025513932
152	0xbbb5b3a7	-0.005545098
153	0x3b999688	0.004687134
154	0xbc303a9c	-0.010756161
155	0xbbb83a4a	-0.005622183
156	0x3d01dfd6	0.031707607
157	0x3d14318d	0.036180068
158	0xbc2edf1f	-0.010673313
159	0xbc798d4c	-0.015231442
160	0xbd232f6d	-0.03984015
161	0x3caf4c65	0.021398732
162	0x3c84cb4d	0.016210223
163	0xbb4ecda6	-0.0031555681
164	0xbd3ff8bc	-0.04686807
165	0xbce72615	-0.028216401
166	0xbcd65f95	-0.026168624
167	0x3c9c9e26	0.01911838
168	0xbd4bdff3	-0.04977412
169	0xb97b4707	-0.00023963685
170	0xbae4fb85	-0.0017469978
171	0x3d21f7e0	0.039543033
172	0xbb16de94	-0.002302085
173	0xbd3d0692	-0.046148844
174	0xbd395442	-0.04524637
175	0x3c316877	0.010828129
176	0xbc474d7b	-0.012164469
177	0xbcce2be8	-0.02516742
178	0x3d1ad662	0.037802108
179	0x3be07dc7	0.0068509313
180	0x3d246dba	0.040143706
181	0xbd064244	-0.03277804
182	0x3c76d308	0.015064962
183	0x3c9b67b2	0.018970344
184	0xbc374cd8	-0.011187755
185	0x3cbd7914	0.023129024
186	0xbd304450	-0.043033898
187	0xbd2d7c3c	-0.042354807
188	0x3d02ab78	0.031901807
189	0xbc899e92	-0.016799245
190	0xbd0c2f38	-0.03422472
191	0xbd422da2	-0.0474068
192	0x3d1c945d	0.038227428
193	0xbd2441f9	-0.04010198
194	0xbbdf25da	-0.006809932
195	0xbbfc4674	-0.0076988284
196	0x3d086b96	0.033305727
197	0xbd231446	-0.039814256
198	0xbb992471	-0.0046735336
199	0xbce86ca6	-0.02837212
200	0xbd0c7762	-0.03429354
201	0xbc4db2ce	-0.012554837
202	0x3d0dbf7e	0.03460645
203	0x3ca7db0b	0.02049019
204	0xbb1469dd	-0.0022646107
205	0xbcab8aa5	-0.020940134
206	0xbcce7c63	-0.025205797
207	0x3b8304ba	0.003998366
208	0xbd0b0da3	-0.033948552
209	0x3be1f69c	0.006895853
210	0x3c506cd3	0.012721258
211	0xbc07b909	-0.008283862
212	0xbc3f31c3	-0.011669579
213	0xbd0184f8	-0.03162095
214	0x3d348ed3	0.04408152
215	0xbcf5032b	-0.029908737
216	0xbd210036	-0.03930684
217	0x3d095cfd	0.033535946
218	0xbd252aec	-0.040324137
219	0xbd0acb95	-0.033885557
220	0x3b2ea792	0.0026650173
221	0xbcbea634	-0.023272611
222	0xbcb8de02	-0.0225668
223	0x3b9254df	0.004465684
224	0xbd2f7f76	-0.042846166
225	0x3c12b5b5	0.008954455
226	0xba830f90	-0.0009999145
227	0x3b682bce	0.00354265
228	0x3c316e38	0.010829501
229	0x3b947bac	0.0045313444
230	0x3c7db272	0.015484439
231	0xbcdaaafc	-0.02669286
232	0xbce2df35	-0.027694324
233	0xbd1fd785	-0.039023895
234	0x3cc011e6	0.023446035
235	0x3c8eb8bb	0.01742207
236	0xbd316bc5	-0.043315668
237	0xbcbd7bef	-0.023130385
238	0x3ced1df0	0.02894494
239	0xb9cb6845	-0.00038796864
240	0x3cd1f96e	0.025631633
241	0xbbaf87f6	-0.005356784
242	0xbc67f38a	-0.014157185
243	0x3af78faf	0.0018887426
244	0x3b3ccce5	0.002880865
245	0xba92bb92	-0.0011194816
246	0x3d086176	0.03329607
247	0xbc9ea301	-0.019364836
248	0xbd5c6151	-0.053803746
249	0x3c45d4b0	0.012074634
250	0xbbf3f809	-0.0074453396
251	0x3d52748c	0.05138068
252	0xbd0972f8	-0.03355691
253	0xbd088fa0	-0.033340096
254	0xbcc7e11c	-0.024399333
255	0xbc80394d	-0.015652323

nonreduce2_1.bias f4 [16]
0	0xbc0e8969	-0.008699753
1	0x3cb47002	0.022026066
2	0x3d0e1d6e	0.034696035
3	0x3d12031f	0.035647508
4	0x3cf877e9	0.030330615
5	0xbcd6f1e2	-0.026238386
6	0xbbb6726e	-0.0055678403
7	0xbc79e78d	-0.01525296
8	0xbc632db8	-0.013865881
9	0x3c2abc4a	0.010420868
10	0x3d451e42	0.04812456
11	0x3c679944	0.0141356625
12	0xbd18bae5	-0.03728761
13	0x3c33104d	0.010929179
14	0xbc897c33	-0.016782856
15	0xbd2ec662	-0.04266966
