02_deep3D/model/model_iw.pt (torch, 750886 bytes, 25 tensors)

reduce1.weight f4 [64, 1, 4, 4, 4]
000000 e7 de 54 3c 43 e2 ae 3d 2d 21 b6 3d 9f ae 06 3d
       0.012992597 0.0853925 0.088930465 0.032881375
000010 c2 69 ce 3d f0 c2 a2 3a 05 c7 6e bb 86 c1 93 bd
       0.100787655 0.0012417715 -0.0036434543 -0.07214646
000020 db 08 ad bd 5e 54 78 bd 92 73 fa bd 5e d1 92 bc
       -0.08448955 -0.060627334 -0.122290745 -0.0179221
000030 a1 8d 98 bd 71 4d b1 bd 8d 76 aa bd 10 ae 42 bd
       -0.074488886 -0.08657349 -0.08323393 -0.04752928
000040 ad ac 86 bd d5 b6 a2 3b 9d dd 68 bd 91 33 77 bd
       -0.06575904 0.004965643 -0.056851972 -0.060351912
000050 2d bf 96 3d d2 45 4c bc c7 47 33 bd 56 0b 67 3d
       0.07360683 -0.012467818 -0.043769624 0.056407295
000060 a8 f8 f4 3d 9d 67 90 bd a9 5a db 3b d9 ea 9a 3d
       0.1196149 -0.07051013 0.006694157 0.07564325
000070 c2 96 af 3d 34 3b 2a bd 5b 98 d7 3c 8a f9 d6 bd
       0.08573677 -0.041560367 0.026317766 -0.104968145
000080 17 08 7b bd 01 2f 01 3e 7b a2 ca bd 21 7a 05 bd
       -0.061287012 0.12615587 -0.09894272 -0.032587174
000090 8e 11 6c 3c c1 c1 c9 3c 20 08 b5 bc 65 6e e1 bd
       0.014408482 0.024628522 -0.0220986 -0.11007384
0000a0 8e 29 cf 3d 3e 4f da 3d a7 e5 d9 bd 93 a7 be 3d
       0.10115348 0.106596455 -0.10639506 0.09309306
0000b0 5d 44 e2 bc ef 39 cd bd 29 f0 ba 3d 43 32 3e bd
       -0.027620489 -0.100208156 0.09127838 -0.046434652
0000c0 23 70 0b bc c0 fb cc bb a4 45 8a bd 08 cc 34 bd
       -0.008510622 -0.006255597 -0.06751564 -0.044139892
0000d0 a4 4e cb 3d 86 7a 13 3d 21 08 07 3d 13 89 86 3d
       0.09927109 0.03600552 0.032966737 0.065691136
0000e0 40 69 ca bc 4c 0d 94 bc dd 0e d8 bd cf fa c5 bc
       -0.02470839 -0.018072747 -0.1054971 -0.024167446
0000f0 09 20 f9 3c 0e cd 08 3e d9 bf eb 3b 0f 35 ee 3d
       0.030410783 0.13359472 0.007194501 0.11631214
000100 b5 0b 86 3d 1f c8 70 bc c0 54 e1 3d 60 7a 2e 3d
       0.06545202 -0.01469615 0.11002493 0.042597175
000110 15 e0 35 3d 3c c2 ab bc d1 40 d6 3d 00 9c fe ba
       0.044403154 -0.020966642 0.104615815 -0.0019425154
000120 3c 87 d5 3d d2 a3 f1 bd 39 e5 c7 bd 73 f0 8e 3d
       0.104261845 -0.11798824 -0.097605176 0.06979456
000130 f2 b7 26 bd 66 9f 63 bd c2 a1 d6 3d 26 b9 1b 3d
       -0.040702768 -0.055571936 0.104800716 0.03801837
000140 f5 53 27 3d b9 eb e3 3d 04 1f 78 bd d4 6f 83 bd
       0.040851552 0.11128945 -0.060576454 -0.06417814
000150 6b 14 92 3d 6d 57 6f 3c 8c b8 c6 bd 6f 54 cc 3d
       0.07132801 0.014608246 -0.09703168 0.09977042
000160 4d 9f 49 3d 73 03 af 3d 9b 70 88 bd d7 16 ea bd
       0.049224187 0.0854558 -0.06662103 -0.114301376
000170 63 ba 31 bd 10 cd fa 3c b7 4e 70 3d 48 06 41 bb
       -0.043390643 0.03061536 0.05866882 -0.0029453207
000180 12 13 8c 3b 61 26 c3 bd f5 4a 9c bd c5 a4 17 bd
       0.0042747343 -0.095288046 -0.076314844 -0.03702237
000190 fb 43 fd bc 9f 37 d9 3d 3b 56 51 3c 40 4e 48 bc
       -0.030916205 0.10606312 0.012776907 -0.0122256875
0001a0 4a 31 ad bd 68 ca e2 3d 4f e8 de 3d a1 f6 b2 3b
       -0.08456667 0.11073762 0.10884153 0.0054615294
0001b0 d2 2c 7e bc 56 99 76 3c a6 1b d7 3d 28 9f 2d 3d
       -0.015513616 0.015051207 0.105033204 0.04238811
0001c0 3b ff 37 3d 0f 53 87 bd 7c a4 2b bc d6 c1 07 bd
       0.04492114 -0.06607639 -0.010476228 -0.03314384
0001d0 77 b4 99 bd 52 35 2c bd 0f 5b 61 3d 6a ff 10 3d
       -0.07505124 -0.042043038 0.05501848 0.03539983
0001e0 93 88 33 bd 38 09 73 3d f1 13 30 3c 47 66 14 bd
       -0.04383142 0.059334964 0.010746942 -0.03623035
0001f0 a5 1a 20 bb 96 d5 db bd b0 f0 62 bd 3f 97 d6 3d
       -0.0024429944 -0.10734098 -0.05540532 0.10478067
000200 15 7c 55 bd 32 4b 84 bc fc 7e 16 3c d2 55 67 3c
       -0.052120287 -0.016149137 0.009185549 0.014119582
000210 bd 90 da bc fd 4b ab bd c7 cb ed 3d 8f 38 e8 3d
       -0.026680345 -0.08364103 0.11611133 0.11338913
000220 f1 40 5d bd 34 59 b2 3c 41 6d 31 3d fb 37 ed 3d
       -0.05401701 0.021771051 0.043317083 0.11582943
000230 ee a9 bc bd fe be ab 3d 90 a7 b4 3d b1 cd c8 bd
       -0.09212099 0.08386038 0.088210225 -0.098048575
000240 c2 77 b9 3d ad 21 f4 bc 9e 5a 05 3d 76 89 ee 3d
       0.09056045 -0.029801214 0.032557122 0.11647312
000250 b5 25 9c bd 68 62 32 3d bd 09 00 bc 75 1b 5e 3c
       -0.076243795 0.04355088 -0.007814822 0.013556351
000260 5c 77 98 bd b3 4f b3 3d 03 e4 03 3c 6c 92 cc 3d
       -0.07444641 0.08755436 0.008049968 0.09988865
000270 0c c3 b9 3c d4 41 4a bd a4 51 c6 3d fe 58 79 bd
       0.022676013 -0.049379185 0.096835405 -0.060875885
000280 90 63 d2 bd 33 2f 33 bd 20 01 89 3d 57 59 27 bc
       -0.10272896 -0.043746185 0.06689668 -0.010214171
000290 89 c3 3d bc f8 b7 b4 3c ed 9e f5 3c 31 d9 f7 3d
       -0.011582264 0.02206038 0.029983008 0.12101973
0002a0 7c e3 ab bd 73 8a e7 3a 4b 9f 00 bd a1 bc 9f 3b
       -0.083929986 0.0017665162 -0.031401914 0.0048747812
0002b0 2a cd fd 3d 07 0c c2 bc f0 df bd 3d ee 19 8b 3d
       0.123926476 -0.023687376 0.09271228 0.06792055
0002c0 67 56 d8 3d 93 fd 16 3d 7e 80 d0 3d 19 93 6c 3d
       0.10563355 0.03686292 0.10180758 0.05775747
0002d0 20 d2 a4 bb ad fd 71 bd 0c 79 c7 bd b1 60 5c bd
       -0.0050299317 -0.059079815 -0.09739885 -0.05380315
0002e0 00 40 dc 3c 85 b6 ff 3d 42 35 d5 3d a4 90 55 3c
       0.026885986 0.12485985 0.10410549 0.013034973
0002f0 60 39 93 bd 91 3a f2 bd 7f 2a af bd dc 6b 9a 3d
       -0.07188678 -0.11827577 -0.08553027 0.07540104
000300 4f 88 f6 bd d4 30 01 3d 4e 5d 89 bd 50 b1 96 bb
       -0.120377176 0.031540707 -0.067072496 -0.004598774
000310 c2 96 f1 3c 8e 24 89 bc 1d 54 ce 3d bd bc 1c bd
       0.029490832 -0.016741063 0.10074637 -0.038265932
000320 4b 61 b8 3d 8c 5f 83 3c 13 be 6c 3d 1f ff 92 bd
       0.09002932 0.016036771 0.057798456 -0.07177567
000330 8e 39 45 3d 73 dc de bc 90 56 fd 3d 25 45 f6 3d
       0.04815059 -0.027204728 0.12370026 0.12024907
000340 02 75 0a bd 28 99 00 be c8 09 db bd 98 9c c2 3b
       -0.033802994 -0.12558424 -0.10695225 0.0059390776
000350 43 93 c0 3d 5e 3e f6 3d be 32 e2 bd 2a fd 06 ba
       0.09403088 0.12023614 -0.110448346 -0.0005149419
000360 3a 19 b3 bd d9 41 a3 bd 27 88 86 bd 23 fd 4f 3c
       -0.08745046 -0.07971544 -0.06568938 0.01269463
000370 ea f0 9f 3c 00 e8 8e 3c 5d b2 d2 3d 2a ad e4 bd
       0.019524056 0.01744461 0.10287926 -0.11165841
000380 e2 4e ab bd 25 91 93 bd 77 6d b4 bd 6e 7d 8b 3d
       -0.08364655 -0.072054185 -0.08809941 0.06811033
000390 bc 81 ae bd 9a 2b ec 3d 2d fd 20 3b 5f 12 6c bd
       -0.085208386 0.11531754 0.0024564967 -0.057634708
0003a0 44 83 8e bd ee c3 9c 3d 7d cc 5c 3d ce e2 cd bd
       -0.06958631 0.07654558 0.053905953 -0.10053025
0003b0 e4 a0 01 bc 89 14 cd bd ed 56 91 bd fb b3 45 3d
       -0.0079118945 -0.100136824 -0.07096658 0.048267346
0003c0 22 a5 f8 bd fb 45 f0 bd a0 1e e1 bd 17 97 9b bd
       -0.121408716 -0.11732098 -0.109921694 -0.075971775
0003d0 c4 e6 0e 3d 76 d5 b5 3d b3 07 ef 3d c3 21 b9 3d
       0.034888044 0.08878605 0.116713904 0.09039643
0003e0 8b 5b 01 3e c7 f7 39 3d 81 c5 3f 3d a5 5c 6a 3c
       0.12632577 0.045402315 0.046819214 0.014304315
0003f0 63 19 bc b9 0f 64 c7 3d 33 bb 6c bd c1 ad de 3d
       -0.0003587707 0.097358815 -0.057795715 0.10872985

reduce1.bias f4 [64]
000000 c2 f9 3b 3c cd 01 d1 bc 8a aa 2b bd 1f 69 d8 bd
       0.011473121 -0.025513554 -0.041910686 -0.10566925
000010 1f 8b d9 3d ec 3e ce bd 3c b5 c2 3d 8c 44 cf bd
       0.10622238 -0.10070595 0.09507224 -0.10120496
000020 e3 0f c0 bc 89 4a 0c bd c9 03 5a bd 6a d7 83 bd
       -0.023445075 -0.03425077 -0.053226266 -0.06437571
000030 a8 f2 f4 bd f6 49 8b bd 12 1b f0 3a 90 89 5b bd
       -0.119603455 -0.06801216 0.0018318614 -0.053597987
000040 88 ed 78 bd 7f f1 0d bd 97 26 86 bd 3d 0a 84 3d
       -0.060773402 -0.034654137 -0.06550329 0.06447265
000050 a1 d7 94 bd db 9c 83 3d 87 96 83 b7 71 bc 46 bd
       -0.072676904 0.06426402 -1.5686512e-05 -0.048519555
000060 78 69 33 3c d7 f5 f4 3d 3f 47 8c bc 9b d0 c1 bc
       0.010950439 0.11960953 -0.017123817 -0.023659041
000070 c2 f5 e1 3d cd 5c 93 3d 62 eb e7 3d 61 52 07 3d
       0.11033203 0.07195435 0.113241926 0.033037547
000080 c3 99 57 bd ef f2 dd 3d 21 0b 97 3d 1c a2 9b 3c
       -0.052636873 0.108373515 0.073751695 0.018998198
000090 73 8f 6d 3d 1e 01 de bd ec 29 d9 bd e8 7e 7d bd
       0.057998132 -0.10840057 -0.10603699 -0.061888605
0000a0 75 a3 ec bd 7b ae 46 bd 75 f8 24 bc 19 00 93 bb
       -0.115546145 -0.04850624 -0.010069002 -0.0044860956
0000b0 59 e1 05 bd e7 15 08 bb 55 c9 a3 bd da 47 2b 3d
       -0.03268561 -0.0020765008 -0.079973854 0.04181657
0000c0 87 21 14 bd 45 f0 8c bd c6 c6 01 3d 97 0f e3 bd
       -0.036164787 -0.06881765 0.031683706 -0.11086958
0000d0 d8 3b b1 bd 06 c6 f7 bb cb 9d 49 bd 88 fd 2f bd
       -0.086539924 -0.007561448 -0.04922275 -0.042966396
0000e0 22 85 df 3c be 5b b6 3d 22 de cb 3d 33 ee ba 3c
       0.027285162 0.08904217 0.09954478 0.02281866
0000f0 7e 34 27 bc 7a 15 b8 3d 20 e6 3e bd 47 dd b8 3c
       -0.010205386 0.08988471 -0.046606183 0.02256645

nonreduce1_1.weight f4 [32, 64, 3, 3, 3]
000000 f2 3a a4 3c 02 e0 06 bc 73 f8 80 3c 1d 58 2d 3c
       0.020047639 -0.008232119 0.01574347 0.01058009
000010 df 75 ed 3c a6 86 ee 3c d4 f2 06 bc c7 05 ab bb
       0.02898687 0.02911694 -0.008236606 -0.0052191946
000020 c6 ab 25 3c f4 20 8b 3c eb 6e 47 3c 94 a4 b7 bb
       0.010111755 0.016983487 0.012172441 -0.005604336
000030 83 2f b6 3a 60 60 d9 3a d0 46 c8 3c 84 02 a1 bc
       0.0013899658 0.0016584508 0.024447829 -0.01965452
000040 f4 cb 82 3c 56 bf 8f 3c 02 7f ed 3b cc f9 90 3c
       0.015966393 0.01754729 0.0072478065 0.017697237
000050 79 90 e8 bb ee 80 09 3c 0a 92 95 3c 6d 01 c7 3b
       -0.0070973006 0.008392556 0.018258113 0.006073168
000060 d5 a9 94 bc 9f 2c 26 3c d4 04 e8 3c c8 ad 87 3c
       -0.018147388 0.010142474 0.028322615 0.016562358
000070 44 d1 31 3b 9a 7b 17 3c f4 dc 82 3c 3f d7 83 bc
       0.0027132789 0.0092457775 0.0159745 -0.016093848
000080 57 4b a5 bc 6a 4e 4d 3c ce 1b b3 bc ab ec c3 3c
       -0.020177526 0.012530902 -0.021863844 0.023916563
000090 7c aa 0b 3c ad 6c 9b 3c df eb af 3b 89 e9 80 bc
       0.008524533 0.01897272 0.005368694 -0.015736358
0000a0 d5 50 7e 3c c6 8a 8b 3c c6 2f 12 3c 93 bf 6c bc
       0.015522202 0.017033946 0.008922523 -0.014449972
0000b0 96 53 a5 3c 94 d3 41 bb 64 d4 03 bb a2 af 4d 3c
       0.020181458 -0.0029575573 -0.0020115608 0.012554081
0000c0 36 f5 57 3c 2c 31 e4 3a bc 63 6a 3c 3b 73 c9 3b
       0.013181021 0.0017409674 0.014306005 0.0061477697
0000d0 0e 4f 6b 3c fd a2 aa 3c 4a 30 a2 3c 46 ee aa bc
       0.01436211 0.020829672 0.019798417 -0.02086557
0000e0 5c 1d 83 3c e5 70 97 3c 12 cf dd bb ea 1c e6 bb
       0.01600521 0.01848645 -0.0067690695 -0.00702249
0000f0 96 02 06 3c 4b ce 5e bb d3 49 7d bc 39 ca ea 3a
       0.0081793275 -0.0033997472 -0.015459496 0.001791305
000100 64 4f f2 3a 70 14 08 3c 0d 99 f2 ba 29 2b 09 bc
       0.0018486795 0.008305654 -0.0018508747 -0.008372107
000110 d1 1a e4 ba 6a 11 52 3b 31 d2 b1 3c f6 41 b6 3c
       -0.0017403011 0.0032053837 0.021706672 0.02224825
000120 5a ef 61 3c 6f 22 a5 3c 53 3f 85 bc f6 55 7a bc
       0.013789976 0.02015802 -0.016265547 -0.015279284
000130 16 d5 97 3c fa e5 9c 3c 4e ae 2d bc 14 ce ad bc
       0.018534224 0.01915263 -0.0106006395 -0.02121643
000140 98 c5 2c bc 00 9c 15 bc 31 03 88 3c 89 5f 95 bc
       -0.010545157 -0.009131432 0.016603084 -0.018234031
000150 9d b0 45 bc 2b d9 80 bc 1b ee 97 bc 8a 2b 6c bb
       -0.012066034 -0.015728554 -0.018546155 -0.0036036693
000160 da 41 91 bc 05 fb 25 3c a6 c2 ae ba f5 26 0f bc
       -0.017731596 0.0101306485 -0.0013333156 -0.008737315
000170 8a 88 cb ba 59 c4 e2 3b 9a 34 11 bc e9 86 af bc
       -0.0015528363 0.006920379 -0.008862639 -0.021426635
000180 80 62 1e bc 0a e5 f2 bc 92 86 46 3a d1 23 95 bb
       -0.009667039 -0.02965023 0.0007573153 -0.004551389
000190 7a ae 50 3c 5b 51 30 3a 3d af fc bb d0 be d0 3b
       0.012736911 0.000672599 -0.0077113197 0.006370403
0001a0 85 69 57 ba d1 ba e2 bc 87 fb f0 ba a9 51 59 3c
       -0.0008217323 -0.027676972 -0.0018385508 0.013264098
0001b0 33 c6 26 bc 0b fb 1c bc 23 da 84 bc 46 58 99 bc
       -0.01017909 -0.009581338 -0.016217297 -0.01871885
0001c0 56 80 b4 bc be af d2 3a 12 6c 6c 3c a7 4a 04 bc
       -0.022033852 0.0016074104 0.014430063 -0.008074439
0001d0 9f c7 f7 3a 4f 47 e3 bb d2 7f 09 bc 79 f9 96 3c
       0.0018904096 -0.006935991 -0.008392291 0.018429505
0001e0 90 52 9a bc 77 6f c1 bb 25 88 87 ba 0c c7 9d bc
       -0.018838197 -0.00590318 -0.0010340257 -0.019259952
0001f0 66 2e ac 3b 76 5e 4e bb 2a f4 79 3c 01 6b 3b 3b
       0.0052545546 -0.0031489409 0.015255967 0.0028597715
000200 73 5d a1 3a 0d c5 af bc 60 31 49 3c a7 c2 17 3b
       0.0012311175 -0.021456266 0.012279838 0.0023156793
000210 50 94 d4 bc 09 05 ce bc 58 b3 2a bc c2 01 9f 39
       -0.025949627 -0.025148885 -0.010418735 0.00030328153
000220 25 d7 9f 38 8a 8c 63 bb 7e 53 9e 3b 25 cd b8 bc
       7.6217846e-05 -0.003472122 0.0048317304 -0.022558758
000230 fd af 37 bc 07 60 ac 3c fe 93 c4 3c 38 bc ce bb
       -0.0112113925 0.021041883 0.02399635 -0.0063090585
000240 5f f8 38 bc 90 f1 fe 3a ef eb c4 3b 73 13 4d 3a
       -0.011289685 0.0019450653 0.006009571 0.00078230276
000250 66 38 3a 3c ef b7 8d 3c 27 02 c1 3b 18 83 d8 ba
       0.0113659855 0.01729962 0.005890149 -0.0016518561
000260 86 fc 63 bc 19 b8 64 bc d7 56 10 3c 1f 41 ce bb
       -0.013915187 -0.013959908 0.008809767 -0.006294384
000270 90 01 88 bc f0 5a 00 bc 2f f6 13 bb 4c 2f bf 3b
       -0.016602308 -0.007834181 -0.0022577157 0.0058344956
000280 37 82 5e bc 88 8c 60 ba 50 80 d7 3b 2d 73 96 bc
       -0.01358085 -0.00085658627 0.0065765753 -0.018365467
000290 a1 19 e0 bc 1c 73 3b bc be 48 26 bc 97 58 d1 bb
       -0.02735597 -0.011441018 -0.010149179 -0.0063887346
0002a0 5e bc 53 3c 3b f7 bd bb 8e e8 b3 bc 30 b5 8d 3c
       0.012923328 -0.0057972944 -0.021961477 0.017298311
0002b0 e4 0a 46 bc 92 6f a5 3a 17 d3 7f bc 59 2e fe b9
       -0.012087557 0.0012621752 -0.015614293 -0.00048481187
0002c0 70 f7 fd 3b 88 65 9f 3b 2f 0e e0 3b 79 5c a1 bc
       0.007750444 0.0048643984 0.0068376283 -0.019697415
0002d0 4f a8 4a bc 99 03 bb bb 2c 16 52 3c b4 ba ea 3a
       -0.012369229 -0.005707216 0.012822669 0.0017908425
0002e0 8e 6c 93 bc 8a e4 3b bb c5 34 6a bc a6 cb a5 bc
       -0.017996099 -0.0028670155 -0.014294808 -0.020238709
0002f0 da 1d 05 3a e0 7a ab 3c 1c 24 51 3c bb fb 54 3c
       0.00050779956 0.020932615 0.012764957 0.01299947
000300 81 74 a4 3c 75 40 f9 3b 19 bf 47 3c 00 14 14 3c
       0.020075085 0.007606561 0.012191557 0.0090379715
000310 ed 3c b3 3b 8e b7 84 3c 2a 3b 9a 3b 49 0f 2b bc
       0.0054699094 0.016200807 0.00470676 -0.010440656
000320 b9 f2 a4 3c 86 70 98 bb 0e e7 cf bb 94 ba b2 bb
       0.02013527 -0.0046520857 -0.0063446825 -0.0054543708
000330 9d 43 0b 3a f6 f6 a1 3c 47 51 8f 39 f5 14 a1 3a
       0.00053125044 0.01977108 0.00027335642 0.0012289571
000340 e2 49 b4 bc 95 dc 25 bb 9f 44 10 3c 31 95 3f bc
       -0.022007886 -0.002530848 0.008805423 -0.011693285
000350 a6 65 73 bc cb 6c ec bb c0 13 67 39 d7 2a 13 3b
       -0.014855778 -0.0072151176 0.00022037234 0.0022455954
000360 cd c8 2b bb a7 62 9c 3c 6f 29 88 bc fe 4a 58 bc
       -0.0026212216 0.01909001 -0.01662132 -0.013201473
000370 b5 8a c2 3c 3d 0f f9 bb a6 4c 26 3c 18 5b 8e bc
       0.023747781 -0.0076006935 0.01015011 -0.017377421
000380 e0 8c 96 bc 68 5b 30 b9 fd 7e 9f 3c 67 e4 8c 3c
       -0.018377721 -0.0001681872 0.019469732 0.017198754
000390 18 85 a2 3c 64 44 91 3c c6 02 a8 3c 30 d3 c9 3b
       0.019838855 0.017732807 0.020509135 0.0061592087
0003a0 e9 d1 a2 bc 9d f7 b6 bb 39 4d ab bb 12 19 aa 3c
       -0.019875484 -0.005583717 -0.0052277115 0.020763908
0003b0 66 28 ae bc a6 cd a0 3c f4 f8 8b bc 51 6a c5 3c
       -0.021259498 0.01962931 -0.017086484 0.024098547
0003c0 af 26 7a 3c 89 5b 83 bc 91 82 a2 bb 1d df 66 bc
       0.015268012 -0.016034858 -0.0049594124 -0.01409128
0003d0 aa 3e 74 bc fd 4b f7 3a 22 92 99 3c 93 19 d4 3c
       -0.014907518 0.0018867251 0.01874644 0.025891101
0003e0 2e 62 aa 3c 66 25 e5 3b 8a f8 ee bb f9 70 87 3c
       0.020798769 0.0069929836 -0.0072928118 0.016533362
0003f0 0c 80 45 3c b9 5d 13 3c d5 f5 24 3c 9c 80 8d bc
       0.012054455 0.008994513 0.010068377 -0.01727324

nonreduce1_1.bias f4 [32]
000000 2a 97 93 bc d8 a7 48 bc a3 09 1f 3b 4a 21 95 bc
       -0.018016417 -0.012247048 0.0024267219 -0.01820435
000010 07 66 0e bc 8c 92 a4 bc 1a 0b b3 bb ef 99 47 3c
       -0.008691317 -0.02008941 -0.00546397 0.012182697
000020 2f 20 bb 39 de 55 cd bc 99 a1 ef bb 45 3f 53 3c
       0.00035691398 -0.025065359 -0.007312965 0.012893503
000030 ff c1 ec bb 80 b3 98 bc c0 3e 40 bc 0e 12 13 bc
       -0.0072252746 -0.01864028 -0.011733711 -0.008976473
000040 37 a4 fd 3a 1d 65 0a 3c be 87 26 bc 6a d7 78 bc
       0.0019351308 0.008446959 -0.010164199 -0.015188077
000050 7c b0 17 3c 7d 08 a0 bc 23 4c 4d bc 52 95 0f 3c
       0.009258386 -0.019535298 -0.012530359 0.008763628
000060 68 a9 c9 3b 32 2c 9a bc 32 61 8f bc 49 f5 98 3c
       0.006154228 -0.018819902 -0.017502401 0.018671649
000070 cc 7d 93 3c 5e 8d ac bc e7 35 aa ba db ea 8c 3c
       0.01800432 -0.021063503 -0.0012986035 0.017201832

nonreduce1_2.weight f4 [32, 32, 3, 3, 3]
000000 ba f8 7b 3c ca 3e ea bb ef f8 95 bc 71 9d 02 bd
       0.015379125 -0.0071485983 -0.018307177 -0.03188843
000010 2a 50 7a 3c 73 2f fc bc fc e6 96 3c 74 3d 4d bb
       0.015277902 -0.030784344 0.018420689 -0.0031317146
000020 b4 18 b0 bb 81 da 07 bd c0 58 aa bc 13 97 f8 bc
       -0.0053740386 -0.033167366 -0.020794272 -0.030345475
000030 e0 1a 84 bc 43 b9 f4 bc 88 f6 39 3c 05 8f 48 3c
       -0.016126096 -0.029873496 0.011350282 0.01224113
000040 df 03 b2 3c d7 d7 f0 3b d1 5d c7 bb 5e 5d 93 bc
       0.021730362 0.007349949 -0.006084182 -0.017988857
000050 ca d9 46 3c a9 14 ec 3c a2 75 3a bc 23 00 ad bb
       0.012136886 0.028818445 -0.011380585 -0.0052795573
000060 96 ff 97 3c 2a 02 f2 3c 19 ad d7 bc 32 4a c7 bc
       0.01855449 0.029542048 -0.026327657 -0.024327371
000070 9e ce b1 bb ba d4 8d bc a0 3c 04 3c 04 ee f3 bb
       -0.005426242 -0.01731335 0.008071095 -0.007444145
000080 13 7b 9c bb c1 8f e8 ba a5 d5 3e bc ea 92 84 bc
       -0.004775414 -0.0017743037 -0.0116476165 -0.016183335
000090 1b 9b a0 3c 6b 62 c9 3c f9 9a 66 bc 04 7f 92 bc
       0.01960521 0.024583062 -0.014075034 -0.017882831
0000a0 15 e2 18 3c ea bd 7a bb c1 af 0a 3a b3 b1 f7 bb
       0.009331246 -0.003826017 0.00052904716 -0.007559025
0000b0 0d 10 02 bd 63 ea 3f 3b 67 80 f8 3b 2c cc 19 3d
       -0.03175359 0.0029283992 0.007583666 0.03754823
0000c0 0f cb 3c 3c 0b 2d 3c 3c 4d d3 b8 bb 9e 48 d5 bb
       0.011523022 0.011485348 -0.0056404234 -0.006508901
0000d0 4c 03 16 3c 1b 5b c4 3b 5e 45 b8 bc 2a 5f e9 bb
       0.0091560595 0.005992306 -0.022494014 -0.00712194
0000e0 73 13 67 3c b4 88 7d 3c a7 08 37 bc 84 d7 be bc
       0.014103758 0.015474487 -0.0111714965 -0.023296125
0000f0 04 5f 7e 3c 14 75 c0 bc b6 b5 d9 bc 2e 82 17 bd
       0.015525583 -0.023493327 -0.026575904 -0.036989383
000100 a6 2d 1a 3b de 8d cc bc d3 87 da bb 72 c4 e9 3c
       0.0023525744 -0.024969991 -0.0066690235 0.028536055
000110 32 fb d3 bc 49 72 bd 3c 5e 3f fb 3c 6d 34 79 3c
       -0.025876615 0.023125784 0.030669864 0.015210253
000120 33 ab 9f 3c 5d 55 0f bd c9 42 71 3c b7 a0 22 ba
       0.019490814 -0.03499352 0.0147253955 -0.0006203758
000130 0d bf cd bb d5 d1 b9 3c 8f fd b6 3c 3f f1 8b 3c
       -0.0062788785 0.022683064 0.022337703 0.017082809
000140 76 ed 9f bc 6c 42 be 3b 03 0a ee bc 0c f0 b7 bb
       -0.01952241 0.005806258 -0.029057508 -0.0056133326
000150 9b 04 e9 bb a7 72 66 3c a0 29 48 bb 6a 93 7a 3c
       -0.0071111447 0.014065421 -0.0030542389 0.015293935
000160 b6 c3 fd 3c f1 a4 53 bc db d2 90 3b f8 06 58 3b
       0.030977111 -0.012917743 0.004419667 0.0032963138
000170 76 52 e1 bc bc 04 9c bc e8 c4 1b bb 17 cb 5b 3c
       -0.02750514 -0.019045226 -0.0023768488 0.01341512
000180 77 72 c6 3c d3 a8 a6 bc 29 3d 10 3d 74 35 af 3c
       0.024224503 -0.020344174 0.035214577 0.021387793
000190 f8 7c b0 3c 2a a4 46 3c c6 5e 5d 3b 71 cc 1d bc
       0.021543965 0.012124101 0.0033778413 -0.009631262
0001a0 d0 b9 96 3c 11 6a c3 bc 34 25 e0 bc fb 23 89 3c
       0.01839915 -0.023854287 -0.02736149 0.01674079
0001b0 af 94 1d bd ae 0b cb b8 5c 07 07 3a 77 28 a3 3b
       -0.038471874 -9.68197e-05 0.0005150938 0.004979189
0001c0 e8 2f 9e 3b a0 8b 09 3c 04 32 2c bd 5c fc 16 bd
       0.004827488 0.008395106 -0.042039886 -0.036861762
0001d0 dd c0 27 3c cc d5 96 bc 1c 29 40 3c 30 31 4b bc
       0.010238853 -0.018412493 0.011728551 -0.012401864
0001e0 9d b6 32 3c 09 f6 8d 3b 2b e8 bc bb 58 a5 82 b9
       0.010907796 0.004332308 -0.0057649813 -0.00024918723
0001f0 b0 01 49 3b fc f6 ba 3c a5 87 a0 3c e8 eb 16 bd
       0.0030671172 0.02282285 0.01959593 -0.03684607
000200 6d 44 01 ba c9 71 9c 3c e6 2a dc 3c 2d 09 09 bd
       -0.00049311557 0.019097226 0.026875924 -0.033456016
000210 ba 00 de bc d2 a5 d7 bb 5d 48 19 3c 2e 8a 4c bd
       -0.027099956 -0.0065810466 0.009355632 -0.049936466
000220 38 09 39 bd 2f 3d 61 3b a2 62 96 bc 23 b8 01 3c
       -0.045174807 0.0034368744 -0.018357579 0.007917437
000230 fc a5 e8 bc ce 9b 09 3c f8 54 82 3c 98 79 e1 bc
       -0.02839946 0.008398963 0.015909657 -0.0275238
000240 b8 77 ba bc ae 20 b2 bb 82 ec eb 3c 36 90 cf bc
       -0.022762164 -0.0054360246 0.0287993 -0.02533732
000250 40 66 9e 3c 06 a5 24 3b 9c f4 9d bc 83 c0 1c 3c
       0.019335866 0.0025122776 -0.019281678 0.009567383
000260 a1 cb 09 3d 40 8c 24 bd 04 df b0 bb fc e3 1c bc
       0.03364146 -0.040172815 -0.0053976793 -0.00957584
000270 97 8d 0b 3c 44 e2 f3 3b a2 a4 52 bc 9a 3f e3 3c
       0.008517644 0.0074427444 -0.012856634 0.027740289
000280 7d 6d 4a bc 44 66 36 3c b6 86 c6 bc c5 2c 35 3c
       -0.012355206 0.01113278 -0.024234157 0.011058037
000290 35 12 b1 3a 30 ff 18 bd 97 53 1b bd 83 1a a2 bc
       0.0013509454 -0.03735274 -0.037921514 -0.019788032
0002a0 1a bd f5 3c 1e 76 f7 3c 6a 9b 8b 3c 55 01 25 bd
       0.029997397 0.03020769 0.01704188 -0.040284473
0002b0 27 d2 94 bc b7 53 ea b9 11 f6 9f 3c 21 cc f6 bc
       -0.018166615 -0.0004469433 0.019526513 -0.030126633
0002c0 fc b0 61 3c 81 b2 16 bc b3 fa 03 3a 48 4d 21 bc
       0.0137751065 -0.009197832 0.00050346105 -0.009845085
0002d0 58 ce 2d 3c 48 91 f7 bc bb c2 0e 3d 9e 1d c8 3c
       0.010608278 -0.030220643 0.03485368 0.024428185
0002e0 ce 1b 80 bb 2d 4d 4b 3a 59 77 7a 3c 70 0b 55 3b
       -0.0039095646 0.00077553355 0.015287244 0.0032508038
0002f0 3c 8d cd bb bc ab 6c bc f3 5c 00 bd 61 25 85 3c
       -0.00627294 -0.014445242 -0.031338643 0.016253175
000300 58 16 8d 3c c1 98 05 3d e1 84 a8 3c 72 19 a2 bc
       0.017222568 0.03261638 0.020571174 -0.019787524
000310 0a b1 5a ba c7 7c c8 3c d0 14 f1 bc 73 6f 88 bc
       -0.0008342421 0.024473561 -0.02942887 -0.016654706
000320 f7 de f0 bc 7d 62 a7 bc 95 1a 01 3d cb f7 cd bc
       -0.029403193 -0.020432705 0.03151949 -0.025142571
000330 c0 ac 23 bb 2b 2b 0e bd 68 3d 6f 3c cc b1 80 3c
       -0.0024974793 -0.034709137 0.014602043 0.01570978
000340 28 7b 0d bd cf 16 ec bc 26 97 42 3c b9 20 a9 bc
       -0.03454128 -0.02881947 0.011876857 -0.020645486
000350 d6 cb ad 39 01 d7 e8 3c e8 6d 95 bb e7 09 3b bc
       0.00033149 0.028422834 -0.004560221 -0.011415935
000360 a3 8a 2c bd c0 13 4f bc 8d ef 44 3c 74 47 02 bc
       -0.0421244 -0.012638986 0.012020004 -0.007951606
000370 89 3c 34 bc 81 f4 ac bc c8 b4 2d 3a 7c 65 12 3d
       -0.011000761 -0.021112682 0.0006626365 0.035741314
000380 b0 35 09 3d 41 96 f4 3b 3e 68 91 3a cc 0d 15 bd
       0.033498466 0.0074642007 0.0011093689 -0.03639011
000390 4e 50 b8 bc 8c 67 1c 3b 6b 93 de 3c 60 56 37 bc
       -0.02249923 0.002386543 0.027169904 -0.011190027
0003a0 b6 6b a7 3b 0a 86 fd 3c d5 45 7d bc 4f f8 5c 3c
       0.0051092757 0.030947704 -0.015458544 0.013486936
0003b0 66 0c 90 bc 45 61 28 3b 80 22 ce bc 37 4b 4b 3c
       -0.017584037 0.0025692743 -0.025162935 0.012408069
0003c0 b2 e1 42 bc a1 17 7f bc b5 46 c4 3b 8d 29 cb bc
       -0.01189463 -0.015569598 0.0059898742 -0.024800086
0003d0 63 c2 e6 bc 8a 6f b9 bc dc c9 f7 3c 7f 2f 83 bb
       -0.028168863 -0.022636194 0.030247621 -0.0040034647
0003e0 46 7c c7 3b d6 5f 00 3d 52 d9 72 bc ea 14 06 3c
       0.0060878126 0.031341396 -0.014822321 0.008183697
0003f0 64 c8 81 bc e1 83 be bc 4e 55 8b bc 4f 8c f1 bc
       -0.015842624 -0.023256244 -0.01700845 -0.02948585

nonreduce1_2.bias f4 [32]
000000 ff 5f e9 3c 73 5c 14 3d 39 c3 36 bc 27 f5 83 3b
       0.028488157 0.03622098 -0.011154943 0.004027027
000010 00 92 18 bc 9a e6 24 bb 43 ec e9 3c 4e 32 f6 3a
       -0.009312153 -0.0025161863 0.028555041 0.0018783303
000020 70 ff cb 3c 9c 55 c9 3c 11 94 a8 3b 0d 85 c1 3c
       0.024902076 0.024576955 0.005144604 0.023623014
000030 fb a9 91 bb 97 18 6b bc 21 69 e8 bc 2d f6 a8 3c
       -0.004445312 -0.014349124 -0.028370442 0.020625198
000040 45 98 f8 39 b4 c4 87 bc 11 41 1a 3c 1c 40 9e 3b
       0.00047415696 -0.016573288 0.009414927 0.00482942
000050 4e 24 7a 3c 1b 8d a7 3c fd ea c4 3c a8 71 02 3d
       0.015267445 0.020453027 0.024037832 0.031846672
000060 99 40 c0 3c 1b ed 11 3d 12 e7 8e bc b0 f7 0d 3d
       0.023468303 0.035626512 -0.017444167 0.03466004
000070 70 5e 0f bb f6 69 ae 3c 7c db e7 39 06 d4 90 3c
       -0.0021876357 0.02129076 0.00044223282 0.017679226

nonreduce1_3.weight f4 [32, 32, 3, 3, 3]
000000 9d b1 35 bc 28 65 96 3c 97 72 95 3b cc fd 34 3c
       -0.01108971 0.018358782 0.0045607793 0.011046838
000010 65 0a db bc 94 56 04 bd 55 92 62 bb 33 d6 6e 3c
       -0.026738355 -0.03230913 -0.0034572084 0.014577436
000020 41 a4 2d bd 46 fb 58 3c a6 22 13 bc 92 7e 00 bd
       -0.042392973 0.013243502 -0.008980429 -0.031370707
000030 75 91 28 bd e1 5f 72 bc 6a 71 c5 bc 5b 80 f2 3b
       -0.041154344 -0.014793367 -0.024101932 0.007400555
000040 bd 84 15 3a 75 0b 84 3c 76 cb e7 bc 3a 8f d6 bc
       0.00057036785 0.016118744 -0.02829526 -0.026191343
000050 cd 0a c1 bb d0 c6 77 bb 8e a9 b7 3c 05 6c 26 bd
       -0.00589118 -0.003780771 0.022419717 -0.04063036
000060 15 d9 1b bc e5 c5 11 bd 16 4e d0 bb 3c f6 07 bd
       -0.009512206 -0.035589118 -0.006356965 -0.03319381
000070 f4 cc 25 bd 56 83 a7 3c fc 2c 12 3b c6 87 fa bc
       -0.04047866 0.020448368 0.0022304645 -0.03058232
000080 06 e1 fa 3c 5a d7 68 3c 61 53 f9 bc 38 04 2b 3c
       0.030624878 0.0142115 -0.030435266 0.010438018
000090 a6 e5 26 bc 41 e0 b9 38 61 a8 39 bc fc 1a ba bc
       -0.010186588 8.863258e-05 -0.011331649 -0.022717945
0000a0 79 70 bf 3c f3 d1 e3 3c 12 9f ab bc 7e e1 c6 3c
       0.02336906 0.027810073 -0.020949874 0.024277445
0000b0 a1 ad 07 bc e2 a2 0d bd 81 94 46 bd b3 21 c9 bc
       -0.008281142 -0.034579165 -0.048481468 -0.024552202
0000c0 ee 4d a3 3c a6 03 f3 3b 8c c3 49 3c 9d b5 06 bd
       0.01993462 0.0074162064 0.012314688 -0.032888044
0000d0 56 30 fe bc cf 0c 85 3c 8c b5 aa 3c 72 d8 cf bc
       -0.031028908 0.01624146 0.020838521 -0.025371764
0000e0 e2 d3 fb 3b a9 77 4e bc 03 8b 5c bc ff 2b e1 bc
       0.0076851705 -0.012601771 -0.013460877 -0.0274868
0000f0 91 e1 c2 bb 8e 62 ad bc bc bb 8f bc 48 ce 60 b9
       -0.0059473 -0.021165159 -0.017545573 -0.0002143915
000100 2d d2 2b bc 0e 00 b2 3a ec 8f 1a bd 09 3e 5d 3b
       -0.0104871215 0.0013580339 -0.03773491 0.00337589
000110 b4 21 06 3b 86 f7 ee bc fc 2c 41 bc 68 af a1 3c
       0.0020466866 -0.029170763 -0.01179051 0.01973696
000120 cd 70 14 bd 80 14 f1 bc 90 cd 21 3b a1 a2 84 bc
       -0.036240388 -0.02942872 0.0024689175 -0.016190829
000130 05 dc e8 bc 58 c3 19 bd 84 5a ce bc a7 49 ac 3c
       -0.028425226 -0.03753981 -0.025189646 0.021031214
000140 5f d6 9c 3c 5c fa 5a 3c f8 80 87 3c 46 f1 68 bc
       0.019145189 0.013365354 0.01654099 -0.01421768
000150 6b 36 ea 3b 68 08 a9 3b 28 f3 1e bb e3 b1 4a 3b
       0.0071476004 0.005158473 -0.002425382 0.0030928783
000160 0e 93 b0 bc 8e 6e 28 3a 64 d3 5e bc 86 f2 db 3b
       -0.021554496 0.00064251653 -0.013600204 0.0067122607
000170 bf 7a 05 bd 54 85 f8 bc 6f a6 82 3c 6e d8 be bc
       -0.032587763 -0.030337013 0.015948502 -0.023296561
000180 bd 83 c4 3c 22 b3 b5 3c 3d ac 08 bd 33 a2 1e bd
       0.023988599 0.022180144 -0.033367384 -0.038728904
000190 d6 73 1b bd 99 a6 67 bc e2 76 1c bd 8f 4d c3 bb
       -0.037952267 -0.014138841 -0.038199313 -0.0059601734
0001a0 21 aa bb 3c 26 ce 05 b9 04 85 1e bd 9c cb 7f 3c
       0.022908272 -0.00012760665 -0.038701072 0.015612509
0001b0 5b 4d ac bc b3 af f6 3c 2d cc 4a 3c af 2b ea 3c
       -0.02103298 0.030113077 0.012377781 0.028585283
0001c0 f6 c0 44 3c f7 5f ea bc ae 83 0b bd 21 8b 09 bd
       0.012008896 -0.028610213 -0.034061126 -0.03357995
0001d0 7f d1 cf bc 91 49 d4 3c c3 ee 4c bc 10 92 2d 3b
       -0.02536845 0.025913985 -0.012508097 0.0026484765
0001e0 13 16 a6 3c a9 62 28 bb 91 20 a8 3c 2f d9 87 3c
       0.020274198 -0.0025693572 0.020523341 0.016583053
0001f0 fe 03 8a 3c b2 67 14 bd 0f 78 db 3c b9 96 ea bc
       0.016847607 -0.036231704 0.026790647 -0.028636323
000200 6b 13 62 3c b7 47 d3 bb 22 cd f0 3b 22 74 8c bc
       0.013798575 -0.006447758 0.0073486725 -0.01714522
000210 f7 6a 14 bc 6e 81 09 bd ca c6 c3 3c c9 81 5e bc
       -0.0090587055 -0.0335707 0.023898501 -0.013580748
000220 11 44 f3 bc ab bf 8a bc 01 76 f7 3c bb 21 01 3d
       -0.029695543 -0.016937098 0.030207636 0.03152631
000230 7d 61 ba bc 1b 78 34 bb 26 e1 ae bc a8 7d cd bb
       -0.022751564 -0.0027537409 -0.021347594 -0.006271083
000240 16 69 0e bd c7 09 16 bd ca a6 52 3c 13 2f 02 3d
       -0.034768187 -0.03663042 0.012857148 0.031783175
000250 cd 00 ff 3c ad cc 30 3c 76 9e d9 3c c6 ad 09 3d
       0.031128312 0.010790986 0.026564818 0.03361299
000260 5c 3c bb 3c 3f 86 8c 3b 6c 2a 02 bc 0c fd af bc
       0.02285593 0.0042884643 -0.0079446845 -0.021482967
000270 ce 1c 9d 3c 62 75 0a bd 22 4e 33 3c 74 ea ef 3c
       0.019178774 -0.03380335 0.010943921 0.0292866
000280 82 10 81 bc de 64 ae 3b a8 be d0 bc d7 79 90 bc
       -0.015754942 0.005322083 -0.025481537 -0.017636223
000290 02 10 86 39 ee 69 c1 3c 3d 26 1e bc 1c 4b fb 3b
       0.00025570398 0.023610082 -0.009652671 0.007668866
0002a0 82 e0 c0 bc 94 fe 83 bc 7e 38 db 3c b7 c1 32 bb
       -0.023544554 -0.016112603 0.026760336 -0.0027276108
0002b0 a1 42 9b b9 d8 42 f6 bc 9b 1e 05 bd 07 f7 d1 3c
       -0.00029613546 -0.03006117 -0.03249989 0.025630487
0002c0 98 e0 c5 3c db 59 7e 3c 83 2c 88 bc 47 86 17 bd
       0.024154946 0.015524353 -0.016622787 -0.03699329
0002d0 d7 d8 b2 3c 2e de ea bc 6a 1c 17 bd b2 84 c3 bc
       0.021831913 -0.028670397 -0.036892332 -0.023866985
0002e0 46 8b 70 3c 60 00 5c bc 5d 2f aa 3c 76 4e 9c bc
       0.014681643 -0.013427824 0.020774538 -0.019080382
0002f0 21 d0 bf bc 01 ce d2 bc 4d 13 30 bd 79 06 d1 bc
       -0.023414673 -0.025732996 -0.042987157 -0.025515782
000300 1c e7 b9 3c 68 8f be bc 06 29 f0 3c 31 6d 47 bc
       0.02269321 -0.02326174 0.029316436 -0.012172029
000310 2e 82 f8 3b bc d6 ba 3c c9 3e 28 bd 41 42 58 3c
       0.007583878 0.022807471 -0.0410755 0.01319939
000320 b4 a1 65 bc a6 87 07 bd 0d 21 95 bc 4b 34 8e 3c
       -0.014015604 -0.03308835 -0.018204236 0.01735892
000330 cd d2 59 bc 16 02 b7 3c 0c 8f ca bc 8a 3b bf bc
       -0.013294888 0.022339862 -0.024726413 -0.02334382
000340 e6 c5 b1 3c 27 45 5e bb b0 2e a4 3b c7 10 84 bc
       0.02170081 -0.003391573 0.0050104484 -0.016121281
000350 01 d1 f8 bb 3b 6b 54 bd a7 c6 42 bd 70 2f 13 bd
       -0.0075932746 -0.051860075 -0.04755273 -0.03593391
000360 df bf c9 3c 7f 6e b1 bb f0 97 de 3c 6b 43 14 3c
       0.024627624 -0.0054147835 0.027172059 0.009049277
000370 ae 96 12 3c 63 0b a1 3c be 05 b7 3c 21 ab 85 bc
       0.008947058 0.01965875 0.022341605 -0.016316952
000380 0b b0 f9 3c 25 c8 5c 3c 55 b0 b0 3c 8b 74 11 bd
       0.030479452 0.013475453 0.021568457 -0.035511535
000390 70 ea 09 3c 69 ff e5 3b d5 6c 98 bc 0f 46 0f bb
       0.008417711 0.0070189727 -0.018606583 -0.0021861827
0003a0 fe 47 ad 3c 14 b2 f3 3b ca 8a 15 bc e8 ea 24 3c
       0.021152493 0.007437 -0.009127328 0.010065772
0003b0 7c 6b 49 3c 93 60 09 3d 4c fd ae bc b5 d7 01 bd
       0.012293693 0.033539366 -0.021361016 -0.031699855
0003c0 0f e4 99 3c 5c 56 e9 bc 50 85 25 3c b4 5d cf bc
       0.018785505 -0.028483562 0.010102585 -0.025313236
0003d0 08 62 36 bb 16 1a 98 3c a9 b1 a4 3b 85 45 8e 3c
       -0.0027829427 0.018567126 0.0050260616 0.017367134
0003e0 fd b4 ff bc a0 59 4a bb ff 13 a4 3b 4b 26 11 bd
       -0.031214232 -0.0030876175 0.0050072665 -0.03543691
0003f0 da c8 db 3c 8c 84 92 bb 56 14 9c 3c 0a c6 d0 bb
       0.026829172 -0.004471367 0.019052666 -0.0063712643

nonreduce1_3.bias f4 [32]
000000 4c ae 82 bc 54 7e 05 bb 10 a4 7c ba 1f 1f f4 3b
       -0.015952252 -0.0020369487 -0.00096374843 0.007449999
000010 9b 83 a8 3c 1b 49 4f 3c 1d ce 8d 3b 2f 33 c1 bb
       0.020570567 0.012651707 0.004327549 -0.005895994
000020 75 f4 fd 3c 3c 52 70 bc f6 d9 95 3c 3b 22 48 bc
       0.031000355 -0.014668044 0.018292408 -0.012215192
000030 68 af 99 bc 67 f2 df 3b 50 a8 2a 3d ea e1 5b 3c
       -0.018760398 0.0068343165 0.04166442 0.013420561
000040 6a a1 9f bc ba 19 ec bc 62 48 c2 bb a0 1f 43 bc
       -0.019486148 -0.028820861 -0.005929039 -0.011909395
000050 20 c4 47 bc 61 cc e9 3c b6 d2 af ba 41 ce a0 3c
       -0.012192756 0.028539838 -0.0013414237 0.0196296
000060 93 02 e2 bc 3c eb af bc d2 e5 0d bc a5 47 d8 bc
       -0.027589118 -0.021474473 -0.00866075 -0.02640135
000070 f5 74 f6 3c 08 50 c9 bb 73 05 2c 3c 52 5b b8 bc
       0.030085066 -0.0061435737 0.010499346 -0.022504482

reduce2.weight f4 [16, 32, 4, 4, 4]
000000 b9 a8 4a 3c 57 73 b4 3c 5d 56 62 3c b8 77 74 3c
       0.012369328 0.022027655 0.013814536 0.014921121
000010 f7 d6 98 3c 06 81 17 bc 93 ae fe bb dc 33 b0 3c
       0.01865719 -0.00924707 -0.0077722757 0.021509103
000020 a3 76 81 3c 27 c4 a4 3a 0c 7d 7e bc 48 54 1d bc
       0.01580364 0.0012570665 -0.015532743 -0.009602614
000030 71 73 84 3c 30 2c 97 bb 7e 9d ea 3b f8 87 eb ba
       0.016168328 -0.004613422 0.007159888 -0.0017969599
000040 2a 7e c1 bc f3 cb 84 3c 70 9c 9b bc 32 85 5e 3b
       -0.02361973 0.016210532 -0.018995494 0.0033953902
000050 15 03 93 bc 88 80 d9 bb 2e b4 1c 3a 2e 29 8b bc
       -0.017945806 -0.0066376366 0.00059777766 -0.01698741
000060 ff 67 31 3c 67 63 0b 3c 90 65 c0 bc 9a ca 31 3c
       0.010828017 0.008507586 -0.023485929 0.010851527
000070 05 e7 2e bc b6 07 67 3c b9 91 8e bc d4 95 cf bc
       -0.010675197 0.0141009595 -0.01740347 -0.025339998
000080 0f 88 38 bb 21 a4 c7 bc ad 08 3c 3a 7e 66 78 bc
       -0.002815727 -0.024370255 0.00071729237 -0.015161155
000090 c2 a2 97 bc 61 32 54 bc 74 85 3f 3c de 6b 80 3c
       -0.018510226 -0.012951464 0.011689533 0.015676435
0000a0 4b 81 ea 3a 3a 24 a8 bc be 36 71 3c 02 8e 81 bc
       0.0017891316 -0.020525087 0.014722524 -0.015814785
0000b0 6b 9a f9 bc b5 5d 91 bc 43 1e 26 3c 94 72 4a bb
       -0.03046914 -0.017744878 0.010139051 -0.0030891048
0000c0 17 99 07 bc 26 1e a4 3b 49 05 39 bc 22 bf 90 bc
       -0.008276246 0.005008477 -0.011292764 -0.017669264
0000d0 30 05 24 3a cd 37 d5 bc 3c db af bc 05 af c5 bb
       0.00062568765 -0.026027584 -0.021466844 -0.006032827
0000e0 75 74 73 3c e9 1a c4 bc 12 8f 48 bc 83 91 27 bb
       0.0148593085 -0.023938613 -0.012241142 -0.002556891
0000f0 c8 0b a2 bb ca 3f 1a bd 58 c8 1d bd b3 a9 f2 bc
       -0.004945252 -0.03765849 -0.03852114 -0.029621935
000100 46 89 e6 3c 4b 1b 7d bc d6 f8 f2 3c 9d 28 cc 3c
       0.028141629 -0.015448402 0.02965967 0.02492171
000110 a3 6e 35 3d b9 45 06 bc b1 a1 92 3c 5e 74 b7 3c
       0.044294965 -0.008195334 0.017899366 0.022394355
000120 cd 5a 76 3b 4c 99 d8 3c a8 bd 17 3d 9d b7 fc 3c
       0.0037590743 0.026440285 0.037046105 0.030849272
000130 3a 83 b9 3c 84 0e b4 3c 5f 1c e6 3c 08 ab 33 bb
       0.022645582 0.021979578 0.0280897 -0.0027415175
000140 79 22 dd b9 a9 59 d1 3c 6b 32 ac 3c 97 fe ad 3c
       -0.0004217809 0.025555449 0.021020135 0.021239562
000150 11 ce 8d 3b 2f bb 6e bc ed 79 5d 3c 26 dd fc 3c
       0.0043275435 -0.014570995 0.013517839 0.03086717
000160 58 24 fd 3c cd 86 f7 bb e6 a4 b2 bb 23 0a 46 3c
       0.03090112 -0.0075539113 -0.0054517863 0.012087378
000170 42 25 0a bc 96 1b a4 bb 96 59 a5 3b 54 64 c7 3c
       -0.0084317345 -0.0050081713 0.00504608 0.024339832
000180 fd e7 f2 3a a3 7b 0a 3c 4e a0 a7 bb c0 2c e6 ba
       0.0018532273 0.008452329 -0.0051155454 -0.0017560944
000190 cb 69 66 3c 0a b8 92 3c a6 59 b8 3c 37 4c ef 3c
       0.014063309 0.017910022 0.022503685 0.029211147
0001a0 7a 79 28 3c 7e aa 20 bc 15 3c 0b 3d 50 3e 1e 3b
       0.0102828685 -0.0098062735 0.033992846 0.0024146028
0001b0 d8 dc f2 bb fc b5 0c 3c 67 58 f0 3c c6 80 7b 3c
       -0.0074115805 0.00858831 0.029339029 0.015350526
0001c0 f4 af 4c 3c be c6 9d bc 80 ae fe bb 12 51 e1 3b
       0.012493122 -0.019259807 -0.007772267 0.0068761194
0001d0 36 3c 98 3c 58 36 5a bc fb 08 4a 3c cf f6 03 bb
       0.018583398 -0.013318621 0.012331243 -0.0020136123
0001e0 8d 13 92 3c c6 73 1d bc fd 94 d3 3c b3 25 d6 3b
       0.017831588 -0.009610122 0.02582788 0.006535256
0001f0 60 ee 0b 3d 4b e6 2e bb 78 99 a4 3a c9 43 3f 3c
       0.03416288 -0.0026687558 0.0012557944 0.011673876
000200 b0 cd 8a bc 8c cc 4a 3c b4 17 5e bb d4 b7 48 3b
       -0.016943783 0.012377869 -0.003388864 0.0030627148
000210 b6 6d 74 bc b0 23 ea 3b 2c 04 a8 bb 40 d3 fd 3b
       -0.014918735 0.0071453676 -0.0051274505 0.00774613
000220 b8 8f 47 3c b6 5a 84 bc e7 5c 0d 3c ce 47 aa 3c
       0.012180261 -0.016156536 0.008628107 0.020786192
000230 3f 78 9a bc 8c 45 31 bc 7a 0c 52 bc 4a d4 88 3c
       -0.018856166 -0.010819804 -0.012820357 0.01670279
000240 7b 82 47 ba 0f 44 45 bc 9a 40 d3 bc 1f 24 d8 bc
       -0.00076106907 -0.012040152 -0.02578764 -0.026384411
000250 15 1c 89 bc eb 06 74 bc 01 a2 b3 bb f2 48 09 3b
       -0.016737023 -0.0148942275 -0.005481959 0.002094802
000260 aa c4 cf bc db 10 c9 bc 61 28 42 3c cb 26 5f bc
       -0.025362331 -0.02454417 0.011850447 -0.013620089
000270 d4 78 d2 39 c2 5e 2e 3c 53 40 5c 3c a5 28 84 3c
       0.00040144345 0.010642709 0.01344307 0.016132662
000280 22 4a 91 bc 0c ea 3b 3b 37 38 87 bc 21 66 e2 3b
       -0.017735545 0.0028673438 -0.016506298 0.0069091474
000290 4c a3 1c bc 3f 65 56 3c a9 fd ff 39 eb b1 8e bc
       -0.009560417 0.013085662 0.00048826382 -0.017418822
0002a0 e9 16 61 3b b3 6c d9 bc ec 36 2b bc bb 41 5d ba
       0.003434593 -0.02654109 -0.010450106 -0.00084402756
0002b0 64 cf 6e 3c ea 18 b1 bb d2 17 ca bc 0b 5e 58 bc
       0.014575813 -0.0054045813 -0.024669562 -0.013206015
0002c0 f9 e7 18 bc 24 41 03 bd dd 04 b3 bc b4 10 33 3c
       -0.00933265 -0.032044545 -0.021852905 0.010929275
0002d0 e6 fa a2 bc 68 8c 47 bb f8 7a b9 bb f4 f9 93 3b
       -0.019895028 -0.003044868 -0.005660411 0.0045158807
0002e0 8e ca b1 bc 26 8e a4 bc 64 8f be bc cd 2f 51 3c
       -0.02170303 -0.020087313 -0.023261733 0.012767744
0002f0 2e b0 32 3c 1f cf d8 3b ef d0 25 3c a0 0b 02 3b
       0.010906262 0.0066164876 0.010120614 0.0019843355
000300 11 bc 63 bc 75 af 26 3c 05 20 a1 3c 93 01 37 bc
       -0.013899819 0.010173668 0.019668588 -0.011169809
000310 89 36 03 bc e7 13 39 3c 94 77 6d bb 23 b5 b2 bc
       -0.008008608 0.011296249 -0.0036234604 -0.021814888
000320 7b 1c 32 bc 6e 47 8b 3c c0 7c a2 3c 78 0a af bc
       -0.010871048 0.017001834 0.019834876 -0.021367297
000330 2f 11 b9 3b 98 32 c0 bc e2 3a 89 3c 47 5b 82 3c
       0.0056478004 -0.023461625 0.01675171 0.015912665
000340 7e 3d a1 bc 12 25 c4 b9 4d f9 90 3c 54 95 14 3c
       -0.019682642 -0.00037411653 0.017697 0.009068806
000350 b0 ed aa 3b b0 a2 92 bc 23 9e b4 bc 9e 23 8c bc
       0.005216323 -0.017899841 -0.022048062 -0.017106827
000360 24 55 41 3c ca 35 5e bc eb f6 14 bc 09 2c be bc
       0.011800084 -0.013562629 -0.009092073 -0.023214357
000370 df 33 d1 bc 2d 89 2c bc b7 82 42 3c f5 e8 91 bc
       -0.02553743 -0.010530752 0.011871985 -0.017811278
000380 76 32 09 bd bd 2d 2c bb 23 12 d7 bb 86 11 b2 bc
       -0.03349539 -0.002627238 -0.0065634414 -0.021736871
000390 71 f6 4a bc 6b 3e 80 bb 50 4b d5 bc ea 74 08 bb
       -0.012387858 -0.003913691 -0.026036888 -0.002082164
0003a0 e7 b5 f8 3a cd 37 d9 3b 73 a1 5e bc 69 3c b9 bc
       0.001897511 0.0066289664 -0.013588297 -0.022611814
0003b0 9f 35 e7 bc 8b 68 01 bd b7 8d 56 bc be db 61 3b
       -0.02822381 -0.03159384 -0.013095311 0.0034463252
0003c0 e3 97 39 bc 2a a8 c8 bb fe 06 a4 bc df c6 9f bc
       -0.0113277165 -0.0061235623 -0.020022865 -0.019504009
0003d0 1b bc c3 bb 3b 47 de bb d1 49 35 3c 32 de ba bc
       -0.0059733517 -0.0067833937 0.0110649625 -0.02281103
0003e0 41 e2 47 bc 13 f7 87 bc 82 8c 54 3c f7 99 4d 3c
       -0.012199939 -0.016597306 0.012972953 0.012548915
0003f0 0c bd 1b bd fc 0e c1 3b 91 f7 12 3b 46 66 f2 bc
       -0.038022086 0.005891679 0.0022425393 -0.029589783

reduce2.bias f4 [16]
000000 bb 2d 26 3b 33 7f c3 3b 97 62 f5 bb 47 d2 27 3c
       0.0025356847 0.005966091 -0.0074885595 0.010243005
000010 b0 12 01 3b 00 1b 28 3a c8 06 5d bc c0 d3 c5 38
       0.0019694977 0.0006412715 -0.013490386 9.4331335e-05
000020 f7 f2 b0 3c a0 99 5f 3c bd d9 a1 bc 92 90 e6 bb
       0.02160023 0.013647467 -0.019757146 -0.007036277
000030 1e 1f 96 3c 9a 5f b7 3c 9b 02 09 3c fb a6 e9 bb
       0.018325385 0.022384454 0.008362438 -0.0071305013

nonreduce2_1.weight f4 [16, 16, 3, 3, 3]
000000 b4 ce 86 3d 53 dd 21 bc db 52 40 bd d1 28 e6 3c
       0.06582394 -0.009879428 -0.046954017 0.028095635
000010 27 a8 21 3d 7d 73 04 bd 1e af 3f 3d 54 9a 86 bc
       0.039467003 -0.0323367 0.046797864 -0.016431011
000020 0b a7 ec bc d0 9c ef 3c 31 96 8e 3c 56 e2 82 3d
       -0.028888246 0.029249579 0.017405601 0.063908264
000030 4f d4 37 3d 01 7b 60 3d f3 f1 8d bc 90 51 72 bb
       0.044880208 0.054804806 -0.017327284 -0.0036974885
000040 68 29 33 3d 5b ef 99 3c 2f ca 99 3c 41 51 78 3b
       0.04374066 0.018790891 0.018773166 0.0037890228
000050 59 a8 0f 3d f0 ea ac 3c ae 6a 20 bd 11 1a 6c 3d
       0.03507266 0.02110812 -0.039164238 0.057642046
000060 ad 82 a9 3c 43 3a 13 3d e4 c8 67 3d 0c 72 42 3d
       0.020692194 0.035944235 0.05658807 0.047472045
000070 32 6f 0d 3d 07 27 a0 3c 25 8d 54 bc 87 45 80 bb
       0.034529872 0.01954986 -0.012973105 -0.0039145383
000080 0d 6b 16 bc 5a 90 6a bb 4f 90 3a 3b 9e 75 3e bc
       -0.009180796 -0.0035791607 0.0028467362 -0.011624722
000090 75 8f 2c bd 64 8c 54 3d 7f ec df 3c 82 61 19 3d
       -0.042129 0.0518917 0.02733445 0.037446506
0000a0 a3 53 08 bd db 1b bc bb ab 57 85 3c 16 ad 67 bc
       -0.033282887 -0.0057406253 0.016277155 -0.014140388
0000b0 60 12 1a 3d 10 1d 99 3c ec 33 c7 3b 1c ee 25 3d
       0.03761518 0.018690616 0.0060791876 0.040510282
0000c0 05 50 a9 bc 5a 5f f0 3c 90 30 05 3d 1f e5 0f 3d
       -0.02066804 0.029342342 0.032517016 0.035130616
0000d0 31 97 f2 bc b2 b3 5b 3c 49 6c be bc aa 94 0a bd
       -0.02961311 0.013409542 -0.023244994 -0.033833183
0000e0 28 42 33 3b 6b 23 91 bc ee 22 13 ba 6d 9b 07 bc
       0.0027352665 -0.017717084 -0.000561281 -0.0082768025
0000f0 b7 a3 08 3d ba 6c 4c 3d 39 df a4 3c 0e bf 1d 3d
       0.033359256 0.049908377 0.020125972 0.038512282
000100 0e 75 08 bd 03 52 04 bd 74 b8 72 bc 09 db 71 3c
       -0.033314757 -0.032304775 -0.014814485 0.014761695
000110 aa 7d 1a 3d e4 8c 01 3b 1a 2a 42 3d d1 aa cb bc
       0.0377175 0.0019767815 0.047403432 -0.024861725
000120 99 e6 c4 3a 4c 8a 2b 3c 69 ac 42 3c 78 a1 8f 3c
       0.0015022337 0.010469984 0.011881926 0.017533049
000130 e2 8d a2 3c 7a 4f b1 bc 9c 30 8d 3c 64 3f 4b 3c
       0.019843046 -0.021644343 0.017235093 0.01240525
000140 17 47 37 bc 7c 84 51 bd 2a b1 10 3d 7f bc 2d 3d
       -0.011186383 -0.051151738 0.035325207 0.042416092
000150 d1 e1 60 3c bf 40 b5 3c 57 13 9a 3c df 10 ec bc
       0.013725714 0.0221256 0.01880805 -0.028816639
000160 e0 06 2d bd 32 80 f7 3c 12 e2 6a 3b 17 2c b6 3c
       -0.042242885 0.030212495 0.0035840315 0.02223782
000170 f6 67 53 3c 45 b2 ee 3c 32 82 ff 3b 21 4c eb bc
       0.012903204 0.02913774 0.007797503 -0.028722825
000180 19 6d fb bc 8e 40 80 bc 03 ba fc 3b e9 51 0d bd
       -0.03069167 -0.015655782 0.007712604 -0.034501944
000190 89 18 50 bc 57 1a 14 3d c4 3d 02 bd 45 98 d8 3c
       -0.012701162 0.036157932 -0.031797186 0.026439795
0001a0 43 60 c4 3c 80 13 17 3c 03 12 05 bd 64 ad 04 bd
       0.023971682 0.009220958 -0.03248788 -0.03239192
0001b0 8f 0e 05 bc 04 5f 6e bb 80 ff 3d bc 18 64 17 3d
       -0.008121147 -0.0036372552 -0.0115965605 0.03696069
0001c0 7f 66 da 3c 9f e0 60 bc d2 42 16 bc 9b d5 d0 3c
       0.026660202 -0.013725429 -0.009171205 0.02549248
0001d0 e8 14 06 3d b4 32 05 3b 3b 96 86 3c 77 7d a5 3c
       0.03273478 0.002032441 0.016429057 0.020201428
0001e0 89 67 57 3d 99 0b d3 bb 50 99 ba bc 34 48 7c 3d
       0.052588973 -0.0064405915 -0.022778183 0.061592296
0001f0 5b 01 05 bd 63 b8 1f 3c cb 2e 50 bb cc f6 ad bb
       -0.032471996 0.009748551 -0.0031766172 -0.0053089615
000200 c6 a6 49 bd e1 ef 2b bc b8 64 1e bd c0 ba 35 bd
       -0.049231313 -0.010494203 -0.03867027 -0.04436755
000210 c9 35 29 3d 23 a2 b8 3c 04 55 7a bc eb 51 54 3c
       0.04131106 0.02253825 -0.015279058 0.012958984
000220 6c 1b 43 3c 99 b7 8c 3c 3c 16 8e bd b0 f1 4b 3c
       0.011908393 0.01717739 -0.069378346 0.0124477595
000230 39 2b 0d bd d0 a8 43 bd 85 9c 31 bc 0d 42 93 bc
       -0.03446505 -0.047768414 -0.01084054 -0.017975831
000240 01 67 5d 3c 3d a6 a6 bc 7f 21 82 bc 43 a3 6f 3d
       0.013513328 -0.02034294 -0.015885113 0.058505308
000250 63 a5 71 bd da 1a 20 bd c5 b5 4c 3c 9d 0d d6 bc
       -0.058995616 -0.039088108 0.012494509 -0.026129538
000260 84 c0 b3 bc 9e 60 81 ba 6b 24 19 3d b6 71 47 bd
       -0.021942385 -0.0009870713 0.037388247 -0.048692428
000270 2f 0d 80 bc 20 23 12 bd 42 aa 5d 3c a3 ed b3 3b
       -0.015631286 -0.03567803 0.013529362 0.005490975
000280 24 c9 4c bc e6 bd 40 bd 26 09 75 3d ec cb c4 bc
       -0.012499128 -0.0470561 0.059823178 -0.024023019
000290 5e a7 f7 bc e3 f2 9a bb bb 50 ce ba 0a f2 07 bb
       -0.030231174 -0.0047286614 -0.0015740612 -0.0020743632
0002a0 38 63 36 bc f6 5c 4d bd 58 fa 56 bc 62 24 86 3d
       -0.011132054 -0.050137483 -0.01312121 0.06549908
0002b0 af 5e e1 bc 13 e4 32 bc a6 bd ac 3d 0a 33 d0 bb
       -0.027510969 -0.010918635 0.0843461 -0.0063537406
0002c0 f2 53 d1 bc d5 32 3a 3c 6c 8c fc 3b e9 ea 60 3d
       -0.025552724 0.011364658 0.0077071693 0.054911528
0002d0 3f 7d 5c 3d 93 94 f7 bc c8 3b e5 3c 38 55 20 3c
       0.05383038 -0.030222213 0.027982607 0.009785943
0002e0 db 57 06 bd 38 d5 e6 3c d7 d2 2b 3d 7f 38 b7 3c
       -0.03279863 0.028177842 0.04194912 0.022365807
0002f0 3a 88 5b bd 40 a6 21 3d b2 3b d9 3c 0b ac 09 bd
       -0.053596713 0.03946519 0.026517723 -0.03361134
000300 8f b3 1e 3d e0 89 0d 3c ad d7 c8 bc 4d ca c1 bb
       0.03874546 0.008638829 -0.024516905 -0.0059140087
000310 3f 2e c4 3c 2d 1d 97 bc 5f ee 3d bd 93 15 1b 3d
       0.023947833 -0.01844653 -0.046369907 0.03786237
000320 c3 92 67 3a 89 a2 51 bb 8f cb f1 3c 7a c0 a0 bc
       0.000883382 -0.0031987748 0.02951601 -0.01962303
000330 3f bc c5 bc 24 50 35 3d dc 6b 0e bd 44 66 28 bd
       -0.024137614 0.04426588 -0.03477083 -0.041113153
000340 b6 1a 3a bd ce 4a 64 3c f8 e0 ac 3a a6 a4 7a bc
       -0.04543563 0.01393385 0.0013189605 -0.015298044
000350 7d d0 f7 bc 54 2f 12 3d 98 dc 06 bc 6d 53 da 3c
       -0.030250782 0.035689667 -0.008231305 0.026651109
000360 b4 f0 05 bd 24 95 cb 3b 9e bb b6 bc ec 7e 7e b9
       -0.032700256 0.0062128473 -0.02230626 -0.0002427061
000370 6e 62 0d bd 54 b0 1f 3d 7b f9 25 bd 67 56 29 bd
       -0.034517698 0.03898652 -0.040521126 -0.041342165
000380 48 fd 10 3d 27 08 4d bb f4 dc 66 3c aa e5 4c 3d
       0.035397798 -0.0031285377 0.014090765 0.050023712
000390 ec 8d 3c bd 7f e4 ea bc 6d 92 07 3c a4 9c b9 bc
       -0.046033785 -0.028673409 0.008274657 -0.0226577
0003a0 a1 dc 1d 3d b9 f0 0b bd 56 5e 16 3d 27 5e a6 3b
       0.038540486 -0.034165118 0.03671106 0.005077142
0003b0 54 39 ed bc 40 f3 d2 bb d8 ab d9 3c fb 8d 56 3d
       -0.028958 -0.006437689 0.0265712 0.052381497
0003c0 da 4d 02 3d b4 18 0a bc d2 ad b7 bc ef a9 dd bc
       0.031812526 -0.008428741 -0.022421751 -0.02705857
0003d0 49 d3 1c 3c fb 48 41 3d f7 49 84 3d 71 86 21 3d
       0.009571859 0.04718874 0.0645942 0.039434854
0003e0 f8 bf 14 3d b6 3c e0 3b f3 15 66 bd ec 43 aa bb
       0.03631589 0.006843175 -0.056173276 -0.005196085
0003f0 72 a8 b7 3c a4 2b c2 bc 34 a0 4d bd 6f f4 0b 3d
       0.022419188 -0.02370245 -0.05020161 0.034168657

nonreduce2_1.bias f4 [16]
000000 96 b3 eb 3c 97 52 27 3d ac 80 34 bc 90 5e b0 bc
       0.028772157 0.04085025 -0.011017006 -0.021529466
000010 a3 12 40 bc 57 39 a1 bc f0 e4 90 3c 7a 70 cf 3b
       -0.011723193 -0.019680662 0.01768729 0.006330547
000020 23 5a 06 bd ad fd 36 3d 54 1d 0b bd 71 9f 53 bc
       -0.032800805 0.044675518 -0.033963516 -0.012916432
000030 b4 f7 5c 3d 32 48 7a 3c db 36 48 3d 44 ab b0 3a
       0.053947166 0.015276002 0.04888044 0.0013478776
