02_deep3D/model/model_Li.pt (torch, 739878 bytes, 25 tensors)

reduce1.weight f4 [64, 1, 4, 4, 4]
000000 5a 58 92 3d 92 45 bb bd 96 40 48 bb 23 ea 58 3d
       0.07145758 -0.09144129 -0.0030556074 0.052957665
000010 e8 72 eb bd f8 ed 72 3d d4 af a7 bd 2c e9 63 bd
       -0.11496526 0.059308976 -0.081878334 -0.055642292
000020 01 26 5b bc e8 d7 ec bd 1f 04 3b 3d 61 ad ae 3b
       -0.01337576 -0.11564618 0.045658227 0.005330727
000030 3c b7 ff 3b bc 12 1d 3c b9 2c aa 3d 21 9f b9 bc
       0.0078038257 0.009586986 0.083093114 -0.022658886
000040 90 56 35 bd 3a c2 c6 3d ce 38 cd 3d 88 5d e1 3d
       -0.044272006 0.097050145 0.100206 0.11004168
000050 47 04 16 bd 50 19 8b bd 1c 91 a7 bd e4 b1 f6 ba
       -0.036625173 -0.06791937 -0.08181974 -0.0018821326
000060 e8 b9 e9 bd 07 0b 69 3d 4c 4b 6a bc 29 74 99 bd
       -0.11412412 0.056895282 -0.014300179 -0.07492859
000070 47 4f 06 3d fb ac bd 3d 71 74 9a bd dd 18 89 3c
       0.03279045 0.09261509 -0.07541741 0.016735489
000080 21 d7 71 3d bf 3c d1 bd 77 a0 31 bd 9b 7f aa bc
       0.059043054 -0.102166645 -0.04336592 -0.0208128
000090 0e 63 f3 3b 42 8c 40 bd 57 cf d0 bd 14 ea 0d 3c
       0.0074275797 -0.04700876 -0.10195797 0.008661766
0000a0 74 a4 e5 bd 92 f2 cc bd 70 54 5c bd 55 fd bb 3d
       -0.112130076 -0.10007204 -0.053791463 0.091791786
0000b0 84 f9 98 bc 8b 58 71 3d d3 cc 8f bd 50 22 9a bc
       -0.018673666 0.05892233 -0.07021489 -0.01881519
0000c0 59 42 88 3d e4 77 c8 3b bd 94 02 be 7d 78 ff bd
       0.0665328 0.0061178077 -0.12752052 -0.12474153
0000d0 21 5a 86 bd e4 38 b1 bd cf dd 70 bd c9 e5 0e 3d
       -0.065601595 -0.08653429 -0.058805283 0.03488711
0000e0 32 86 db bd bf 86 ad 3d 75 82 7d bb 9d 32 5a 3d
       -0.10718955 0.084729664 -0.0038682495 0.053270925
0000f0 17 d7 84 bd 4b bc b7 bd d1 26 2b bd fe 73 49 bd
       -0.06486338 -0.08971461 -0.041785065 -0.049182884
000100 1c 3e 84 3d 87 d3 f1 3b ec a5 cf 3d 7b 6b ca bd
       0.06457159 0.0073799524 0.10139069 -0.098837815
000110 97 e4 a8 bd c0 61 bf bc f7 ca 11 3d 3a 22 6f 3d
       -0.08246725 -0.02336204 0.035593953 0.05838225
000120 3d 32 d9 bd 2b 86 f5 3c 83 60 96 bd cb e3 3b 3d
       -0.10605285 0.029971203 -0.07342627 0.045871537
000130 57 4f d3 bd 13 f2 c0 bd 63 e7 8a 3d d3 49 6c bd
       -0.10317867 -0.09421172 0.06782415 -0.05768759
000140 39 e1 b1 bd f0 68 4e bc 65 1f 66 bc 34 d1 2e 3d
       -0.08685536 -0.012598261 -0.014045571 0.04267998
000150 59 da c4 bd 48 45 71 bb e2 4e c5 bd 09 0a c1 bd
       -0.09611959 -0.0036814976 -0.09634186 -0.09425742
000160 a7 c9 8b 3c 16 42 d9 3d 9a e3 64 3d f6 16 ca 3d
       0.017063929 0.10608308 0.05588112 0.09867661
000170 ed 2e 7c 3d f4 41 20 bd bb 02 63 bb 27 22 6a 3d
       0.06156819 -0.039125398 -0.0034639079 0.057161476
000180 92 4d c4 3b c5 1b 93 3c 9f 3f d1 3d c8 0a 86 3d
       0.0059906924 0.017957577 0.10217213 0.06545025
000190 3f 0c 0e 3d 86 04 c4 bd d9 c9 3c bd 69 34 ea 3d
       0.034679648 -0.09571175 -0.046090934 0.11435778
0001a0 15 46 9c 3c 2f 7c a2 bc 91 a7 0d 3d 69 36 10 3d
       0.019076386 -0.019834606 0.034583632 0.03520814
0001b0 87 93 17 bc f2 a4 17 bd 39 cd 1f 3d 04 d4 e7 bd
       -0.009251482 -0.03702254 0.039014075 -0.11319736
0001c0 f2 3d cf bd 22 ed b2 bd 08 eb e9 3d 7b 03 5d bd
       -0.10119237 -0.08736636 0.11421782 -0.053958397
0001d0 c0 aa 39 bd 7f 33 f3 3d e2 2e 68 bd e9 8f a1 3d
       -0.045328856 0.118750565 -0.056685336 0.07888777
0001e0 f4 3a fd bd ac cb 61 3d b2 02 fd bc 38 fb e4 bd
       -0.1236476 0.055125877 -0.030885074 -0.11180729
0001f0 e6 9b 26 bd 87 fd d1 3d e6 a2 8b 3d 76 53 09 bd
       -0.04067602 0.10253435 0.0681818 -0.03352686
000200 ba 6e f4 3d f6 a7 84 3a 38 7c de 3d b5 59 d0 3d
       0.11935182 0.0010120857 0.108635366 0.1017336
000210 bd c2 eb 3c 43 51 e8 b8 11 df 48 3d f5 c4 d4 3d
       0.028779382 -0.00011077758 0.049040858 0.10389129
000220 d0 54 fb 3d 79 58 07 3c 6c 55 b7 bd 21 73 ad 3d
       0.12272036 0.00826084 -0.0895184 0.08469225
000230 40 7d b2 bd 38 ba 03 be fb ff 88 bd d9 1e f2 bd
       -0.08715296 -0.12864006 -0.066894494 -0.1182229
000240 2d 16 90 3c a5 d3 d6 3d ff 0f c0 bc 32 bc fb 3d
       0.0175887 0.10489587 -0.023445128 0.12291755
000250 6f 9e 38 bd 11 f4 a7 bd 6b 15 3f 3d 15 ec d1 3d
       -0.04507297 -0.08200849 0.046651285 0.10250107
000260 e9 78 3e 3d 2f 13 b8 bd c1 5e 0b bc b5 10 58 3d
       0.046502028 -0.08988034 -0.008506478 0.052750308
000270 d0 c2 da bc 5b 35 05 3b c3 a1 92 bd 37 64 99 bd
       -0.026704222 0.0020325992 -0.0715976 -0.074898176
000280 be a3 90 3d 58 3e da 3d 52 41 ee 3c 14 56 e5 bd
       0.07062481 0.106564224 0.029083882 -0.11198059
000290 24 e2 b4 3d a9 45 f8 bc 78 6e 19 bd 5a 5b 98 3d
       0.088321954 -0.030306654 -0.037458867 0.07439299
0002a0 b6 bf 76 bd 1f 6b df 3d f6 a8 e0 bc b5 d1 b3 bd
       -0.060241424 0.109091036 -0.027424317 -0.08780233
0002b0 2e 58 ce bd ea 1e c6 3d 86 6e 80 bd 5b 5c d1 3d
       -0.10075413 0.09673865 -0.06271081 0.102226935
0002c0 c8 38 f6 3d 08 47 c6 3b 3e 0c 8e 3d 2e 63 8d bd
       0.12022549 0.006050948 0.06935929 -0.06903683
0002d0 ff 20 24 3c 4d 05 0c bd 54 6c be bd 6d 58 f8 3c
       0.0100176325 -0.034184743 -0.09298006 0.030315602
0002e0 f6 28 ed 3d 14 d1 ac 3d 18 92 c6 bd fe cf 92 bd
       0.11580078 0.08438316 -0.09695834 -0.071685776
0002f0 9a d7 d1 bc 5e 2e 85 3c c5 d5 d5 bc 5f c1 29 3d
       -0.025615502 0.016257461 -0.02610291 0.04144418
000300 ce 7d dc 3d 60 10 16 bc 7c d8 84 bd d0 6f ab 3d
       0.10766183 -0.009159178 -0.064866036 0.08370936
000310 e0 ca 26 3d b0 1d 6a bc 46 3d cb bd 74 c9 52 bd
       0.04072082 -0.014289305 -0.09923796 -0.051461652
000320 ac 3a 5f 3d b8 9f 20 3d 22 9f ca bd c0 2e 8a bc
       0.054499313 0.03921482 -0.098936334 -0.016867995
000330 e4 d0 25 3d 30 00 ec 3d be 4e 9d 3d 56 ad ea 3d
       0.040482417 0.11523473 0.076810345 0.114588425
000340 4c d4 4f bd d6 b5 f8 3d b4 2d 50 bd 0c 2d fc 3d
       -0.05073957 0.121440575 -0.050824836 0.123132795
000350 26 46 b3 3d 2a b4 a1 3d 90 33 78 bd 14 5f 79 3d
       0.08753614 0.07895692 -0.06059605 0.06088169
000360 be c0 d5 3d 80 00 0c bb e4 f2 ec 3d d6 80 a5 3d
       0.10437153 -0.0021362603 0.11569765 0.08081214
000370 60 d3 57 3d 4c 44 b9 3d 4e 50 d8 3d e4 5d 7f 3d
       0.052691817 0.0904623 0.10562192 0.0623454
000380 44 ce af 3d 7c 0f ba bd c0 e7 d2 3b 3a f6 c0 3d
       0.08584264 -0.09084985 0.006436318 0.09421964
000390 a0 d8 51 3d 10 94 fe bd 02 d3 c2 3d b0 f6 0e bd
       0.05123198 -0.124305844 0.09512903 -0.03490323
0003a0 86 82 fa 3d 00 76 de 3b 40 8f ba bb 36 21 9f bd
       0.122319266 0.006788969 -0.0056933463 -0.07770006
0003b0 2a e5 e1 bd f8 f6 92 3c d0 06 65 3d 48 bd 30 bd
       -0.11030038 0.01794003 0.0559147 -0.043149263
0003c0 36 41 b9 bd 04 11 37 3d c0 e7 4e bb 94 68 4f 3d
       -0.09045641 0.04469396 -0.003157124 0.050636843
0003d0 d8 94 d1 bd 90 5f 17 3d 80 d0 8b 3d 4a 93 9a 3d
       -0.10233468 0.03695637 0.068268776 0.075476244
0003e0 18 5a b6 bc 64 47 7e 3d 74 1f 80 3d f4 80 64 3d
       -0.022259757 0.062079802 0.06255999 0.05578704
0003f0 ec b5 d7 3d 08 c3 bb bc 14 27 d1 3d cc 7b fa bd
       0.10532746 -0.022920147 0.10212532 -0.12230644

reduce1.bias f4 [64]
000000 19 83 35 3d 30 8d 90 bc 22 73 84 3d de da e4 bd
       0.044314478 -0.017645448 0.06467272 -0.11174558
000010 07 82 d2 3c 57 b8 f2 3d 53 42 7d 3d 46 11 fa 3d
       0.025696767 0.11851566 0.06183083 0.12210326
000020 1c 2a bf 3b 11 ee 9a bc d3 bf 9a 3d 9c 48 de 3d
       0.0058338773 -0.018912347 0.07556119 0.10853693
000030 e0 ce 47 bd b9 08 cc 3d a6 bb 8a bd 0b d7 a4 3c
       -0.048781276 0.09962601 -0.06774072 0.020122072
000040 2c 3b 8c 3d 27 ff ab bd 88 8d 09 3c 1e ea d6 bd
       0.06847224 -0.08398276 0.00839556 -0.10493873
000050 71 7d b8 3d 17 ed eb bd b9 2c 17 bd 77 b9 79 3d
       0.09008301 -0.11519831 -0.036907885 0.06096789
000060 cd 70 a5 bd 9b 17 97 3d 4e 2a fe bc ab 70 84 bc
       -0.08078156 0.07377549 -0.031026032 -0.016167006
000070 df c9 e9 3d af 59 4b 3d c9 39 f8 3d cc 95 ee 3d
       0.11415457 0.049646076 0.12120397 0.11649665
000080 09 36 df bd 86 07 d7 bc 8e aa c7 3d de 43 42 3d
       -0.10898978 -0.026248705 0.097493276 0.047428004
000090 50 a1 99 bb c4 59 ba 3d 4c 37 ef bd ff 83 e3 3c
       -0.0046884194 0.09099153 -0.11680469 0.027772902
0000a0 d2 e6 58 3d d3 d3 58 3d 56 1c c7 3d a6 52 ec bd
       0.052954502 0.052936386 0.097222015 -0.115392014
0000b0 84 c6 f4 3d 62 93 c0 3c 65 b6 e3 3d 4a 62 ba 3d
       0.11951926 0.023507778 0.11118773 0.091007784
0000c0 b6 c1 0b bd c0 03 3e bc 71 df 88 3c 2d a1 88 bd
       -0.034120284 -0.011597574 0.016708108 -0.06671367
0000d0 09 e4 eb bd 09 ad 1f 3d 38 3e f8 bd df 96 17 3c
       -0.11518104 0.03898338 -0.12121242 0.009252279
0000e0 1d dc 49 bd 2a 48 4f 3d 70 b8 0f 3d 51 ee 1e bd
       -0.049282182 0.05060593 0.035088003 -0.038801495
0000f0 aa 3d 03 3e b4 ff d3 3d c4 48 99 bd 7d ed 84 bd
       0.12816492 0.10351506 -0.07484582 -0.0649061

nonreduce1_1.weight f4 [32, 64, 3, 3, 3]
000000 70 35 3a bb 84 cb 91 bb c5 24 92 bc 74 b5 93 bc
       -0.00284132 -0.00444931 -0.017839799 -0.01803086
000010 6d 29 5a 3c 14 0f 03 bc b0 db 3e bc 74 b7 59 3b
       0.013315541 -0.0079992 -0.011649057 0.003322092
000020 60 6f b1 bc d2 c5 7b 3c cd de 9a 3c 67 8b 0a bb
       -0.021659553 0.015366988 0.018905068 -0.002114022
000030 0e af b0 bb 8e 9c 4e 3c 57 bf c2 3c 15 b9 4d 3c
       -0.005391962 0.012610568 0.023772879 0.012556334
000040 1f 51 85 ba eb 69 17 3b 03 82 96 bc 1b 25 4a 3b
       -0.0010171271 0.0023103904 -0.018372541 0.003084487
000050 a3 09 10 bc ef fb 4a bc 37 5a 84 bc 54 14 69 3c
       -0.00879136 -0.012389167 -0.016156299 0.014226038
000060 16 b7 80 bc ef ff a3 3c f2 1d 32 b9 b2 9c af 3c
       -0.015712302 0.0200195 -0.00016986558 0.021437023
000070 af c3 e1 ba d4 77 25 3c 11 35 a5 3c 5e 61 23 bc
       -0.0017224456 0.01009937 0.020166906 -0.009971945
000080 0b f4 e7 bb 86 bc c5 3c 5a 8f 17 3c d6 51 af bb
       -0.0070786527 0.024137747 0.009250486 -0.005350332
000090 70 79 6a bc 5b c2 30 bc e3 2f d7 3b 85 a6 d1 3c
       -0.0143111795 -0.010788525 0.006566988 0.025592098
0000a0 06 d7 79 3c ad d7 18 3a ef 55 ba 3c 5f 02 05 bc
       0.0152490195 0.0005830478 0.022746054 -0.008118241
0000b0 cb 8f 92 bc 0c a7 db 3c 37 17 2a 3c 13 53 34 bc
       -0.017890831 0.026813053 0.010381511 -0.011006135
0000c0 1d 2c 85 bb 2a 54 96 bc bd c6 fd 3b 63 63 9a bc
       -0.0040640966 -0.01835068 0.0077446387 -0.01884622
0000d0 b2 bd 2e 3c 34 24 cd bb 83 35 04 3b 39 56 14 3c
       0.010665344 -0.0062604193 0.0020173497 0.00905376
0000e0 ae fa 1d 3c 54 f6 09 3c dd 89 ed 3b 05 35 4f 3d
       0.009642286 0.008420546 0.0072491006 0.050587673
0000f0 92 2f 2d 3d d8 9f 13 3d 69 f7 5e 3d a1 6b 7d 3c
       0.042281695 0.03604111 0.054435167 0.015467555
000100 99 a1 24 3d 8b 73 29 3d f4 97 e0 3c d8 13 e5 3c
       0.040193174 0.041369956 0.027416207 0.027963564
000110 74 24 38 3d aa e0 f9 3c 23 7b 07 3d 87 00 0f 3d
       0.04495664 0.030502636 0.033076417 0.034912612
000120 32 d9 1a 3c f7 06 67 3c b4 4f b5 3c d1 af 39 3d
       0.009451197 0.014100782 0.022132732 0.045333687
000130 b7 02 88 3c 30 90 53 3c c5 81 c9 3c 28 53 5c 3d
       0.016602857 0.012912795 0.024598012 0.05379024
000140 0a 30 73 3d f9 5d a1 3c 0c d1 ab bc 37 da f3 bb
       0.059371985 0.01969813 -0.020973705 -0.0074417847
000150 5d e6 9e 3c 6c fd 1f 3b c5 0b 62 3c b0 4f b1 bb
       0.019396955 0.0024412526 0.013796751 -0.005411111
000160 cf a3 df 3b 1b 43 06 bb b3 18 47 bc fc 22 6b bc
       0.0068249474 -0.0020486775 -0.012151885 -0.014351603
000170 46 05 70 bb 36 93 06 3c f7 2a 7a 3b 8e c5 fb 3a
       -0.0036624237 0.008213809 0.0038172582 0.0019208656
000180 a4 92 c0 bb bd ad 1e 3c 75 bd ea bb 5b b3 15 bc
       -0.005876856 0.009684977 -0.0071636983 -0.009137
000190 51 dd 48 3b 4e 14 f3 bb c9 f2 3b bb 61 df 77 bc
       0.0030649493 -0.007418192 -0.0028678647 -0.015128941
0001a0 01 d0 1a 3c 9f 98 22 bc a3 a2 27 3a 3b 89 2a bc
       0.009449006 -0.009924083 0.0006394779 -0.010408695
0001b0 de 37 ca ba 36 f8 e5 3c b1 b2 09 3c c3 1d dd 3b
       -0.0015428027 0.028072458 0.00840442 0.0067479326
0001c0 60 de aa 3c 34 16 3e 3c 05 a6 5a 3c f1 a8 90 3b
       0.02085799 0.011601973 0.013345246 0.0044146706
0001d0 6a ee b1 bb 1f 41 85 3c 9f 33 c5 ba 54 cf 21 3c
       -0.0054300325 0.016266404 -0.0015045292 0.009876091
0001e0 a4 83 6d 3c 01 88 08 3d 0f 53 34 bc 62 3a f3 3b
       0.014496718 0.03333283 -0.011006131 0.0074227313
0001f0 82 0f 89 3c 94 f4 c4 3c 34 2b b7 3c 46 df db 3c
       0.016731028 0.024042405 0.022359468 0.026839864
000200 0d c3 ca 3c 45 34 02 3d 53 d6 28 bc 41 7b 22 bc
       0.02475121 0.03178813 -0.010305005 -0.009917081
000210 ea 43 e8 bb 75 0c b2 ba dd 59 44 3a b3 26 6b 3b
       -0.007088174 -0.0013584035 0.00074901973 0.003588122
000220 f8 f7 9d bc 68 f4 84 bc bf af 8e 3a d1 15 bb 3c
       -0.01928328 -0.016229823 0.0010886117 0.022837551
000230 e0 55 c8 b9 56 9a aa bc 17 ea b1 3c bb 08 5b 3b
       -0.00038210955 -0.020825546 0.021718068 0.0033421952
000240 e0 a4 47 bc b4 9c fb 3b 5f 20 2e 3c a1 16 16 3b
       -0.012185305 0.0076785926 0.010627835 0.0022901671
000250 82 5b 86 3c e5 9c 54 3c 6c 3e 0d ba cd e0 21 3b
       0.016401056 0.01297686 -0.0005388025 0.0024700642
000260 18 32 4f bb e5 9e 92 3c 38 b9 67 3b a8 18 b8 bc
       -0.0031615552 0.017898032 0.0035358202 -0.022472695
000270 81 5f 7a 3b 9e d2 6b 3c 46 ff 94 3c 18 3b 73 3b
       0.0038203897 0.014393477 0.01818813 0.003711408
000280 64 1f bf 3c e3 eb cb bb ee e7 75 3c 39 f4 cd 3b
       0.023330398 -0.0062231882 0.01500891 0.006285217
000290 8d e4 1d bb 51 c1 a6 bb 98 09 f3 3c a4 41 44 bc
       -0.0024092526 -0.005088963 0.02966766 -0.011978541
0002a0 92 7a bf 3c b8 de 59 3c 05 19 68 bb b3 f6 79 ba
       0.023373876 0.013297729 -0.0035415303 -0.0009535357
0002b0 6f e0 f4 3c 3e 22 e2 3c 66 6e 14 bb 67 09 af 3c
       0.029892175 0.027604219 -0.002264881 0.021366788
0002c0 ec 67 ce bb 4b 81 9d 3b 1a 27 97 3b 05 ec 71 3c
       -0.0062990095 0.0048066727 0.0046128156 0.014765744
0002d0 89 ee 6e ba 20 f2 7b bc d2 4b 50 ba 22 fe 6c bc
       -0.0009114524 -0.015377551 -0.00079458684 -0.014464887
0002e0 c7 81 a0 3c da f0 03 3b 1a f8 73 3c a3 96 c6 3b
       0.019593133 0.0020132572 0.014890695 0.0060604378
0002f0 bd 16 09 3d 3d 75 89 3c 07 6a 7c bc c0 40 07 3d
       0.03346895 0.016779536 -0.015406138 0.033020735
000300 92 ce 39 3c 55 90 f2 3a b9 77 f0 bb 03 9b 4c bc
       0.011340754 0.0018506149 -0.007338491 -0.01248813
000310 90 75 a4 3c 49 44 98 3c 7b df dc ba 4c f5 9e 3a
       0.02007559 0.018587248 -0.001685127 0.0012127548
000320 81 bf 0d 3d eb 45 a5 3a 5e 65 d2 bb bd 91 8a bb
       0.03460646 0.0012609338 -0.0064207753 -0.004228799
000330 f2 fd a8 3c cd a5 80 3b 5a 13 b7 3c 39 eb c3 3c
       0.020628903 0.003926015 0.022348095 0.023915874
000340 39 44 78 3b 45 ca f4 3b 50 fa f0 3c 15 98 ca ba
       0.003788246 0.0074704015 0.029416233 -0.0015456701
000350 58 55 d5 3c b9 d6 0d 3d e5 1d b3 3c 45 97 62 3b
       0.026041672 0.034628604 0.02186484 0.0034575027
000360 2f 08 10 ba 1d 5f 77 bb cf cf 95 3c 7f bd 26 bc
       -0.00054943835 -0.00377459 0.018287567 -0.010177015
000370 98 10 87 3c 42 b6 97 bc 1c 1c d2 bb 74 a3 ab 3c
       0.016487405 -0.018519524 -0.0064120423 0.020951964
000380 5f 2f 14 bc 58 cc b2 bc d8 04 4f bc 19 e7 10 3c
       -0.009044497 -0.021825954 -0.012635432 0.0088441605
000390 8f 85 bd 3c 24 71 ab 3c 57 d0 23 3b 2d 67 c4 3c
       0.023134975 0.020927973 0.0024996006 0.02397498
0003a0 8d ca 48 bb 26 8e 2a 3c f1 cd 14 3c 3a 51 8b 3c
       -0.0030638308 0.010409867 0.009082303 0.017006505
0003b0 49 fd b7 3b 60 07 d7 3c 75 d0 66 bc f1 a0 b9 3b
       0.0056149107 0.026248634 -0.014087786 0.0056649377
0003c0 b5 cf e5 3b f8 15 21 bc 5b 50 cf b9 fb 58 bd 3b
       0.007013286 -0.009831898 -0.00039541986 0.0057784296
0003d0 da 4c 54 bb 85 90 38 3c 6d b1 4a bc da 5f 53 3c
       -0.003239444 0.011264925 -0.012371403 0.012901271
0003e0 41 42 91 bc 58 f3 95 bc 0e 1e aa 3c 17 32 5e bc
       -0.017731788 -0.018304512 0.020766284 -0.013561747
0003f0 a5 2d 8b bc e3 55 b7 bc 18 0e 67 3b 84 01 2b 3c
       -0.016989538 -0.022379821 0.0035256203 0.010437373

nonreduce1_1.bias f4 [32]
000000 a9 5c 07 3b 76 86 2c 3c 95 73 ac bb 7e 7b 4f 3c
       0.0020654595 0.010530105 -0.005262802 0.01266372
000010 d1 35 28 bc 30 fd 85 ba 28 2b 6c 3c 04 7e c3 bc
       -0.010266737 -0.001022255 0.014414586 -0.0238638
000020 80 1e ca 3c fa c7 9d 3c 7e ca b3 3c 73 c5 b6 3c
       0.024672747 0.019260395 0.021947142 0.022310948
000030 35 52 1f bc 3b a9 b8 3c fd 16 fe 3b 9e 02 a2 bb
       -0.0097241895 0.022541633 0.0077542053 -0.0049441596
000040 99 ff 2e bc ca ed 1e 3c e6 43 8f 3b 1c 6f d7 3c
       -0.010681056 0.009700248 0.004372108 0.026298098
000050 ec e6 ae 3c a7 4d bd 3c 4f c6 91 3c 0f bc 3d 3b
       0.021350347 0.023108317 0.017794756 0.0028951203
000060 9e 80 e2 bb 6c ef 0b bc 84 a1 ae bc e3 fb 0e 3c
       -0.006912305 -0.008540969 -0.021317251 0.008727047
000070 74 67 a3 3c 34 89 96 bc 9c 8b 47 3b 15 8d 69 bc
       0.019946791 -0.01837597 0.0030448204 -0.014254828

nonreduce1_2.weight f4 [32, 32, 3, 3, 3]
000000 de a3 54 bc 85 1a 00 bc 3e d2 c5 bc 97 de 87 3c
       -0.012978522 -0.007818823 -0.024148103 0.016585631
000010 a2 b2 c2 bc 6b db 17 bc f0 bc cf 3c 75 42 b2 bc
       -0.02376682 -0.009268622 0.025358647 -0.021760205
000020 1b a8 1c 3b 6c a4 b7 3c f9 7a f3 3c 54 b3 e1 3c
       0.002390391 0.02241727 0.029721724 0.02755133
000030 c1 e5 82 3b 28 9d ad bc 92 61 b1 bc 38 23 ae 3c
       0.003994674 -0.021193102 -0.02165297 0.021257028
000040 6e 94 08 3d 38 06 c1 bc 0c 44 15 39 7e 6b d4 ba
       0.03334468 -0.023562536 0.00014235097 -0.0016206352
000050 69 c2 14 3d 29 89 26 bc 34 77 bb 3c 9c d2 93 bb
       0.036318216 -0.0101645375 0.022883989 -0.0045111906
000060 54 a2 68 bb c4 f5 b7 3c 82 3b 65 bc 47 86 4a 3b
       -0.0035497146 0.022456057 -0.013991239 0.003090279
000070 13 28 d4 bc 79 b2 27 3c 03 f5 b4 3c 27 c7 fb 3c
       -0.025898015 0.010235422 0.022089487 0.030734612
000080 3f da ce 3c dd 34 e5 3b 1b 03 9c 3c 40 8b 04 bc
       0.025250552 0.006994827 0.01904445 -0.00808984
000090 93 96 ff bc 75 f8 91 3c 4f 06 e4 bc 73 81 e3 3c
       -0.03119973 0.017818669 -0.02783504 0.027771687
0000a0 cb 3a f7 bb f7 50 18 3d 8e c6 a6 bc 47 17 22 bc
       -0.0075448505 0.03718659 -0.02035835 -0.009893245
0000b0 e7 86 fe 3b 11 44 0a 3d df 28 93 bc f7 62 09 3c
       0.0077675465 0.03375632 -0.017963825 0.008385411
0000c0 1a 5b f2 3c 74 7c 3c bc e0 04 ea 3b 2f 11 c0 bc
       0.029584456 -0.011504281 0.0071416944 -0.023445694
0000d0 fc da 6e 3b 2b 2b d0 bc 61 d2 d2 3c 09 5f 8a 3c
       0.0036446443 -0.02541121 0.025735082 0.01689102
0000e0 77 7f ca 3c ca 7a 2b bc 44 14 2c 3b 74 c4 b9 ba
       0.024718983 -0.010466287 0.0026257196 -0.0014172927
0000f0 20 f3 b8 3c 0e e4 d8 3c e4 f2 a2 bc e6 e2 aa 3c
       0.022576869 0.026475932 -0.01989121 0.020860147
000100 1c 91 08 3d 8d fc fe 3c 69 94 8c bc 4d c2 cc 3c
       0.033341512 0.031126285 -0.017160611 0.024994994
000110 0b 18 03 3d 34 ad ee bc f8 3b 27 3c 73 0b 06 bd
       0.03200535 -0.029135324 0.010207169 -0.032725763
000120 92 58 06 bd 51 2a 22 3c d0 96 84 3c 48 d5 67 39
       -0.03279931 0.009897784 0.016185194 0.0002210933
000130 7d e8 cf 3b ed 03 e0 bc 85 ce ee 3c 14 51 12 3b
       0.0063448534 -0.027345622 0.02915121 0.0022326158
000140 70 4b 9d 3c 79 07 0a 3d 7f 5b 67 3c 90 e0 77 3b
       0.01920101 0.033698533 0.014120935 0.0037823059
000150 93 81 14 3d 56 92 a9 bb 30 69 dd bc 7a be 12 3d
       0.036256384 -0.0051749153 -0.027027696 0.035826184
000160 7d 9c 07 3d 13 55 53 3b db 1d dc bc d3 9b 1d 3c
       0.033108223 0.0032246753 -0.026869705 0.009619671
000170 52 99 09 3d cf a9 fe 3b f4 fd 4e 3c 06 a2 01 bb
       0.033593483 0.0077717076 0.012633789 -0.0019780411
000180 67 ec aa bc be 28 db 3c a3 73 1a bc 41 8e 7c b9
       -0.020864679 0.026752826 -0.009426984 -0.00024085586
000190 2c 80 c3 3c 4d b6 86 3c d4 b8 02 3d e3 b5 aa bb
       0.023864828 0.01644435 0.031914547 -0.005209671
0001a0 75 fd df bc 1d 15 b2 bc b1 8f 02 bc da cb de 3c
       -0.027342537 -0.021738583 -0.007968829 0.027196813
0001b0 a0 ab e4 3c da f9 a4 3c 45 2f c3 ba a8 63 b1 3c
       0.027913868 0.02013867 -0.0014891407 0.021653965
0001c0 55 62 08 3d df 68 a0 bb 4c 0a 99 bc 03 65 ba bc
       0.0332969 -0.004895314 -0.018681668 -0.022753244
0001d0 d9 29 12 3d bb 68 a8 3c fe 98 b6 3c 75 7e 5b bb
       0.03568444 0.020557752 0.02228975 -0.0033492122
0001e0 8d 02 1b 3d 79 c0 b0 3c a0 18 ed ba df 8e ad bc
       0.03784423 0.021576153 -0.0018089004 -0.02118629
0001f0 cb b1 f3 3b 9e 1f b2 3c 1f 33 cb bb af 52 d3 3c
       0.007436966 0.021743592 -0.0062011625 0.025796263
000200 06 8d b5 3c 18 fb c1 3c f9 ed 63 3c 59 20 92 3c
       0.022161972 0.023679301 0.013911718 0.01783769
000210 cf a8 f6 3c 47 08 1c bb ab e5 bc 3c a1 66 ca 3c
       0.030109791 -0.0023808645 0.023058733 0.02470714
000220 a3 ae c7 3c 98 4d 38 3c ef af 45 3c f2 1b 14 bc
       0.024375265 0.011248969 0.012065872 -0.009039866
000230 b8 a3 1f 3d 74 c0 72 3c 71 93 f8 3c ce 52 72 bb
       0.038974494 0.014816392 0.030343743 -0.0036975625
000240 65 81 35 3b 16 2d 55 bc 82 55 b3 3b 44 7e c6 3c
       0.0027695533 -0.013011238 0.00547284 0.02423013
000250 02 48 09 3d 73 96 05 bc 05 ed 64 bc d1 a9 84 3c
       0.033515938 -0.008153546 -0.0139725255 0.016194256
000260 fb 77 c1 3c 7f 84 0a 3b 30 87 98 3c d8 fa 09 bc
       0.023616781 0.0021136103 0.01861915 -0.008421622
000270 50 40 91 3b b9 60 7f 3c 9f 0c 4c bc 73 97 cd 3c
       0.0044327155 0.015587025 -0.012454181 0.02509663
000280 de ae 45 3c fb f3 b4 3c 51 ad 17 3c ec a6 1e bc
       0.012065617 0.022088995 0.00925763 -0.009683352
000290 e3 c7 72 bc d8 3d 05 bc 43 ce cd bc 30 7a c0 bc
       -0.0148181645 -0.0081324205 -0.025122767 -0.023495764
0002a0 63 10 a4 3a 3f 4d 80 bc ba 96 5d 3c ee 2c c8 3c
       0.0012517091 -0.015661834 0.013524706 0.024435487
0002b0 9f 56 26 3c f1 09 42 3c 76 06 3c 3c ca 85 20 ba
       0.010152488 0.0118431905 0.01147615 -0.0006123452
0002c0 1b f5 7c bc 6e 84 fe bb 53 c6 e6 bc f7 9d 29 3c
       -0.015439297 -0.0077672517 -0.02817074 0.010352603
0002d0 41 b6 8d bc 20 59 4d 3c c4 32 02 3d 77 05 9c bc
       -0.01729882 0.012533456 0.031786695 -0.019045575
0002e0 15 7f 9d 3c 42 e6 cc 3c 61 d8 b3 bc 06 74 11 3d
       0.019225636 0.02501214 -0.021953763 0.03551104
0002f0 2c 6e 1b 3d fa c6 4c bc a1 43 88 bc 05 de 0d bd
       0.037946865 -0.012498612 -0.01663381 -0.034635562
000300 1f 4b 0a 3c 09 3b f6 bc bc 17 81 bc 33 70 ed ba
       0.008440762 -0.030057447 -0.015758388 -0.0018115103
000310 3e ca 86 3b 3d 51 68 3c 42 0d d6 3c e3 cc fc bb
       0.0041134646 0.014179525 0.026129369 -0.007714854
000320 61 f3 de 3c bd d9 cb ba 7c 35 ec 3b a7 11 f5 bb
       0.027215661 -0.0015552562 0.0072085243 -0.007478911
000330 f5 c0 0b 3c 61 79 77 3b dd 4f bc ba c0 79 c9 bb
       0.008529891 0.0037761556 -0.0014367063 -0.006148547
000340 b4 ea 47 bc b5 f9 06 bc b8 40 32 bc 8c 8c 73 bc
       -0.012201954 -0.008238246 -0.010879688 -0.014865052
000350 1e 8a c9 bb 82 43 ea bc a1 14 47 3b d1 5a 5f 3c
       -0.006150498 -0.028596643 0.0030377286 0.013632492
000360 cc bd 02 3c 69 8b f7 3b be a0 88 3c 87 f2 83 bb
       0.007979821 0.007554461 0.01667821 -0.0040267142
000370 e0 98 ab 3c 2a 88 8c 3c db 0c d6 3c fa 6d ee 3c
       0.02094692 0.017154772 0.026129177 0.029105175
000380 a9 ee 14 3b 83 c8 72 3c a8 f7 cb b9 29 ac bb 3c
       0.002272526 0.0148183135 -0.00038903696 0.02290924
000390 25 e8 29 3c 8d 05 31 bc 8a 9e c4 3c 3c 92 9e bb
       0.010370289 -0.010804546 0.024001379 -0.00483921
0003a0 47 26 3e bc 7e 92 4b 3c e0 6b 3b bb f1 75 2d bc
       -0.011605806 0.012425063 -0.0028598234 -0.010587201
0003b0 7c c1 f2 3c 04 ea 4c bb 86 a0 9c 3c 03 5f 82 bc
       0.029633276 -0.0031267414 0.019119512 -0.015914446
0003c0 51 31 06 3d 05 e3 ba 3c 61 ed 3d bc 3c 44 40 bb
       0.032761876 0.02281333 -0.01159224 -0.0029337546
0003d0 27 a5 a8 39 1b 18 d7 bc f4 b2 b2 3c a3 f7 12 3d
       0.00032166505 -0.026256612 0.021813847 0.035880696
0003e0 70 11 a6 bc 68 5c e1 3c 4b 28 e8 3c 94 2e 2f 3c
       -0.020271987 0.027509883 0.028339526 0.010692257
0003f0 14 b1 18 bc a8 a6 90 3c 4e 14 38 bc 27 35 e0 3b
       -0.009319562 0.017657593 -0.01123531 0.0068422738

nonreduce1_2.bias f4 [32]
000000 39 d0 12 3d e6 62 ae bc 8e ee 90 bb 9b 1c b4 3c
       0.035843108 -0.021287393 -0.004422969 0.021986296
000010 ad 8a 00 3c 04 d2 35 3c ef 01 a5 bb ef af 1b 3c
       0.007845563 0.011097435 -0.005035631 0.009502395
000020 95 0b 84 3c cc 63 eb bb 79 4c dd bc 2c 7d 89 3c
       0.016118804 -0.0071835276 -0.027014004 0.01678332
000030 5e fb 50 bb 5a 60 80 3b ca 0b 24 bc de 3a e8 bc
       -0.0031888108 0.003917736 -0.010012576 -0.028348383
000040 f8 fe fe bc a7 5e e0 3c 8c dd 88 3b 87 79 01 bc
       -0.031127438 0.027388884 0.004176801 -0.0079025095
000050 44 50 e1 bc b4 96 6c bc 85 d3 14 3c 92 57 fc 3c
       -0.027504094 -0.014440227 0.009083633 0.030803476
000060 3b b3 b4 3c d7 04 c8 3c ef c9 04 3d c5 5b c7 ba
       0.02205812 0.02441637 0.03241914 -0.0015209845
000070 5e 34 0c bb 2d 94 87 bb c4 33 9a bc 78 3f d2 bc
       -0.0021393518 -0.004137537 -0.018823512 -0.02566503

nonreduce1_3.weight f4 [32, 32, 3, 3, 3]
000000 30 f2 70 3c f1 25 26 3c c5 99 3d bb 41 d5 cf bc
       0.0147061795 0.010140882 -0.0028930765 -0.025370242
000010 36 4b 2a 3c 35 bd 22 bb c3 25 fe 3a 7d 65 1d 3c
       0.010393908 -0.0024832014 0.0019389916 0.009606716
000020 30 8a 93 bc 56 30 65 3c d2 7d 5b 3b a0 f7 50 3c
       -0.018010229 0.013988575 0.0033491743 0.012754351
000030 96 59 70 3c 4f 6c 63 ba 45 ee ea 3c 9b 8d 8b bc
       0.014669796 -0.0008675502 0.028678069 -0.017035296
000040 51 42 22 bc 4e 1e 42 3c cf a0 a9 bc 5f af 65 3c
       -0.009903506 0.0118480455 -0.020706562 0.0140188625
000050 8e fa a4 3c e5 da 0a 3c 27 9d 86 bc 34 8d c1 3c
       0.020139005 0.00847504 -0.016432358 0.023626901
000060 57 05 32 bc 11 a3 db 3c 06 9b b5 3c 82 12 0e bc
       -0.010865531 0.026811155 0.022168647 -0.008671405
000070 9e 61 6e bc 35 a1 fa bc 16 97 04 3c 4c ca 35 3b
       -0.014549641 -0.030594448 0.008092662 0.0027738987
000080 16 c9 0d 3d 98 5f b6 bc 2b dc 76 3c ed 0e fa 3b
       0.0346156 -0.02226238 0.015067141 0.007631174
000090 49 53 c5 bc 3d cf 58 3c b3 a0 0a 3c bd 61 eb 3c
       -0.024087565 0.013233003 0.008461165 0.028733129
0000a0 96 7a a0 bc 32 c4 81 3c 45 01 af bc 24 74 19 bc
       -0.019589704 0.015840624 -0.02136291 -0.009366069
0000b0 a6 50 14 3c 1b 00 27 bc 02 ba 1b 3d e2 fb e3 bc
       0.009052431 -0.010192896 0.038019188 -0.027830068
0000c0 eb 59 ea 3c 1c c6 a1 bc 23 e0 84 3a ec 98 d3 bb
       0.02860733 -0.019747786 0.0010137599 -0.0064574387
0000d0 39 9c 73 3c d3 ab 86 3c 21 3d 13 bc 53 25 e8 3c
       0.014868789 0.016439354 -0.008986742 0.02833811
0000e0 d5 3f 95 bc d4 24 e6 bb 11 b1 08 3c 4f 15 8c 3b
       -0.018218914 -0.007023433 0.008342997 0.004275001
0000f0 0b a6 f7 3c 3e 1b b5 3c 9a 72 44 3c 95 c1 98 bc
       0.030230543 0.022107717 0.011990214 -0.018646995
000100 c5 12 e4 bc c0 35 7f bc 22 46 77 bc 93 8f 0e bc
       -0.027840981 -0.01557678 -0.015092405 -0.008701223
000110 fe ed 18 bb ad c6 af bc 60 48 78 3c b3 ba da 3c
       -0.0023335214 -0.02145704 0.015153974 0.026700353
000120 ed 53 16 bc 19 e7 f2 bc 45 c4 bf 3a 63 d3 9e bc
       -0.009175283 -0.029651212 0.0014630636 -0.019387906
000130 d1 c8 99 3c 29 de 4c bc a6 b4 ca bb cf 74 f2 3b
       0.018772515 -0.012504139 -0.0061860858 0.0073991786
000140 79 77 04 3c 19 ed 03 bd 66 76 8a 3c 5b dc 2c bc
       0.008085125 -0.032208536 0.01690216 -0.010550584
000150 5f bd dc 3c 5e 5c 12 bc dd e0 b3 3c 4d f1 da 3c
       0.026945768 -0.008933155 0.02195781 0.02672639
000160 82 20 f4 bc 47 2d c5 3c ad 94 05 bc 2d fd 4f 3c
       -0.029800657 0.024069441 -0.008153123 0.012694639
000170 d8 8d e3 bc 22 67 dd 3c ff c5 91 3c a8 c5 13 3b
       -0.027777597 0.027026717 0.017794607 0.0022548232
000180 33 03 59 3c f6 e2 13 3d b1 99 ec 3c 1d 46 83 3c
       0.013245392 0.03610512 0.02888188 0.016024644
000190 21 d1 dc 3c ac f7 8c bc a5 dd 18 3c 15 72 50 3c
       0.02695519 -0.017207943 0.009330188 0.012722512
0001a0 af 8e e2 3c 85 7f ca 3c d7 1c 27 bc 6e d0 14 3c
       0.027655927 0.02471901 -0.010199747 0.009082897
0001b0 66 13 35 3c 90 09 b1 3c 66 7f 8e bc 63 89 83 bb
       0.011051988 0.021611005 -0.017394733 -0.0040141805
0001c0 9f 07 b1 bc 10 dc c5 bb 4a 6b de bc 2a 21 f7 bc
       -0.02161008 -0.0060381964 -0.027150769 -0.030167181
0001d0 74 88 10 3d 60 20 3d 3c fb 0e 9d bc ae bc e8 bc
       0.03528638 0.011543363 -0.019172182 -0.028410282
0001e0 e5 39 6e 3c 21 76 c4 3c 94 fd 04 bd de 10 0e bd
       0.01454017 0.02398211 -0.032468393 -0.034684055
0001f0 bb 99 ae 3b 68 a4 b1 bc a0 03 51 bc 2c 7e 00 bd
       0.0053283847 -0.02168484 -0.012757212 -0.031370327
000200 f8 f4 b3 3c b2 1d a4 3c d3 e6 aa 3b 25 0a 40 bc
       0.021967396 0.020033691 0.0052155047 -0.011721169
000210 51 80 96 3c 70 dc bd bc 24 c7 cf bc b3 6e 5a bb
       0.018371733 -0.023176402 -0.025363512 -0.0033330142
000220 cd 8d f8 3c 1b fd 60 3c e6 15 bd 3b e9 e5 aa 3c
       0.030341053 0.01373222 0.0057704328 0.020861583
000230 c3 d4 a2 3c d2 36 ee bc 23 48 c4 3c 00 f0 ad bc
       0.019876843 -0.029078875 0.023960179 -0.021232605
000240 c3 19 80 bc e9 ba e1 3c 98 c7 c2 3b 00 73 09 3d
       -0.015637284 0.027554946 0.0059442036 0.03355694
000250 b3 79 88 3c 22 e3 a9 3c dd e1 a8 bc bb ed a5 3c
       0.016659593 0.020738188 -0.020615513 0.02025496
000260 93 82 e2 bb 16 1e 4e 3c f9 22 8c bb ed 05 5c 3b
       -0.0069125383 0.012580415 -0.00427663 0.0033572868
000270 bd de 99 bc f5 a6 fe bb 99 97 17 3d 19 18 db 3c
       -0.018782968 -0.0077713677 0.03700981 0.02674489
000280 ae 68 aa 3c 58 de 01 bd b0 08 63 3c fb 84 a4 bc
       0.020801868 -0.031706184 0.013857052 -0.020082941
000290 eb b0 c4 bc 35 58 bb bb d2 62 61 bc 0b 03 58 3c
       -0.024010142 -0.005717302 -0.013756471 0.013184319
0002a0 6c a4 dc bb b6 54 08 3c ab d5 f4 bc 19 bf 90 bc
       -0.006733468 0.008320978 -0.029887041 -0.017669247
0002b0 79 0f 50 3c ea 45 53 3c 7f 09 e1 bb 75 74 a9 3a
       0.0126990015 0.012895087 -0.006867587 0.0012928384
0002c0 fb b3 54 3c b9 07 87 3c b0 11 b1 bc f1 9e a1 3c
       0.012982364 0.016483175 -0.02161488 0.01972911
0002d0 87 47 0f 3d 9b 22 8b 3b 18 6d b5 ba ec 4c 10 3d
       0.034980323 0.0042460687 -0.0013841717 0.03522961
0002e0 2e 61 d6 bb 81 8e 26 3c c9 47 1e 3c 24 75 3e 3c
       -0.0065423464 0.0101658115 0.00966067 0.011624608
0002f0 8c 66 30 bc c7 2a 2d bc 2c 3d 37 3b f8 bf 3f 3c
       -0.010766637 -0.010569281 0.0027960045 0.011703484
000300 9e b9 a7 3b 3d af 6d 3c f4 35 48 bc 2c 29 d4 3c
       0.005118563 0.014507112 -0.012219895 0.025898539
000310 a0 f3 86 ba 0d f6 81 bc f5 be cd bc 5f 3b 88 bb
       -0.0010295995 -0.015864396 -0.02511547 -0.004157468
000320 16 e6 0c 3b 33 34 91 3c e1 d1 b3 bc e8 47 bb 3c
       0.0021499447 0.017725086 -0.021950664 0.022861436
000330 74 32 10 3b ea 04 c6 bc 40 cb bd bb 64 c9 28 bc
       0.0022002729 -0.024172265 -0.0057920516 -0.0103019215
000340 58 33 09 3d 66 8b e3 b9 09 b8 d2 3c c2 88 d5 3b
       0.03349623 -0.00043400674 0.02572252 0.006516547
000350 87 1b 90 3b f2 1d 43 bc 49 f7 f4 3c fb 71 a1 bc
       0.0043978128 -0.011908995 0.029903071 -0.01970767
000360 b9 59 b3 3c 5c 68 a9 bc 06 57 60 3c a9 62 2a bc
       0.021893369 -0.020679645 0.013692623 -0.010399499
000370 40 e9 44 3c b1 93 85 bc 5d 04 5c 3c dc 5a b6 3c
       0.012018502 -0.016305776 0.013428775 0.022260122
000380 00 91 b2 bc ad d2 e7 bc ce 39 7f bb 3f f3 c7 bc
       -0.021797657 -0.0282987 -0.0038944366 -0.024407981
000390 bc 83 b2 bc cb 78 9b 3c e1 c2 3b 3c d1 97 8e bc
       -0.021791331 0.018978497 0.011460037 -0.017406376
0003a0 04 b4 07 3c 71 b5 e0 ba af 07 a0 3c 8c c6 03 3c
       0.008282665 -0.0017143918 0.019534914 0.008042943
0003b0 5d 21 09 3d 1f db 0b bc 9f 22 a7 3c a3 07 9a bc
       0.033479083 -0.008536129 0.02040225 -0.01880247
0003c0 7a b4 e9 3c ce 37 8a 3c 1a 85 0b 3d c3 d5 ac 3c
       0.02852844 0.016872313 0.034062482 0.021098023
0003d0 56 a7 01 bd 26 0a 8a 3b 73 d9 c2 bc ba a1 2a 3c
       -0.031653725 0.0042126356 -0.023785328 0.010414535
0003e0 2d 74 22 3c 13 6b 77 3c 87 34 31 3b 9a 66 08 3d
       0.009915394 0.015101212 0.0027039365 0.033300973
0003f0 d8 10 61 bb 1e 37 4f bc db 82 0e 3d 5a 24 3a 3c
       -0.0034342315 -0.012647418 0.034792762 0.011361206

nonreduce1_3.bias f4 [32]
000000 d8 07 20 bc c9 8f f1 bc 93 2c d0 bc 05 07 f1 3b
       -0.009767495 -0.029487507 -0.02541188 0.007355573
000010 60 b2 ce 3c 70 27 12 3c f8 58 7a bc e4 2a 95 3b
       0.02523154 0.008920535 -0.015280001 0.004552232
000020 55 bc fc bc 8d 02 b7 bc 7c dd c8 3c 84 3f ed bb
       -0.030851522 -0.022340083 0.024519674 -0.0072402377
000030 e9 4f 62 bb 20 c3 c8 bb 34 ca 94 3c 79 9c f3 3c
       -0.0034532493 -0.0061267763 0.018162824 0.029737698
000040 7f 52 e6 bc c3 71 8b bb 2a cd c7 3c 60 eb d3 3c
       -0.02811551 -0.004255505 0.024389822 0.025869071
000050 46 89 ac bc be 16 07 3c e3 c8 47 bc 95 e3 bf bc
       -0.02106155 0.008245168 -0.012193891 -0.02342395
000060 0d 94 a7 bc 41 62 6d 3c a3 d9 61 bc eb d8 58 3c
       -0.020456338 0.014488758 -0.013784799 0.013235311
000070 4d 29 4d bc 81 af 90 bc b1 48 54 3b 06 3a 07 3d
       -0.012522054 -0.017661812 0.003239196 0.03301432

reduce2.weight f4 [16, 32, 4, 4, 4]
000000 f5 6f 09 bc f4 61 38 3c 63 de 9d bc 7c d9 ae bb
       -0.008388509 0.011253823 -0.019271081 -0.0053359848
000010 68 3f 56 3c d8 a6 11 3c ee b6 2a bc f9 ea 2c ba
       0.013076641 0.008889876 -0.01041959 -0.0006596293
000020 5b 0e b8 3b 70 e1 b1 3c 43 5f 22 ba 74 41 44 bc
       0.0056169457 0.021713942 -0.00061940047 -0.011978496
000030 26 7c 16 bc 77 f8 53 bc 7e 7f 84 bc 80 07 ca 3c
       -0.009184873 -0.012937657 -0.016174074 0.02466178
000040 74 bd 19 3c 03 fe 2e 3c f6 6b a6 3c 8a 8c 1f bb
       0.009383548 0.010680678 0.020315152 -0.0024345242
000050 e1 9b 89 bc c4 5a a2 3a db a5 a9 bb e9 64 89 3b
       -0.016797962 0.0012386669 -0.005177242 0.0041929376
000060 87 89 29 3c 33 63 99 3b 62 c0 a1 b9 2c 0c 8b bc
       0.0103477305 0.004681015 -0.0003085165 -0.016973577
000070 6e 9c 23 bc 9c 46 08 3c 3f d8 c4 b8 5f 46 8b 3b
       -0.009986026 0.008317616 -9.386287e-05 0.0042503322
000080 1e 38 02 3c 4a bd 43 bc b8 2f 86 bc d7 8e 9a bc
       0.00794795 -0.0119469855 -0.016380176 -0.01886694
000090 84 cc fd 3b 9c 2a 0a 3c e2 40 a0 3c c3 84 92 3c
       0.0077453274 0.00843301 0.019562189 0.017885571
0000a0 dc e0 c5 3c 83 a4 b6 3b 3b 07 8f 3b 90 c8 8f bb
       0.024155073 0.0055738105 0.0043648756 -0.0043879226
0000b0 3d 73 5d 3b 15 76 25 bc ef a6 ff 3b 9f 5f 5a bb
       0.0033790611 -0.010098954 0.0078018825 -0.0033321155
0000c0 30 e4 a8 3c 0f 32 94 3c 27 61 fa bb f0 f6 4e 3c
       0.02061662 0.018090276 -0.007640976 0.012632117
0000d0 7a 0d 87 3b a6 a7 26 3c 07 bf 57 bc 15 12 96 bc
       0.0041214796 0.010171806 -0.013168103 -0.018319169
0000e0 9b 8d 92 3b c4 43 ff 3a 8a 52 ce bb 8c 16 4f 3b
       0.004472447 0.0019475152 -0.0062964605 0.0031599132
0000f0 1f 53 c2 bb 61 cc 00 bc 17 62 1e 3c ba 49 5b bc
       -0.005930319 -0.007861228 0.009666941 -0.013384277
000100 56 df 75 3c f9 ca be 3c 04 50 b2 bb 97 03 af bc
       0.015006861 0.023290144 -0.0054416675 -0.021364016
000110 2b 03 4d bc 1a ff 93 3c 4c 1e 71 3c d4 4d fc 3b
       -0.012512962 0.018065978 0.014716696 0.0076997075
000120 36 c9 09 bc ec 20 3d 3c 97 b9 b0 bb 2b 1e 08 3c
       -0.008409789 0.011543494 -0.005393218 0.008307974
000130 8a 0b a3 bc 95 9e ad 3c f5 ea b7 3c 88 13 c0 3c
       -0.019902963 0.021193782 0.022450903 0.023446813
000140 43 ed bf 39 68 fe 9f 3a 3d 8b 9f 3c 69 77 9e bc
       0.00036607133 0.0012206556 0.019475574 -0.019344049
000150 09 81 33 bc 77 db 8e 3c cb 2f 84 bb d6 b3 3e bc
       -0.010956057 0.017438633 -0.0040340177 -0.011639556
000160 e4 d6 3f bb a7 be 50 bc 3a bf 87 bc 01 fc ab 3c
       -0.0029272372 -0.012740768 -0.016570676 0.020994188
000170 88 1f a7 bc 6a db a6 bc d6 6d 99 3b 61 8d 2a 3c
       -0.020400777 -0.020368297 0.004682283 0.010409684
000180 7a bb 52 3b cd be 6e 3c ee 33 29 bc 28 98 cd 3b
       0.0032155202 0.014571858 -0.010327322 0.006274242
000190 62 6a 3e bb 0b 55 20 bc cd 9d ac bc 34 25 59 3c
       -0.0029055108 -0.009785901 -0.021071339 0.013253499
0001a0 21 43 d1 bb ca 0a 7e 3c 11 b7 48 bb 01 d2 b9 3c
       -0.006386176 0.015505502 -0.0030626694 0.022683145
0001b0 fc 55 53 bb bc c7 26 3c 7d 57 70 bc 64 a1 00 bc
       -0.0032247296 0.010179456 -0.014669296 -0.0078509785
0001c0 ba c4 1a 3c 0b 25 96 bc b0 c5 85 3c c2 3a af 3c
       0.009446317 -0.01832821 0.016329616 0.021390323
0001d0 92 31 6e bc 51 cc 5a bc 5e 8b 18 bc 72 7d 59 bc
       -0.014538186 -0.013354377 -0.0093105715 -0.013274537
0001e0 01 7d d9 3b 73 80 e2 3b ad 4b 35 bc 30 eb 12 3c
       0.006637216 0.006912285 -0.011065406 0.008967206
0001f0 2a 97 5a 3c 49 7f 38 bc 42 a2 6a 3b 8f ca 4e bc
       0.013341704 -0.011260816 0.003580228 -0.012621536
000200 0e dd 0d 3c 72 c1 c0 3c 59 14 da 3c 63 4c b9 3c
       0.008658661 0.023529742 0.02662103 0.022619432
000210 94 81 24 bc a1 dd aa bb 03 5f 6b bc b8 1a 2b 3c
       -0.010040659 -0.0052144085 -0.014365914 0.010443382
000220 df aa 60 3c bc a9 6f bc f9 f4 a8 3c 63 58 9a 3c
       0.013712614 -0.01462787 0.020624625 0.018840974
000230 ba 81 c0 bb 2d 6b 22 bb 84 b8 6e bc 44 34 c2 3c
       -0.0058748396 -0.002478312 -0.014570359 0.023706563
000240 7e d4 a5 3c 26 76 76 bc eb 71 60 3c 9b 72 ff 3b
       0.020242926 -0.015042817 0.013699035 0.0077956445
000250 26 9b 8c 3c c7 9a b0 3b 3e 43 11 ba 13 e8 9d bc
       0.017163824 0.0053895446 -0.0005541331 -0.0192757
000260 44 08 b3 3c 5a 3c a4 3c ae 4f b3 3c 51 4b a2 3c
       0.021854527 0.02004831 0.02188858 0.019811304
000270 22 15 1a bb 9d ae 92 3c ac 16 ac 3b 25 e0 b5 3b
       -0.0023511131 0.017905528 0.005251726 0.0055504018
000280 70 61 ba 3b 5e 7a 03 3d cf 77 06 3d 61 94 a6 3b
       0.005687885 0.03209912 0.032829102 0.005083606
000290 df a7 52 3c ce dd 03 3c ce f6 23 bc fb 2b e5 3a
       0.012857406 0.008048488 -0.010007573 0.0017484421
0002a0 c3 e6 b2 3b 50 0b 92 3c 59 ae 3f bc 79 6d 86 3c
       0.005459638 0.01782766 -0.011699283 0.016409623
0002b0 8e c3 80 3c 33 90 d5 3b 0e 36 8b 3c db 88 94 3c
       0.015718248 0.006517434 0.016993549 0.018131664
0002c0 08 5a 16 3d 4f aa 05 3d 69 c5 df 39 1e 37 60 3c
       0.036706954 0.032633122 0.00042680957 0.013685016
0002d0 93 1c d4 bb 26 06 fb 3c 01 7e 81 3b 35 3d 06 3d
       -0.006473133 0.03064258 0.0039517884 0.032773215
0002e0 8e 5d 9c 3c db 6f 67 3c ee 99 54 3b 0a 43 9f bb
       0.01908758 0.0141257895 0.0032440382 -0.0048602866
0002f0 13 0a 41 bc 0d d6 d0 bb 31 d5 1f 3c 3a 7d f5 3c
       -0.011782187 -0.006373173 0.009755419 0.02996694
000300 ba f7 21 3b d7 2d 1a bc a4 b5 23 3c 1b 9e b6 3b
       0.0024714307 -0.009410343 0.009992037 0.005573047
000310 44 10 37 bb 1e 8d e1 bb 9a 6e a3 3c b7 73 98 3c
       -0.002793328 -0.0068832776 0.0199502 0.018609865
000320 00 ce 25 bc 09 93 77 3b 54 35 66 3c c6 91 ad ba
       -0.010119915 0.0037776849 0.0140508 -0.0013242296
000330 c2 c7 f2 3a f4 23 a4 bc 2e 44 d2 bb 1d a6 93 3c
       0.0018522667 -0.020036675 -0.006416819 0.018023545
000340 35 bd cc 3b bd 52 a4 bc 61 b7 1d 3c 7f a3 80 3c
       0.006248141 -0.020058984 0.0096262405 0.015702961
000350 b0 d1 83 bb 39 95 69 3c bc 05 74 3c f0 77 57 bc
       -0.0040227994 0.014256769 0.014893945 -0.013151154
000360 5c 31 d5 bb 75 a8 ae 3c f9 9f d1 ba 13 b3 31 3c
       -0.0065061282 0.021320561 -0.001599311 0.010845917
000370 53 ef f4 3b ee c0 a4 3b e6 79 35 3c 9e 95 65 bc
       0.0074748187 0.005027882 0.011076426 -0.014012722
000380 3f 7a 96 bc 91 f8 8a 3c 71 b6 1c 39 6a 49 41 bc
       -0.018368838 0.016964229 0.00014945284 -0.011797288
000390 b2 29 89 bc 51 fe 8c bc a0 b8 87 3c 07 78 84 3c
       -0.016743515 -0.017211111 0.016567528 0.016170515
0003a0 61 6c 63 3c bf 20 93 3c b7 ef 5e 3b 45 6a 4a 3c
       0.01388082 0.01795995 0.0034017393 0.012354438
0003b0 8f e3 49 3c f1 87 4f 3c d2 c0 8b 3c ac d5 70 3c
       0.012322321 0.012666688 0.017059717 0.014699381
0003c0 33 a5 8a 3c 9c 1a 81 bc 43 fd 52 3b 59 ca 2f 3c
       0.016924476 -0.015759759 0.0032194413 0.010729396
0003d0 55 f2 48 3c e3 cc 02 ba a7 c5 4d 3c 91 fe 0e 3b
       0.012264808 -0.0004989637 0.012559331 0.0021819214
0003e0 73 e0 0d 3b b6 96 10 bc f9 cc b4 3c b9 6b 60 3c
       0.0021648675 -0.008824995 0.022070395 0.013697558
0003f0 bf c2 63 3c 39 46 e2 bb e6 1b a9 3b a4 40 3d bc
       0.013901412 -0.006905344 0.0051607965 -0.011551056

reduce2.bias f4 [16]
000000 71 bb e3 3b 17 93 84 3b e7 ec a0 bc 2b 45 56 3b
       0.006949835 0.004045855 -0.019644214 0.0032695036
000010 86 ba 91 3c 1b 1c 87 3c 45 20 b5 bc c8 6c bc bc
       0.017789137 0.016492894 -0.022110114 -0.02300109
000020 aa 2c a5 bb 19 83 8a bc 77 29 0f bc a0 c3 43 bc
       -0.0050407248 -0.016908215 -0.008737913 -0.011948496
000030 10 14 0b 3c 92 26 80 bb 34 60 9a 3c 8e 5a 4c bc
       0.00848867 -0.003910848 0.018844701 -0.012472762

nonreduce2_1.weight f4 [16, 16, 3, 3, 3]
000000 fa 32 12 3d d2 be 05 bd 5a 41 b5 3c f5 a3 2b 3c
       0.035693146 -0.032652684 0.022125889 0.010476102
000010 f0 2f 78 ba fa f1 19 bc dc 1c c9 3c 32 73 9c bc
       -0.00094675925 -0.009396071 0.024549894 -0.019097898
000020 02 c6 a3 3c 66 e1 80 bc 7e a7 0a 3d 3c 64 05 bd
       0.019991878 -0.015732478 0.03385114 -0.032566294
000030 2b 14 91 bc a2 5d 3e bc 63 d8 25 bd 1c ad 17 3d
       -0.017709812 -0.0116190035 -0.040489566 0.037030324
000040 4e 09 0e bd fc fe 16 bc 3b 75 44 3d 9f dd 14 bd
       -0.034676842 -0.009216066 0.047963362 -0.036344167
000050 06 cc ba bc 1a 33 0a 3d cc 95 8f bc 62 ac 77 bc
       -0.022802364 0.03374014 -0.017527483 -0.015116783
000060 2c 61 12 3d 89 c0 5e bb fa 07 a9 bc a5 11 2c 3d
       0.0357372 -0.0033989272 -0.020633686 0.042009015
000070 f1 7d 20 3c f5 96 2b bd 8c 99 2f bd 16 94 9f bc
       0.009795652 -0.04189201 -0.042871043 -0.019479793
000080 83 b1 03 bd db cf dc 3c d4 fe 61 bb b7 71 ab ba
       -0.03215171 0.026954582 -0.0034484165 -0.0013080154
000090 f2 86 a9 3c 80 97 60 bb 97 c0 d8 3c 11 64 25 3d
       0.02069423 -0.0034269989 0.026459021 0.040378634
0000a0 f3 ee 10 bd f1 69 26 bd 68 47 3b bd 04 3a 30 bd
       -0.03538413 -0.040628377 -0.045722395 -0.043024078
0000b0 94 7f 5b 3c 72 1b fd b8 d8 90 d0 3c 40 b9 cb bc
       0.013397116 -0.00012069092 0.025459692 -0.024868608
0000c0 7b 83 62 3c 74 89 34 bc f1 55 27 3d 32 be e9 3c
       0.013825293 -0.0110190995 0.040853444 0.028533075
0000d0 3a ba 18 3d b8 b1 40 3d 53 a1 a3 3c e8 ec aa 3c
       0.037286974 0.047044486 0.019974386 0.020864919
0000e0 ea 34 b1 bc 30 c1 cc 3c 13 86 44 3d 6c 84 05 3d
       -0.021631677 0.024994463 0.047979426 0.03259699
0000f0 fa c2 42 3d e6 30 27 3c 1b 53 a1 3c da f2 de bc
       0.047549225 0.010204529 0.019692948 -0.02721541
000100 c6 72 2b bd 68 73 35 bd 52 29 0b bd bb 1e df bc
       -0.041857503 -0.044299513 -0.033974953 -0.027236333
000110 63 96 ff bc e3 fc 7b 3b 95 c7 04 3d af cf fd 3c
       -0.03119964 0.0038450293 0.0324169 0.03098282
000120 3e ed 16 3d 9f 95 9a bc 00 75 ac 3c 3c c5 34 bd
       0.036847346 -0.018870173 0.021051884 -0.04413341
000130 f4 20 30 3d ee 2f ed bb bf c9 a6 3a 17 1f 34 3c
       0.043000177 -0.0072383797 0.001272492 0.0109937405
000140 f4 61 3c 3d bd 42 9d 3a 82 72 6a 3c c0 5b 45 bd
       0.045991853 0.0011998039 0.014309527 -0.048183203
000150 68 9e 09 3c 6a 33 ba bc 2c 8d 7a 3c f7 78 1f bc
       0.008399583 -0.022729594 0.015292447 -0.00973343
000160 f8 cc 92 bc 4e 80 de 3b bd 82 0d 3c 65 ae dd bb
       -0.017920002 0.0067901975 0.0086371275 -0.006765174
000170 ba 2b 92 3c f6 20 80 3c 08 fb 24 3d 7b 43 15 3d
       0.017843116 0.015640717 0.040278465 0.036441308
000180 95 f0 28 3d dd ae 15 bd 8c 15 da 3b 01 0d 94 bc
       0.041245062 -0.036543716 0.0066554006 -0.018072607
000190 a6 56 cb 3c 3b d5 31 3d 18 3e 04 3c a1 43 bc bc
       0.02482159 0.043416243 0.008071445 -0.022981467
0001a0 05 3d 0e bd fb f8 4b 3d ad e1 ed bb d7 ef dd bb
       -0.03472616 0.049797993 -0.0072595687 -0.006772976
0001b0 7a 90 1d 3c 9f b0 de 3c a2 e3 13 bd 47 cc 94 3b
       0.009616965 0.027183829 -0.03610576 0.0045409533
0001c0 91 5d f0 bc 88 bf 8f bc ab dd 80 3c c0 eb 99 3c
       -0.029341491 -0.017547384 0.0157307 0.018789172
0001d0 ad 7b c3 bc d7 d6 4a bc 86 62 46 3d 6d 27 17 3d
       -0.023862684 -0.012380323 0.048433803 0.036902834
0001e0 d9 df 1e bd 72 70 f7 bc 07 87 93 bb d6 25 83 bc
       -0.038787697 -0.030204985 -0.0045021805 -0.016009253
0001f0 47 b8 1f bd 3e ee 3d 3c 0c 20 37 bd c3 d8 bf 3c
       -0.0389941 0.011592446 -0.044708297 0.02341879
000200 09 8c 42 3b 75 25 2f bd ef 0a 84 bc 6c 7d b1 3c
       0.0029685518 -0.04276033 -0.016118495 0.021666251
000210 83 00 00 3d 93 0e b6 bc 8d f9 80 3c 15 db c2 3c
       0.031250488 -0.022223746 0.015743995 0.023786107
000220 a1 b0 2a 3d 17 a8 8a 3c c0 ec e1 39 c8 88 66 bc
       0.041672353 0.016925855 0.00043091737 -0.014070697
000230 65 2e 73 3c c8 88 7c 3a 92 bf 12 bd ec b7 ea ba
       0.014842604 0.0009633419 -0.035827227 -0.0017907596
000240 0e 4e 2a bc 3f 58 c9 3c 6b 2b 23 bd 38 b0 10 bd
       -0.010394586 0.024578212 -0.03983633 -0.035324305
000250 ca 9f 01 3d db 0f 85 bc bc fa df bb 44 bc 39 bd
       0.031646527 -0.016242912 -0.00683531 -0.04534556
000260 c5 61 b1 3b 25 21 0c 3c 90 87 20 bd 85 b5 30 bd
       0.0054132664 0.008552824 -0.039191782 -0.04314186
000270 fd 8a 53 bc be d6 0a bd e9 4f 59 3c df 19 00 bd
       -0.012911555 -0.0338962 0.013263681 -0.031274673
000280 21 73 21 bd be d1 ae bc 51 77 99 3b e1 9c 24 bd
       -0.039416436 -0.021340247 0.004683413 -0.040188674
000290 ef 3f 29 bb b9 38 2e bd c8 c2 58 3b 2e de 91 bc
       -0.002582546 -0.042534564 0.0033075083 -0.017806139
0002a0 67 62 17 3c 08 e8 17 bd bf 38 09 bd a7 e5 37 3d
       0.00923977 -0.037086517 -0.033501383 0.044896748
0002b0 55 f7 22 bd 92 41 a2 3c f4 73 09 3c a3 14 01 3d
       -0.039786655 0.019806657 0.008389462 0.03151382
0002c0 b9 14 c3 bc 9d 58 1a bd d7 fc 04 3d c4 be dd ba
       -0.023813592 -0.037682164 0.03246769 -0.0016917815
0002d0 39 8c 06 3d 45 58 ef bb ea e7 0c 3b 36 fc f2 bc
       0.03284857 -0.0073042237 0.0021500536 -0.02966128
0002e0 1b 8a 3c bb 66 1d ac bc 13 2d 12 3d 0a dc 04 3d
       -0.002876884 -0.021010112 0.035687517 0.032436408
0002f0 33 55 2b 3d ab d8 cf ba 4a 68 c7 bc 0e e9 34 bb
       0.0418293 -0.0015857419 -0.024341721 -0.0027604732
000300 df f1 34 3d e9 14 8a 3c d7 d6 01 bd ff ff 65 39
       0.04417598 0.016855674 -0.031699028 0.00021934508
000310 ec 35 26 3d 14 43 35 3c 8b 86 e2 3c 22 61 0b bd
       0.040578768 0.011063356 0.027652046 -0.03402818
000320 71 0f 17 bd e3 df 55 3c 84 f4 11 bd af 47 03 bd
       -0.03687996 0.013053867 -0.03563358 -0.032050785
000330 e7 fa e0 bc 37 88 e0 3c 4b c5 1c 3d 8a c3 cf 3b
       -0.02746339 0.027408702 0.03827409 0.0063404487
000340 9e e7 a1 bc 39 72 e3 3b 62 d3 55 3c 8f 8f 2f 3d
       -0.019763764 0.0069411066 0.013050886 0.042861518
000350 52 e5 2f bc cf f5 27 3b 7d dd 83 3c 89 cf c7 bc
       -0.010735827 0.002562869 0.016096825 -0.024390953
000360 fd 26 0a 3c b7 8e 31 3c f4 29 1c 3d 08 32 83 39
       0.008432147 0.0108372485 0.038125947 0.00025023543
000370 71 21 7b 3b 12 e2 bf 3c 9b ea 35 bd 28 1b c4 3b
       0.0038319493 0.023423228 -0.04441319 0.0059846826
000380 dc 15 03 3c 77 c6 fc bc fe 6a 05 3d 2c 66 1e 3d
       0.008000817 -0.030856354 0.03257274 0.038671657
000390 d7 c6 93 3c 9c 0d 24 bd 7c d5 06 3c b1 a2 e8 bb
       0.01803915 -0.04005204 0.00822961 -0.0070994725
0003a0 ba 79 d4 3c d1 dd 9d bc 6d 6a 3a bb 34 be 01 3d
       0.02593695 -0.01927081 -0.0028444782 0.031675532
0003b0 be dc d2 3c 11 4b 03 3d 43 e9 38 bd 2d 5e d4 3b
       0.025740024 0.03205401 -0.04514433 0.006480953
0003c0 d7 53 95 bc bb 5f 4d 3c 67 22 da bc 83 e3 26 3c
       -0.018228455 0.012535031 -0.026627732 0.010186079
0003d0 0d 66 d2 bc ed 01 65 3c 1a da 87 bc e4 67 b7 3c
       -0.025683427 0.01397751 -0.016583491 0.022388406
0003e0 7f 74 c5 3c ed db 9a bc 9e 65 4d 3c 56 88 94 3c
       0.024103401 -0.018903697 0.012536434 0.018131416
0003f0 24 33 46 bd 99 c2 3e 3b f2 51 84 bc 02 ba ff 3c
       -0.048388615 0.0029107688 -0.016152356 0.031216625

nonreduce2_1.bias f4 [16]
000000 c6 2b 35 bc dd 1a 28 bd 59 b8 c3 3c 4f 8f a0 bc
       -0.0110578 -0.041041244 0.023891615 -0.019599585
000010 8c 81 e2 bb 7c 5a 91 bc 19 db c6 bc 0d a7 a9 3c
       -0.006912416 -0.017743342 -0.024274396 0.020709539
000020 4f f2 c4 bc 2e 07 e0 bb d7 6e 3f 3d 73 c8 a9 bc
       -0.024041323 -0.0068367934 0.046736564 -0.020725464
000030 7c ad dc 3c 4d 85 a7 bb 4e ff 31 bd eb 47 60 3c
       0.026938193 -0.0051123262 -0.04345637 0.013689022
