02_deep3D/model/model_iw.pt (torch, 739878 bytes, 25 tensors)

reduce1.weight f4 [64, 1, 4, 4, 4]
-0.062867574 0.08531904 0.037829258 -0.082706325 0.0010511379 0.092257835 -0.02524886 -0.01113247
-0.015120735 0.10524378 -0.10018727 0.04593752 -0.09948322 0.086449765 -0.05622353 0.07838404
-0.06767733 0.015013995 0.030684603 -0.053792845 0.05674608 -0.03604781 -0.065620646 0.025375932
0.11685479 0.034135528 -0.08393866 -0.10772371 -0.11728155 -0.11326548 0.09408738 0.11453128
-0.12945852 -0.10335505 0.052612785 0.050226074 0.08865744 0.11819963 0.09302283 -0.052739974
0.00043980722 -0.0502049 0.08672017 0.051421266 -0.07133407 -0.09164253 -0.06786167 -0.024936158
0.059380516 -0.026337197 -0.114147075 0.045921013 -0.07524153 0.013330442 0.018934874 0.0042691445
-0.088492274 0.08492312 0.07629512 -0.034815818 -0.10806354 0.07381801 0.053907603 0.027267426
-0.011069621 0.11436325 0.0009048414 -0.07783719 0.003079486 0.06076183 0.060789935 -0.09454895
-0.07373223 -0.07537619 -0.08689353 -0.10815612 -0.06906243 0.0061837495 0.07466019 -0.051608503
0.05668703 0.12254376 -0.049642216 -0.0324208 -0.0031403955 -0.090392366 6.867342e-05 0.112473086
0.055655044 -0.063295394 -0.047526285 -0.076142564 -0.024306929 0.12310388 0.09863847 -0.015030853
0.12169239 0.08911423 0.0640213 -0.043323547 0.11933918 0.0550836 0.06129666 -0.040333617
0.06507069 0.053664263 0.10259057 -0.0029286644 0.118913114 0.11593844 0.09119397 0.116191894
0.12356388 -0.0012237227 0.014669108 -0.04023467 0.0631293 -0.063389756 -0.0061896173 0.071178444
0.014082738 -0.11922066 0.060987864 -0.057284586 0.033714242 0.02009172 0.08754 -0.074545845
0.01317925 -0.04007172 0.08367808 -0.026762398 0.07757744 -0.041203357 -0.058261517 -0.12360872
0.003937863 0.08133994 0.05639335 -0.11433588 -0.0005158787 -0.07420459 0.026312128 -0.021949168
-0.065808736 -0.033684224 -0.09556694 -0.040173117 -0.091381885 -0.11536954 0.06280943 0.029739417
0.022096599 0.11192775 0.073627196 0.049939338 0.089087404 0.06582899 -0.08639119 -0.029334417
-0.11235209 0.028267043 0.07194658 -0.055673268 -0.11387686 0.06700801 -0.09009196 0.007839141
0.11613474 0.07204728 0.10676007 0.1158808 0.054451883 -0.05474143 -0.07445498 -0.092373505
0.0029782208 0.08840129 0.051322073 0.029941015 -0.115219355 0.07846324 0.017475285 0.10303345
-0.022379594 -0.06436701 0.0514119 0.11462785 -0.049415816 0.067419894 0.095633976 0.08825804
-0.10755936 0.03772063 -0.08566623 0.09137329 0.051438257 0.08340769 0.022064498 -0.033247042
0.06504278 0.09946698 -0.061098244 -0.015198384 -0.12231256 0.095983066 -0.115049064 0.051656324
-0.10746519 0.11597183 -0.01638752 0.04192733 -0.09938371 0.10465878 -0.03281915 -0.12267792
-0.0098619955 0.03060874 -0.109712146 0.0079052225 0.039220065 0.08130913 0.059963368 0.11639613
-0.08525148 -0.08344486 -0.010479966 -0.106630124 -0.111356415 0.04402956 -0.07304483 0.06418742
0.103731245 0.0657947 -0.034894235 0.026050044 -0.03185996 0.06567323 0.10350799 0.0036876276
0.017048132 0.10695535 0.045265734 0.04580887 0.0798777 0.01653902 0.090083756 -0.048124608
0.035871584 -0.11724247 0.070480384 0.054991197 0.0281942 -0.04085793 0.030561842 0.045223765
00000000: b7c0 80bd c0bb ae3d daf2 1a3d ef61 a9bd
00000010: 56c6 893a adf1 bc3d b2d6 cebc f764 36bc
00000020: f6bc 77bc 0d8a d73d fc2e cdbd fb28 3c3d
00000030: dcbd cbbd 930c b13d a54a 66bd d087 a03d
00000040: 699a 8abd 42fd 753c 475e fb3c e355 5cbd
00000050: 946e 683d dea6 13bd 1e64 86bd 30e1 cf3c
00000060: 9051 ef3d b2d1 0b3d 08e8 abbd 409e dcbd
00000070: 4f31 f0bd bbf7 e7bd e2b0 c03d 608f ea3d
00000080: c690 04be d0ab d3bd 8180 573d dbb9 4d3d
00000090: 0892 b53d a612 f23d c182 be3d df05 58bd
000000a0: ed95 e639 a7a3 4dbd 589a b13d 1b9f 523d
000000b0: 9917 92bd 14af bbbd 0ffb 8abd ea46 ccbc
000000c0: fc38 733d 1bc1 d7bc f1c5 e9bd ac17 3c3d
000000d0: 3b18 9abd ed67 5a3c 4f1d 9b3c 2ee4 8b3b
000000e0: 703b b5bd 2cec ad3d 9e40 9c3d 089b 0ebd
000000f0: 6b50 ddbd e62d 973d 38ce 5c3d f05f df3c
00000100: 5b5d 35bc 4837 ea3d e132 6d3a 1b69 9fbd
00000110: 34d1 493b 66e1 783d defe 783d e1a2 c1bd
00000120: ec00 97bd d55e 9abd 3cf5 b1bd f580 ddbd
00000130: 9a70 8dbd 0da1 ca3b 71e7 983d 7063 53bd
00000140: a930 683d 39f8 fa3d a355 4bbd accb 04bd
00000150: 18cf 4dbb a21f b9bd c304 9038 4a58 e63d
00000160: 8bf6 633d 04a1 81bd ecaa 42bd a2f0 9bbd
00000170: 531f c7bc e31d fc3d f702 ca3d f843 76bc
00000180: dc39 f93d 8581 b63d 991d 833d 0874 31bd
00000190: 1a68 f43d 579f 613d 3512 7b3d dd34 25bd
000001a0: c843 853d 0fcf 5b3d 011b d23d d6ee 3fbb
000001b0: b888 f33d 2271 ed3d e7c3 ba3d 04f6 ed3d
000001c0: 0f0f fd3d 5265 a0ba b356 703c 1ccd 24bd
000001d0: ef49 813d 7dd2 81bd 46d2 cabb 01c6 913d
000001e0: 49bb 663c f629 f4bd 69ce 793d 3ea3 6abd
000001f0: f217 0a3d 6497 a43c 2c48 b33d 7eab 98bd
00000200: c8ed 573c 3e22 24bd 6a5f ab3d d13c dbbc
00000210: ece0 9e3d dac4 28bd a1a3 6ebd 9226 fdbd
00000220: 3009 813b 8e95 a63d b7fc 663d ee28 eabd
00000230: 093c 07ba 93f8 97bd 888c d73c bece b3bc
00000240: bbc6 86bd 78f8 09bd 9ab8 c3bd 918c 24bd
00000250: 6d26 bbbd de46 ecbd 3ba2 803d 14a0 f33c
00000260: ed03 b53c 603a e53d dbc9 963d 318d 4c3d
00000270: 7573 b63d 59d1 863d dded b0bd bb4e f0bc
00000280: da18 e6bd 4990 e73c bb58 933d a709 64bd
00000290: 4538 e9bd 7f3b 893d 2282 b8bd be6f 003c
000002a0: 0dd8 ed3d 868d 933d 06a5 da3d ea52 ed3d
000002b0: f008 5f3d 8d38 60bd da7b 98bd 522e bdbd
000002c0: 412e 433b bc0b b53d 1837 523d dc46 f53c
000002d0: 20f8 ebbd 56b1 a03d 5428 8f3c 3403 d33d
000002e0: 6955 b7bc dad2 83bd 4995 523d 02c2 ea3d
000002f0: 3d68 4abd 7113 8a3d bfdb c33d a2c0 b43d
00000300: 1548 dcbd f380 1a3d c771 afbd eb21 bb3d
00000310: ecb0 523d a7d1 aa3d 9bc0 b43c 0d2e 08bd
00000320: 2635 853d 58b5 cb3d 2742 7abd a502 79bc
00000330: 027f fabd c592 c43d d89e ebbd 9595 533d
00000340: b616 dcbd a482 ed3d 1f3f 86bc febb 2b3d
00000350: b089 cbbd 5857 d63d 5f6d 06bd 903e fbbd
00000360: 3594 21bc 2ebf fa3c c3b0 e0bd e884 013c
00000370: 38a5 203d 6785 a63d 269c 753d 1861 ee3d
00000380: 5498 aebd 24e5 aabd 2ab4 2bbc e560 dabd
00000390: d50e e4bd 5758 343d 8798 95bd b274 833d
000003a0: 0c71 d43d 5fbf 863d 42ed 0ebd e766 d53c
000003b0: 977f 02bd b07f 863d fffb d33d 20ac 713b
000003c0: 86a8 8b3c 680b db3d 9068 393d 15a2 3b3d
000003d0: eb96 a33d d77c 873c d57d b83d 4f1e 45bd
000003e0: 15ee 123d d21c f0bd 0558 903d 733e 613d
000003f0: 86f7 e63c a55a 27bd d45c fa3c 8e3c 393d

reduce1.bias f4 [64]
-0.07821387 0.10427472 -0.11255343 0.055551007 0.047945764 -0.09654245 -0.07094035 0.057787266
0.022151597 0.10686068 0.0881603 0.07106075 0.09001317 -0.082761295 0.00784829 -0.11110506
0.019090038 -0.03205878 -0.11453683 -0.027255524 0.10919017 0.026825609 0.027711483 0.016757732
0.08410332 -0.023864904 0.09276273 0.11400867 -0.08783499 0.05877207 -0.1117274 0.042446952
0.09473023 0.09145525 -0.06645902 0.11309831 -0.0045444355 0.08571094 -0.10472273 0.018147692
0.12205622 0.10306116 0.042771704 0.06808765 -0.05219384 -0.10288362 0.12383532 0.00779403
-0.06532974 -0.04627581 -0.01693586 0.07884521 -0.09032434 -0.047266833 0.08380445 -0.09463078
0.06315114 -0.00897567 0.05814695 -0.015819062 -0.04458016 0.11724069 0.10703594 -0.05536911
00000000: 982e a0bd fc8d d53d 6a82 e6bd 7489 633d
00000010: c762 443d 0cb8 c5bd 2d49 91bd 57b2 6c3d
00000020: 4477 b53c c6d9 da3d 638d b43d 4c88 913d
00000030: d358 b83d c17e a9bd 1d96 003c 0d8b e3bd
00000040: b662 9c3c 1150 03bd 4992 eabd fa46 dfbc
00000050: 199f df3d 61c1 db3c 3103 e33c 8347 893c
00000060: 5d3e ac3d 5580 c3bc 63fa bd3d 617d e93d
00000070: d5e2 b3bd fbba 703d 56d1 e4bd dbdc 2d3d
00000080: ec01 c23d e44c bb3d ab1b 88bd 16a0 e73d
00000090: 7de9 94bb 3889 af3d df78 d6bd 78aa 943c
000000a0: 9df8 f93d bb11 d33d 6231 2f3d 8a71 8b3d
000000b0: 35c9 55bd a6b4 d2bd 5f9d fd3d 1065 ff3b
000000c0: 99cb 85bd b48b 3dbd 13bd 8abc 9979 a13d
000000d0: f8fb b8bd de9a 41bd aba1 ab3d c8cd c1bd
000000e0: 6355 813d b00e 13bc 7f2b 6e3d fa96 81bc
000000f0: b099 36bd e31b f03d a935 db3d b8ca 62bd

nonreduce1_1.weight f4 [32, 64, 3, 3, 3]
0.00014086947 -0.007348717 -0.016102944 0.006245411 0.025365658 0.0069296584 -0.018134495 0.012157854
-0.021510884 -0.011944403 -0.00033683208 0.0141133005 0.00753692 0.020355757 -0.0020162317 0.010275252
0.00978358 0.01461787 -0.021245724 -0.021907678 0.016516073 -0.02023634 0.02482052 -0.011451806
-0.0045337165 0.0036539845 -0.0029687723 0.016721215 0.01986861 0.009388893 0.020969944 -0.00020070035
0.020360066 -0.0027905984 0.005801125 -0.022551803 -0.0070208493 -0.0074164323 -0.013949442 0.0028797027
-0.012644769 -0.0030929344 -0.0020560543 0.0039716135 0.010590438 -0.014581247 -0.013355389 0.00067895727
-0.013237701 -0.000803805 0.014069895 0.012736916 -0.021199288 0.010294284 -0.006965546 0.0038167497
0.011958144 -0.017123919 0.014654936 -0.0072859554 0.004169041 -0.0034777708 -0.00090900774 -0.016312657
-0.017476065 -0.00739543 0.010097761 -0.021018973 0.01786095 -0.0010007713 -0.010451505 0.023312172
-0.016951222 0.022104595 -0.0083846385 0.0012706126 0.012206172 0.0047890213 0.019960288 -0.021325165
0.017474422 0.014236061 -0.010890202 -0.019948464 -0.003776953 0.0054996014 0.00963204 0.022174707
0.022643147 -0.0014006405 0.00286207 -0.0028331713 -0.0046965834 -0.005441245 0.009342091 0.008921224
0.011327527 0.0219634 -0.0005522926 0.019277224 -0.023425873 -0.0013584039 -0.0076428102 0.009762115
0.016258983 -0.015993686 0.017566336 -0.0004609407 0.0053101303 0.01352012 0.020505296 0.0062275534
0.019155506 0.00018722442 0.011274374 0.009792445 0.020760186 -0.017011944 -0.0032399655 -0.010375234
0.020830894 -0.020892158 0.022043306 -0.014375767 0.02313396 0.0027105233 -0.004508493 -0.007973712
0.020368999 0.0031750945 0.012577966 0.020393943 0.02133677 -0.011383634 0.01892499 -0.0059757684
0.0016445186 0.01647142 0.018730288 0.012924434 -0.020056523 -0.020696493 0.008281559 0.012797679
0.01483197 -0.007908729 0.0075211003 0.0064219492 -0.00893079 0.014228586 -0.018029228 -0.022054892
-0.0022995165 -0.010976279 -0.0029420587 -0.00551497 -0.0034576443 -0.014466268 0.0047798925 -0.016125308
0.012904522 0.014397638 0.010540046 -0.008656285 0.00695769 0.0076712053 -0.0125249745 -0.021356057
0.016727904 -0.016018381 0.023528581 -0.00078486884 -0.024011564 0.013560676 -0.00096441817 0.0071163
0.0032171533 0.02600764 0.01478244 0.011969364 0.011152015 -0.022285828 0.017812632 -0.000449745
-0.004490885 0.0031191444 0.023538327 -0.005586764 -0.014777535 0.017230045 0.008125716 -0.01714283
0.0076462612 0.01606369 0.001738103 0.021285545 0.008763448 -0.0110681495 0.023512578 0.020415291
0.008316176 0.021100951 0.0069391513 -0.012514951 0.0067151287 0.0007840405 -0.022391511 0.019902805
0.0069584064 0.006120055 0.007143946 -0.004891649 0.007537085 0.012742795 0.024053706 -0.012707386
0.012119756 -0.020101946 -0.00046965797 0.0044314833 0.023823258 0.015835388 -0.013123253 -0.0059484756
0.0073680035 -0.016277604 -0.007287296 -0.012889696 0.010209202 -0.0069329673 -0.014718026 -0.01830334
-0.015863365 0.00500221 0.009320143 0.01983375 -0.015917772 -0.0070074676 0.0027801613 0.0023279646
-0.00016489491 0.0034437154 -0.012926841 -0.010932288 0.023553027 -0.008721434 0.022300703 -0.012849592
0.00757954 0.019785844 0.014943873 0.0044786124 -0.022724748 -0.024130516 -0.0019332214 0.011996225
00000000: 5cb6 1339 82cd f0bb 52ea 83bc 4ea6 cc3b
00000010: a4cb cf3c 3012 e33b cb8e 94bc bc31 473c
00000020: 9837 b0bc 75b2 43bc d698 b0b9 793b 673c
00000030: 44f8 f63b 1ec1 a63c c122 04bb 8859 283c
00000040: 4f4b 203c ca7f 6f3c 830b aebc bb77 b3bc
00000050: b74c 873c aec6 a5bc 6754 cb3c 5ba0 3bbc
00000060: 928f 94bb b077 6f3b bc8f 42bb eefa 883c
00000070: 7fc3 a23c dfd3 193c 29c9 ab3c 1773 52b9
00000080: 27ca a63c 79e2 36bb 5d17 be3b 8fbe b8bc
00000090: 270f e6bb 8b05 f3bb 338c 64bc 65b9 3c3b
000000a0: 012c 4fbc d4b2 4abb debe 06bb 4f24 823b
000000b0: 8483 2d3c 2fe6 6ebc 90d0 5abc 0dfc 313a
000000c0: f1e2 58bc 71b6 52ba 6b85 663c 7fae 503c
000000d0: 21aa adbc 5ba9 283c 3c3f e4bb 6f22 7a3b
000000e0: 17ec 433c 7647 8cbc 421b 703c 06bf eebb
000000f0: 739c 883b 50eb 63bb 7a4a 6eba 1fa2 85bc
00000100: f729 8fbc 5d55 f2bb 1471 253c fb2f acbc
00000110: 2151 923c 502c 83ba ca3c 2bbc 2bf9 be3c
00000120: 4add 8abc b214 b53c b95f 09bc af8a a63a
00000130: 65fc 473c 39ed 9c3b c283 a33c 1db2 aebc
00000140: 8526 8f3c 5e3e 693c d16c 32bc f66a a3bc
00000150: c286 77bb 0036 b43b b4cf 1d3c bba7 b53c
00000160: 1f7e b93c b295 b7ba 9191 3b3b baac 39bb
00000170: cce5 99bb 794c b2bb 920f 193c 532a 123c
00000180: 1897 393c 97ec b33c bbc7 10ba 45eb 9d3c
00000190: 9ee7 bfbc 790c b2ba 8a70 fabb 47f1 1f3c
000001a0: 8f31 853c 3105 83bc 47e7 8f3c 6aaa f1b9
000001b0: 9a00 ae3b 7e83 5d3c b9fa a73c 8110 cc3b
000001c0: 02ec 9c3c ac51 4439 27b8 383c 7e70 203c
000001d0: 4411 aa3c a25c 8bbc 9a55 54bb e3fc 29bc
000001e0: 8da5 aa3c 0826 abbc 2a94 b43c 5688 6bbc
000001f0: 6e83 bd3c 09a3 313b fbbb 93bb 2ca4 02bc
00000200: e3dc a63c 3f15 503b d013 4e3c 3311 a73c
00000210: 73ca ae3c 6c82 3abc 9508 9b3c 61d0 c3bb
00000220: e38c d73a 12ef 863c 4370 993c 01c1 533c
00000230: 944d a4bc b18b a9bc 60af 073c 5bad 513c
00000240: cb01 733c 9d93 01bc 9073 f63b 376f d23b
00000250: 7352 12bc 041f 693c 08b2 93bc 76ac b4bc
00000260: 7cb3 16bb dad5 33bc 8ecf 40bb ecb6 b4bb
00000270: a599 62bb ed03 6dbc a5a0 9c3b 3919 84bc
00000280: 7d6d 533c 12e4 6b3c 28b0 2c3c 17d3 0dbc
00000290: 56fd e33b bc5e fb3b 8d35 4dbc e6f2 aebc
000002a0: f508 893c fb38 83bc 03bf c03c a8bf 4dba
000002b0: e6b3 c4bc 992d 5e3c 02d1 7cba da2f e93b
000002c0: e0d6 523b f90d d53c 0c32 723c 271b 443c
000002d0: f1b6 363c c590 b6bc cceb 913c c1cb ebb9
000002e0: 4628 93bb 8f6a 4c3b 73d3 c03c 2c11 b7bb
000002f0: 791d 72bc 0626 8d3c b921 053c 1f6f 8cbc
00000300: 7d8d fa3b 0098 833c 0fd1 e33a 065f ae3c
00000310: 9194 0f3c 2f57 35bc 739d c03c f83d a73c
00000320: 9240 083c e7db ac3c d261 e33b 820b 4dbc
00000330: 950a dc3b 1188 4d3a 676e b7bc 350b a33c
00000340: 5803 e43b be8a c83b c317 ea3b 204a a0bb
00000350: a7f9 f63b 28c7 503c 470c c53c a432 50bc
00000360: f191 463c d6ac a4bc 6d3c f6b9 fa35 913b
00000370: fe28 c33c 37b9 813c ea02 57bc 6eeb c2bb
00000380: 4b6f f13b 9c58 85bc 45ca eebb 4e2f 53bc
00000390: 7f44 273c f22d e3bb e023 71bc e3f0 95bc
000003a0: e3f3 81bc 94e9 a33b 83b3 183c 637a a23c
000003b0: fd65 82bc e69e e5bb 5e33 363b c490 183b
000003c0: a4e7 2cb9 f5af 613b 1acb 53bc 571d 33bc
000003d0: 47f2 c03c 58e4 0ebc f7af b63c 1887 52bc
000003e0: ca5d f83b ec15 a23c 25d7 743c 53c1 923b
000003f0: 4029 babc 5cad c5bc 2564 fdba d18b 443c

nonreduce1_1.bias f4 [32]
0.021400163 0.008597797 -0.017660711 0.0030534526 -0.02243575 -0.014596125 0.004219516 -0.02226622
-0.001335683 -0.017199935 -0.008092131 -0.020486876 -0.015590497 0.0019190004 -0.0033125598 0.0148539245
0.00266882 0.013437239 0.0027954108 -0.018112216 -0.00710461 0.022612628 0.009292062 -0.016863381
0.014995084 -0.018778792 -0.011652054 0.010757393 -0.019862074 0.011724875 -0.023512814 0.0053772237
00000000: 654f af3c c6dd 0c3c 32ad 90bc 6f1c 483b
00000010: 2ecb b7bc 9624 6fbc de43 8a3b a667 b6bc
00000020: 1612 afba e1e6 8cbc db94 04bc 18d4 a7bc
00000030: 496f 7fbc f886 fb3a 8817 59bb e05d 733c
00000040: 5fe7 2e3b de27 5c3c 3633 373b 1260 94bc
00000050: cacd e8bb 1e3e b93c bc3d 183c 1325 8abc
00000060: f1ad 753c fbd5 99bc 42e8 3ebc c73f 303c
00000070: cab5 a2bc b119 403c f29d c0bc 6c33 b03b

nonreduce1_2.weight f4 [32, 32, 3, 3, 3]
0.032412805 -0.028707279 -0.01854647 -0.010977578 0.010099802 0.016243884 -0.016035726 0.009376545
-0.027699254 0.020646332 -0.010800181 -0.023984564 -0.018616455 0.029020438 -0.024896245 -0.02857817
-0.0072829206 0.010700604 0.015962714 0.029802984 -0.0029804178 0.014574777 0.014131865 0.0019091485
0.011860061 -0.0078053623 0.024685264 -0.02702154 -0.02879797 -0.0061410028 -0.012442549 -0.026272655
-0.036074016 -0.028531449 -0.005584839 -0.008496584 0.0014600527 0.0030022666 0.0018456868 -0.0071220715
-0.015022301 0.002070752 -0.020072492 -0.014606347 -0.021167973 0.006178439 0.0061737183 0.012318162
0.020365678 -0.017232003 -0.020937273 0.011630113 -0.02461299 0.02746089 0.02740412 0.012148415
0.005941932 0.030960666 0.02601049 0.032479167 -0.004063224 -0.0088122655 -0.017474284 -0.004227451
-0.006774073 0.02311699 -0.027675383 -0.005550576 0.03318205 0.018158363 2.390108e-05 -0.014325031
0.028762212 0.01567927 -0.0105327815 0.00054799457 -0.020625839 -0.031279035 0.012844138 0.032341126
0.020159725 -0.023134101 -0.015639367 -0.01918451 -0.02901789 0.033256277 0.012650513 -0.031896047
-0.01607637 0.006353386 0.018947199 0.021179613 -0.01767515 0.012730472 -0.009827729 0.026307488
0.021702506 -0.01572693 -0.00537155 -0.0088848565 0.003704339 -0.01622493 0.029527241 -0.02022249
0.018622888 0.026134003 -0.013219967 0.0053550806 -0.028422784 0.0040375544 0.0053071887 0.0019446695
-0.017822908 0.018485274 0.011390544 0.0099141 -0.025938846 0.0018642681 0.025163483 0.006173499
-0.01452943 0.015600136 0.022875292 -0.03068528 -0.005139203 -0.024991633 0.00420459 -0.0020172594
-0.003832553 -0.031053392 -0.0026789592 -0.006372909 -0.012315996 -0.0048266044 0.013352383 -0.007680961
0.007489741 0.02095541 -0.03439985 -0.030979289 0.019182712 0.0073632756 0.00811324 -0.019051854
0.020746658 0.019258274 0.024723724 0.02858341 -0.027721083 -0.016854558 0.018108081 -0.015370311
-0.003078365 -0.01364918 -0.0070255967 -0.018843237 -0.0077394014 -0.033778757 0.002356605 0.018506285
0.029910289 -0.026362907 -0.015760377 0.031554036 -0.012962147 0.029596807 -0.004309941 -0.006702544
0.0016479327 -0.00095906196 0.004280688 0.03568988 0.026764449 0.016456168 0.01703263 0.028967686
0.01715146 -0.0073132254 0.008489893 0.031488273 0.012586491 -0.011412683 -0.006232845 0.031413645
-0.025463069 0.0118064275 0.015895965 0.00600422 0.023113763 -0.0019644783 0.02790573 0.010514873
0.030681472 -0.0011869861 -0.032039247 0.031292073 -0.033367198 0.0041274545 -0.02015128 -0.008180879
0.028342294 -0.02524886 0.024758767 -0.019418616 -0.015227692 -0.0013287773 -0.022763547 0.023093851
0.030655185 -0.028169006 -0.0114837885 0.011904069 0.009886328 0.024001257 -0.033711568 -0.0020398684
0.02597721 0.019930368 0.0154300565 -0.009290485 -0.017251559 -0.02696248 -0.022568172 0.010904732
0.0080641275 -0.02031472 -0.017950708 0.0075204317 -0.00926978 -0.012468076 0.014129165 0.017180838
-0.031770024 -0.022194581 0.004004147 0.015294052 0.024915213 -0.032065686 0.02491484 0.028932557
-0.03276583 -0.00899223 0.006012614 -0.027415685 -0.01339991 0.013565983 -0.019054709 0.022854414
0.018577794 0.009269991 0.019198364 -0.02928299 0.00088520296 0.014870113 0.009674849 -0.02146563
00000000: 4ac3 043d 872b ebbc c4ee 97bc 4ddb 33bc
00000010: a479 253c e511 853c 5b5d 83bc 15a0 193c
00000020: 8ce9 e2bc 7f22 a93c 3ef3 30bc 477b c4bc
00000030: 8981 98bc 45bc ed3c 36f3 cbbc c41c eabc
00000040: 91a5 eebb 9651 2f3c 3dc4 823c 6325 f43c
00000050: 1d53 43bb 0ccb 6e3c 5789 673c 653c fa3a
00000060: b450 423c 20c4 ffbb c038 ca3c 475c ddbc
00000070: b8e9 ebbc 773a c9bb d5db 4bbc c039 d7bc
00000080: 59c2 13bd c9ba e9bc 0601 b7bb 4235 0bbc
00000090: 3d5f bf3a adc1 443b f9ea f13a 4460 e9bb
000000a0: 1920 76bc 74b5 073b 116f a4bc 764f 6fbc
000000b0: 7568 adbc 8174 ca3b e74c ca3b 1ed2 493c
000000c0: ecd5 a63c 212a 8dbc a584 abbc 3b8c 3e3c
000000d0: 2ea1 c9bc a9f5 e03c 9b7e e03c 250a 473c
000000e0: 8ab4 c23b 39a1 fd3c f313 d53c e008 053d
000000f0: cb24 85bb 5261 10bc 3b26 8fbc 6e86 8abb
00000100: 0bf9 ddbb d85f bd3c 7cb7 e2bc 9be1 b5bb
00000110: e7e9 073d d9c0 943c 2e7f c837 89b3 6abc
00000120: bb9e eb3c d071 803c b091 2cbc 4ba7 0f3a
00000130: 85f7 a8bc 721e 00bd 3870 523c 2178 043d
00000140: 0226 a53c ba83 bdbc 211e 80bc d528 9dbc
00000150: edb6 edbc bc37 083d 1944 4f3c 6ea5 02bd
00000160: 97b2 83bc 1130 d03b 2837 9b3c de80 ad3c
00000170: 7acb 90bc 7893 503c 7c04 21bc cd82 d73c
00000180: 74c9 b13c c3d5 80bc d403 b0bb ca91 11bc
00000190: 7fc4 723b 25ea 84bc 1de3 f13c a3a9 a5bc
000001a0: 078f 983c fa16 d63c 8f98 58bc ac79 af3b
000001b0: e6d6 e8bc 764d 843b ede7 ad3b 48e4 fe3a
000001c0: 5901 92bc 6e6e 973c 679f 3a3c c06e 223c
000001d0: b47d d4bc 755a f43a a623 ce3c 104b ca3b
000001e0: d90c 6ebc b697 7f3c f764 bb3c b25f fbbc
000001f0: c266 a8bb 41bb ccbc a8c6 893b ff33 04bb
00000200: 922b 7bbb af63 febc 7a91 2fbb d6d3 d0bb
00000210: 08c9 49bc 7e28 9ebb f4c3 5a3c 92b0 fbbb
00000220: 806c f53b aeaa ab3c dbe6 0cbd 47c8 fdbc
00000230: 1025 9d3c a247 f13b 65ed 043c a212 9cbc
00000240: e5f4 a93c 87c3 9d3c 6889 ca3c c127 ea3c
00000250: 5317 e3bc 9212 8abc 6657 943c c2d3 7bbc
00000260: 65be 49bb cfa0 5fbc fa36 e6bb 225d 9abc
00000270: ce9a fdbb 985b 0abd 4571 1a3b 7e9a 973c
00000280: 6c06 f53c 06f7 d7bc e81b 81bc ce3e 013d
00000290: 2f5f 54bc 0175 f23c 683a 8dbb 04a1 dbbb
000002a0: 72ff d73a 8f69 7bba 0345 8c3b 8d2f 123d
000002b0: 1e41 db3c 16cf 863c 0488 8b3c a44d ed3c
000002c0: 3881 8c3c c8a3 efbb 3119 0b3c d9f9 003d
000002d0: 9237 4e3c 43fc 3abc e53c ccbb 98ab 003d
000002e0: ed97 d0bc bf6f 413c 4138 823c 0cbf c43b
000002f0: 1359 bd3c 7abe 00bb 8f9a e43c 9346 2c3c
00000300: b657 fb3c a594 9bba 963b 03bd 1e2c 003d
00000310: 0bac 08bd 993f 873b 4c14 a5bc 1809 06bc
00000320: 192e e83c b2d6 cebc e6d2 ca3c ca13 9fbc
00000330: 927d 79bc 5e2a aeba 9e7a babc 512f bd3c
00000340: 9520 fb3c b0c2 e6bc 8026 3cbc 4909 433c
00000350: 44fa 213c 499e c43c 2415 0abd 50af 05bb
00000360: 28ce d43c 0345 a33c 59ce 7c3c 1e37 18bc
00000370: 2453 8dbc 6be0 dcbc e3e0 b8bc c3a9 323c
00000380: 671f 043c 0e6b a6bc 5d0d 93bc f46d f63b
00000390: 46e0 17bc e746 4cbc 037e 673c d4be 8c3c
000003a0: 4921 02bd 69d1 b5bc 3835 833b e793 7a3c
000003b0: fd1a cc3c 4f57 03bd 351a cc3c f803 ed3c
000003c0: 7735 06bd 2554 13bc 7605 c53b dc96 e0bc
000003d0: 4c8b 5bbc db43 5e3c 9f18 9cbc 2e39 bb3c
000003e0: 7530 983c 29e1 173c e345 9d3c e2e2 efbc
000003f0: f70c 683a c6a1 733c 4283 1e3c b0d8 afbc

nonreduce1_2.bias f4 [32]
0.024686374 0.025058458 0.03303907 -0.0012951057 0.006656228 -0.027299207 -0.012769604 0.018282311
0.008629545 0.012546469 0.012412444 -0.02729398 -0.025524562 0.022602558 -0.0130009465 0.02987799
-6.160595e-05 -0.024621978 0.033036023 -0.028864551 -0.0011054917 -0.0067290314 -0.010084885 -0.023419803
0.03196739 0.011174068 -0.031474408 -0.0040535745 0.018693032 -0.020047871 0.0058139577 -0.022954365
00000000: 143b ca3c 6547 cd3c fa53 073d 89c0 a9ba
00000010: 7d1c da3b 96a2 dfbc 9a37 51bc c9c4 953c
00000020: ef62 0d3c b58f 4d3c 905d 4b3c a097 dfbc
00000030: e318 d1bc 0029 b93c ec01 55bc b0c2 f43c
00000040: 7132 81b8 08b4 c9bc c850 073d 5a75 ecbc
00000050: 25e6 90ba 357f dcbb 133b 25bc e3da bfbc
00000060: 3df0 023d 7013 373c 4feb 00bd d9d3 84bb
00000070: 2122 993c 6f3b a4bc 0383 be3b cb0a bcbc

nonreduce1_3.weight f4 [32, 32, 3, 3, 3]
0.021667479 0.006674716 -0.027008591 0.00030591292 0.021347852 -0.015138976 0.027689533 0.02427857
-0.025122449 -0.018348143 0.022083653 0.015302236 0.007849596 0.0063606226 0.019664131 0.034514997
0.033143107 0.011991094 0.031236283 0.01171447 0.025575284 0.024254583 -0.012664486 -0.03412516
0.013945717 0.032609757 0.013798466 -0.027710954 -0.0042678323 -0.010171963 -0.014224277 0.032201506
0.0028081494 -0.0012738125 -0.03076799 0.024519118 -0.018328913 -0.0010982897 0.029904 -0.030375956
0.0025932041 -0.031439688 -0.035620656 -0.010620408 0.014025131 -0.029556632 0.0019187686 0.014145205
-0.027219139 0.004349284 0.001346739 0.011960253 -0.003232035 0.023952844 0.001070061 0.025240958
-0.014705874 0.015535505 -0.027614607 -0.017602758 0.0043297647 -0.020400953 0.021646643 0.0052511585
0.01432474 0.007933652 -0.0063210274 -0.01642588 -0.02418974 -0.019353706 -0.022872394 -0.0072212387
-0.034457795 -0.009537491 0.013837641 -0.018274788 0.0247975 0.023408849 0.029833082 -0.005152264
0.006707149 -0.02969782 -0.0074101114 -0.019435266 0.011564124 -0.020909216 -0.014257717 0.02551562
0.0009210113 -0.014331793 0.029325144 -0.011626719 0.027998034 -0.027287455 -0.016123146 0.032407634
-0.023163764 0.0114109935 -0.011309235 0.007898412 -0.023775933 0.001805861 0.028438147 0.026581833
0.006182607 -0.009904713 0.008795518 -0.023669904 0.034684833 -0.0066210562 0.018609578 -0.027126046
-0.017252177 0.012518803 -0.023121364 -0.010696505 -0.02135055 -0.015257394 0.022539565 0.021240305
0.03635868 -0.034235433 0.000709538 0.017325072 0.012920594 -0.024370886 0.03045712 -0.0045319693
0.0022801212 0.024631822 0.011939379 -0.008520106 -0.024302779 0.02096853 -0.024060473 -0.033563938
-0.026027247 0.008509294 -0.011732823 -0.020765534 0.007050237 0.014106408 -0.0037932147 -0.021032
0.024301445 0.022284595 0.017456032 0.011598663 0.010281926 0.0030808276 -0.021732882 -0.021798471
-0.0020960534 -0.005996574 0.012415951 0.015158274 0.016153451 0.014465808 0.0002869236 0.020573834
-0.015739027 -0.0094768405 0.029795926 0.03479633 0.009915117 -0.027929464 -0.002982129 0.015935564
-0.011765563 0.006839124 0.0014045488 0.030134678 -0.004244697 0.0152255 -0.020123139 -0.0066477163
-0.014172694 0.0031503406 0.0012055789 -0.03328443 -0.010728248 -0.0030345302 0.017093107 -0.0016441109
-0.009044299 -0.027629865 -0.0063343532 -0.031513087 -0.007613551 -0.011480388 0.024145545 -0.026322337
-0.0149261765 0.026267631 -0.015697105 -0.015327811 -0.017985022 0.023840118 0.0024353226 0.020825587
-0.029522425 0.01774395 -0.023303838 0.014024018 0.029573968 0.019129721 -0.028039087 0.0002712352
0.0033612025 0.018986432 -0.0058421846 0.024937049 -0.025118396 0.004415769 -0.00041866023 -0.028505726
-0.013819085 -0.028600968 0.006182565 0.0002854199 0.027171917 -0.028023168 0.0058337757 -0.00039562365
0.003092736 -0.011220949 -0.01875224 0.025770651 -0.0037167007 0.019514127 -0.008204101 0.036520865
0.0029473943 -0.030385485 -0.019750267 0.01862858 0.008141093 -0.00969019 0.01354351 0.013486613
0.025231715 0.030281072 -0.003212769 0.017281132 -0.003039404 -0.015542941 -0.0012389964 -0.0072588017
0.016312743 -0.0017945571 0.020577269 -0.019914035 0.01582699 -0.033537634 0.027071707 0.02634329
00000000: ff7f b13c 93b7 da3b 1f41 ddbc f062 a039
00000010: b1e1 ae3c 7809 78bc 29d5 e23c dae3 c63c
00000020: 98cd cdbc d84e 96bc c7e8 b43c 3bb6 7a3c
00000030: 989b 003c c56c d03b ac16 a13c 995f 0d3d
00000040: 11c1 073d 4b76 443c 3ce3 ff3c 0cee 3f3c
00000050: 4283 d13c 8cb1 c63c b47e 4fbc d3c6 0bbd
00000060: 947c 643c cf91 053d f612 623c 1502 e3bc
00000070: 2cd9 8bbb 4ea8 26bc f10c 69bc bae5 033d
00000080: ee08 383b 0ef6 a6ba 270d fcbc 51dc c83c
00000090: 8426 96bc 7df4 8fba 3cf9 f43c ffd6 f8bc
000000a0: bff2 293b e7c6 00bd f7e6 11bd 3801 2ebc
000000b0: aac9 653c c020 f2bc 317f fb3a 4ac1 673c
000000c0: acfa debc 7084 8e3b 1085 b03a f0f4 433c
000000d0: 8dd0 53bb c138 c43c 4a41 8c3a 20c6 ce3c
000000e0: e8f0 70bc a188 7e3c 0738 e2bc a933 90bc
000000f0: b3e0 8d3b e61f a7bc 4d54 b13c e911 ac3b
00000100: 50b2 6a3c 26fc 013c 9f20 cfbb 918f 86bc
00000110: 9029 c6bc aa8b 9ebc e35e bbbc 24a0 ecbb
00000120: 9e23 0dbd 2343 1cbc 46b7 623c 02b5 95bc
00000130: 2024 cb3c eac3 bf3c 8264 f43c 53d4 a8bb
00000140: a5c7 db3b d848 f3bc 85d0 f2bb b536 9fbc
00000150: 7477 3d3c ce49 abbc 3399 69bc 2206 d13c
00000160: 0670 713a e6cf 6abc 493b f03c fe7d 3ebc
00000170: 225c e53c f189 dfbc b014 84bc debd 043d
00000180: efc1 bdbc 2df5 3a3c 5f4a 39bc 5768 013c
00000190: bfc5 c2bc a4b2 ec3a 1ef7 e83c 25c2 d93c
000001a0: 7797 ca3b 6147 22bc 141b 103c 63e7 c1bc
000001b0: af11 0e3d 72f5 d8bb 1d73 983c 7137 debc
000001c0: 7054 8dbc aa1b 4d3c 0469 bdbc 6540 2fbc
000001d0: 59e7 aebc 26fa 79bc e5a4 b83c 2600 ae3c
000001e0: d7ec 143d 743a 0cbd 4a00 3a3a 4fed 8d3c
000001f0: e6b0 533c 74a5 c7bc 3681 f93c ea80 94bb
00000200: 166e 153b adc8 c93c 639d 433c ea97 0bbc
00000210: 9f16 c7bc 32c6 ab3c 781a c5bc 577a 09bd
00000220: 1837 d5bc 916a 0b3c 073b 40bc 7b1c aabc
00000230: ad05 e73b 901e 673c 9597 78bb 4d4b acbc
00000240: d313 c73c 2f8e b63c f4ff 8e3c 5208 3e3c
00000250: 8675 283c b6e7 493b 2809 b2bc b592 b2bc
00000260: f15d 09bb e97e c4bb 466c 4b3c 695a 783c
00000270: 3e54 843c ff01 6d3c 3c6e 9639 758a a83c
00000280: 22ef 80bc c044 1bbc 9616 f43c 9986 0e3d
00000290: 0473 223c 55cc e4bc d36f 43bb 4d8b 823c
000002a0: 59c4 40bc bb1a e03b d618 b83a 00dd f63c
000002b0: 1917 8bbb 6074 793c 48d9 a4bc 16d5 d9bb
000002c0: 9634 68bc f275 4e3b 8404 9e3a 4155 08bd
000002d0: 89c5 2fbc f8de 46bb d806 8c3c 357f d7ba
000002e0: 8a2e 14bc 0758 e2bc 6890 cfbb de13 01bd
000002f0: 187b f9bb 3d18 3cbc e1cc c53c f1a1 d7bc
00000300: ec8c 74bc 372f d73c 3797 80bc 8021 7bbc
00000310: 5355 93bc 5a4c c33c ef99 1f3b 6c9a aa3c
00000320: 03d9 f1bc c35b 913c b1e7 bebc ffc4 653c
00000330: 1b45 f23c efb5 9c3c 3ab2 e5bc 9334 8e39
00000340: 9f47 5c3b 6f89 9b3c cc6f bfbb c848 cc3c
00000350: 18c5 cdbc 28b2 903b a07f dbb9 d784 e9bc
00000360: 7269 62bc 944c eabc 1d97 ca3b 69a4 9539
00000370: a497 de3c d890 e5bc 4229 bf3b b56b cfb9
00000380: 80af 4a3b 12d8 37bc 4c9e 99bc f91c d33c
00000390: e493 73bb 17dc 9f3c 7e6a 06bc e796 153d
000003a0: 1229 413b fbea f8bc 50cb a1bc f79a 983c
000003b0: 3862 053c 9ac3 1ebc 99e5 5d3c f4f6 5c3c
000003c0: beb2 ce3c 0310 f83c 528d 52bb 2991 8d3c
000003d0: bd30 47bb d2a7 7ebc d265 a2ba 3edb edbb
000003e0: 4da2 853c 5837 ebba a991 a83c c222 a3bc
000003f0: 9ba7 813c c25e 09bd 7cc5 dd3c e2cd d73c

nonreduce1_3.bias f4 [32]
0.02401481 -0.011942383 0.028048208 0.0034849285 0.0021680896 -0.011588127 -0.012960671 -0.025870219
0.01952071 0.0019052145 -0.0011499593 0.017045734 0.013794502 0.032483075 -0.018738393 -0.010201139
0.032622907 -0.0068595395 -0.02834104 0.011095795 -0.019698232 -0.0074259113 -0.024375452 0.018064216
-0.011601916 -0.0027788344 0.0118108 0.03719392 0.032657452 -0.018003948 0.0115248365 0.01593702
00000000: b5ba c43c fca9 43bc 5bc5 e53c 6663 643b
00000010: 8216 0e3b 21dc 3dbc ff58 54bc c8ed d3bc
00000020: e5e9 9f3c 64b8 f93a 3bba 96ba 7fa3 8b3c
00000030: 5602 623c f90c 053d 4281 99bc ae22 27bc
00000040: 999f 053d fdc5 e0bb 782b e8bc 23cb 353c
00000050: 305e a1bc 0f55 f3bb 07af c7bc 68fb 933c
00000060: f615 3ebc 1b1d 36bb 1682 413c a758 183d
00000070: d2c3 053d 047d 93bc abd2 3c3c 5a8e 823c

reduce2.weight f4 [16, 32, 4, 4, 4]
0.014416808 -0.0088874325 -0.014827172 -0.0037729987 0.021913296 0.0073337797 -0.015276209 0.02156885
-0.023063123 -0.011500295 0.0020001116 0.007295617 0.0031024213 -0.020522406 -0.0015002171 -0.014264682
0.0026849401 0.008847362 -0.01607289 -0.012348227 -0.007564856 0.0091612935 -0.015422389 -0.020940557
0.0027192307 0.013572582 -0.016670376 -0.0028321522 -0.012478742 -0.000101953905 -0.004495841 0.0028358495
-0.022711318 -0.015577003 0.008521817 0.015806135 -0.017008495 -0.017237512 -0.019554172 0.003999427
0.00079941185 -0.007586809 -0.006699587 -0.022101633 -0.0060148314 -0.011521642 -0.011230172 -0.022029089
0.016412972 -0.00045665016 -0.0076014404 0.008073274 -0.009399982 0.0067913453 0.016525406 -0.005810591
-0.011350707 0.0068986714 0.0036454063 0.01879917 -0.013610122 -0.019694312 -0.0029102042 -0.013742445
-0.002319007 0.003000168 0.0045385784 0.008717975 0.0058309385 0.0046598073 -0.010327207 -0.02100668
-0.016767366 -0.00857231 0.011982775 -0.016605634 0.01751511 0.013728616 0.013071166 0.01808546
0.021352114 -0.014421067 0.0020152456 0.003795451 -0.0063440865 0.0007112175 0.012513865 -0.00823005
-0.0018976685 0.020760575 -0.0013263135 -0.012114914 -0.019734548 0.012549931 -0.015571552 0.021832438
0.012005195 -0.022927033 -0.0065372246 0.013651919 0.020096812 -0.021949003 0.0092368685 -0.019782584
0.01817109 0.015709419 -0.011284761 0.0097585805 -0.008102597 -0.0044561815 -0.019448088 -0.011507502
0.019291328 -0.0037212444 0.0070100147 -0.004892191 -0.00026444002 0.005294739 0.019425437 0.01966285
0.018652657 -0.016882282 0.0128757395 0.016022464 0.017807849 -0.021323884 0.017438062 -0.007343348
-0.013925024 -3.0254852e-05 -0.010680517 0.0031590809 0.01618738 0.007115163 0.01470292 -0.015401232
0.0043552076 0.018408958 0.016256327 -0.0046890504 -0.005331271 0.022322329 -0.01677852 -0.012585643
0.00078248436 0.0028618106 0.0037806372 0.0032079562 -0.009492791 0.01984118 0.01668889 0.014259677
-0.00338081 -0.021841796 -0.0151357325 -0.004143389 -0.016934799 0.004933552 -0.010621334 -0.01924708
0.004662231 0.00013227417 0.0032368929 -0.01720414 0.0030869248 0.021298813 -0.008375068 -0.0060993764
0.021435443 -0.007925756 0.018851848 0.02031512 -0.007164832 0.02054564 -0.017733846 0.011566002
0.002197303 0.0055479235 0.007406491 -0.014796534 0.007458717 0.009465812 -0.0041353796 0.021835778
-0.011439351 0.021387415 -0.0171219 0.011698358 -0.010407945 -0.0023193227 0.013485749 0.020939942
0.0146274865 0.009964222 0.0099242665 0.005989076 0.011372403 -0.0028225768 -0.002883447 -0.008435683
-0.008007743 -0.0064627393 -0.0053885514 0.020069627 0.005993 -0.018310161 -0.01183741 0.0064415215
0.021950675 -0.021155626 -0.010195642 0.008505645 0.020642523 -0.012401034 0.019401131 0.017364599
-0.018468615 -0.006012878 -0.0077854553 -0.009658422 -0.005961243 -0.0058580358 0.011415764 -0.005327065
-0.014353045 -0.01425316 -0.0032676095 -0.0010528127 -0.01962026 -0.0069570574 -0.006617352 -0.00205492
0.009893624 0.014662812 -0.011780054 -0.0061773313 -0.0153915705 0.013276863 -0.02247628 0.002914789
-0.010055134 -0.0015955226 -0.011439911 0.0065876446 -0.015685318 -0.011139405 -0.0032898074 0.00379225
-0.0065997224 -0.017001815 -0.017645467 -0.003481199 -0.018566221 0.01664132 -0.012778972 -0.006551646
00000000: 7a34 6c3c 989c 11bc abed 72bc 6a44 77bb
00000010: 8383 b33c 3450 f03b 1149 7abc 28b1 b03c
00000020: e0ee bcbc bc6b 3cbc 4e14 033b 1210 ef3b
00000030: fe51 4b3b 9b1e a8bc efa2 c4ba 6ab6 69bc
00000040: d2f5 2f3b 87f4 103c 4bab 83bc 3850 4abc
00000050: 9de2 f7bb 4019 163c 30ae 7cbc 888b abbc
00000060: 1f35 323b 895f 5e3c 5090 88bc a19b 39bb
00000070: a373 4cbc 16d0 d5b8 d951 93bb a9d9 393b
00000080: 160d babc b036 7fbc 179f 0b3c de7b 813c
00000090: 6655 8bbc af35 8dbc 1230 a0bc a00d 833b
000000a0: 9f8f 513a c49a f8bb 3688 dbbb 7c0e b5bc
000000b0: 1018 c5bb 45c5 3cbc c1fe 37bc 5976 b4bc
000000c0: 7f74 863c 8c6a efb9 8115 f9bb c445 043c
000000d0: 6202 1abc ef89 de3b 4a60 873c c566 bebb
000000e0: 51f8 39bc 400e e23b c5e7 6e3b b800 9a3c
000000f0: fdfc 5ebc f755 a1bc 20b9 3ebb fe27 61bc
00000100: 7bfa 17bb 779e 443b 5bb8 943b d6d5 0e3c
00000110: 7511 bf3b 4cb1 983b 7233 29bc 3316 acbc
00000120: b75b 89bc e072 0cbc 6753 443c 8a08 88bc
00000130: d97b 8f3c fded 603c 7228 563c f527 943c
00000140: a1ea ae3c 5746 6cbc 3612 043b 1abd 783b
00000150: 0ee2 cfbb 0071 3a3a f406 4d3c 55d7 06bc
00000160: 30bb f8ba 1512 aa3c b2d7 adba a27d 46bc
00000170: 59aa a1bc 3a9e 4d3c d31f 7fbc f1d9 b23c
00000180: 70b1 443c 79d1 bbbc 3736 d6bb 4cac 5f3c
00000190: 12a2 a43c 65ce b3bc 3c56 173c 160f a2bc
000001a0: 8adb 943c 0ab1 803c b8e3 38bc 74e2 1f3c
000001b0: c1c0 04bc 2905 92bb 9951 9fbc f689 3cbc
000001c0: d908 9e3c 1fe0 73bb 44b4 e53b ac4e a0bb
000001d0: 8aa4 8ab9 7d7f ad3b 1822 9f3c fc13 a13c
000001e0: 75cd 983c b64c 8abc c4f4 523c 8b41 833c
000001f0: c4e1 913c 6daf aebc 44da 8e3c 78a0 f0bb
00000200: c925 64bc cdcb fdb7 56fd 2ebc 9508 4f3b
00000210: 659b 843c 5026 e93b 84e4 703c 7355 7cbc
00000220: 21b6 8e3b 62ce 963c fd2b 853c 9ba6 99bb
00000230: f1b1 aebb 51dd b63c 1b73 89bc 0334 4ebc
00000240: a31f 4d3a 378d 3b3b 91c4 773b 933c 523b
00000250: a787 1bbc f889 a23c 24b7 883c 6ca1 693c
00000260: 9490 5dbb 91ed b2bc ddfb 77bc 44c5 87bb
00000270: d9ba 8abc a2a9 a13b 1b05 2ebc 0dac 9dbc
00000280: a1c5 983b 14b3 0a39 0d22 543b b2ef 8cbc
00000290: 014e 4a3b d97a ae3c 9537 09bc 47dd c7bb
000002a0: 6299 af3c 08db 01bc 316f 9a3c e56b a63c
000002b0: f8c6 eabb 544f a83c 9246 91bc 547f 3d3c
000002c0: a100 103b 5bcb b53b 26b2 f23b 296d 72bc
000002d0: 4168 f43b 7e16 1b3c 1482 87bb f2e0 b23c
000002e0: 1e6c 3bbc a934 af3c 3a43 8cbc 78aa 3f3c
000002f0: 1686 2abc c7ff 17bb 55f3 5c3c 3e8a ab3c
00000300: 20a8 6f3c fa40 233c 6499 223c 0340 c43b
00000310: 5153 3a3c fbfa 38bb 37f8 3cbb d235 0abc
00000320: e932 03bc 63c5 d3bb 7292 b0bb 0f69 a43c
00000330: ee60 c43b 31ff 95bc b2f1 41bc 6613 d33b
00000340: e7d1 b33c 904e adbc 9f0b 27bc 435b 0b3c
00000350: 821a a93c b52d 4bbc 1fef 9e3c 3440 8e3c
00000360: 7e4b 97bc ad07 c5bb 221d ffbb 5c3e 1ebc
00000370: 8856 c3bb c4f4 bfbb 2f09 3b3c a98e aebb
00000380: 0929 6bbc 1686 69bc 6425 56bb 88fe 89ba
00000390: abba a0bc 07f8 e3bb 5fd6 d8bb d6ab 06bb
000003a0: de18 223c 4b3c 703c 2101 41bc 366b cabb
000003b0: ed2c 7cbc 3387 593c 2d20 b8bc 0b06 3f3b
000003c0: 4abe 24bc db20 d1ba 776e 3bbc 2bdd d73b
000003d0: 7f7e 80bc 0d82 36bc cf99 57bb 6687 783b
000003e0: 7c42 d8bb 6447 8bbc 3a8d 90bc d424 64bb
000003f0: 3018 98bc 6153 883c e55e 51bc 31af d6bb

reduce2.bias f4 [16]
0.020378385 0.020951435 0.008461819 0.0043027955 0.0053943503 0.003846526 -0.001003463 0.0057911235
-0.010916613 0.0060255663 -0.018114863 -0.020044133 0.023746056 -0.016700136 -0.018741539 0.01821787
00000000: 92f0 a63c 58a2 ab3c 71a3 0a3c 77fe 8c3b
00000010: 17c3 b03b ff15 7c3b a286 83ba 77c3 bd3b
00000020: 98db 32bc 1d72 c53b 9f65 94bc 9833 a4bc
00000030: 1787 c23c b9ce 88bc db87 99bc a43d 953c

nonreduce2_1.weight f4 [16, 16, 3, 3, 3]
0.03411023 0.017177857 0.028757382 -0.04199507 -0.01201707 0.03606661 0.007165742 -0.017710272
-0.017007805 0.0046075243 -0.04394351 0.04079323 -0.03130494 -0.032696478 -0.0088369455 0.031961482
-0.022265391 -0.015565866 -0.03711432 0.04594385 -0.043054506 0.039141558 -0.02414927 0.046248097
0.029673235 0.022470064 -0.020140132 -0.0013178847 -0.039160203 -0.035343103 -0.008886074 -0.037433267
0.010398396 -0.049830616 -0.028725853 0.021874597 -0.0074082618 -0.05016554 0.037306074 -0.014921271
-0.0008544392 -0.032737862 -0.011525995 0.0276542 0.02598697 0.0377469 -0.021524906 0.04523104
-0.004673057 -0.037267607 -0.046271063 0.016033823 -0.027373884 0.015833938 0.028810445 0.02322709
0.002850561 0.0054986198 -0.016646983 -0.013064737 0.034565035 0.029144417 -0.018880183 0.021670965
-0.047228947 -0.02967702 -0.048752688 -0.039623212 -0.039007593 -0.048935503 -0.028440613 0.018773265
0.0073625483 0.00042274565 -0.0066995043 0.039982747 -0.038365655 -0.004102903 -0.007832841 0.03663009
-0.0137391705 0.042314857 0.0052879816 0.013429827 0.041123953 -0.031607583 0.037946638 0.007293973
-0.0072736065 0.03272784 -0.025337134 0.021703105 -0.0049558617 0.0029957339 -0.025874333 -0.020914938
0.014505132 -0.015578329 -0.039204173 0.017821513 0.024005778 -0.04656831 0.0051824753 -0.014113177
0.010370643 -0.03152851 -0.00089111837 -0.021338347 0.043335278 -0.036777668 0.027647605 -0.013586666
-0.004759904 -0.0013588946 -0.023409735 0.022067424 0.0019290103 0.031212445 -0.02015727 0.0012082369
-0.0026936205 0.03667133 -0.03884002 -0.02255135 0.019283537 -0.0025919154 -0.044079848 -0.03394542
-0.031959426 0.038012672 0.030171791 0.030459184 0.023580136 0.0006310135 0.033749577 -0.008803423
0.035092518 0.042525865 -0.011140564 -0.03610964 0.01822034 -0.002938617 0.03902831 -0.005500276
-0.030401258 0.009602814 -0.045882836 -0.015361408 -0.0048564803 0.03740043 0.014834999 0.036841877
0.0050451453 -0.028622437 -0.008485609 -0.0314146 -0.009597983 0.027754806 0.04339203 0.022083482
0.044996686 0.031064354 0.0004901571 -0.039939974 -0.022892378 -0.018194469 -0.035964288 -0.032043714
0.014812396 0.028211808 -0.009065447 0.02033172 0.038898077 -0.00322477 -0.03150989 -0.039588824
-0.044402618 0.03227819 0.048118997 -0.029465161 0.017931439 0.036593404 0.021100532 0.019764923
-0.027428215 0.005996845 0.036563314 -0.013278295 -0.01912149 -0.006184509 0.03726312 -0.01170636
-0.042651452 0.01728678 0.0016442855 -0.015337252 0.039088562 0.012879818 -0.022656824 -0.04240131
0.014253737 -0.012503176 -0.019127924 0.004903121 -0.028499132 0.028503597 -0.043442525 -0.029300602
0.0015016086 -0.028048363 0.0073405295 0.0058465973 -0.013697045 -0.020478738 -0.0426511 -0.01404578
-0.039327554 -0.00038690396 -0.005973439 -0.03428096 -9.8209275e-05 -0.024052469 -0.046217952 -0.027010113
-0.012436547 -0.04052698 -0.015760688 -0.013154907 -0.00449703 0.012669741 -0.0068654297 0.0149136195
-0.046413977 -0.033367194 -0.040092733 0.030516747 0.033167407 0.009064851 -0.0025790834 -0.013917902
-0.046794545 -0.03709728 0.03123524 -0.03809747 -0.04042972 0.029535364 -0.023795215 0.044879045
-0.035139762 0.009977022 -0.010853396 -0.046297476 0.019902388 -0.01807829 0.044940874 0.0405755
00000000: 2bb7 0b3d 94b8 8c3c 9a94 eb3c 0603 2cbd
00000010: 3fe3 44bc 95ba 133d 9ace ea3b 2215 91bc
00000020: f453 8bbc b7fa 963b 1cfe 33bd cd16 273d
00000030: 9c39 00bd beec 05bd d6c8 10bc 0bea 023d
00000040: e965 b6bc f907 7fbc 2f05 18bd 9e2f 3c3d
00000050: ec59 30bd e652 203d b1d4 c5bc a56e 3d3d
00000060: 4915 f33c 2413 b83c ebfc a4bc dfbc acba
00000070: 7366 20bd eec3 10bd e596 11bc a053 19bd
00000080: 095e 2a3c 301b 4cbd 7b52 ebbc 5b32 b33c
00000090: 01c1 f2bb 627a 4dbd 41ce 183d 5978 74bc
000000a0: 72fc 5fba 2318 06bd 87d7 3cbc 108b e23c
000000b0: a0e2 d43c 7e9c 1a3d 0055 b0bc 2f44 393d
000000c0: 7120 99bb eba5 18bd ba86 3dbd 5d59 833c
000000d0: 323f e0bc 2db6 813c e203 ec3c bd46 be3c
000000e0: 7ad0 3a3b c42d b43b 415f 88bc 7b0d 56bc
000000f0: 1194 0d3d 46c0 ee3c 9daa 9abc 4f87 b13c
00000100: 2473 41bd 391d f3bc e6b0 47bd f34b 22bd
00000110: 6dc6 1fbd 9870 48bd 4afc e8bc 64ca 993c
00000120: 8841 f13b f6a3 dd39 8487 dbbb f3c4 233d
00000130: 4e25 1dbd a571 86bb 5155 00bc 6f09 163d
00000140: 421a 61bc 5852 2d3d ce46 ad3b c708 5c3c
00000150: 9771 283d f476 01bd ef6d 1b3d 4802 ef3b
00000160: 6f57 eebb a10d 063d d28f cfbc b6ca b13c
00000170: c864 a2bb 1354 443b 69f6 d3bc ce55 abbc
00000180: efa6 6d3c 3f3c 7fbc 8e94 20bd 6cfe 913c
00000190: c4a7 c43c 6abe 3ebd c1d1 a93b f43a 67bc
000001a0: a1e9 293c 0a24 01bd f199 69ba c2cd aebc
000001b0: 5580 313d 2ea4 16bd 3b7d e23c 9c9a 5ebc
000001c0: f8f8 9bbb f01c b2ba c6c5 bfbc bec6 b43c
000001d0: d8d6 fc3a 3eb1 ff3c dc20 a5bc b45d 9e3a
000001e0: 7487 30bb ad34 163d b616 1fbd 9cbd b8bc
000001f0: 82f8 9d3c 20dd 29bb 128d 34bd 5a0a 0bbd
00000200: e3e7 02bd 2db3 1b3d d52a f73c 8a85 f93c
00000210: 212b c13c 996a 253a ff3c 0a3d 3b3c 10bc
00000220: 2cbd 0f3d 9a2f 2e3d ea86 36bc b4e7 13bd
00000230: d342 953c d095 40bb 26dc 1f3d a93b b4bb
00000240: 0f0c f9bc 1f55 1d3c a4ef 3bbd 6aae 7bbc
00000250: 1c23 9fbb 3131 193d 7f0e 733c 82e7 163d
00000260: bf51 a53b 9a79 eabc 3907 0bbc 98ac 00bd
00000270: dc40 1dbc 0c5e e33c d7bb 313d 6be8 b43c
00000280: 724e 383d ac7a fe3c e37d 003a 1998 23bd
00000290: cc88 bbbc 910c 95bc 4a4f 13bd 4540 03bd
000002a0: b1af 723c 731c e73c 3e87 14bc b58e a63c
000002b0: 9753 1f3d aa56 53bb 8410 01bd e427 22bd
000002c0: 85df 35bd 2336 043d 6d18 453d ec60 f1bc
000002d0: f4e4 923c f7e2 153d 06db ac3c 0cea a13c
000002e0: 23b1 e0bc 2f81 c43b 6ac3 153d 358d 59bc
000002f0: aca4 9cbc 6ca7 cabb 37a1 183d 08cc 3fbc
00000300: 4ab3 2ebd 019d 8d3c 1185 d73a 1949 7bbc
00000310: 541b 203d df05 533c ce9a b9bc ffac 2dbd
00000320: 8288 693c 1fda 4cbc 2ab2 9cbc 5caa a03b
00000330: 0377 e9bc 6080 e93c caf0 31bd d107 f0bc
00000340: a0d1 c43a aec5 e5bc d388 f03b d094 bf3b
00000350: 9269 60bc 07c3 a7bc ebb2 2ebd 4520 66bc
00000360: ee15 21bd 5fd9 cab9 d7bc c3bb 316a 0cbd
00000370: b4f5 cdb8 af09 c5bc 094f 3dbd 5044 ddbc
00000380: a9c2 4bbc 9eff 25bd 8f1c 81bc ae87 57bc
00000390: d25b 93bb bf94 4f3c 66f7 e0bb 4158 743c
000003a0: 951c 3ebd 0aac 08bd 4738 24bd 42fe f93c
000003b0: 8cda 073d be84 143c d705 29bb e907 64bc
000003c0: a3ab 3fbd 51f3 17bd 0ce1 ff3c 180c 1cbd
000003d0: a299 25bd 26f4 f13c 2fee c2bc 17d3 373d
000003e0: b6ee 0fbd aa76 233c 71d2 31bc 6ca2 3dbd
000003f0: 550a a33c ec18 94bc ec13 383d 7f32 263d

nonreduce2_1.bias f4 [16]
-0.028700713 -0.010628868 -0.0054022074 -0.0051532164 0.026017793 0.040050235 0.049966715 -0.020374442
0.032763954 0.0004963118 0.027619632 0.0009110896 -0.029259007 -0.022066945 -0.033116363 0.0075497185
00000000: c21d ebbc b424 2ebc 0005 b1bb 50dc a8bb
00000010: 4423 d53c b70b 243d e6a9 4c3d 4de8 a6bc
00000020: 7f33 063d ec1a 023a 9142 e23c 30d6 6e3a
00000030: 96b0 efbc bdc5 b4bc 06a5 07bd a163 f73b

nonreduce2_2.weight f4 [16, 16, 3, 3, 3]
0.0013622254 -0.039103657 -0.022668816 0.005675435 -0.028546585 -0.009231878 0.019194359 0.04471339
0.023951197 -0.0016958644 -0.005562944 -0.046087064 -0.034513224 0.02080816 0.016416138 -0.038119677
-0.015583506 -0.0083395755 0.032400176 -0.016147237 0.04378339 -0.011339834 0.03310976 -0.018296791
0.009796905 -0.04673614 0.047439743 -0.021753611 0.012271307 0.01841898 0.036322277 0.03196525
-0.04691304 -0.017156076 0.012440091 -0.038298346 -0.021773037 -0.03175629 -0.031068834 0.026551053
0.005282626 0.041543417 0.04842686 0.0027769557 -0.002444572 -0.010308916 0.00011507207 -0.023930436
0.024017103 0.022585321 -0.009163757 0.036070615 0.016341692 -0.0071130535 -0.00839583 -0.012409995
0.037700426 0.0016348871 0.025976695 0.023192018 -0.026168931 -0.028858284 0.005204362 0.0065012304
0.035363182 -0.033609133 0.015721852 -0.032016847 0.0348546 0.040838424 -0.040074944 0.022944935
-0.04075108 -0.048167486 -0.046710797 0.031169461 -0.040565755 0.03966911 0.030093541 -0.02662511
-0.031493887 0.027468476 -0.041461606 0.021682743 -0.014551062 -0.026606936 0.046030026 -0.04173221
0.040304124 0.036941864 -0.0161013 -0.019232541 -0.01359589 -0.0338318 0.030317038 -0.012311542
0.0031066914 -0.030461803 0.004583774 -0.010406599 0.026831737 -0.031603348 0.02385639 -0.015210784
-0.008625892 0.042750075 0.03569791 0.044831727 -0.0025495915 -0.0011700325 -0.026356671 -0.013266942
-0.03058926 0.036764693 0.019135159 -0.03683557 0.03303125 -0.023544902 -0.017693264 0.022613239
0.030663602 0.040008128 -0.010848837 0.008916683 -0.011279424 -0.023809375 0.028746685 -0.01349843
0.046663787 -0.037371833 -0.008060837 0.010672801 -0.004280107 0.006365564 0.009426077 -0.018123258
-0.008908813 0.010610554 0.04600908 0.043150224 0.030153409 -0.0124248 -0.04549684 0.029176418
0.03173449 -0.038239956 0.0074165314 0.0015900843 0.023597745 0.03240262 0.0039297906 -0.02076944
-0.007490771 -0.022937857 0.039571133 -0.036177 0.039859384 0.0076235575 -0.0042689065 0.018231608
-0.0043415534 0.023279915 0.005863564 0.025695646 -0.0052346024 -0.027390013 0.014825751 -0.00464444
0.023455238 -0.03643633 0.020176856 -0.006245137 -0.029935468 -0.017251778 0.005882057 0.00421344
-0.028392095 -0.041517902 -0.043137576 -0.01664152 0.0028474831 -0.022480099 0.048496585 0.04174707
-0.04614567 0.013502003 0.015055898 0.013104944 0.021000613 -0.0007692295 -0.021002376 -0.006317855
0.020574674 -0.002469928 0.004018829 -0.02977285 -0.0012341609 0.0008197348 -0.0016458795 -0.0151667595
-0.023669362 -0.004423323 -0.009639112 0.0028756217 -0.03470752 0.029570447 7.0775573e-06 -0.0061780936
0.0005388579 0.038466487 -0.007869959 0.0034885332 -0.03448145 -0.043830544 0.04251674 0.020589773
0.038175493 -0.0014097616 0.037608597 -0.01521636 0.01718166 0.033827122 0.02980935 -0.0107806865
0.031711712 0.037922956 0.049395807 -0.0039042225 -0.0068540974 0.033103008 0.021999871 -0.046119213
-0.010604275 0.037784223 -0.035089232 0.048321605 0.011024588 0.025772488 0.018223308 -0.03808694
-0.032348953 0.035708386 -0.03240758 0.04558183 -0.0144765815 0.03259487 -0.0323081 -0.01520927
-0.034875203 0.04402722 0.018551316 0.014612507 -0.028445305 0.020691378 0.038928345 -0.01345177
00000000: b38c b23a 282b 20bd f4b3 b9bc 00f9 b93b
00000010: 87da e9bc 4e41 17bc 7d3d 9d3c 6325 373d
00000020: 4d35 c43c c447 deba 5b49 b6bb cac5 3cbd
00000030: bd5d 0dbd e075 aa3c 237b 863c 6123 1cbd
00000040: f651 7fbc b7a2 08bc 0cb6 043d 3647 84bc
00000050: 3656 333d b6ca 39bc 1a9e 073d 27e3 95bc
00000060: 3383 203c 656e 3fbd 2d50 423d a134 b2bc
00000070: 980d 493c 67e3 963c abc6 143d feed 023d
00000080: e327 40bd e68a 8cbc 86d1 4b3c bade 1cbd
00000090: 5e5d b2bc e212 02bd 1184 febc 9881 d93c
000000a0: e119 ad3b 6e29 2a3d 3e5b 463d 96fd 353b
000000b0: 1d35 20bb bae6 28bc d952 f138 c309 c4bc
000000c0: 84bf c43c da04 b93c 9523 16bc c8be 133d
000000d0: 03df 853c 9e14 e9bb aa8e 09bc 4b53 4bbc
000000e0: c36b 1a3d b549 d63a 14cd d43c 30fd bd3c
000000f0: 3a60 d6bc 3568 ecbc 5a89 aa3b 4608 d53b
00000100: fcd8 103d bba9 09bd 1dcb 803c 1924 03bd
00000110: b2c3 0e3d 3146 273d a025 24bd 04f7 bb3c
00000120: 9bea 26bd 454b 45bd d253 3fbd 1957 ff3c
00000130: 4728 26bd 147c 223d bb86 f63c e71c dabc
00000140: bcff 00bd 9205 e13c a5d3 29bd 02a0 b13c
00000150: 9467 6ebc caf6 d9bc fb89 3c3d 65ef 2abd
00000160: f015 253d 5a50 173d e0e6 83bc 908d 9dbc
00000170: 4cc1 5ebc 3793 0abd 705b f83c 5ab6 49bc
00000180: a299 4b3b 088b f9bc 7c33 963b 7180 2abc
00000190: 3bce db3c 8372 01bd 7a6e c33c a736 79bc
000001a0: 9d53 0dbc b41a 2f3d f937 123d 79a1 373d
000001b0: 0c17 27bb c75b 99ba f2e9 d7bc 975d 59bc
000001c0: 5496 fabc 9396 163d 56c1 9c3c e5e0 16bd
000001d0: c74b 073d 3de1 c0bc 77f1 90bc 663f b93c
000001e0: 3c32 fb3c 90df 233d 52bf 31bc 4717 123c
000001f0: 55cd 38bc e10b c3bc 2b7e eb3c 8528 5dbc
00000200: 8722 3f3d 3513 19bd 9a11 04bc f9dc 2e3c
00000210: 2440 8cbb 3996 d03b d56f 1a3c 3a77 94bc
00000220: 45f6 11bc e4d7 2d3c 0474 3c3d 4abe 303d
00000230: 4804 f73c 6391 4bbc e55a 3abd 6203 ef3c
00000240: 06fc 013d 80a1 1cbd 6006 f33b 606a d03a
00000250: 0f50 c13c 9cb8 043d 79c5 803b ac24 aabc
00000260: 2475 f5bb 2ce8 bbbc 5715 223d 552e 14bd
00000270: 9843 233d 09cf f93b 2fe2 8bbb 745a 953c
00000280: 9743 8ebb 85b5 be3c 2423 c03b ad7f d23c
00000290: 0787 abbb 0561 e0bc b5e7 723c 6330 98bb
000002a0: 3325 c03c 433e 15bd ef49 a53c 02a4 ccbb
000002b0: 3a3b f5bc 9a53 8dbc 45be c03b e610 8a3b
000002c0: 8a96 e8bc ad0e 2abd 07b1 30bd cc53 88bc
000002d0: d79c 3a3b 2f28 b8bc 5ba4 463d fafe 2a3d
000002e0: 3e03 3dbd 8137 5d3c 03ad 763c 1eb6 563c
000002f0: 7a09 ac3c 1ea6 49ba 2d0d acbc 0206 cfbb
00000300: 388c a83c 84de 21bb 62b0 833b 31e6 f3bc
00000310: 91c3 a1ba 79e3 563a 8dba d7ba 007e 78bc
00000320: 40e6 c1bc 86f1 90bb 5eed 1dbc ed74 3c3b
00000330: 7929 0ebd b93d f23c c17b ed36 9b71 cabb
00000340: 2442 0d3a 098f 1d3d 00f1 00bc e09f 643b
00000350: 6c3c 0dbd a887 33bd 0826 2e3d e2ab a83c
00000360: e85d 1c3d c0c7 b8ba 790b 1a3d 0a4e 79bc
00000370: 8dc0 8c3c 4f8e 0a3d bd32 f43c 7aa1 30bc
00000380: 24e4 013d 1a55 1b3d 4253 4a3d fcdd 7fbb
00000390: 5698 e0bb 0597 073d 1339 b43c 80e7 3cbd
000003a0: 8ebd 2dbc a1c3 1a3d bab9 0fbd e0ec 453d
000003b0: 79a0 343c d320 d33c 0c49 953c 0d01 1cbd
000003c0: 5680 04bd f542 123d d0bd 04bd 03b4 3a3d
000003d0: 2f2f 6dbc 3382 053d 8055 04bd 4d30 79bc
000003e0: 4dd9 0ebd e355 343d eef8 973c 4c69 6f3c
000003f0: 2106 e9bc f780 a93c 5473 1f3d d064 5cbc

nonreduce2_2.bias f4 [16]
0.050838724 -0.025000798 0.039088648 0.014470303 -0.041889295 0.0014908125 0.022105884 -0.014275711
0.01997123 0.018788196 0.010407055 -0.039478388 -0.045157734 0.047809437 -0.042154837 -0.035523012
00000000: 443c 503d 79ce ccbc 6b1b 203d da14 6d3c
00000010: 1c94 2bbd 5e67 c33a 6617 b53c ace4 69bc
00000020: b49a a33c b4e9 993c 5a82 2a3c 17b4 21bd
00000030: 51f7 38bd d4d3 433d 8daa 2cbd 9480 11bd
