02_deep3D/model/model_dwig.pt (torch, 739938 bytes, 25 tensors)

reduce1.weight f4 [64, 1, 4, 4, 4]
00000000: 60e9 11bc 7750 d73d 1b25 443c 1b66 ae3d
00000010: 017a b2bc 6071 1c3d 0b7e e3bd 9a6a f73c
00000020: 7944 f2bd 3142 4ebc 9051 5e3d 6eb0 a2bd
00000030: 37d1 4fbd 51d2 9f3d ef04 d03c 9b2a dcbc
00000040: 625f ae3c d060 b6bd d391 6a3d 50ce 833d
00000050: dc9b 91bc 472c e8bd 5f6d 8c3d 6923 313d
00000060: dacf db3d cdc1 083b 0e87 de3d 95ee 8bbd
00000070: d998 d43d c030 6a3d 489f d6bd 9850 ba3d
00000080: 9ba8 b23d 5412 dabd ca82 e8bb 0a68 d5bc
00000090: 4c5a c03d 6542 c53d 71e9 74bb 4e90 b2bd
000000a0: a312 d5bd c0d3 13bd dba3 a83c 0bc4 953d
000000b0: 6a72 783d f235 623d 728a e3bb 9aa8 47bd
000000c0: f8e0 35bd 3da9 4bbd 996c f0bc 9049 093d
000000d0: edab 9e3d cb2c d03d c7df d8bd 9418 eabd
000000e0: 1ea9 113d fa55 e8bd 30dd 9a3c d2e1 763c
000000f0: 5cc2 aebd 8609 09be 9290 a43d c67c 41bd
00000100: 0517 24bd 7b8e 40bd 8224 583d 0fac edbd
00000110: 5456 f83c 07ed e53c 258e ed3b 9bf0 c0bd
00000120: 29a9 523d b619 e73d 3993 8fbd e707 a63d
00000130: f502 a73d 2089 d03d 4b4a 1f3d 2abc c7bd
00000140: f0c4 073c cab6 92bd 6cf3 bd3c 7801 b5bd
00000150: 8e6f d1bd 2b29 903d 4d71 febb d48d 543c
00000160: 34b8 183d d57a 1c3d 1b79 243d 02cc fe3c
00000170: b378 afbd 2e4d 95bd 8a02 873d 1c89 dcbc
00000180: 44e5 a53d 0a54 00be ca88 e13b 7e62 a5bd
00000190: 8cf3 87bd 6aa2 c23c 375f d4bd 32ad b5bd
000001a0: 357f d6bd 6d1b e43c b9f5 28bd e86c ee3d
000001b0: 008d df3d b608 ae3d adab 723d 488a e23c
000001c0: 263d 093c 9bb8 213c 005b 8abd 7ab1 3fbd
000001d0: ff9a e33d a1ef cabc 5677 79bd fd51 12bd
000001e0: 1310 0b3d ec40 993d ee24 623c 885f ba3d
000001f0: 2e67 893d 8421 d7bd 3970 c73d c8ec 67bc
00000200: 2e78 583d dda8 753d 19ec e5bc 154e a8bd
00000210: 3f9e 893d ccb7 d7bc 2863 3fbc b35c dbbc
00000220: 2745 c43d 596d 07be 95d8 a2bd 600b b03c
00000230: 3405 efbb 7849 1c3d 6c17 30bd 2b15 a83c
00000240: 4a49 e43b d5b0 173d f3c1 a1bd dec8 973c
00000250: 088f 1e3d 0d79 bb3d f7cb fabd 4bd1 65bd
00000260: d978 5a3d 7ac3 2a3d bf30 25bd 13f9 01be
00000270: 466c a23d 245a 54bb 21ec 2c3b fbea bb3c
00000280: c609 30bd 5ccf 463b c211 6a3d 3f6d d33d
00000290: 2af7 043d 551c 1e3d 27ee 403d 704f 993d
000002a0: 18e1 bfbc 6b18 ee3c 16ba 083d af52 5f3d
000002b0: 4f4f 373d 0e26 a03d 7499 c6bd ebd8 03bd
000002c0: ffc3 abbd 29d3 c1bd 455d 6ebd 834b f6bd
000002d0: 2268 bc3d d97f cc3d 71df d13d 0724 47bd
000002e0: 7397 a43d 5af2 7bbc f02d e3bd 3b2c 03be
000002f0: 0abd cfbd 4699 b83d c206 01bd 4c2c dcbd
00000300: ca6c 41bd 695a 6abd 9e3a 783d fcef abbb
00000310: dc60 cbbb 7401 05bb ed6f 0bbd 7798 ce3d
00000320: 47b9 803d b414 d7bd 1aeb 91bd 1a69 df3d
00000330: d58b abbd 8891 74bd d331 003d 454c 89bd
00000340: f13b 923c 19e9 7d3d eaf6 3abd 7774 35bd
00000350: 2dc9 953c 955e 0d3d 5958 fcbd 81fb 323d
00000360: 09e6 debd c2b9 b3bd e510 c6bb 5cb9 36b8
00000370: de26 80bd 2f61 c8bd 78e0 c3bd 0fba 80bd
00000380: f453 1cbd 515c 99bd e97c a03d a9e8 093d
00000390: 9acd c0bd 39aa a13d 0677 463d 1463 11bd
000003a0: a895 9c3d 64e3 c1bd 452e 193d 7646 b93d
000003b0: 52ce c7bd 3074 da3d 9876 cbbd cee0 bdbd
000003c0: 7373 ce3d b965 bd3d de4f 23bd d25c 4f3d
000003d0: 0030 b53d bb90 f6bc 1948 b13d b22a b3bd
000003e0: c085 2b3c fcd6 3fbd 15b5 fabc b934 78bd
000003f0: c31c 7c3d 7b97 ec3d c8a7 ebbd e609 d0bd
-0.008905739 0.10513394 0.011971737 0.08515569 -0.021786692 0.03819406 -0.11108025 0.030202199
-0.118294664 -0.012589023 0.054277003 -0.079438075 -0.050736632 0.078037865 0.025392978 -0.026875785
0.021285716 -0.08905184 0.057267975 0.06435835 -0.017774515 -0.1133657 0.068567984 0.04324666
0.10733004 0.0020867467 0.108656034 -0.06832615 0.10380716 0.057175398 -0.10479599 0.09097403
0.08723565 -0.10648027 -0.0070956694 -0.026050586 0.09392223 0.096318044 -0.0037370587 -0.0871893
-0.10403945 -0.036090612 0.020585945 0.07312783 0.06065599 0.055227228 -0.006943994 -0.048744775
-0.044404 -0.049721945 -0.029348658 0.03351742 0.07747636 0.101647936 -0.10589557 -0.11430469
0.035561673 -0.11344524 0.018904299 0.015068488 -0.08533165 -0.13382539 0.08035387 -0.047238134
-0.040061016 -0.04701088 0.05276919 -0.11605083 0.030314602 0.028067125 0.007249611 -0.09420892
0.051430855 0.11284201 -0.07010502 0.08106976 0.08154861 0.101824045 0.03888921 -0.09752686
0.0082867 -0.071637705 0.023187362 -0.08838171 -0.102263555 0.07039102 -0.0077649713 0.012973268
0.037285045 0.03820308 0.040154558 0.031103138 -0.085679434 -0.072901115 0.06592281 -0.026920848
0.081003696 -0.12532058 0.0068827616 -0.080754265 -0.0663825 0.023759086 -0.10369723 -0.08870925
-0.104734816 0.027845109 -0.041249964 0.11641866 0.109155655 0.08497755 0.059245754 0.027653828
0.008376395 0.0098706735 -0.06755638 -0.046800114 0.111135475 -0.024772467 -0.060904823 -0.03572272
0.033950876 0.07483086 0.01380275 0.091002524 0.06709133 -0.105044395 0.09738202 -0.014155574
0.052848987 0.059975494 -0.028066682 -0.08218018 0.06719636 -0.026332758 -0.011681356 -0.0267776
0.09583502 -0.13225307 -0.07951466 0.021489799 -0.0072943214 0.038156003 -0.042991087 0.020517906
0.0069667445 0.037033875 -0.07898321 0.018528398 0.038710624 0.09153948 -0.122459345 -0.0561078
0.053337906 0.041690327 -0.04032969 -0.1269267 0.07930808 -0.003240236 0.002638586 0.022939196
-0.04297807 0.0030335998 0.05714584 0.103235714 0.032462277 0.03860124 0.04710212 0.074858546
-0.023422763 0.029064378 0.03338059 0.054522213 0.04475337 0.07819758 -0.096972376 -0.03218929
-0.08386993 -0.09464104 -0.058194418 -0.120261215 0.09199549 0.099853225 0.10247696 -0.048618343
0.08036699 -0.015377605 -0.11092746 -0.12809841 -0.10143478 0.090136096 -0.031500585 -0.107506365
-0.04722289 -0.057215128 0.060602777 -0.005247114 -0.006206615 -0.0020295056 -0.034042288 0.10087674
0.06285339 -0.10501996 -0.0712492 0.109087184 -0.0837628 -0.059709102 0.031297516 -0.067040004
0.017850848 0.061989877 -0.04564563 -0.044300523 0.018284405 0.03451403 -0.123215385 0.043696884
-0.108837195 -0.08775665 -0.0060444945 -4.356481e-05 -0.06257413 -0.09784161 -0.095642984 -0.06285488
-0.038166 -0.07488311 0.07836325 0.033669148 -0.094142154 0.078937955 0.048453353 -0.03549488
0.07645732 -0.094671994 0.03739764 0.090466425 -0.09756149 0.10666692 -0.09934729 -0.09271394
0.10080614 0.09247918 -0.03987109 0.05062563 0.08847046 -0.03009831 0.0865633 -0.08748378
0.0104689 -0.046835884 -0.030603925 -0.060597155 0.061550867 0.1155233 -0.11506611 -0.10158138

reduce1.bias f4 [64]
00000000: 92a7 87bd 1a81 553d 2d09 a13c dcdb f4bd
00000010: c78b e9bd 22a4 bd3d ea66 363d 243c 07bd
00000020: 8253 5fbd 3a13 fdbd b796 a93d 284d 073e
00000030: b875 f33d 070e c83b e7a1 503d b807 c8bd
00000040: f1c3 cb3d 35a6 1bbd 3cc8 093d cfe4 aa3d
00000050: fcfc 9fbd be2c fe3d 9569 32bc 0b40 e4bd
00000060: 5fa6 94bd 9b0b eabd 19d2 683d d74e c5bd
00000070: 3214 023e ad01 843d 6f58 b53d b854 adbd
00000080: e596 5bbd 6dd1 0f3e 65da 073b 095e 903c
00000090: 9ce4 00be 1a2c 503d f4b0 fd3b 39d4 ed3d
000000a0: 3e75 ecbd 0fbb c63c 53d8 c83d b196 d0bc
000000b0: b428 e5bd 96f5 213d 7920 62bd 180a c0bd
000000c0: 5fed 6e3d 90a5 d4bd ff37 103d e290 ad3d
000000d0: 40f7 703b de7e a53d 2b61 7c3d 026e f73d
000000e0: 396a cd3c fa5a 3a3c 1825 fbbc b258 a53c
000000f0: e2b6 343d b1f9 1f3e fc6e d7bd 7973 f0bd
-0.066237584 0.052125074 0.019657696 -0.11955997 -0.114036135 0.092598215 0.04453174 -0.03301634
-0.054523 -0.12357183 0.082807 0.13213027 0.118876874 0.006105188 0.050935652 -0.09767097
0.09949482 -0.038000304 0.033638224 0.08344423 -0.07811925 0.12410878 -0.0108894305 -0.11145028
-0.07258295 -0.11427995 0.05684099 -0.09634178 0.12703016 0.06445632 0.08854758 -0.084634244
-0.0536107 0.14044733 0.0020729539 0.017622964 -0.12587208 0.05082331 0.0077420417 0.11612744
-0.115458 0.024259118 0.098068856 -0.02546248 -0.11189404 0.03954085 -0.05520675 -0.09376925
0.058331843 -0.10383141 0.035209652 0.084749 0.0036768466 0.080808386 0.061616104 0.12081529
0.025075065 0.01137423 -0.030657336 0.020183895 0.044119723 0.15622593 -0.105192155 -0.11740775

nonreduce1_1.weight f4 [32, 64, 3, 3, 3]
00000000: 2bff ee3c 345b dd3c abe6 1ebc cf1c 463c
00000010: 4744 c23c 02fe 8d3c 61fc 003d cda1 10bb
00000020: 0901 8bbb 3eca 36bc b0db eb3b d3bc fd3c
00000030: 6aaf 193a e87a 3c3d a478 803c cf3a 403c
00000040: 966a 223d 05f9 0f3d eb76 db3c 3df1 3a3d
00000050: b029 f93c a95e 963c cc6a 663d 5d84 543d
00000060: 4d6e ee3b b05f 923c 5634 8a3d c0f0 5d3b
00000070: ff23 573c 36ee 50bc b764 03bc afb6 123c
00000080: 4264 d3bc 752a c4bc c3e9 3c3b 7604 173c
00000090: 1fd9 88bc e5a7 46bb 2f99 7c3c 1450 09ba
000000a0: 70d5 323c f260 ac3c 4b7f 06bc 467f e6bb
000000b0: 64de bb3c b66f 85bc 0967 363c 3a83 233c
000000c0: 5a1d 693a 52aa 6b3b 5332 b13c 5605 a53c
000000d0: 6cc4 82bc 44d0 803b 89bb 893c b3fa 943c
000000e0: c000 f73b 6dbb cd3c 8b71 34bc 0fda 0c3c
000000f0: 884f 283c 4113 a83c f89a a33c 5ce1 903c
00000100: 3f44 8b3c 6d36 3f3b fca2 253c 01ab 073d
00000110: bdaa 87bb 0b35 963b be4a 21bb 78e7 873c
00000120: d36e b9bb c433 a83c d9bf e03a 200a f63b
00000130: c659 a33c a5bf 593c 6525 b23c 92d4 ac3a
00000140: 8093 15bc 582c 183c e9e8 ab3a 8dc6 d2bb
00000150: 843f 7abc 2ead 023b a720 2e3b c03e 9a3c
00000160: acbf 94bc f9b3 8a3c 513f 073c a20b 41bc
00000170: 7d75 6d39 7cdd 84bc 015c 833c 74db e5bb
00000180: 8af4 91bc 8f9d ae3a a41d f0ba 19d4 09bb
00000190: cb8e 84bc 888c b23b 03c4 7e3c 5f35 743c
000001a0: 29de d73b 4bbd 87bc e4ad 963c e7cd 93bc
000001b0: ee50 5abc b0da 8bbc 343f 513c 3b81 673c
000001c0: 1cab a8bc b5b4 1a3a d13a c63c a149 8e3b
000001d0: f4bc b83a 4f01 5ebc 53c7 b63c e6a9 6bbc
000001e0: 665f 8f3c cf42 843c b5b1 6a3c ba81 df3b
000001f0: f4d1 97bb 449b b93c 7dd7 f43b 29ae bb3c
00000200: 6eb7 58b9 590a 813c 12d0 82bc 09e2 8dbb
00000210: 63b8 74bc 0d44 00bc b2e2 2d3c b141 86bc
00000220: 5ca7 a73a 06a6 43bc cd1d 093c 51ed b4bb
00000230: 70a8 943c 2e37 a1bc 8a19 cc3c 4f74 ddbb
00000240: b2ac 903c 8a2c 5c3c 65cb 603c 3bf4 95bc
00000250: 241e 293c 7692 a73c b55c 4d3b 6da6 f3bb
00000260: 17ff 54bc 365c 313c d62b 2c3c 30ae 5abb
00000270: 4196 433a c205 ba3c 80c2 03bc 70a7 be3c
00000280: 59b2 41bb 902b d43c 09ad d53c 0f84 413c
00000290: f172 9dba a328 1cbc 11db ac3c 3514 c83c
000002a0: 3cac 613c 1f40 143b 3ba1 cd3c 3970 393d
000002b0: 089b 853c 1af5 0d3d e06f 233d b35d b83c
000002c0: 848d 383c 2e90 263c 5583 a9bb 1ca9 e03c
000002d0: c09e 1e3c 0740 363d d004 823c 41a7 0e3d
000002e0: e4ee 1e3d fded 423c d69e 33bc 5d15 8d3c
000002f0: b0c5 f2bb 235e 7439 2497 513a a855 223d
00000300: 8b27 933c 007d 5c3c 9ee1 423c fe0d 53ba
00000310: 684f ab3b 8f3f ae3c 1e93 143c d5fe 393d
00000320: f212 c43c e26b aa3c 0f95 4e3d 45f4 073d
00000330: a6ca a03c ff29 473d 08fd 663d a7f7 e83c
00000340: a75a 2b3d 5f33 203c 3d6f 153d 3928 0d3d
00000350: 05f9 013d e8a4 ec3c 610e 8a3c 50d2 883c
00000360: 506a 043e b101 833d 0367 393c 3d44 983d
00000370: b971 383d 9a9d 6fbb a214 2f3c 57ec dbbb
00000380: 19e0 663c 544d 313e cc02 ac3d 264d 133d
00000390: 6ff2 3b3e a87a 793d 3bb0 2d3d 5845 cb3d
000003a0: 8be8 653d 4028 fd3c 4868 9e3d 59c9 183e
000003b0: 9789 313d 11db b23d 2d93 1f3e 7ebb 163d
000003c0: a978 963d 2201 b13d d611 2c3d 6ed0 11bb
000003d0: 67b9 87bb a03f 503c cdc2 5a3c a0c9 20bc
000003e0: 33d3 b23c d3d8 43bc fee5 013d f783 4a3c
000003f0: 7c96 073d f2d5 b1ba 0224 563b 7df9 1abc
0.029174408 0.027021028 -0.00969855 0.012091829 0.023714198 0.017333034 0.031490687 -0.0022069097
-0.0042420668 -0.011156617 0.0071978197 0.030973827 0.00058626255 0.04601565 0.015682526 0.011732771
0.03965243 0.035149593 0.026790103 0.04564022 0.030415386 0.018355684 0.056254193 0.051884044
0.0072763325 0.017867893 0.067482635 0.0033865422 0.013131141 -0.012752106 -0.008019618 0.008954688
-0.025804643 -0.023946026 0.0028825856 0.009217372 -0.016705094 -0.0030312475 0.015417381 -0.0005238068
0.010915145 0.02104232 -0.00820906 -0.007034215 0.022933193 -0.01628862 0.011132964 0.009980017
0.00088926184 0.0035959673 0.021630442 0.020144146 -0.015962802 0.003931077 0.016813057 0.018185949
0.007537931 0.025113786 -0.011013399 0.008596911 0.010272868 0.020516993 0.019971356 0.017685585
0.017000316 0.0029176727 0.010109659 0.033122066 -0.0041402266 0.00458396 -0.00246112 0.016589865
-0.005658963 0.020532496 0.0017147019 0.007508531 0.019940268 0.0132903205 0.021746347 0.001318591
-0.009129405 0.009287916 0.0013115677 -0.0064323605 -0.015273932 0.001993965 0.0026569755 0.01882875
-0.018157803 0.01693152 0.008254842 -0.011782559 0.00022645849 -0.016218893 0.016035082 -0.0070146862
-0.0178168 0.0013322103 -0.001831938 -0.002103096 -0.01618137 0.0054488815 0.0155496625 0.014905303
0.006587763 -0.016569754 0.018393464 -0.018042518 -0.013324959 -0.017072052 0.012771416 0.014129932
-0.020589404 0.0005901561 0.024197968 0.0043422733 0.0014094398 -0.013550117 0.022311842 -0.014383769
0.017501544 0.016145138 0.014324595 0.0068208845 -0.0046331827 0.022657044 0.0074719773 0.022910194
-0.00020667698 0.015752004 -0.015968356 -0.004329924 -0.014936539 -0.007828725 0.01061313 -0.016388746
0.0012790966 -0.011941439 0.0083689215 -0.0055214544 0.018146724 -0.019679632 0.024914522 -0.00675825
0.017660473 0.013438353 0.013720368 -0.018304935 0.0103221275 0.02045558 0.0031335775 -0.007435611
-0.013000271 0.010825207 0.010508498 -0.0033367984 0.0007461049 0.022707824 -0.008041978 0.0232732
-0.0029555766 0.025899678 0.026083486 0.01181127 -0.0012012405 -0.009531173 0.021100553 0.024423698
0.013773974 0.0022621227 0.025101295 0.04527304 0.016309276 0.034657575 0.039901614 0.022505617
0.011264209 0.010166211 -0.0051731267 0.027424388 0.009681404 0.044494655 0.015871435 0.034827475
0.038802043 0.011897561 -0.010963162 0.0172221 -0.00740882 0.00023304722 0.0007995239 0.03963247
0.017963191 0.013457537 0.011894612 -0.0008051096 0.005227972 0.021270541 0.009068279 0.045409042
0.023934815 0.020803396 0.050435122 0.033191938 0.01962788 0.048624035 0.056393653 0.028438402
0.0418345 0.009777873 0.03648304 0.034462187 0.031731624 0.028887227 0.01685256 0.016701847
0.1293118 0.06396807 0.011316064 0.074348904 0.04503033 -0.0036562444 0.010686072 -0.0067115235
0.014091515 0.17314655 0.08398971 0.035962246 0.183542 0.06090799 0.042404395 0.09925336
0.056129973 0.030902982 0.07734734 0.14920558 0.043344107 0.0873319 0.15583487 0.0367999
0.07347233 0.08642794 0.042009197 -0.0022249478 -0.0041419747 0.012710482 0.013352108 -0.009813696
0.021829223 -0.01195355 0.03171348 0.012360564 0.033102497 -0.0013567789 0.003267527 -0.009458897

nonreduce1_1.bias f4 [32]
00000000: 231e 8e3c 5057 563c cb9e 9abc 3b35 69bc
00000010: 41b0 96bc 0f8c b2bc 8625 6f3c 6de2 c9ba
00000020: d157 08bb 7bb3 a0bc bce1 b2bc 535c 19bc
00000030: c404 0b3c 0e81 9e3c 92bb 77bb f9aa 72bb
00000040: 9716 f33b 722f 573c 7be5 bcbc bded e6bc
00000050: d21b 05bb a61c e0bc aebe c63c 48ae 93bc
00000060: 1efd 76bc b34d a7bc 2b6f 7cbc 97fb d8bc
00000070: 4816 033c db7b 8c3b 0207 bfbc 7f6c 783c
0.017348355 0.01308234 -0.018874547 -0.014233883 -0.018394591 -0.0217953 0.014596349 -0.0015402563
-0.0020804296 -0.019616833 -0.021836154 -0.009360391 0.008485023 0.019348647 -0.003780101 -0.0037028177
0.0074184644 0.01313387 -0.023058644 -0.028189534 -0.0020310772 -0.02735741 0.024260845 -0.01802744
-0.015074996 -0.020422792 -0.015407364 -0.026487155 0.008000918 0.0042872257 -0.023318771 0.015162586

nonreduce1_2.weight f4 [32, 32, 3, 3, 3]
00000000: 9904 57bc e9e2 e33c 1937 4b3c 2cf4 123d
00000010: 9214 db3b 05be bbbc 3ac5 9f3c 18a2 4fba
00000020: 0a5d bf3c 5fc6 a23c b344 f33c 4a98 1a3c
00000030: 11ef 6fbc dd9c a1bc c153 5f3b 2f4f c7bc
00000040: ef7e 2f3b 3255 61bc b1a9 e1bc cf62 083d
00000050: 37e4 0c3d 898d 643c 2e83 f23c 5108 28bc
00000060: 6b5a d5bc 1288 123c d03f 403c bc2b a23c
00000070: a4e4 0d3c 942f 8d3c 9ffe 823c d0e8 a5bc
00000080: 6e5f 453c c798 7ebb ab21 47bc 05d4 cf3c
00000090: b5ba 363c 8edb f13c 70f0 bb3c 9d56 183d
000000a0: 282f 72bb f864 513b 4c62 653c 999b bc3c
000000b0: 2b1a 9bbc 3704 b03c a80f 43bb 1683 a13c
000000c0: 6111 633c 04a1 853c e02f af3c ccb1 4cbc
000000d0: 1fcd 1e3d 2f42 6cbc e3c8 433c 861b 343c
000000e0: 3574 9bbc f23a 7e3b ae0b bb3c 0be5 e839
000000f0: 1bda d23c f75b 043d 351b 873c a4c0 143d
00000100: 35c6 e0bb d6b5 aa3c e0a5 503c bddf 6a3c
00000110: 11c5 113d db08 e93c 90e8 593d 32d2 eabb
00000120: 3993 2abc 1c40 f63c 025f acba e4ac fa3b
00000130: 8c6d 083c a1b0 a43c 5483 883b 129e 03bc
00000140: d4ee 1a3d 3dc4 d63c 1dcd 093d b4a5 04bc
00000150: c394 d7bc d8ac 153d 03df 9aba ac09 e1bb
00000160: cfe1 4dbc a988 a13c b612 6e3c a3c4 13bc
00000170: efaa 99bc eacd 55bb f461 0b3d 0b65 d53a
00000180: d30d 2c3c e038 c83b 3063 6a3c b661 ee3c
00000190: fca3 d0bc d5a4 793c efef 8f3c b4ff dcbc
000001a0: 6f04 b439 6216 e0bc e793 46bc a745 49ba
000001b0: 05d1 1039 524b 52bb 3c36 113d 3633 bb3c
000001c0: bc04 b1bc b852 c63c 6a33 923c b6bc fabb
000001d0: a573 ef3c f90c de3c fb04 0c3d 2a5f 163b
000001e0: bedc b6bc 8924 4a3a f131 9b3c 3e17 cd3c
000001f0: 8264 d9bc 101a db3b 6746 b33c df61 423c
00000200: dadd 053d e594 dbbc 1dac aebc 8705 b73b
00000210: 9a6b a83c 3be7 e83c 468e dd3c cba6 35bc
00000220: 342f 35bc 8f2d 81bc 9c88 4e3b 1aca d53b
00000230: 1351 fcbc 0134 823c f187 8fbc 5fb5 5abc
00000240: 434d 043d 4a2d d83c 79b3 243c 69b5 933c
00000250: a0d6 ba3c 014f 073c 9483 d6ba 2344 d73c
00000260: daa5 8c3c 853c e2ba b37d e83c 91fc ca3c
00000270: d549 693c 94cb 453c 2a72 5cbc 8fde a83c
00000280: cb15 883c d7b5 1abc 5f34 093d 65b7 0c3d
00000290: 99d4 5539 2075 2fbc d2c5 233c 34ba 283c
000002a0: 8356 86bc eb33 af3c b2e6 9cbc 3c19 a8bb
000002b0: 0662 8d3c 7f59 9a3b c707 9ebc 09e6 403c
000002c0: 0c7f 0039 705e b8bc f217 14bc 6116 50bb
000002d0: 7cf5 8dbc e543 bbbc de5f 503c 51f6 d03c
000002e0: 55d9 afbc 637f 07bb 0b9b ad3c 518d 403c
000002f0: 9a40 113d 8827 943c 470c c13c bfd3 a53c
00000300: bf48 043d a19f b0bc 6843 013d 65ca e0bb
00000310: 1289 a3bc 403c 3cbc e6cc 273c 1258 6cbc
00000320: b122 a7bc 43e9 37bc 13fc d5bc 9e1c 7e3c
00000330: 2c2f b83c 9737 0c3c 2577 44bc 1b3b f73c
00000340: 98d4 c13c 2ff0 2abc 7cee 4bbc 2a9a 933c
00000350: a277 95bc b51c 15bc 8d7e 08bd 1464 a1bb
00000360: 725a b03c 7ea8 043c aecc e7bc 0b21 073c
00000370: 2ca2 dc3c 5959 023d f549 6e3c 61e7 3abb
00000380: 55b7 2bb9 2c1e 633b 2f28 dd3c cf81 12bc
00000390: 534f ce3a d8ac 693c b2f0 a2bc 7ccc 813a
000003a0: 452c 243d 4bdf 193d fec0 30bc ef8e 6abc
000003b0: 64ca b83c 24d6 0f3d 23b2 1f3d 047b b13c
000003c0: 87d9 ba3c dcae a6bc f7a8 003d d2b3 03bd
000003d0: 3a7d d2bc 578c 14bc 16a5 8ebc 07dd cf3c
000003e0: 1a39 f9bb 3bdb 763c 1f16 1f3c a6e9 9c3c
000003f0: 4967 51bc f986 383c fa1f 323c 6de9 963c
-0.013123655 0.02781816 0.012403273 0.03587739 0.006685802 -0.022917757 0.019503225 -0.0007920577
0.023359794 0.019869981 0.029695844 0.009435723 -0.0146444 -0.019728119 0.003407702 -0.02432975
0.002677854 -0.013753222 -0.027546735 0.033297356 0.03439733 0.01394976 0.029603567 -0.010255889
-0.026044091 0.0089435745 0.011733964 0.019796245 0.008660469 0.017234601 0.015990553 -0.020252615
0.012046678 -0.0038848387 -0.012154023 0.025369653 0.011152913 0.029523637 0.022941798 0.037191976
-0.0036954377 0.0031951051 0.014000487 0.023023413 -0.018933376 0.021486385 -0.002976397 0.019715827
0.013859124 0.01631213 0.021385133 -0.012493562 0.038769837 -0.014420076 0.011949751 0.01099289
-0.01897631 0.0038792458 0.022832718 0.0004442114 0.025738766 0.032314267 0.016492466 0.03631653
-0.0068595656 0.02083866 0.01273486 0.01433557 0.035588328 0.028446605 0.053200305 -0.0071661705
-0.010411077 0.030059867 -0.0013150873 0.0076500047 0.008326899 0.020103754 0.004166046 -0.008033292
0.03782542 0.02621662 0.033642877 -0.008096147 -0.026316052 0.03654179 -0.001181573 -0.006867608
-0.012566044 0.019718485 0.014530828 -0.00901905 -0.018758265 -0.0032623955 0.034028962 0.0016280724
0.010501343 0.0061102957 0.014305875 0.029099327 -0.025468819 0.015237053 0.017570464 -0.026977398
0.0003433558 -0.027354423 -0.012120224 -0.00076779205 0.00013810776 -0.0032088351 0.035452113 0.022851568
-0.021608703 0.024209365 0.017846782 -0.0076518906 0.029229948 0.027105795 0.034184437 0.0022944906
-0.022322055 0.00077111326 0.018944712 0.025035497 -0.026537184 0.0066864565 0.021884156 0.011864155
0.032682277 -0.026804397 -0.021322304 0.0055853757 0.02055912 0.028430572 0.02704538 -0.01108713
-0.011058617 -0.015768794 0.003151453 0.0065243365 -0.030800378 0.015893938 -0.017520877 -0.013348906
0.032300245 0.026388783 0.010052555 0.018030839 0.02280742 0.008258582 -0.0016366118 0.026277607
0.017168928 -0.0017260468 0.02838025 0.024778636 0.014238794 0.012072463 -0.013454953 0.020613937
0.016611954 -0.009442768 0.03349721 0.034354586 0.00020392462 -0.010709077 0.0099958945 0.010298301
-0.016398674 0.021387061 -0.019152973 -0.0051299613 0.017258655 0.004710376 -0.019290818 0.011773595
0.0001225436 -0.022505969 -0.009038912 -0.003175162 -0.01732897 -0.022859523 0.012718169 0.025508078
-0.021465937 -0.0020675294 0.021192094 0.011752442 0.035462 0.018085256 0.023565425 0.02024257
0.03229594 -0.021560492 0.031558424 -0.006860065 -0.019962821 -0.011488974 0.010241723 -0.0144252945
-0.020402284 -0.0112250475 -0.026121175 0.015509753 0.02248343 0.0085581755 -0.011991297 0.03017955
0.023660943 -0.010433241 -0.012446996 0.018017847 -0.018245522 -0.009101083 -0.033323813 -0.0049252603
0.021527503 0.008096812 -0.028295841 0.008247624 0.026932798 0.03182349 0.014544 -0.002851926
-0.00016376127 0.0034655435 0.0269967 -0.008942082 0.0015740193 0.014262401 -0.019890163 0.000990286
0.04008128 0.037566464 -0.0107882 -0.014316305 0.022557445 0.03511633 0.038988244 0.021665104
0.022808803 -0.020347051 0.031411137 -0.032153912 -0.025694478 -0.009066663 -0.017412703 0.025373949
-0.007605684 0.015066917 0.009709864 0.019154381 -0.012780973 0.011262649 0.010871882 0.018421853

nonreduce1_2.bias f4 [32]
00000000: e74a 163c 0058 9b3c b70f 2b3b fae9 b6bc
00000010: 3f62 c8bc fbf2 603c fc9f 02bd 762b d7bc
00000020: 1688 34bc 773d 063c 80b3 f9b9 a478 9cbc
00000030: 2639 0ebc 9270 c43c 7058 8abc e563 ad3b
00000040: 2dfd a83c 327f be3c d633 e9bc 2a63 d43c
00000050: fb7c f7bc fc4b 06bd 5bf6 51bc 53ad 63bc
00000060: 30f0 7f3c 3957 e3bb ec65 12bd a16f e33a
00000070: ed80 ddbc 8b9d 55bc 7221 e43c bc7a 523c
0.009173132 0.01896286 0.0026101896 -0.022328366 -0.02446091 0.013729806 -0.031890854 -0.026265841
-0.011018774 0.008193365 -0.0004762672 -0.019100495 -0.008680617 0.023979459 -0.016887873 0.0052914494
0.020628536 0.02325401 -0.0284671 0.025926191 -0.030210963 -0.032787308 -0.012815083 -0.013896304
0.01562123 -0.006937888 -0.03574173 0.0017351994 -0.027039016 -0.013038049 0.02784798 0.012846645

nonreduce1_3.weight f4 [32, 32, 3, 3, 3]
00000000: 4740 0e3c bccc cfbc 1ead c2bc c5d8 89bb
00000010: a11b 213c 1cf6 87bc c589 993c 14e5 dbbb
00000020: f8eb 4c3a acb7 b0bc 6e48 e33c 8c5d b6bb
00000030: 5517 263b 6662 043c 2036 24bc 56d4 3838
00000040: 60d5 ca3b 7621 87bc ee24 c8bb 14e2 093d
00000050: e284 0139 7499 073d 7c32 02bd 1009 a1bc
00000060: 1e5f f53c 9b81 d53c 233d babc 3d49 edbc
00000070: 6f55 753c f2f5 c6bc df12 7a3b 4bc2 ae3c
00000080: f335 94bc db9c 97bb b86b 90bb c710 71bc
00000090: 03f1 abbc 282a 8a3c 033c e5bc 2b6b debc
000000a0: 83d3 52bc 260f fb3b b66c 07bd d770 d43b
000000b0: 7687 1fbc 0d2d d03c 2cb9 e5bc 5a5e 073d
000000c0: a7a7 71b9 0d6c c13c be82 643c c144 a1bb
000000d0: d37e 99bc 9960 44bc b382 cabc 1463 efbc
000000e0: 05cf 8dbc 4ac4 d5bb 43c3 613c 2985 a33c
000000f0: da9a 0ebc 748f e939 7dc6 923c ba20 81bc
00000100: 0a7d 20bc 3e85 833c 83bd 84ba 4662 803c
00000110: 6772 03bd fdfc efbb 0193 ceba 9e48 4c3c
00000120: 676d a6bc d1da 40bc 15a8 ceb9 eadb ddbc
00000130: c2c8 1bbc 122f 36bb 86ba 803c 8fb3 46bc
00000140: 2c7f b5bc f020 39bc 800a 5c3c b81c 0c3c
00000150: db64 1d3b aa8f 023d d516 8c3c d985 bb3c
00000160: f6a6 96bc 27fe abbc 1f7b b23c 3c40 10bb
00000170: 8f50 f73c bc02 db3c d6bc fcbb 3e2f b93c
00000180: 4e57 2f3c 6195 debc 08b8 bc3c f61d e43c
00000190: ccad 7fbc 1fa1 87bc 0b74 e43c d2f2 9e3c
000001a0: b1f4 08bd 603b 06bc 53c2 9dbb 2406 113b
000001b0: b543 1e3c 095b bdbb d779 1dbc f606 e1bb
000001c0: 8fcc 8b3b 373a 96bc 45d5 813c 0bc9 14bc
000001d0: fcf2 cabb 0cfa 0d3b ec12 80bc 56df eb3c
000001e0: 10f0 f83b 1e06 423c 72fa 8fb9 4f1a b73c
000001f0: bd56 b93b 7142 ed3c f3cc ad3c 302f 363c
00000200: b0d7 e0bc 5085 af3b ad6b e5bc 0869 1dbc
00000210: c0f2 263c b6d3 c53b 67b4 fd3b e905 873c
00000220: 359c 5cbc 1ecf a6bb be6e ae3c 6f3a e1bc
00000230: f947 08bc 5bd7 09bd 6a38 393c dc70 873c
00000240: a3a7 45bb ad9d d03c f4ea 3fbc d354 2d3c
00000250: f5cf 853c 4e58 04bd 5057 a83c 1c22 213c
00000260: 19d8 11bc f463 90bc cdd0 8ebc 6aa4 90bc
00000270: bc2b 04bd d11c 643b 3cac cc3c 65d6 293c
00000280: 90e1 5d3c 0550 793c 7775 fb3c 0e27 773c
00000290: 74a9 543c 7669 97bc d976 ce3b ab6d 63bb
000002a0: cf50 f7bb c188 c5bc f3d8 a53b 3eb1 9f3b
000002b0: 86f8 2c3b 3758 bcbc d6cf 073d aac4 eebc
000002c0: 2100 7939 92e1 ad3b 9622 a2bc 5fff d73c
000002d0: af5a 7abc fa2a d43c c101 893a 88ee f3bc
000002e0: 63f2 ad3c 97b7 683c 4fa1 963c 35d2 1abc
000002f0: 3224 6dbc ef35 443c 7e0e 9d3c 31e2 743c
00000300: eb87 2ebc 8fd0 f8bc 285f 8bbc bd79 b9bb
00000310: 050d 89bc c546 2cbb cf32 31bc 4800 68bc
00000320: 2dfe 60bc 5f40 c13c 3511 6e3c f9a1 b33c
00000330: f8fa c8bb 5c33 98bc 9fd7 753b 9b3d 73bc
00000340: cab9 b23c 4198 05bd d7a1 62bb eca1 9fbc
00000350: 4126 52bc d179 193b 1ecd dabc 5ea7 0bbc
00000360: c4d6 ce3c f4bc 6fbc 3f43 6f3c b0c7 363c
00000370: a4b0 aebb d20d aebb 108a b9bc b9e8 313c
00000380: 8680 983c 5293 d1bc 3b26 b73a f7a3 51bc
00000390: de93 b5bc 374f d33b 70a8 b63c b7e8 d8b8
000003a0: 965d cfbc 9cc4 91bc 7280 0fbc 00a2 fc3c
000003b0: 4b4f 053d a433 cabb d869 a23c b69a 85bc
000003c0: 1ed5 d53b 3c16 373b 5467 1c3b c341 4dbb
000003d0: 4d1f 093c 9b9f 05bc 0970 09bc 8639 b1bc
000003e0: 33b0 ee3c 4995 8a3c dfdc 09bd 0f8e 04bd
000003f0: aec0 283c 904a ccbc b1c2 00bd f2e9 aa3c
0.008682317 -0.02536618 -0.02376419 -0.004206749 0.009833247 -0.016596846 0.018742451 -0.006710658
0.00078171445 -0.021571957 0.027744498 -0.005565351 0.0025343497 0.008080101 -0.01002267 4.406677e-05
0.006189987 -0.016495448 -0.006107918 0.03366287 0.00012351901 0.03310533 -0.031786427 -0.019657642
0.029952582 0.026062777 -0.02273423 -0.028965587 0.014973982 -0.024287198 0.003815822 0.02133288
-0.018092131 -0.004626853 -0.0044073723 -0.014713473 -0.020988947 0.016865805 -0.027982717 -0.027150711
-0.012867811 0.007661718 -0.03306266 0.006483178 -0.009736886 0.025412107 -0.028042398 0.033048965
-0.00023046006 0.023611093 0.013947187 -0.004921526 -0.018737232 -0.011985921 -0.024720525 -0.029222049
-0.017310629 -0.0065236436 0.013779464 0.019960957 -0.008703912 0.00044548104 0.017916912 -0.015762676
-0.009795437 0.016054746 -0.001012728 0.01567186 -0.032091524 -0.0073238597 -0.0015760363 0.012468485
-0.020315839 -0.01177092 -0.00039416613 -0.027082402 -0.009508314 -0.0027799052 0.015713941 -0.012127771
-0.022155367 -0.011299357 0.013430238 0.008551769 0.0024016413 0.03187529 0.01710073 0.022890972
-0.01839016 -0.020995213 0.021787224 -0.0022010943 0.03018978 0.026734702 -0.0077129407 0.022605535
0.010701967 -0.027170839 0.023036972 0.027846318 -0.015605401 -0.01655632 0.027887365 0.019402895
-0.03343648 -0.008192867 -0.004814425 0.0022128904 0.009659697 -0.0057786745 -0.009611568 -0.006867285
0.0042663286 -0.018338306 0.015848765 -0.0090811355 -0.006193517 0.0021663932 -0.015634023 0.028793018
0.007596977 0.011842279 -0.00027461682 0.022351412 0.005656092 0.028962346 0.021215891 0.011119649
-0.027446598 0.0053564683 -0.028005445 -0.009607561 0.010189712 0.006037201 0.007742453 0.01648231
-0.013464977 -0.0050906083 0.02129304 -0.027493684 -0.008317941 -0.033652645 0.011304954 0.016533308
-0.0030159734 0.02546581 -0.011713732 0.010579306 0.016334513 -0.032310776 0.020549446 0.009834792
-0.008901619 -0.017625786 -0.017433548 -0.017656524 -0.03226827 0.0034807215 0.024984471 0.010366057
0.013542548 0.015216832 0.03069566 0.015084995 0.012979854 -0.018482905 0.006300789 -0.0034702818
-0.007547475 -0.02411306 0.0050612628 0.004873424 0.0026393249 -0.022991283 0.033157192 -0.029146511
0.00023746538 0.005306431 -0.019791882 0.026366888 -0.01528041 0.0258994 0.0010452793 -0.029776827
0.021233743 0.0142039275 0.018387465 -0.009449531 -0.014473962 0.011975749 0.01917195 0.014946506
-0.010652523 -0.030372886 -0.017013147 -0.0056602643 -0.016729841 -0.00262873 -0.010815336 -0.014160223
-0.013732475 0.023590265 0.01453047 0.02192782 -0.0061334334 -0.018579178 0.0037512553 -0.014846231
0.021817107 -0.032615904 -0.0034581327 -0.01948639 -0.012826503 0.0023418556 -0.026709136 -0.00852379
0.025248893 -0.014632452 0.014603435 0.011156008 -0.005331116 -0.005311706 -0.022648841 0.010858708
0.018615972 -0.025582943 0.0013973186 -0.01279544 -0.022165235 0.006448652 0.022297114 -0.00010343029
-0.02531318 -0.017793946 -0.008758651 0.030838966 0.032546323 -0.006170707 0.01982586 -0.016309123
0.0065256497 0.0027936837 0.00238653 -0.0031319715 0.008369279 -0.008155729 -0.008388528 -0.021633875
0.029136753 0.016916888 -0.033657905 -0.03236204 0.010299845 -0.024937898 -0.031435672 0.020863507

nonreduce1_3.bias f4 [32]
00000000: d1fc c6bc 81c8 e33c 4991 533c cccd aebc
00000010: b7d2 403c 4b9f 8f3c d963 2fbc 938b af3c
00000020: f09c 913c c1df 0c3d 3c95 343c 3bd2 18bd
00000030: 3a33 80bc e7e1 64bc 1fb5 c3bc 5f85 353c
00000040: 5adb b23b b2c2 763c 6319 b83b fe12 ca3c
00000050: 855b b83c a433 0dbd c9f3 993c f511 ddbc
00000060: 329f 093b 537a 083d 2a37 a1bb 678e ee3b
00000070: d701 a93b eb53 65bc 5a0a 84ba 8a1d 7d3c
-0.024290474 0.027805569 0.012913057 -0.021338366 0.011768988 0.017532011 -0.010704958 0.021428859
0.017775029 0.034393076 0.011021908 -0.037309866 -0.015649427 -0.013969875 -0.023890076 0.011079161
0.0054582777 0.015061067 0.0056182607 0.02466726 0.022504577 -0.034473076 0.018793004 -0.026986102
0.0020999429 0.033319782 -0.004919906 0.0072801593 0.00515769 -0.013997058 -0.0010073886 0.015448937

reduce2.weight f4 [16, 32, 4, 4, 4]
00000000: f6e6 9f3a d361 fcb9 c879 8e3c db0b 9bbb
00000010: 3efa 3c3c 065b e7bb 11a4 8a3c f25c 39bc
00000020: 5e5d c83b ae8b 12bc ecde d3bb cb3c 8cbc
00000030: ab1c 2fbb 0214 183c 80a7 783c 7f58 12bc
00000040: a59f 913c 155c 70bc 2940 5ebc 5be0 163c
00000050: 1800 0f3c 8b21 92bc daf4 923c e991 40bc
00000060: 8daa 02bc 8d41 a33c 6a71 a43c 318b 9abb
00000070: a70b 003c afb3 1c3b 41eb 563c 0681 d4bb
00000080: c60f 82bc 6c71 363c 1b82 153c 1204 cc3b
00000090: a476 56bc 18b3 123c 5b2b db38 e4b7 3fbb
000000a0: ca97 ecbb 86db 87bc c693 a43b efb1 503a
000000b0: 279a 4f3c 6cca 34bc 2a30 7bbb 7249 423a
000000c0: b481 d43b b1bb 9b3c ee5d ec3b 577f 573c
000000d0: 6b7f 6f3c ec02 3d3c 2bc4 0c3c abc0 2cbc
000000e0: 2013 5c3c 87ad 303c 1809 643c 92d6 5cbb
000000f0: fc6f 783b 60e6 2dbc 4447 4b3c 5f58 9dbc
00000100: 8534 e53a 1185 a4bc 1585 c33b 0b92 913c
00000110: a1f2 a6bc 8fe6 ba3c 712e a93c 6405 d13b
00000120: 88d3 8fbb d007 963c c08e cbbb 6b18 773c
00000130: c335 473c 61c1 cc3c 1e29 02ba 0f26 0ebc
00000140: d557 9dbc 69be be3c 7ac4 71ba 293c 273c
00000150: 1126 4cbc dc64 ba3c 8992 0d3c 7c71 913b
00000160: e4c1 023c bd90 c43c 35b4 1b3c b3b4 c63c
00000170: 23fb 883c ebd2 78bc ab3c 3a3b 1d20 44bc
00000180: e639 23bc b3fb 8e3c 23cb 843c 2f4c 053b
00000190: 45ff 58bc f87f f9bb b847 993c 4797 7bbc
000001a0: d388 9abc 3703 1ebc 4e23 653c 7a21 2c3c
000001b0: 9f33 a73b b2b5 163c da4c 05bb 5eca febb
000001c0: bc06 953c d5f3 7ebc 2942 98bc 0372 2cbc
000001d0: 7cb3 34bc d37c 33bc 5ba6 a2bc 6097 efbb
000001e0: 5618 863c 4cb0 34bc 89da 8cbb 8e59 8fbb
000001f0: 3260 86bc 7b53 45bc c36f d4bc c350 cabb
00000200: fe6a db3b 056c 883c 3fbf be3c cbc3 b33c
00000210: 2736 773b 5273 7dbc 7c8d 743b 6675 593c
00000220: fd53 9eba 89b5 db3b b80a 3dbc a2d9 dfbb
00000230: 74b4 963c 8bec 073c d583 4bbb 3c73 363b
00000240: b5c5 c73a 7e28 853c fc78 8bbb 3b00 c8bb
00000250: bf30 3b3c 068e 8d3c 1312 eb3c 1d0a 81bb
00000260: 2cbb 023c 7d77 923c a2d8 f9ba 61af 783c
00000270: 0643 19bc 00e7 783c ecfb 3a3c dfbc b4bb
00000280: 67bb dbba 66d8 3dbc 3882 1e3c 922c cd3c
00000290: ff1e cfbb df62 9a3c 96ea 803c cb40 6e3c
000002a0: 819e 3c3c f043 f23c a1a1 91bb 03e8 223c
000002b0: 6cfb 88bb 9a30 2d3b cf66 92bc c0f2 0bbc
000002c0: 285c c43b 6580 94bc a341 883b fde7 723b
000002d0: 0d3a a33c a9bb 8ebb 2447 34bc 6bb7 763c
000002e0: 3c38 30bc 4a32 413b 394b 2ebc 1b12 e1bb
000002f0: 9183 56bc ad4f 90bc 28d7 adba 5a1e 08bd
00000300: e7e8 703b 921d b8bc fa9f 4c3c e01e 85bb
00000310: ecb7 3abc 0738 88bc e167 bcbb 7263 a03c
00000320: 67bd 96bc 1642 babb 81ff 45bb 8a37 4e3c
00000330: a63f 363b d69d df3b 9755 873c e5b0 96ba
00000340: 065d 61bb 91c9 66bc 93e2 1ebc 31eb 2bbc
00000350: cd96 96bc 237b 823b 4247 27bc 62b8 80bc
00000360: 424a a43c c9db 5f3c 9c48 e93c 9e7b 80bc
00000370: 29f5 44bc aaa1 b4bc 8bd0 dd3b e2f3 81bc
00000380: b214 3b3c 573d 353c 0bbc 0bbc 554d 633c
00000390: 864b 7d3c 565e 893c 5caa 963c c1a1 393c
000003a0: f0ca 7a3c 1515 a33a 1c21 423b 5fc8 ba3c
000003b0: 1066 253c 7fc9 70bc 584e 803c f5c1 0b3c
000003c0: 1387 87bc 2804 6bbc 424e 98bc f19a 8cbc
000003d0: 6bf8 463c 273a 163c f63f 9f3c a974 f6bb
000003e0: b732 c6bb e65e 9dbc f5ca 32bc cc3d 3cbc
000003f0: 1862 c4bc 07a3 953a e631 d3bb 1b5d bdbc
0.0012199569 -0.0004813807 0.017392054 -0.004731638 0.011534272 -0.0070604114 0.016923936 -0.011313664
0.006114646 -0.008944435 -0.0064657833 -0.017118832 -0.0026719968 0.009282114 0.015176654 -0.008932232
0.01777632 -0.014670392 -0.013565102 0.009208764 0.00872805 -0.01783826 0.01793902 -0.011753538
-0.007975233 0.019928718 0.020073611 -0.0047163 0.007815278 0.002391081 0.013117612 -0.0064851074
-0.015876662 0.01113544 0.009125258 0.006226071 -0.01308981 0.008953832 0.00010450809 -0.0029253894
-0.007220243 -0.01658417 0.005022499 0.00079610845 0.01267103 -0.011034589 -0.0038328269 0.0007411457
0.0064851884 0.019010397 0.0072133457 0.013152919 0.014617781 0.011536341 0.008591692 -0.0105439825
0.013432294 0.01078356 0.013918184 -0.003369723 0.0037908545 -0.010614008 0.012407128 -0.019207178
0.0017486966 -0.020082982 0.0059667923 0.017769834 -0.020379366 0.022815017 0.020652028 0.0063788164
-0.00438923 0.018314272 -0.0062120855 0.015081505 0.012158814 0.024994554 -0.00049652334 -0.008676066
-0.01920692 0.023284154 -0.00092226977 0.010207214 -0.012460248 0.022753172 0.008640894 0.004438577
0.007980797 0.023994798 0.009503414 0.024256086 0.016721314 -0.0151870055 0.0028417509 -0.011970547
-0.0099625345 0.017454004 0.016210144 0.0020339598 -0.013244455 -0.007614132 0.018710956 -0.015355892
-0.018864071 -0.009644321 0.013985468 0.010506028 0.0051025893 0.009198593 -0.0020339997 -0.007775589
0.018191688 -0.015561064 -0.018586235 -0.010525229 -0.011029121 -0.010955053 -0.019854715 -0.0073117465
0.016369026 -0.011028361 -0.0042985124 -0.0043746894 -0.016403291 -0.012043829 -0.025932198 -0.0061741783
0.006696104 0.01665307 0.023284553 0.021943947 0.0037721486 -0.015469389 0.0037315777 0.013272619
-0.0012079474 0.0067049903 -0.0115382 -0.006831364 0.018396594 0.008296142 -0.003105392 0.002783968
0.0015241416 0.01625466 -0.004256366 -0.006103543 0.011425196 0.017279636 0.028695142 -0.003937973
0.007979196 0.017879242 -0.0019061754 0.015178532 -0.009354359 0.015191793 0.011412602 -0.0055156793
-0.0016764224 -0.011587238 0.009674601 0.025045667 -0.0063208337 0.018845974 0.01573686 0.014541815
0.0115124 0.02957341 -0.0044443165 0.009943011 -0.0041803624 0.0026426674 -0.017871289 -0.008541763
0.005992431 -0.01812763 0.004158215 0.0037064545 0.019925142 -0.004355867 -0.011003289 0.015058379
-0.010755595 0.0029479438 -0.010638052 -0.0068686134 -0.013092891 -0.017616117 -0.0013262974 -0.03323207
0.0036759914 -0.022475038 0.012489313 -0.0040625185 -0.011396389 -0.016628278 -0.005749688 0.01957867
-0.018400861 -0.0056841476 -0.0030212107 0.012586484 0.0027808934 0.0068242354 0.016520305 -0.001149681
-0.0034387722 -0.014086143 -0.009697574 -0.010493086 -0.018382454 0.003981964 -0.01020986 -0.01571292
0.02005494 0.013663241 0.028477006 -0.015683945 -0.012021341 -0.022049744 0.006769245 -0.015863363
0.011418508 0.011061988 -0.00852872 0.013873418 0.015459901 0.016768616 0.01839178 0.011330069
0.015307173 0.0012442196 0.0029621786 0.022800623 0.010095134 -0.014696478 0.015662357 0.00853013
-0.0165439 -0.014344253 -0.018592004 -0.017163726 0.012144188 0.009169138 0.019439679 -0.007521231
-0.006048526 -0.01921029 -0.010912647 -0.011489343 -0.023972556 0.0011416384 -0.0064451573 -0.023115685

reduce2.bias f4 [16]
00000000: fda2 583a d566 733c 0e45 58bc 422a 7b3c
00000010: 68c5 cf3c 4e8a 6fbc 9b26 debb 6938 8bbc
00000020: 1520 913b 2ffc 93bc 5c0e 943b 5b62 bdbb
00000030: d5f1 ed3b 96dc 5fbc d1f0 653c 1ccd 9c3c
0.0008264033 0.01485606 -0.013200058 0.015329899 0.025362685 -0.014620377 -0.0067795045 -0.016994672
0.0044288733 -0.018064586 0.0045183133 -0.005779547 0.0072614946 -0.013663432 0.014034466 0.019140773

nonreduce2_1.weight f4 [16, 16, 3, 3, 3]
00000000: 8b31 edbc 06c3 bd3b 47b3 903c e7bf eebc
00000010: d175 05bd 168f e33c 53f7 4c3d b333 173d
00000020: 678c fa3c 5a16 e2bc ade9 2cbc 0afc 94bc
00000030: 7925 f13c b937 8fbc 7ce2 0fbd b444 e7bc
00000040: 192f 45bc 47a1 0e3c 86de 2ebd a173 14bd
00000050: c320 dcbc 5d88 02bd 5d74 383c 8714 35bc
00000060: 61af 383d 8797 3cbc 9813 193d 14f8 fcbc
00000070: 41d2 ea3c 53b3 28bd 0526 00bc d370 c7b9
00000080: 6ad1 60bb b11a 3c3d ae08 293b 9fa4 a83c
00000090: 1f03 293d dd9b 88bc bf89 c93b 4b2e 9dbc
000000a0: 065b 053d e978 16bd 70aa 1cbb d4e6 4dbd
000000b0: 630f 4bbd 26b7 493d eb20 d03c 4e0a 443d
000000c0: ef60 713d f2fb 58bc e59c 863c 352a 0fbc
000000d0: 4c52 b9bb 644c f2bc bad0 ac3b 3cf8 f03c
000000e0: 1e11 36bb 59a3 f53a f8f9 1cbd 7209 453c
000000f0: d25d 30bd 4d8b 99bb dd38 dfbc a122 203d
00000100: 27a2 8a3c 1374 dd3c b721 37bc 115d 043d
00000110: 7d53 303d b56c 343d 864d 023c bf82 043d
00000120: e4e1 e33c 7ec9 d3bc a55d 55bc a928 863c
00000130: a509 20bd 90a0 0fbd ad43 9f3c 8a05 87bb
00000140: 22f4 8c3c 92ba 043c b9fa 6fbd 6e93 4dbd
00000150: 2de3 353d 1ad2 f93c d8b9 cabc 0708 f6bc
00000160: 58f1 843c bf4a 90bd c250 613d 5351 443d
00000170: 708a 753c e920 8b3c 1d9c 853c 68fb 483d
00000180: 0f79 bc3c a0a5 453d 036b 393c 8b0f e0bc
00000190: 95d1 f13c 9e1b 623d e53d 0f3c cf7a ad3d
000001a0: 7392 353d 4f9b 893b f4dd 323d 58ca 04bb
000001b0: 9ded e0bb 616a 243d 5eb3 7ebb a3fa 2e3d
000001c0: c399 fe3c 8a26 f43c f5f6 02bc 848f bbbb
000001d0: c57a 1dbd aa88 783c 4275 debc 0b70 67bb
000001e0: 7d4e 8ebc a47b 183d f2c3 14bd af6c a9bb
000001f0: 5e7e 0e3d 027f 023a 8ff9 18bd 995e dbbb
00000200: 0c2d 1bbc 0ea1 10bc 0e20 613c e690 0b3b
00000210: fca6 0dbb 7f0f 823c 5801 e3bc 309d 28bd
00000220: a7b1 9a3c ebc0 38bd 438a c1bc 9bc1 e9bc
00000230: 823c 6f3c 66fd 2a3c fc0e bebc 5344 323d
00000240: 7d1c 413d e0f4 49bc 8a9f 253c 243a 05bd
00000250: e8e6 2fbc 61cd 28bd 0ff8 403d 4785 4b3c
00000260: bec1 0d3b be86 1e3d c11f 3dbd d84d 443c
00000270: 0cc8 213d 40e6 2b3d 36bb 963c 093f 03bd
00000280: b58c 92bc 2819 19bd 7a03 2abd f03d 37bd
00000290: 86aa d4bc fb04 a83c 7d1e 11bd bfa5 57bd
000002a0: c9eb 0bbd 4e2e e2bc d458 11bd 8896 f83c
000002b0: 97ff c0bc 2902 60bc e8e3 8c3c 530f 02bd
000002c0: d82b 83bc 8e09 1fbd 309d 663c 4c72 21bd
000002d0: 905a bb3c 8bf7 303d fc80 5c39 57d1 313d
000002e0: 8723 ef3c 3b41 a93c 55cd 1ebd 12f1 da3c
000002f0: dfd7 373d 36d7 23bd d979 a2bc c8fd f8bc
00000300: b355 033c da62 20bd 5f04 72bc 5e53 1f3d
00000310: e247 a5bc 75ed 35bd 9752 2c3d ff7a a73c
00000320: 1bce 4fbd 26d0 033d b0e4 4c3d 7dbb d53c
00000330: 68f0 5d3c 0fd2 8ebc 9469 963c 8abb 363d
00000340: a264 c7bc 50c0 b7bc 50f6 213d 67fa 1b3d
00000350: 9679 0a3d fc89 783c 04ac 6d3c bc1f 52bc
00000360: 68cc b83c 49fb ba3c 646b da3b d94f 353b
00000370: dfcb dd3b c05a b9bc 1abd 2ebb 2546 9f3b
00000380: 8fa9 d1bc 25c3 1b3d b668 513a b71e 003d
00000390: eb21 39bd 6b59 0dbd f399 ff3c ebcf 2e3c
000003a0: 4652 283d d247 0abb b095 e0bc d098 263d
000003b0: cfc7 3abd 21f7 3d3c 48f9 42bd 9fcd d73c
000003c0: d6a9 203d b374 243b accf c0bb 79ec debc
000003d0: cf35 733c 5524 3d3d af44 5abd 0716 adbc
000003e0: 6e79 bfbc f963 43bd 0926 6cbc 9751 d33c
000003f0: 975e 963a 05ad a13c 199e a3bc 5b4a 5bbb
-0.028954288 0.005791071 0.017663611 -0.02914424 -0.03258306 0.02777819 0.050040554 0.03691454
0.030584527 -0.027598549 -0.0105537595 -0.018186588 0.029436814 -0.017482625 -0.0351281 -0.028231002
-0.012035155 0.008705444 -0.042692684 -0.036243085 -0.02687109 -0.031868327 0.011258212 -0.011052257
0.04508913 -0.011510736 0.0373722 -0.030880012 0.02866471 -0.041186642 -0.007821565 -0.00038040298
-0.0034304508 0.045923892 0.0025792527 0.02058631 0.041262742 -0.016675884 0.006150454 -0.019187113
0.03255751 -0.036736403 -0.00239053 -0.050268963 -0.04957522 0.04924693 0.025406322 0.04786139
0.058930334 -0.013243662 0.016432235 -0.00873809 -0.0056555625 -0.029577442 0.0052739056 0.029415242
-0.0027781199 0.0018740698 -0.038324326 0.012026178 -0.043058224 -0.0046857954 -0.027248794 0.039095525
0.016923023 0.027032888 -0.011177472 0.032315318 0.04304837 0.044048984 0.007953053 0.03235125
0.027817674 -0.025852915 -0.013022815 0.01637681 -0.039071698 -0.035065234 0.01944145 -0.0041205334
0.017206255 0.008101122 -0.058588717 -0.050189428 0.044406105 0.030495692 -0.02474682 -0.030033125
0.016228363 -0.07045507 0.055008657 0.04792912 0.014986619 0.016983466 0.016309792 0.049067885
0.023006944 0.048253655 0.0113170175 -0.027351161 0.029518882 0.05520212 0.008742784 0.084706895
0.044329118 0.0041994224 0.043668702 -0.0020262208 -0.006864263 0.040140513 -0.0038864235 0.042719495
0.031079179 0.029803533 -0.007993449 -0.0057238955 -0.03844716 0.015169302 -0.027155522 -0.0035314586
-0.01737141 0.037227288 -0.03631968 -0.005170427 0.034788482 0.0004978032 -0.037347373 -0.0066946265
-0.009471189 -0.008827461 0.013740553 0.0021296083 -0.0021614423 0.01587653 -0.027710602 -0.04116553
0.01888354 -0.045105856 -0.023625499 -0.028534701 0.0146018285 0.010436391 -0.023200504 0.04352219
0.04714631 -0.012326449 0.010108838 -0.03252615 -0.010736205 -0.04121149 0.047111567 0.0124219125
0.0021630372 0.03870272 -0.04617286 0.01198145 0.03949742 0.04196763 0.018399816 -0.032042537
-0.01788936 -0.037377506 -0.04150722 -0.044736803 -0.025960218 0.020510187 -0.035429467 -0.052648302
-0.03416041 -0.02760997 -0.035485104 0.030345216 -0.023559375 -0.01367239 0.017198518 -0.031752896
-0.016012117 -0.03882747 0.014075562 -0.039415643 0.022870332 0.043204825 0.00021028885 0.043412533
0.029191745 0.020660987 -0.03877004 0.02672628 0.044883605 -0.040000163 -0.019833492 -0.03039445
0.008016038 -0.039156772 -0.01477155 0.038897865 -0.020175878 -0.04441591 0.04207095 0.020444391
-0.050733667 0.032180928 0.05002278 0.026090378 0.013546087 -0.017434148 0.01836089 0.044612445
-0.024339978 -0.022430569 0.039541543 0.0380806 0.03380736 0.015169617 0.014506344 -0.012824949
0.022558406 0.0228249 0.006665634 0.0027666 0.006768688 -0.02262628 -0.0026663006 0.004860657
-0.025593547 0.0380279 0.00079883204 0.031279292 -0.045198362 -0.034509104 0.031201338 0.010669689
0.041094087 -0.0021099937 -0.027415127 0.040673077 -0.04560071 0.011594565 -0.047601014 0.026343165
0.03922447 0.0025093972 -0.0058841314 -0.027212368 0.014844372 0.046177227 -0.053288158 -0.021128668
-0.023373332 -0.047702763 -0.014413365 0.025795741 0.0011472282 0.019735822 -0.019972848 -0.0033461067

nonreduce2_1.bias f4 [16]
00000000: 8a18 073d 980e b5bc 06d3 8f3c 2fd3 163a
00000010: fde5 0b3d d7c1 493d 3037 b13c 6697 3ebb
00000020: 85cf f93c 2721 ac3c 17e9 b3ba 487e d93c
00000030: 9bd8 07bd d565 e2bc 4a87 dbbc 95eb eb3c
0.032982387 -0.022101685 0.017556679 0.00057535147 0.03415488 0.049257126 0.02163276 -0.002908194
0.03049446 0.021011902 -0.0013726082 0.026549473 -0.033165555 -0.027636448 -0.02679791 0.028798858

nonreduce2_2.weight f4 [16, 16, 3, 3, 3]
00000000: 0030 89ba 83b9 333d 60b1 753d 94e6 223c
00000010: 376d e3bc e580 c83c a256 74bd 4083 c1bc
00000020: c816 f63c ae14 e03c ada0 b6bc e893 463d
00000030: d30c 1b3d e1f6 0d3c b0e1 7a3d 14cf 39bd
00000040: b138 c7bc f843 f93b ad0b c23c 3000 21bc
00000050: 106f 0c3d 3ddc 673d ab0c 8ebb 49fa 883d
00000060: 2dc5 d4bc fe8f d73c f07f 193d 4579 823c
00000070: 3947 0abd 8a90 0ebc bcb8 26bd 859f 40bd
00000080: 64b1 4c3c 8dc0 be3c 4bb0 143d 23f5 393d
00000090: 4f45 3f3d 1718 f3bb 2371 23bc 7ba3 f7bc
000000a0: 3e33 febc cd21 a0bc 5aff c93c 1e92 663c
000000b0: 57e0 1dbd 1d81 9dbc 57ef 603c 647b 8fb9
000000c0: 573c bcbb 8fe4 3cbd 1bc3 953c 56c9 11bd
000000d0: 4a35 b7bc c7b9 c53b 1e3c 14bd ec25 133d
000000e0: 4456 19bd 3051 de3b b13d 1a3d f353 a6bc
000000f0: 7c2d 8f3c 0c5b 1dbd 9f75 08bc bf76 d2bc
00000100: 64b0 93bc e012 2ebd 5a97 90ba 0e4b 443d
00000110: 6527 853c f38e 213d b23b d93c 2c3b 0a3b
00000120: eec6 223c cad6 bdbc e682 1dbd da0e dcbb
00000130: e58b d53c 5411 3e3d 17d7 c1bb fe75 30bd
00000140: a853 1d3d e39b 25bd 1c81 0bbc 642e f3bc
00000150: 5a72 9dbc d648 ca3c 51ca debc 6546 97bc
00000160: caa5 fd3c 374a a03c b5de fbbc 961a 7739
00000170: 77c7 2a3d e5ff 833b 5265 a0bc 433b 49bc
00000180: 3f8c 893c 5c86 af3b fb15 073d 752f 1ebd
00000190: 7088 b33c ac08 2eba 6c79 c03b 7d3c 9cbc
000001a0: aaea d93c 3062 0dbd 3026 80bb 3b65 d23b
000001b0: 73db 50bc c32a 193d 1ae0 ec3c 078f 8d3b
000001c0: 3c4f 0c3d 60cc f23c 0e18 2cbd 70db 34bd
000001d0: 2383 bebc e703 a73a 1ed8 e3bb 03c8 253d
000001e0: 6d9c 98bb 6b40 3c3d ea77 ba3c b771 753c
000001f0: b22c a93c 4daf 153d 4363 173d 4a65 283c
00000200: 394d ccbc 31c1 033a f53e 4b3d ddc6 263d
00000210: 3c14 3b3d 723a 083d 6e45 0dbd eb0d 573d
00000220: 3bc7 d0bc 5520 cb3c 964d 4b3c 11a3 7a3c
00000230: 3d72 173d e68e 7bbc 6512 3bba d882 bcba
00000240: a227 d9bc 1335 21bd f73c 4e3d dc08 cf3c
00000250: c4a8 0ebd 8c65 b63c 4d88 4bbd 9783 0a3d
00000260: f447 29bd 389d a8bc e197 793c 4c51 b43c
00000270: a161 8d3c 19be d3bc 5250 91b9 3651 0f3d
00000280: e154 06bd fb6c 743c 4b19 453d 4a6b a4bc
00000290: 95a0 4dbd a1f3 2c3d c783 e03d 9266 9d3d
000002a0: 6f2e b13d c8cd d93c 7f37 0e3c a2b1 843d
000002b0: ac1d ef3b 3e89 14bd 1d02 8b3c b563 a43d
000002c0: e846 bf3b 8f4a da3c 9d68 8f3d e56a b23c
000002d0: d545 ef3c f17e 633d 52b0 233d 1e07 383d
000002e0: 5fbb 8c3d 78db f53c 6a6c e83c 48b8 603d
000002f0: 9c71 863c dfbb 783d df0c 06bc f841 663c
00000300: e026 823d b6cc 47bb 54d8 7f3d 0b98 57ba
00000310: 5f37 383d 13a1 aa3c fae0 873d 8caa be3c
00000320: ebc4 833c 11fb 52bc 5ac4 93bb 30fd 183d
00000330: 39f9 00bd 4cfb 823d afac d13c 8dce 1a3d
00000340: 5421 b8bb b58f 8dbc 31a3 873c d9ab 5cbc
00000350: 49e3 c63c b449 023d 12a9 1b3d 4395 1a3d
00000360: 4991 773d 5bfc dc3c e338 9f3c 50f7 533d
00000370: 71b7 2cbc 6886 38bc 4285 cc3c 39e0 f0bc
00000380: 1bcd 7cbc 2463 fabb dd0d 76bc 271b d03a
00000390: 8530 253c 9761 e1bc a08d 2ebd 56ad 193d
000003a0: 2d13 f83b 1a2e 69bc e00b 033d 167a e1bc
000003b0: 57f7 f73c 7467 3a3c 2a93 d33c afb6 b5bc
000003c0: a62b 0dbd 0ae5 2abd 7e5a b43b 3cbe 17bd
000003d0: a10c f93c 6df9 cfbb 6a63 e7bb ddb8 a53c
000003e0: 5f45 a0bb 3f9d 463c a5c7 223d c06b 48bc
000003f0: 7ea1 0d3d aef5 063c 9d8f 0bbd 8379 893c
-0.0010466576 0.04387809 0.05998361 0.009942669 -0.027762039 0.024475524 -0.059652932 -0.023622155
0.03004016 0.02735361 -0.022293413 0.0484809 0.037854027 0.008664818 0.06125039 -0.0453635
-0.024319025 0.0076069795 0.023687208 -0.009826705 0.034285605 0.05660652 -0.0043350062 0.06688363
-0.025972927 0.026313778 0.037475526 0.015926966 -0.03375933 -0.008701453 -0.04070352 -0.04702713
0.012493465 0.023285175 0.03630094 0.045399796 0.046696957 -0.007418643 -0.009975704 -0.03022932
-0.031030294 -0.019547367 0.024657894 0.014072923 -0.038544025 -0.019226605 0.013728938 -0.0002736702
-0.0057444978 -0.046116408 0.01828151 -0.0355924 -0.022364277 0.0060341093 -0.036190145 0.035924837
-0.037435785 0.0067845806 0.03765649 -0.020303702 0.017477743 -0.038416907 -0.008328824 -0.025691388
-0.018028446 -0.04249847 -0.0011031434 0.04792314 0.016254136 0.039442968 0.026517723 0.0021092398
0.009935124 -0.023173708 -0.038454913 -0.0067156376 0.026067683 0.046403244 -0.0059155333 -0.043081276
0.03840986 -0.04043187 -0.008514669 -0.029685207 -0.019219566 0.024692934 -0.027196081 -0.018466184
0.030962843 0.019566638 -0.030745843 0.0002356566 0.04169413 0.0040283077 -0.019579563 -0.0122821955
0.016790507 0.005356593 0.032979947 -0.038619477 0.021915644 -0.00066388655 0.0058738496 -0.019071812
0.026601154 -0.034517467 -0.0039108023 0.006420759 -0.012747633 0.037394296 0.028915454 0.0043200287
0.03425525 0.02963847 -0.042015128 -0.044154584 -0.02325589 0.0012742252 -0.0069532534 0.04047395
-0.0046573193 0.04595987 0.022762258 0.014980725 0.020651195 0.036544133 0.036959898 0.010278055
-0.024939166 0.0005026041 0.049620587 0.040716995 0.045673594 0.033258863 -0.03449004 0.052503508
-0.025485625 0.02479569 0.012408635 0.015297667 0.03697418 -0.015353894 -0.0007136225 -0.0014382256
-0.026508156 -0.039357256 0.05035111 0.02527278 -0.034828916 0.022265218 -0.049690533 0.0338169
-0.041328385 -0.02058278 0.015233965 0.022011422 0.017258467 -0.025847482 -0.00027716398 0.03498956
-0.03279579 0.014918561 0.048119824 -0.02007069 -0.05020197 0.04222453 0.109626345 0.07685579
0.08651435 0.026587382 0.0086802235 0.06479193 0.0072972383 -0.036263697 0.016968781 0.0802683
0.00583731 0.02664688 0.07002375 0.021779487 0.029208103 0.055540983 0.039963074 0.044928662
0.06871676 0.030011877 0.028372008 0.054863244 0.016411595 0.060726043 -0.00818178 0.014053814
0.06355071 -0.0030487007 0.062462166 -0.0008224255 0.04497468 0.02082876 0.06634708 0.023274682
0.016085109 -0.012877242 -0.004509491 0.037350833 -0.031487677 0.06395587 0.025595037 0.03779464
-0.0056192074 -0.017280439 0.016557308 -0.013468706 0.0242783 0.03180857 0.038003035 0.037740003
0.06044129 0.026975801 0.019436305 0.051749527 -0.010541783 -0.011262514 0.024965886 -0.029403793
-0.01542976 -0.007641213 -0.015017954 0.0015877233 0.010082369 -0.027512355 -0.042615533 0.03751882
0.0075706453 -0.014232183 0.031993747 -0.027524035 0.030269308 0.011377204 0.02582701 -0.022181837
-0.034465455 -0.041722335 0.0055039516 -0.037046656 0.03040153 -0.0063468725 -0.0070614116 0.020229751
-0.004891082 0.012122451 0.039741177 -0.012232721 0.03457784 0.008237286 -0.034072507 0.016781574

nonreduce2_2.bias f4 [16]
00000000: 2220 ab3c a07e 5bbc 2f99 dabc eea4 e939
00000010: c9d6 4f3d 6d7a f63c 2cb1 893b 37c2 07bd
00000020: 5f50 a23c 1f66 933c 2da3 dc3c 4d0d 043c
00000030: 342f e3bc 7a27 1fbc e2b0 253d f83e 89bc
0.020889346 -0.013396889 -0.026684372 0.00044564105 0.050741944 0.030087674 0.0042020287 -0.033144202
0.019813715 0.017993031 0.026933277 0.008059812 -0.02773247 -0.009714002 0.04045189 -0.016753659
