02_deep3D/model/model_sho.pt (torch, 739908 bytes, 25 tensors)

reduce1.weight f4 [64, 1, 4, 4, 4]
000000 61 fb c2 bb ff 8a 41 bd 86 da 98 3d 36 b5 1d bc
       -0.005950377 -0.047251698 0.07463555 -0.009625724
000010 07 90 b2 3c db a4 be 3d e1 93 ea bd 01 f2 fa bd
       0.021797193 0.093087874 -0.11453987 -0.1225319
000020 4d 4b f0 3d 4b 40 88 bd 44 49 bb 3d ac e2 01 bd
       0.117331125 -0.06652888 0.09144834 -0.03171031
000030 b8 59 f6 3d 7b 09 78 bd 7d 65 06 3c c3 29 1e bd
       0.12028831 -0.060555916 0.008202908 -0.038614046
000040 90 51 e8 bc 48 15 d3 bd 42 0a c0 3d 13 92 48 3d
       -0.028359205 -0.103067935 0.093769565 0.048967432
000050 07 af f8 bc e8 53 9d bc d7 b8 79 bd bc e2 d7 3d
       -0.030356897 -0.019205049 -0.060967293 0.10541293
000060 4d 0f 55 3c 9c 84 d0 bc 35 eb b6 bd 0b 18 ba 3d
       0.013004136 -0.025453858 -0.08931581 0.09086617
000070 fb a4 e6 bd 0b ce d8 bd 00 e7 2e 3b 33 5d 98 3d
       -0.11261936 -0.105861746 0.002668798 0.07439651
000080 7b c5 88 bd 9c 41 1a bd 0a f4 6e 3d 74 7f 9e bd
       -0.066782914 -0.037660226 0.058338203 -0.077391535
000090 b0 8d a2 bd 29 ca 1c bd d4 70 10 bd 92 4a 72 3d
       -0.07937181 -0.038278732 -0.03526385 0.059153147
0000a0 dd 72 98 3d 4b ed ae 3d 85 15 03 3c 8f d7 c6 3d
       0.074437834 0.08541354 0.008000736 0.09709083
0000b0 a8 19 ba bd a7 88 39 bd 35 65 21 bd c9 da f9 bc
       -0.09086925 -0.045296337 -0.03940316 -0.030499833
0000c0 f5 a2 ab bd e4 98 92 bd 74 72 57 bb 57 a6 f6 bc
       -0.08380691 -0.07158068 -0.0032874616 -0.030108614
0000d0 2b 33 8d 3d ad a7 47 3d 10 1a ed 3d 88 9f a0 bd
       0.06894525 0.048743892 0.11577237 -0.07842928
0000e0 84 5a a4 bc 16 42 7b 3c a8 51 ba bb 83 17 7f 3d
       -0.020062692 0.01533558 -0.0056860037 0.062278282
0000f0 e5 fd 11 bc 92 3b f9 3c 21 78 5f 3d a6 87 8c bd
       -0.008910631 0.030423913 0.054557923 -0.068618104
000100 21 c8 40 bd c5 dd ad bd 88 4a 80 3d 24 cb e5 bd
       -0.047065858 -0.08489565 0.06264216 -0.112203866
000110 5c 58 c8 3d ca da 9e bd 82 51 77 bd fc 76 be bc
       0.09782478 -0.077565745 -0.060380466 -0.023250096
000120 f9 7d 22 bd 25 ae 54 3d e8 63 c4 bd 3c bf 06 bd
       -0.039670918 0.05192389 -0.09589368 -0.03289722
000130 5b 69 3f bc 51 c2 ce bc 6c b7 9f 3b a1 44 9e bd
       -0.011682834 -0.025239142 0.0048741605 -0.07727934
000140 02 5d 5c 3d 9e da 8e 3d 0e 48 2b 3d 4d 75 8e bd
       0.053799637 0.06975292 0.041816764 -0.06955967
000150 5c ab 1b bd 35 a8 db bd 34 74 dc 3d 2c 06 ea bc
       -0.038005218 -0.10725442 0.107643515 -0.028567396
000160 ef f6 9f bd e2 87 70 3d 68 f2 f8 3c 48 e3 b7 bd
       -0.07810771 0.058723338 0.030389026 -0.08978897
000170 b7 d3 c5 bd 2d 6c 4e 3d 0a 5f 64 3d e9 61 8a 3c
       -0.09659522 0.050396133 0.0557547 0.01689239
000180 07 04 99 bc e0 48 eb 3d af 28 c5 bd f7 85 70 bd
       -0.018678678 0.11488509 -0.096269004 -0.05872151
000190 e4 5e 36 3d f5 4a 60 3d 8c 3b d9 bd 1b d3 ab bd
       0.04452409 0.054758985 -0.10607061 -0.083898745
0001a0 38 a0 f3 bd ce 01 1c bd 34 17 f5 bd e0 19 0b bd
       -0.11895794 -0.03808766 -0.11967316 -0.033960223
0001b0 e3 3b aa bd 7f 40 e5 3d 46 0b 9f 3d 9c 80 c2 3d
       -0.08312204 0.11193942 0.07765822 0.094971865
0001c0 5d f1 85 bd d3 3d a2 3d d7 a8 3c 3d b2 0c 0e 39
       -0.06540177 0.07921948 0.046059456 0.00013546905
0001d0 bb 87 f6 bd 22 27 d2 3d e0 9b 72 3d f6 d1 e2 bd
       -0.12037607 0.1026137 0.059230685 -0.11075203
0001e0 21 49 8b bc 53 65 65 3d 93 63 de 3d b9 4e 79 3d
       -0.017002644 0.056004833 0.10858836 0.06086609
0001f0 6d fa a5 bd ba 8c 80 bd be 4a d1 3d 43 91 93 bd
       -0.081044056 -0.062768415 0.10219334 -0.07205441
000200 ad 97 20 3d ab 69 f0 bd 44 ea 08 bd a1 8c bb 3d
       0.03920715 -0.117389046 -0.033426538 0.09157682
000210 a6 19 df bd b3 2f 52 3c ea 53 b6 bd e2 0e f8 3d
       -0.10893564 0.012828755 -0.08902724 0.12112214
000220 e9 c6 d6 3d 7a f1 e5 bd 98 d6 bb 3d 47 43 ca bd
       0.10487158 -0.112276986 0.0917179 -0.098761134
000230 1f 9c 9b 3d 99 cf 36 bd 34 ca ff 3d 22 9d e2 3d
       0.07598137 -0.044631574 0.12489739 0.11065127
000240 5f b2 ca bd 53 ca bf bd 5d c8 dd bc 33 24 e3 3d
       -0.09897303 -0.09364762 -0.02707308 0.11090889
000250 45 70 f6 3d a0 20 b7 bd 74 e9 e5 bc 46 db 70 bd
       0.120331325 -0.089417696 -0.02806542 -0.058802865
000260 30 fa ca bd 16 7d de 3d 3d 99 12 bd 97 38 ad bc
       -0.09911001 0.10863702 -0.03579067 -0.021145148
000270 2b 88 20 bc 6f 54 cd bd 10 d3 e6 3d 03 70 2f 3c
       -0.00979809 -0.1002587 0.11270726 0.010707858
000280 a3 01 14 bd 27 66 99 3d 68 aa e1 3d 7a 9c c7 bd
       -0.036134373 0.07490187 0.110188305 -0.097466424
000290 ce d1 09 3d 6b dd b8 3d 72 e6 6f 3d 00 f0 d0 3d
       0.03364735 0.09026607 0.05856938 0.10202026
0002a0 40 82 d3 bd b4 51 08 3d 68 aa 0e bd 40 83 92 bd
       -0.103275776 0.033281043 -0.03483048 -0.0715394
0002b0 f0 ef 38 3d 50 06 91 bd 03 47 fa bd ac 55 e9 bd
       0.045150697 -0.07081282 -0.12220576 -0.11393294
0002c0 83 ad e1 3d e5 37 4f bd 0d 84 1f bb 09 a2 f2 bd
       0.11019423 -0.050590415 -0.0024340183 -0.11847312
0002d0 0c 5c b2 3d d7 c5 7f 3d fc c1 c0 3d e3 e0 55 bd
       0.08708963 0.062444534 0.094119996 -0.05221642
0002e0 9a 09 ce bd e4 41 01 3e 92 ac 2c bd 5c 72 d3 bc
       -0.10060425 0.12622792 -0.042156763 -0.025811367
0002f0 17 92 34 3c e4 a1 eb bd 18 a2 43 3c a5 4d 47 3d
       0.011021159 -0.115054876 0.011940502 0.048658032
000300 db 21 90 bc 42 4c c2 3c 64 28 9f bd f9 b8 b4 3d
       -0.017594269 0.023718003 -0.07771376 0.08824343
000310 79 d4 ed bc 14 12 6a bd 75 f2 b9 3d d6 d6 6c 3d
       -0.029031979 -0.057146147 0.09079448 0.05782207
000320 a3 e9 aa 3d 2d 0d a1 bd ce 0d 32 bd 83 28 08 3d
       0.08345344 -0.07863841 -0.043470196 0.03324176
000330 2f 64 7a bd d1 73 b8 bd 67 f0 fa bd b1 5c b9 3d
       -0.0611307 -0.09006465 -0.12252884 0.090508826
000340 2a 65 42 bd 97 3f 3b 3d 21 b6 bd bd a4 f6 6d bd
       -0.04745976 0.04571494 -0.09263254 -0.058096543
000350 79 77 f4 bc 4f e1 59 3c 25 71 ae bd ac c5 78 bc
       -0.029842125 0.013298347 -0.08517674 -0.015183847
000360 db fc 41 3d 08 7b 2b bd c0 99 0d bd aa 3e cc bd
       0.047360282 -0.04186538 -0.034570456 -0.0997289
000370 b4 c4 ea bc 68 c2 f7 3b 58 ad 7c 3d ac 4c f5 bd
       -0.028658248 0.007561017 0.06168875 -0.119775146
000380 63 15 8f bd 6f e4 06 3e 64 7e 93 bd 62 b5 80 bd
       -0.06986501 0.13173078 -0.072018415 -0.06284596
000390 ff a6 c7 3c 1c 3d 88 3b bf 85 bc bd 55 82 65 3c
       0.024371622 0.0041576754 -0.092051975 0.014008124
0003a0 98 d1 af 3c 92 a8 dc bc 7e 88 e2 3c 9c 6f e2 bc
       0.021462247 -0.02693585 0.027652975 -0.02764111
0003b0 f5 8a 12 bd e2 08 ae 3d 8c 7d 05 3d 1e 68 e4 3c
       -0.03577705 0.08497788 0.032590434 0.027881678
0003c0 15 c9 60 3d bd e3 79 3c 4f 28 12 bd 96 6e be bd
       0.054879267 0.015252051 -0.035682973 -0.09298436
0003d0 38 86 a2 bc 90 37 bd 3d c1 44 95 3d 8a 47 db 3d
       -0.019839391 0.09239113 0.072885044 0.10707004
0003e0 51 ef 9f 3d ce 7d 89 bd 54 73 9f 3d 43 56 df bd
       0.07809318 -0.067134485 0.07785669 -0.10905125
0003f0 45 16 65 bd 64 9c aa 3c 48 b4 d6 3d 41 5e 91 3d
       -0.05592944 0.020826526 0.10483605 0.07098056

reduce1.bias f4 [64]
000000 c9 0d b5 bc d2 8e 08 3e d5 70 b1 3d 53 c5 f4 3c
       -0.0221013 0.13335732 0.08664099 0.029879248
000010 ba 7e fa 3d 15 16 17 3e 90 46 37 3e a3 4e 83 bd
       0.122312024 0.14754517 0.17898011 -0.06411483
000020 f0 6c b6 bd a9 29 90 3d e5 e7 29 bc ea 8c 09 3d
       -0.08907497 0.07039196 -0.010370229 0.03358165
000030 6d 5f 8d 3d f9 e0 af bd d7 9f 7b 3d 60 ff 36 3d
       0.06902967 -0.08587832 0.061431732 0.04467714
000040 5c b5 fb bc 5e 1b b9 3d 77 15 f0 3d a8 18 c1 3d
       -0.030726127 0.09038423 0.11722844 0.09428531
000050 ae 2d 0a 3e e4 51 e1 3d 76 69 8e bd df 37 79 bb
       0.13493988 0.110019475 -0.06953709 -0.0038027687
000060 40 95 50 bc ee 4a e2 3d d8 fb 5d bd 2d a2 45 bd
       -0.0127308965 0.11049448 -0.054195255 -0.048250366
000070 ba 45 4c bd 7f 9c bf bd 77 6e e4 bd 9b c5 96 3d
       -0.049871184 -0.09356021 -0.11153882 0.07361909
000080 3c 02 da 3d 74 85 8e 3d eb 2c 01 3d d5 bf ed 3d
       0.106449574 0.06959048 0.031536978 0.11608855
000090 a9 68 a6 3d 9c e0 d0 bc 1d 5d fd bd a7 fc da bd
       0.08125431 -0.025497727 -0.123712756 -0.10692721
0000a0 4f a1 37 3e dd 02 34 bb 31 99 b5 bd 68 1e e6 bd
       0.17932628 -0.0027467527 -0.088671096 -0.11236268
0000b0 58 e7 44 bd 74 5b 92 3d d2 d9 90 bc 0d 4c 88 3d
       -0.04807219 0.071463495 -0.01768199 0.066551305
0000c0 65 4e 41 3e 29 0a 4c bd 7b 4e 07 3e 9b b5 d9 bd
       0.18877561 -0.049814377 0.13213532 -0.106303416
0000d0 60 14 70 ba 32 2b 97 3d 93 1e 14 bc 59 82 c8 3d
       -0.00091583095 0.07381286 -0.009040493 0.09790487
0000e0 38 a1 95 3d 1e 95 bf 3d b6 cf 46 3d 1c 8e e0 3d
       0.07306141 0.09354614 0.048537932 0.10964605
0000f0 e8 8e 8a bd 63 14 bd bd f9 d3 3b bd 70 7f 07 3d
       -0.067655385 -0.09232404 -0.04585645 0.03308052

nonreduce1_1.weight f4 [32, 64, 3, 3, 3]
000000 b7 67 da 3b 4e fa d4 39 fc f5 d6 bb 84 48 02 3b
       0.006665196 0.00040622283 -0.0065600853 0.0019879648
000010 da df c1 bc 4f 2a 82 bc ca 18 bb bc 8d 03 1b 3c
       -0.023666311 -0.015889315 -0.022838969 0.009461296
000020 e4 c9 10 3c 6a e6 3c 3c 7e fb 9b 3c 31 e4 e8 3c
       0.008837197 0.011529544 0.01904082 0.028429123
000030 fd bd 18 bc 29 22 da ba d3 91 2e 3c bf ae 19 bc
       -0.0093226405 -0.0016642261 0.010654884 -0.009380042
000040 0e c8 ef bb de cc 10 bc ca 67 39 bb bc 83 fe 3b
       -0.0073175495 -0.008837907 -0.0028290623 0.007767169
000050 49 51 f0 ba 59 4f b6 3c 49 64 81 3c 79 f2 8e 39
       -0.0018334772 0.022254633 0.01579489 0.00027265007
000060 6d 20 b8 bc f6 1f 9e 3c 90 c1 47 3b fd bb 2f 3c
       -0.0224764 0.01930235 0.0030480362 0.010725972
000070 08 83 89 bc dc ad 44 bc ee dd a8 3a b8 b4 b0 3c
       -0.016786113 -0.012004342 0.0012883523 0.021570548
000080 e4 47 43 bc e2 e1 8c bb 87 ca 7d 3c ef 48 16 bc
       -0.0119189955 -0.0042993883 0.015490181 -0.009172662
000090 06 5d 59 bb ae 36 aa 3c 2e a1 32 bc 6b b4 8a 3c
       -0.0033167019 0.020778026 -0.010902686 0.016931733
0000a0 aa 7f 96 3c 10 dd 9c bc de 11 d6 bb 6b 14 2f 3a
       0.018371422 -0.01914838 -0.0065328917 0.0006678763
0000b0 c5 56 fd 3b b7 02 da bb 73 c8 8b 3c 73 84 d1 3c
       0.007731291 -0.0066531557 0.017063355 0.025575852
0000c0 f6 d8 9e 3c 70 b1 3d bc 78 50 96 3b b0 22 8d 3c
       0.019390564 -0.011577949 0.0045872293 0.017228454
0000d0 18 da 49 3c 21 7c b6 3c b9 95 b9 3c 81 d1 eb 3c
       0.012320064 0.022275986 0.022654401 0.028786423
0000e0 7f 6c 5f 3c b4 34 67 3c fc 0e a7 3b 47 4a 80 bc
       0.013636707 0.0141116865 0.005098222 -0.015660418
0000f0 e6 c8 e2 3c e0 3f 95 3c a6 83 f8 3c 5a cd 34 bc
       0.027683686 0.018218935 0.030336212 -0.011035288
000100 f6 07 fb 3a 71 5a 1c 3c ca 5a a5 3c c1 13 82 3c
       0.0019152153 0.009543047 0.020184893 0.01587856
000110 15 a7 74 bb 5b 1f 87 3c 27 eb ec 3c e9 bc 13 3d
       -0.0037331034 0.016494444 0.028920723 0.03606883
000120 55 40 0e bc d7 73 44 3c 68 5b c6 3c 5f f6 48 3b
       -0.00868233 0.011990509 0.024213508 0.0030664427
000130 da 5a 3a 3c 9b 47 17 bb 47 93 a9 3d ae c9 36 3d
       0.0113742 -0.0023083452 0.08280044 0.04462593
000140 0e 11 97 3d 39 d5 99 3a df 69 e9 3c 48 a0 e0 3b
       0.073763 0.0011736519 0.028492866 0.0068550445
000150 d7 05 39 bc 72 20 81 3c fc 25 2d bc a8 c8 70 3d
       -0.011292896 0.015762541 -0.010568138 0.05878511
000160 02 88 41 3c 5c c8 21 3d 2e 2b a3 bb 89 b5 d3 3c
       0.011812212 0.03949772 -0.0049795127 0.025843399
000170 2e 4c da 3c fb 3d a3 bb ed 71 19 bc 5d 4e 9d 3c
       0.026647653 -0.004981754 -0.009365541 0.019202406
000180 0d a0 5b 3d ce de 6c 3c 51 53 0b bb f7 55 f4 3a
       0.053619433 0.014457418 -0.0021259377 0.0018641342
000190 ca c0 fd 3c f3 13 40 3c db 01 1f 3d ee 15 d4 3c
       0.030975718 0.011723506 0.03882013 0.025889363
0001a0 aa 8c 94 3c 28 79 6d 3d a9 59 db 3c 86 f1 fa 3c
       0.01813348 0.05797687 0.026776152 0.030632745
0001b0 93 38 2a 3d 8f 78 4e 3d fd 5c 02 3d b0 f2 b3 3b
       0.04155786 0.050407942 0.03182696 0.005491577
0001c0 7a 1f bd 3c 73 8c 40 3d 09 83 13 3c db 20 bb 3b
       0.023086298 0.047008943 0.009003409 0.005710704
0001d0 97 1a 89 3c d7 76 39 3d f5 33 49 3d a9 6b 55 3d
       0.016736312 0.04527935 0.049121816 0.052104626
0001e0 d4 6d 41 bc 96 a6 e2 bb 49 7b 86 3c e8 32 4b 3c
       -0.01180597 -0.0069168312 0.016416209 0.012402274
0001f0 04 f2 b3 3b 0b 82 b2 3c 71 e1 1f 3d 5f 59 c0 3c
       0.005491497 0.021790525 0.039033357 0.023480115
000200 e5 9c 38 3d 83 e4 04 3c 35 ef cb 3c cd a2 f2 3b
       0.0450715 0.008111122 0.024894336 0.0074046613
000210 c8 56 2a 3c 13 42 37 bc 8d 63 1d 3d 39 4e e9 3c
       0.010396667 -0.011185187 0.038425017 0.028479682
000220 43 f4 5f 3d fc a4 bb 3d 80 3f 15 3d 72 b4 b9 3d
       0.054676306 0.09162328 0.03643751 0.0906762
000230 5e 88 a3 3d fd 25 3a 3d 9f b1 81 3d 74 55 8d 3d
       0.07984994 0.045446385 0.06332707 0.069010645
000240 5f eb f4 3c 60 91 5f 3d d5 1b d7 3c 92 c1 63 3d
       0.02989739 0.054582 0.026258389 0.055604525
000250 37 a6 34 3d 1b 25 7b 3d e1 cb 93 3c fd 4c 8d 3d
       0.044103827 0.061314683 0.018041553 0.0689945
000260 1a c8 3c 3d dd f7 50 3d f5 1b 67 3d 32 74 80 3d
       0.04608927 0.05101763 0.056423146 0.062721625
000270 58 6b 4b 3d 26 9d c3 3d f9 95 a4 3d b3 c6 a6 3d
       0.049662918 0.09551458 0.080364175 0.081433676
000280 44 2a b1 3d b5 18 a3 3d 3c 1e 8c 3d 0d 77 59 3d
       0.0865064 0.07963697 0.06841704 0.05309205
000290 e6 43 b5 3d cd 4f 88 3d 3a a8 92 3d 1f a2 8c 3d
       0.08850841 0.06655846 0.07160993 0.0686686
0002a0 b7 fd a1 3d 56 60 bd 3d d0 81 8e 3d b4 82 8a 3d
       0.079097204 0.0924689 0.069583535 0.06763211
0002b0 c8 ec a1 3d 07 bc 6c 3d 60 89 49 3d 5d 58 c1 3d
       0.079064906 0.057796504 0.049203277 0.09440682
0002c0 ca 2e b4 3d 4a b9 c9 3d 7c 39 d8 3d 80 d0 95 3d
       0.08797987 0.09849794 0.10557839 0.07315159
0002d0 88 22 0e 3d ac a9 8e 3d 0e 2e 91 3d 0a fd 05 3d
       0.0347009 0.06965956 0.07088862 0.03271202
0002e0 f2 95 9d 3d 0b 91 9c 3d 44 95 bd 3d 8a 3b c0 3d
       0.076946154 0.07644852 0.09256986 0.09386356
0002f0 64 99 af 3d 25 9b 4f 3c 96 21 00 3c f2 00 12 3d
       0.08574179 0.012671267 0.0078205075 0.035645433
000300 9c 72 f2 3c 99 25 49 3c 99 ac 39 bb d7 28 c9 3c
       0.029595666 0.01227703 -0.0028331636 0.024555607
000310 77 0a 27 3d 94 4c 2a 3d aa 4f da 3c b5 c1 7a bb
       0.040781464 0.041576937 0.026649315 -0.003826243
000320 1d 2b 8f 3a 19 53 43 3a 7d 69 fa 3c c5 80 03 3c
       0.0010922883 0.0007451042 0.030567879 0.0080263065
000330 78 92 04 3d 6e f4 d5 3c 0f c2 f8 3c 2e 4d f0 3b
       0.032366246 0.02611753 0.030365972 0.0073334193
000340 e4 86 9e 3c 21 d4 db 3c f7 7b 49 bb c8 b9 12 bc
       0.01935143 0.02683455 -0.0030744055 -0.0089554265
000350 c3 4b 7d 3b 8e c2 73 3d fe 3c 0e 3d df 27 47 3c
       0.0038649894 0.059511714 0.034726135 0.012155502
000360 6a 0a af 3c 6b 53 81 3c f4 8d 73 3d 72 5a 47 3c
       0.02136727 0.015786847 0.05946155 0.01216756
000370 63 b3 89 3c 9c 14 0f 3d ff 31 a3 bc 56 15 3b 3c
       0.016809171 0.034931764 -0.019921301 0.011418661
000380 db 8e 41 3d 8d 6c a6 3b 76 84 3f bc a2 ed 85 3d
       0.04725538 0.005078858 -0.011689296 0.065394655
000390 41 c8 0c 3c 88 28 6e 3c ce 36 e5 3c 9e e3 a4 bc
       0.008592666 0.014536031 0.027980234 -0.020128068
0003a0 0b 5f a4 bb 4e 99 8b 3c b8 19 ad bc 76 94 c0 3c
       -0.005016213 0.017040875 -0.021130428 0.023508292
0003b0 d1 56 a7 3c 1e 36 21 3c 20 62 b6 3c 63 61 4b 3c
       0.02042714 0.009839563 0.022263587 0.0124133555
0003c0 2d f1 63 3b 60 de 98 3c 76 bb d2 3b 11 37 9c 3c
       0.0034781203 0.018660724 0.0064310385 0.019069226
0003d0 16 80 4d bc 0b 46 b6 3b ee 82 67 3b 32 8b 01 bc
       -0.012542745 0.005562549 0.0035325843 -0.007906722
0003e0 93 82 81 3b 0a fa 9a 3c b0 a4 ae bc d5 49 9a bc
       0.0039523332 0.018918056 -0.021318763 -0.018834034
0003f0 d8 00 24 3b 4d f1 9e bc a9 dc 88 3c 07 2b 83 38
       0.0025024917 -0.01940217 0.016706781 6.254581e-05

nonreduce1_1.bias f4 [32]
000000 03 96 45 3d d3 32 86 bb 13 0e a9 3c 89 da ae 3b
       0.048238765 -0.004095414 0.020636594 0.00533611
000010 a8 c9 ea 3c 7d af ae ba 79 34 11 3c 7b 2f 76 3c
       0.02866061 -0.0013327446 0.008862608 0.015025969
000020 e5 c3 de 3b b8 4a 21 3b e1 4f b1 bb db a7 84 3c
       0.006798255 0.0024611186 -0.0054111336 0.016193321
000030 56 4f 29 3c 15 8e 6b 3c 21 2b 95 3c 5f 9e ac bb
       0.010333857 0.014377137 0.018209042 -0.0052679027
000040 af 03 52 3b 26 db f0 bb dd 2b 59 3c bc 4f 99 3c
       0.0032045653 -0.0073503433 0.013255087 0.018714778
000050 ff fa 55 bb a9 23 8f 3c 8b c1 05 3d f2 fc 18 3d
       -0.0032650826 0.017473059 0.03265528 0.037350602
000060 c5 20 1a 3d d2 32 5a 3c 09 fc 81 3c a4 df fb 3c
       0.037628908 0.013317781 0.01586725 0.030746289
000070 ce 40 ce 3a 0e 77 fe 39 ee 13 ee 3b e6 42 d7 3c
       0.0015735866 0.00048535358 0.0072655594 0.026277017

nonreduce1_2.weight f4 [32, 32, 3, 3, 3]
000000 d9 20 49 3d 29 ab 71 3d a7 ee 36 3d 28 1c 12 3c
       0.04910359 0.05900112 0.04466119 0.008917846
000010 83 a7 46 3d 64 46 06 3d c2 04 83 3d 7b 03 3a 3d
       0.048499595 0.032781973 0.06397392 0.045413475
000020 e5 e9 07 3c 06 e1 f7 3c a1 3c a1 3c 33 03 a7 3c
       0.008295511 0.030258667 0.01968223 0.020387268
000030 82 81 37 3d f0 ef 28 3d 1d 34 f2 3c 93 66 40 3d
       0.044801243 0.041244447 0.029565865 0.046972822
000040 22 53 bf 3c 79 6c 40 3d 96 ef 8f 3d 1e 4b 27 3c
       0.02335507 0.046978448 0.07028119 0.01021078
000050 67 c7 e5 3c 35 8e dc 3c c9 50 9a bb db 26 9c 3c
       0.028049184 0.026923278 -0.0047093374 0.019061496
000060 73 ea 1a bc 49 27 1f 3d 88 77 4d 3d dd 00 05 3c
       -0.009455311 0.038855825 0.050162822 0.008117882
000070 a6 3c c2 bc dc d2 11 bb d3 6f 17 3c 93 ea 02 3c
       -0.02371056 -0.0022250926 0.00924297 0.007990497
000080 63 bc f8 3c 77 2d 2b 3b 94 24 44 3c 67 66 88 bc
       0.030363267 0.0026119628 0.0119716115 -0.016650392
000090 4a 23 7e 3c 70 d2 8a 3c 02 f7 12 bc db 47 f9 3c
       0.015511343 0.016946048 -0.008970024 0.030429771
0000a0 11 61 91 3c 91 10 3c bc b4 ea f6 bc 22 7a 00 bd
       0.01774648 -0.011478559 -0.030141212 -0.031366475
0000b0 94 fe c5 bc 9a 4f dd 3c 2e c6 70 bc bb 02 c1 bb
       -0.024169244 0.027015496 -0.014695687 -0.005890218
0000c0 ba 89 8a 3c df 8e df 3c d3 2d 3e bc a5 8b f3 3b
       0.016911376 0.027289806 -0.011607605 0.0074324184
0000d0 d6 48 ab bb 5d 11 f1 ba 93 68 c5 3c fe 0d 17 bc
       -0.0052271886 -0.0018392015 0.024097716 -0.009219645
0000e0 a8 0e 4b bc 67 e6 c3 3b 67 74 ff 3c 74 26 a0 3c
       -0.012393631 0.005978394 0.031183435 0.019549586
0000f0 67 67 f6 bc f1 e4 49 3c 63 84 9b bb cc ff dd 3c
       -0.030078603 0.01232265 -0.0047460063 0.027099513
000100 e4 c7 6b bb 4b e8 77 3b 94 6c de 3b af 51 04 bd
       -0.0035977298 0.0037827666 0.006787846 -0.032304462
000110 84 11 3f bc 24 0d 6a 3c 2c a2 0e bd a0 f9 e2 bc
       -0.011661891 0.0142853595 -0.034822628 -0.027706921
000120 78 7d 0f 39 74 cd a6 3c 86 55 c2 3c e8 4f 24 3c
       0.00013684283 0.02036164 0.023722421 0.010028817
000130 01 fd 6b bc 64 08 50 bb 90 f2 83 3b 2f c5 af bc
       -0.014403583 -0.0031743282 0.0040267184 -0.02145633
000140 e0 1e 15 3c 67 b3 e2 3c 71 67 cf 3c b4 d8 82 3b
       0.009101599 0.027673436 0.02531788 0.003993118
000150 be d0 a5 bc 8c cc a3 bc 3b 3c 08 bd 3d f4 e2 3c
       -0.020241138 -0.019994996 -0.033260565 0.027704353
000160 a2 49 9d 3c b5 32 bb bc 6e b3 e3 bc a9 6f 56 bc
       0.01920015 -0.022851327 -0.02779552 -0.013088145
000170 66 00 06 bd d1 2f da bc b8 a8 36 3c 4f 9b 07 bd
       -0.032715224 -0.026634129 0.011148624 -0.0331071
000180 f1 58 9c 3c 85 e4 60 3c 9b 57 4d b9 81 f2 dd 3c
       0.01908538 0.013726358 -0.00019582959 0.027093174
000190 d4 1d 34 3c 42 9d 1f bb 77 b7 e5 3c 53 da f2 bc
       0.01099344 -0.0024355208 0.028041584 -0.02964512
0001a0 2e e8 fd 3b 33 15 08 bc db 4a e4 3c 85 ba ef bc
       0.0077486252 -0.008305836 0.027867725 -0.029263744
0001b0 5c 39 dd 3c 6c 05 f3 bc a3 98 3e bc 61 c7 e5 bb
       0.02700489 -0.029665671 -0.011633071 -0.007012293
0001c0 34 38 d2 3b 42 74 c1 bc 7f 55 84 3c f2 b2 d3 3a
       0.0064153913 -0.023615006 0.016154049 0.0016151352
0001d0 a4 14 d1 3c db 37 6e 3b f4 6e 36 bc b8 d2 c7 bb
       0.025522538 0.003634921 -0.011134852 -0.0060981177
0001e0 7f 75 1b bd d0 c0 a2 bc a8 35 27 3c 35 a7 fb bc
       -0.03795385 -0.01986733 0.010205664 -0.030719379
0001f0 3c 46 aa 3c 0e bc 8c 3c 7d 61 54 bc 75 0b 8f bc
       0.020785443 0.017179515 -0.012962696 -0.017461518
000200 ba f8 de 3b 86 29 66 3c 18 15 89 bc 69 fc 02 3d
       0.006804553 0.014047986 -0.016733691 0.031979
000210 fb 38 e5 bc 0b 32 f3 bb d5 b7 ef bb 2a fa b2 bb
       -0.027981272 -0.007421737 -0.0073156157 -0.005461951
000220 c2 93 c1 3c b7 fa 0c bd fb c0 d9 bc 54 a5 07 bc
       0.023630027 -0.034418788 -0.026581278 -0.008279163
000230 a3 0c 02 bd 2c bf df bc 35 eb c8 3c 6a 45 a8 3b
       -0.031750333 -0.027312838 0.024526218 0.005135228
000240 fa 3a 11 3b 75 1d 1d ba cc f5 bc 3a d6 e9 32 bd
       0.0022160397 -0.0005993464 0.0014416515 -0.043680035
000250 33 94 a9 3b c7 eb 70 3c 31 11 6a 3c b1 6f 17 bc
       0.0051751374 0.014704651 0.014286325 -0.009242938
000260 61 d7 88 bc b6 ed 04 3d 25 32 04 3c d9 ff 3c bc
       -0.016704263 0.03245326 0.008068596 -0.011535608
000270 1a 60 ea bc 2f c5 a8 ba f1 95 fb bc 2e c4 c9 bc
       -0.028610278 -0.0012876148 -0.030711146 -0.024629679
000280 bd 07 e8 bc af c6 65 3c d5 7e ea 3b 16 68 f5 3c
       -0.028324002 0.014024421 0.007156233 0.029956859
000290 24 ae a8 bb c7 84 00 3c c6 db 13 3c 5e 18 90 bc
       -0.0051477123 0.007844157 0.009024566 -0.017589744
0002a0 4f b4 47 3d 39 e6 ec 3c ce 67 8f 3c da 02 6a 3c
       0.04875594 0.028918372 0.017505553 0.014282906
0002b0 c4 4b b6 3c d1 22 dc bc d6 81 c7 bc 39 12 a8 3c
       0.022252925 -0.02687207 -0.024353903 0.020516502
0002c0 98 40 f7 3c 8e 66 a7 3c 5c 7e 05 3d 21 b4 ec bb
       0.030182168 0.020434644 0.03259121 -0.0072236215
0002d0 08 20 81 3c ce 89 ae 3c 0f 05 c2 bc cb 65 03 3d
       0.015762344 0.021305945 -0.023684053 0.0320795
0002e0 8d ab 1d 3d 0b 57 aa bc 9c c3 15 3d a7 01 d8 3c
       0.03849368 -0.020793458 0.0365635 0.026367975
0002f0 28 58 10 3b f7 4a c7 bb 93 21 37 3b 5a ad c1 bc
       0.0022025201 -0.0060819346 0.0027943596 -0.02364223
000300 d6 81 52 bc 1c 48 06 3c 80 ef 0c bd 66 4b a2 3c
       -0.012848338 0.008195903 -0.034408092 0.019811343
000310 10 ff 05 3c a1 3f 15 3c 35 5a 08 bc 9d 15 d0 3c
       0.008178487 0.009109409 -0.008322288 0.025400931
000320 c5 87 b5 bb 96 6e e2 bc 72 29 ce bc 9a 25 f8 bc
       -0.0055398666 -0.027640622 -0.025166247 -0.030291367
000330 29 57 55 bc 18 98 ba bc a6 d5 bb bc 92 c5 bd bc
       -0.013021269 -0.022777602 -0.022929024 -0.023165498
000340 8a b7 e9 3c a5 00 0b bd 5f 66 1b 3b 8f 55 3c bb
       0.028529901 -0.03393616 0.002371214 -0.002873752
000350 4f c9 6a 3c d0 50 88 bc f5 07 06 3d d3 8b 78 bc
       0.014330222 -0.016640097 0.032722432 -0.015170055
000360 d6 b0 ab 3c 6b 28 2c 3d ea 76 f3 39 10 d6 6f 3c
       0.020958345 0.042030733 0.0004643717 0.014638439
000370 f1 9d be bb 17 bf 3c 3d f3 ab 61 3d 47 32 d1 3c
       -0.005817168 0.046080675 0.055095624 0.02553667
000380 29 d1 28 3d 63 f8 81 bb 95 b6 2d bc cf a8 0d bb
       0.041215096 -0.0039663776 -0.010602613 -0.002161551
000390 15 e6 81 3c ce 0f 4d ba ec 53 29 bc 88 f5 4d 3d
       0.015856782 -0.00078224845 -0.01033495 0.050282985
0003a0 fd 4a 16 3d 36 92 3a 3d 64 95 96 3b f9 1c 51 3d
       0.03669261 0.045549594 0.0045954455 0.05105302
0003b0 08 0f 57 bc 70 79 02 3d 04 1c 31 bc aa 65 6a bc
       -0.013126142 0.031854093 -0.010809902 -0.014306465
0003c0 b8 be 46 3d de 55 f9 3c 9b 72 f8 3c 51 62 6b bb
       0.048521727 0.030436452 0.030328086 -0.0035916755
0003d0 42 8d df bc e8 bb 16 3c ad 14 f3 bc 24 dd 42 bc
       -0.027289037 0.009200074 -0.029672945 -0.011893544
0003e0 79 ff c0 3c c6 25 10 bd 9b de c9 3a ab 5f c0 bb
       0.023559319 -0.035192274 0.0015401425 -0.0058707795
0003f0 3f d2 d2 bc b5 42 6e 3c 67 7c 2a bc ae c3 85 bc
       -0.025735019 0.014542271 -0.010405636 -0.016328659

nonreduce1_2.bias f4 [32]
000000 ee c1 4f 3d ae 82 1d bc 1f dd 50 bc 84 4f 66 ba
       0.050722055 -0.009613676 -0.012748032 -0.00087856525
000010 ca 07 97 3b e8 9d 2e bc 9a d0 a3 bc 30 1a 12 bb
       0.004609083 -0.010657765 -0.01999693 -0.002229344
000020 7c 1d d9 bc 29 ce 23 3d 35 8b e8 bb 87 e2 73 bc
       -0.026503317 0.03999153 -0.007096673 -0.014885551
000030 a6 51 5f bc 5b 57 06 3c 6a cf 5a bb 95 4e 22 3b
       -0.013630306 0.008199538 -0.0033387789 0.0024766077
000040 96 7a 0e 3d c9 88 89 3b 9a 38 7d 3d d4 15 11 3d
       0.034784876 0.0041972143 0.061821558 0.035421208
000050 3b c2 96 3c 59 ad 2a 3d 00 84 9d bb 80 62 f4 bb
       0.018403163 0.041669223 -0.0048069954 -0.007458031
000060 05 dd 7a 3c 49 b9 01 3d e0 06 13 3c f1 95 51 3d
       0.015311484 0.031670842 0.008973807 0.051168386
000070 17 80 f4 3c f0 c7 0d bc 79 f3 be bb c5 61 63 3d
       0.029846234 -0.008653626 -0.005827364 0.055513162

nonreduce1_3.weight f4 [32, 32, 3, 3, 3]
000000 7c c4 5a bb 94 13 a2 bc 0c 9a 00 3d e3 18 b5 3c
       -0.0033381274 -0.019784726 0.03139691 0.022106593
000010 3a 50 15 bc b0 3a 94 3b 94 a6 9c bc 01 75 be bc
       -0.009113366 0.0045235977 -0.0191224 -0.023249151
000020 b4 d3 26 3c 5b 8e 82 bc a6 8a 3e bc 81 b0 d7 3c
       0.01018231 -0.015937021 -0.011629736 0.02632928
000030 26 02 ad 3c e1 9a 98 bb d1 5f b1 3c 43 03 f8 bb
       0.021119189 -0.004657135 0.021652134 -0.007568748
000040 ae 88 09 3b 4a f9 ae bc 23 ee 5a bc 0c be 45 3b
       0.0020986008 -0.021359105 -0.01336244 0.0030173091
000050 8e f0 b9 bc b1 a2 de 3a c9 cb e8 bc 73 7c 1a bc
       -0.022697713 0.0016985742 -0.028417485 -0.009429085
000060 eb 39 82 bc 06 d2 08 3b ba 5e 08 bc f2 72 17 bc
       -0.015896758 0.0020877137 -0.008323366 -0.009243714
000070 b4 0f a6 3b cb 0f 08 bd c6 91 4e 3a 57 03 1a bb
       0.00506779 -0.033218186 0.00078799983 -0.0023500526
000080 92 65 66 bc f8 22 0b bd c3 02 38 bc 0b 56 ff b9
       -0.014062302 -0.033968896 -0.011231127 -0.00048701497
000090 ea ac 09 bd 2f f1 ad bc 13 ca ca 3c 5d fb b7 b9
       -0.03361217 -0.02123317 0.02475456 -0.0003509176
0000a0 f6 2e f5 bb 31 3e 90 3c 1b 7e 7c 3c bd a9 22 3c
       -0.007482405 0.01760778 0.015410925 0.009928164
0000b0 b5 93 2c 3c 40 c8 41 bc 00 22 8e bc 81 a6 64 3b
       0.010533263 -0.0118275285 -0.017350197 0.0034889283
0000c0 71 07 81 bc a9 49 a4 3c ea 4c f8 bb ca 24 14 bc
       -0.015750619 0.020054655 -0.0075775282 -0.009041974
0000d0 b4 d9 b8 bc a5 84 30 3c 8a 4a f5 bc 0f 18 b5 3c
       -0.022564746 0.010773812 -0.02994277 0.022106199
0000e0 76 e8 45 bc 26 a8 5f 3c bc 1d c5 bc 73 54 ab 3b
       -0.012079349 0.01365093 -0.02406203 0.005228573
0000f0 a5 70 86 bc 4e 18 18 3c bc 04 3d bc 09 49 e6 3b
       -0.016411135 0.009283138 -0.011536773 0.0070277494
000100 c7 8e d8 bc dd 62 48 bc a0 69 c7 38 0c 21 e8 3c
       -0.026435269 -0.012230602 9.508734e-05 0.02833607
000110 5e 87 cc bc 6b 9e dd 3b 4d 0c 8f 3c ae b3 be 3c
       -0.024966892 0.0067632697 0.01746192 0.023279037
000120 88 26 5d bc 57 ad 7f 3c 50 c3 0f ba 9f 13 48 bc
       -0.013497956 0.015605292 -0.0005484121 -0.012211709
000130 ce 68 bb bc 22 7a 6e 3c 96 db 9c bc eb 3e 07 bd
       -0.022877123 0.014555486 -0.019147675 -0.033018988
000140 25 27 5f bc af 1e 8e bc a4 1e e9 3c 05 ad 4f 3b
       -0.013620173 -0.017348615 0.028456993 0.003168882
000150 25 21 42 3c fa f1 f8 3c 3d 45 06 bd c9 32 c4 3b
       0.011848723 0.03038882 -0.032780875 0.0059874994
000160 82 18 33 bc 24 ee 8c bc 25 6c d9 3c 55 c4 01 3d
       -0.010931136 -0.017203398 0.026540825 0.031681377
000170 04 77 a4 bc 14 6e dc bc 18 52 93 bc fe 4b df bc
       -0.020076282 -0.026907958 -0.017983481 -0.027257916
000180 16 97 d2 3c 49 3d 77 3c 38 23 b4 3b 20 fa df bc
       0.025706809 0.015090295 0.0054973625 -0.027340949
000190 fb f4 ff ba e9 7a f8 bc 77 79 dd 3a 29 65 4a 3c
       -0.0019527966 -0.030332046 0.0016897161 0.01235322
0001a0 9b 89 0b 3d c1 d9 a4 bc fb 34 30 3b c3 2b 81 3c
       0.034066778 -0.020123364 0.0026887048 0.015767938
0001b0 b6 a3 ba 3b 35 a9 e6 bb aa c1 11 3a f8 a2 54 bc
       0.0056957854 -0.007039214 0.0005560169 -0.012978308
0001c0 62 91 2c bc 69 9b 4c bc 14 a9 e6 bc d5 e8 c4 3c
       -0.010532709 -0.012488225 -0.028156795 0.024036804
0001d0 6c 1f b8 bc 36 9f 20 bc bc f7 af bc 24 4c e0 bc
       -0.02247592 -0.009803584 -0.021480434 -0.027380057
0001e0 7e 0c c2 3c 93 ae 7e bc 06 b1 e2 3c 71 69 90 3b
       0.023687597 -0.015544551 0.027672302 0.004407101
0001f0 99 b0 9d bc 5f 09 5f 3c fb e4 28 3c bb 73 d8 bc
       -0.019249247 0.013613074 0.010308499 -0.026422372
000200 9c 39 2d 3c 35 40 7a 3c af 87 bb 39 7a 9a f2 bb
       0.010572817 0.015274097 0.00035768512 -0.007403669
000210 1c 79 be 39 6a fb 02 ba 7a 65 01 bd 35 f3 0e 3c
       0.00036329858 -0.000499657 -0.031590916 0.008724977
000220 6b d3 00 bd 53 b6 93 bc f6 dd ac bc cc c0 ec bc
       -0.031451624 -0.018031275 -0.021101933 -0.028900526
000230 2e e8 d7 3b 80 1d 94 bc 2c 0e 39 3c d8 b1 93 bc
       0.0065889573 -0.018080473 0.011294883 -0.018029138
000240 05 54 be bc aa ff 87 3b 0c cc 10 bc 58 52 d7 bc
       -0.023233423 0.0041503506 -0.008837711 -0.026284382
000250 63 de 4d 3c 84 a2 a2 3c b5 9c b6 3c 30 7c a3 3c
       0.012565228 0.019852884 0.02229152 0.019956678
000260 86 d4 a0 bb 95 03 8b 3c 54 c5 88 bc 2f cf 2c 3c
       -0.0049081473 0.016969481 -0.016695656 0.010547443
000270 be 7d b2 bb dc 72 eb bc e4 f8 d0 bc a2 94 c2 bc
       -0.0054471185 -0.028741293 -0.025509305 -0.023752514
000280 52 aa aa 3c 63 26 09 bd 76 97 b2 3c 6e 13 62 bc
       0.020833168 -0.033483874 0.021800738 -0.013798578
000290 44 86 0e bd a3 d3 7d 3c ff a2 31 bc 3f 48 53 3b
       -0.034796014 0.015492353 -0.010842084 0.0032239107
0002a0 ba ac b6 3c 87 9d e9 bc 6a 8d 02 bd 69 6c bd 3c
       0.02229916 -0.028517498 -0.031873144 0.023122983
0002b0 96 5d 5f 3c f2 d1 2c 3c 1d 40 87 bc f1 67 f0 bc
       0.0136331525 0.010548102 -0.016510064 -0.029346438
0002c0 80 dc 62 bc 52 f9 a3 3b 53 b2 0c bd 13 b9 b6 bc
       -0.013846517 0.0050040865 -0.03434975 -0.022305047
0002d0 d5 f4 12 3b 36 e8 f7 3a 93 7e 44 bb a6 b6 c8 bc
       0.0022423763 0.0018913809 -0.002998267 -0.024501156
0002e0 cc 17 10 bd ee 93 85 3c 65 70 03 3d c9 c7 8c 3c
       -0.035178944 0.01630589 0.03208961 0.017185109
0002f0 e8 a2 eb bc 4d 4d 56 3b 6f 6c d3 3c a1 9f 9c bc
       -0.028764203 0.0032699883 0.025808541 -0.019119086
000300 29 6f a5 3c 26 bb 96 bc 1e 48 4a ba 40 e2 a9 3c
       0.020194607 -0.018399786 -0.0007716435 0.020737767
000310 e2 b0 04 bd a6 99 fc bc 63 f2 23 3c ef ac 3a 3c
       -0.03239525 -0.030834984 0.01000652 0.01139377
000320 84 24 88 bc 94 11 92 3c f3 f0 3c bb 25 db 8e bc
       -0.016618975 0.017830648 -0.002883014 -0.01743848
000330 8c 6e 08 bd cb 3f 94 3c 46 32 c3 3c 0c 41 6b bb
       -0.03330855 0.018096825 0.023827683 -0.0035896925
000340 68 70 7d 3c 0c 8f d0 3a 38 bf ed bb e5 28 a1 3c
       0.015468694 0.0015911772 -0.007255461 0.01967282
000350 88 ac ee 3c 87 3b d2 3c d4 8b 00 3d 57 5c 2a bb
       0.029135004 0.02566315 0.03138335 -0.002599498
000360 e0 83 ee 3c 4f 15 dd 3a e8 48 da bc 0f fc 4f 3c
       0.029115617 0.0016867312 -0.026646093 0.012694373
000370 7f 4e 48 bc 00 29 7a 3b 31 4f de bc dd f8 aa ba
       -0.012225746 0.003817141 -0.02713737 -0.0013044138
000380 63 8d 05 3d 15 c1 97 bc 81 17 86 3c 14 00 87 3c
       0.03260554 -0.018524686 0.01636863 0.01647953
000390 59 fe 3a 3c 1d d9 e3 3b ed 70 c9 bc 05 59 04 bd
       0.01141318 0.006953372 -0.02458998 -0.03231146
0003a0 24 4d ef bc de 32 e3 3c a1 16 85 3c bf 79 05 bd
       -0.029211588 0.027734216 0.016246142 -0.03258681
0003b0 1e 69 0e 3b bf 84 07 ba 02 81 ee 3c 75 73 e1 3c
       0.0021730135 -0.0005169622 0.02911425 0.027520875
0003c0 4c a7 ac bc f7 99 af bc f4 b1 33 bc 51 80 df bc
       -0.021075867 -0.02143572 -0.01096772 -0.027282866
0003d0 7e 72 ed bc 41 e2 44 3c e1 f8 c9 3a 13 7a d4 bc
       -0.028985258 0.012016834 0.0015409255 -0.025937116
0003e0 64 4a 01 bd a8 a3 0c 3b 28 9f 15 bd 13 fd 8b bc
       -0.031565085 0.0021459851 -0.036528736 -0.017088449
0003f0 2b ce 33 bc ac 09 36 3b 0b 8e a4 3c b2 57 a5 ba
       -0.010974447 0.002777676 0.020087263 -0.0012614636

nonreduce1_3.bias f4 [32]
000000 76 dc 84 bc be b1 cf 3b 5a 8b d1 3c ab b8 74 3c
       -0.016218405 0.006338327 0.025579143 0.014936606
000010 ec 69 47 bc 75 ec ad 3c 9c fc 4c bc 01 80 9f 3c
       -0.01217125 0.021230916 -0.012511399 0.019470217
000020 98 47 0f 3d e4 4a 1e 3d 02 77 cc 3c 7d e7 30 3d
       0.034980386 0.03864564 0.024959091 0.043189514
000030 31 a3 e8 3b 04 86 35 3d 68 8d 61 3d 12 25 30 3d
       0.007099532 0.04431726 0.055066496 0.043004103
000040 e3 34 39 3d 66 64 b2 3c ec 33 04 3d d2 b4 1c 3d
       0.045216452 0.02177639 0.03227608 0.03825838
000050 50 a1 9e 3a 7a 66 55 3c dc ce 16 3c ab 6f f1 bb
       0.0012102518 0.013024921 0.009204593 -0.007368048
000060 f5 dd 13 bc 2d 61 c7 3b a1 42 09 3d 79 5a 29 3b
       -0.009025087 0.0060845823 0.033510808 0.002584128
000070 2e c5 3d 3d a6 34 fb 3b 68 2b c7 3c f6 ff 54 3d
       0.046330623 0.0076661883 0.02431269 0.052001916

reduce2.weight f4 [16, 32, 4, 4, 4]
000000 84 4b 93 bb 64 b1 3d bc b0 c8 53 3b 66 a9 65 bc
       -0.004495086 -0.011577938 0.0032315664 -0.0140174385
000010 64 44 ba bb c7 46 b2 3c f5 dd 91 3b 20 e5 0a 3b
       -0.0056844223 0.021762265 0.004451508 0.0021193698
000020 30 c1 8d bc 55 a2 20 bc f9 52 1e 3c 8f 0e 53 3c
       -0.017304033 -0.009804328 0.009663337 0.012881889
000030 10 e3 19 3c e9 dc 65 3c 0d 81 70 bb f6 43 9a 3c
       0.009392515 0.01402972 -0.0036698014 0.018831234
000040 a8 67 cc ba c3 da 30 3c 2b d8 d6 3b 00 e2 0f 3b
       -0.0015594857 0.010794344 0.006556531 0.0021954775
000050 1e 89 5e 3c 4a 9e 60 bc da 5a 69 3c f6 c9 d4 ba
       0.013582496 -0.013709614 0.014242852 -0.0016234505
000060 ac 5e 8b bc 5b 00 45 bc 69 80 32 b6 3c 51 ac 3c
       -0.017012917 -0.0120240105 -2.6598811e-06 0.02103483
000070 24 6b 89 3c 65 7c af b8 f6 4b 2b 3c ec 33 a8 bc
       0.016774721 -8.3678206e-05 0.010455122 -0.02053257
000080 23 b2 10 bb b8 01 32 3c 49 ff 8d bc 76 96 38 3c
       -0.0022078834 0.010864668 -0.017333644 0.011266341
000090 6d b6 85 bc d3 11 7a bc cd 41 bd bc 03 cf 29 3c
       -0.016322339 -0.015263039 -0.023102665 0.010364297
0000a0 d7 a0 dd 3b 4e 92 87 bc 0b 77 55 3c 4f 78 78 ba
       0.0067635584 -0.016549256 0.01302887 -0.00094783766
0000b0 b5 d4 f3 3b 46 db 12 bb 27 85 90 bc 3f 12 b7 3c
       0.007441128 -0.002240853 -0.017641617 0.022347568
0000c0 a6 42 6c 3a 38 99 0e 3c 54 d6 29 3c da 66 13 bc
       0.0009012617 0.008703522 0.010366041 -0.00899669
0000d0 40 f0 39 3c 45 7e 84 bc 22 e2 ab bc d7 6f 01 bc
       0.011348784 -0.016173491 -0.020981852 -0.0079002
0000e0 67 de b7 3b 0d 9c 71 bc b6 b7 80 3c bc 0e ab 3b
       0.005611229 -0.014746678 0.0157126 0.0052202623
0000f0 a5 e0 21 3c bc 27 48 bc 01 5c 26 3c a7 e1 43 3c
       0.00988022 -0.012216505 0.010153771 0.011955655
000100 dd 30 87 3c 64 b2 9b 3b 23 bc 72 3c 67 2f 9d bc
       0.016502792 0.0047514904 0.014815363 -0.019187642
000110 d7 63 66 3b c7 bf af 3c 1a 34 73 3c ab 17 99 3c
       0.0035154724 0.021453751 0.014843965 0.018688044
000120 7d 8b 53 3b 71 62 63 3c 0e e2 a2 3c 52 9e 0c 3c
       0.0032279186 0.013878451 0.019883182 0.008582668
000130 eb 42 24 3c f7 19 37 3c d6 e4 b2 bb 8e 03 4b 3c
       0.01002572 0.011175624 -0.0054594083 0.012390984
000140 cf 83 7d 3c 69 5b f5 bb a9 22 b8 bb 13 46 ec 3b
       0.01547332 -0.0074877036 -0.005619366 0.007210502
000150 09 74 63 bb b7 18 95 bc 93 82 3a bb 20 bb bb bb
       -0.0034706614 -0.018200262 -0.0028459176 -0.005729094
000160 32 9b 80 bc d4 ca 16 bc 75 da b1 3c 68 eb 9c 3c
       -0.015699003 -0.009203631 0.021710614 0.01915522
000170 e7 29 5f bc 14 61 0d 3c 5a 89 27 3b d7 0c 97 bb
       -0.01362083 0.008629102 0.0025564046 -0.004609685
000180 74 1b 0b bc 8d 77 b2 3c a6 b4 bc 3b b8 12 aa 3c
       -0.008490432 0.021785522 0.0057588397 0.020760879
000190 f5 db f0 bb 59 7f 95 bc 7f 13 57 bc df ae 6d bc
       -0.0073504397 -0.0182492 -0.013127207 -0.014507025
0001a0 49 d3 8a 3c 04 0e 97 3c d9 e5 9c ba 39 49 81 3c
       0.016946452 0.0184393 -0.0011970355 0.015781986
0001b0 54 51 07 3c 0a b6 1a bb cb c6 9a 3c 0a 2d 1f 3c
       0.008259136 -0.002360704 0.01889362 0.009715328
0001c0 df 50 b9 3c 24 8e ad 3a 72 1d 8d bc ca b3 66 3c
       0.02262157 0.0013241214 -0.017225955 0.014080951
0001d0 d9 be d2 3a fc 1c 85 bc 48 45 18 bc b7 a3 45 3c
       0.0016078606 -0.016249172 -0.009293862 0.012062958
0001e0 bb 55 4b bc 92 56 8a bc ae 3a f6 bb 58 cb 16 bc
       -0.012410576 -0.016886983 -0.0075143194 -0.009203754
0001f0 79 78 27 bc 3e d7 4f bc 6c dc 38 bc b7 f6 0b ba
       -0.010221594 -0.012685595 -0.011283021 -0.00053391926
000200 bc f6 97 3c 73 4c 11 3c 51 f2 17 b9 93 79 5f 3c
       0.01855027 0.008868325 -0.00014490752 0.013639825
000210 33 97 fd 3b fa f1 96 bc 45 e2 d7 bb 6b 87 38 bb
       0.0077389716 -0.01842593 -0.0065882527 -0.0028156887
000220 da df a4 bc d7 c2 fb 3b 2a 8f 3b bc 40 83 a9 b8
       -0.020126272 0.007683139 -0.011447707 -8.082995e-05
000230 a7 30 2e bc a4 95 b8 3b 07 e7 5f 3c 29 e7 ef bb
       -0.010631717 0.005633073 0.013665921 -0.0073212576
000240 77 bf 85 bc ba 88 a4 3b 52 15 5e bc 40 a0 b9 3c
       -0.01632665 0.005021182 -0.013554888 0.022659421
000250 de 8c a8 39 7a 52 87 b9 87 b7 a6 3c fe 50 3d bc
       0.0003214841 -0.00025810656 0.020351185 -0.011554955
000260 21 e2 94 3c 0e 82 1c bb f1 f9 33 bc 3f fd 16 bc
       0.018174233 -0.002388123 -0.010984884 -0.009215652
000270 aa 75 ad 3c 5e 47 65 39 81 da 85 3b 7a 47 29 3b
       0.02117427 0.00021865728 0.0040848856 0.0025829957
000280 1f 71 19 3c e3 06 22 bc ec 73 83 b9 8a 85 5e bc
       0.009365349 -0.009889337 -0.00025072636 -0.013581643
000290 d5 a3 76 3c d4 07 87 3c 31 c6 5d bc 16 0e 9d 3c
       0.015053709 0.016483225 -0.013536022 0.019171756
0002a0 b7 be 52 bc e5 4b 13 bc 3f 62 fe bb 16 8f 16 bc
       -0.012862853 -0.008990263 -0.0077631767 -0.009189388
0002b0 ee 50 50 bc f8 c7 d4 3b c1 1c 01 3c 1f 9a c3 bb
       -0.012714608 0.0064935647 0.007880391 -0.0059693004
0002c0 34 cb 59 bc d6 e0 14 3b 1b 8b bd 3b 2a b5 7a bc
       -0.013293076 0.002271702 0.005784405 -0.015301982
0002d0 a0 02 95 3c a4 a5 ac 3c 20 9f c0 3b ef 8e aa bc
       0.018189728 0.021075077 0.005878344 -0.02082011
0002e0 e6 93 1e bc a7 a7 43 3c 68 14 aa 3b cc 13 7e 3c
       -0.009678816 0.011941827 0.005190421 0.01550765
0002f0 e5 84 97 bc bb 68 27 bc 86 ec 87 3b 1e 29 6c 3c
       -0.018495986 -0.010217841 0.004148069 0.0144141
000300 3e 0b d5 3b 0a 2e e5 bb 69 d1 86 3b 13 83 84 3c
       0.0065015843 -0.0069940137 0.004114319 0.016175782
000310 c8 73 ff 3a 58 ee 40 3b 63 a5 a0 3c 99 f1 b1 bb
       0.0019489462 0.002943894 0.019610113 -0.005430412
000320 6f b0 c2 3b e6 91 80 3c 6f 9b 9a bc 37 20 c1 3a
       0.0059414427 0.01569457 -0.018872945 0.0014734332
000330 74 b9 ab bb f3 a7 9c 3c d6 18 01 bc 47 3e 4e bc
       -0.0052406136 0.019123053 -0.0078794565 -0.01258809
000340 35 ae e9 bb 9b ad b4 3c a3 66 b4 bb 8a f5 b7 3c
       -0.007131363 0.022055438 -0.0055053993 0.02245595
000350 b4 22 e2 3a 7a cf 8d 3c 2c 08 49 bc 64 8a e3 3b
       0.0017252774 0.017310847 -0.012270015 0.0069439877
000360 98 fa 03 bc 37 0c a0 3c 5e 99 0e bc 80 06 45 3c
       -0.008055352 0.019537074 -0.008703558 0.0120254755
000370 51 d3 24 bc ad 5e 12 3b 69 22 40 3c 3b 04 8f bb
       -0.010060147 0.0022334263 0.011726954 -0.004364518
000380 4c eb 9e 3c ec a7 03 3c 59 bb 4f ba fe 43 f8 39
       0.019399308 0.008035641 -0.00079243403 0.00047352904
000390 51 e9 27 bb 7c 2e 57 bc be cd 3e bc 2a 0b 72 3c
       -0.0025621245 -0.013133641 -0.011645732 0.0147731695
0003a0 c9 0b ce bb 14 5a 15 3c 54 94 a5 bc 54 8f 03 bb
       -0.006288026 0.009115715 -0.02021233 -0.0020074444
0003b0 0d 09 cf bb 0f 1b 37 bc 30 a0 27 bc b1 df 9b bc
       -0.0063182176 -0.011175885 -0.010231063 -0.019027563
0003c0 92 1b 00 ba 08 f1 8d bc f8 66 21 3c 9e 5a cf bb
       -0.0004886921 -0.017326847 0.00985121 -0.006327941
0003d0 3f d3 ae bb b9 0a 96 3b 5b 3b a1 3c 14 72 8c bc
       -0.005335241 0.004578915 0.019681623 -0.01714424
0003e0 93 01 e6 bb 2d df 82 bc 45 83 98 bc e8 52 84 3b
       -0.0070192306 -0.01597556 -0.018617282 0.0040382035
0003f0 51 59 88 bc 7d 18 20 3c 26 c9 36 bb 6c c7 c1 3c
       -0.016644152 0.009771463 -0.002789089 0.023654662

reduce2.bias f4 [16]
000000 64 3b 7a 3a db da 72 bc 5b cb dc 3b 4e f9 6a bb
       0.0009545593 -0.014822687 0.006738109 -0.0035854164
000010 87 c2 e8 3b 1c 87 1c 3b e4 02 4d bb b3 c4 eb 3c
       0.0071032676 0.0023884242 -0.003128224 0.028780317
000020 67 34 45 3c e7 22 8a 3a ca 08 ce 3b 89 a8 16 3d
       0.0120364195 0.0010538966 0.006287669 0.03678182
000030 a0 4b b3 3b 95 38 c7 3c c4 8a d0 3c fe f7 ca bb
       0.0054716617 0.024318973 0.025456794 -0.0061941138

nonreduce2_1.weight f4 [16, 16, 3, 3, 3]
000000 66 53 23 3b 06 79 17 bd dc a6 17 bc 07 af 0a bd
       0.0024921536 -0.03698065 -0.009256091 -0.033858325
000010 d4 cf b3 3c 23 73 c6 bc 6d a7 7d 3c 92 b5 fc 3b
       0.021949686 -0.024224823 0.015481812 0.0077120746
000020 0d 6e d8 bc 5a 55 e3 3a 2d de 31 bc aa c5 18 bc
       -0.026419664 0.0017344162 -0.0108561935 -0.009324471
000030 83 b1 0b 3d 3b 92 28 3d 44 d6 ed 3c eb bf 89 3c
       0.034104835 0.04115508 0.029032834 0.016815146
000040 59 fc c8 3c b1 4b de bc de cd f6 bb 4a 89 22 bd
       0.024534391 -0.027135702 -0.0075318655 -0.03968171
000050 58 22 96 bb 7f a4 22 bd bd 89 3c bd bf 59 f2 bc
       -0.004581731 -0.039707657 -0.046029795 -0.02958381
000060 50 e0 22 3d 1c 3f 24 3c 74 e4 3b 3d fa bc 98 3c
       0.039764702 0.010024812 0.045872167 0.018644799
000070 4b 10 be 3c c2 b6 fc 3c 5b fa d7 bc 14 6e ab 3c
       0.023201128 0.030848864 -0.026364496 0.020926513
000080 0a d5 0e 3d f5 40 13 3d 6a 36 32 3c 81 43 71 3c
       0.03487114 0.03595062 0.010877231 0.014725567
000090 dc 1e 08 bd 1c aa fe 3c ff c0 3a 3d 2f 86 80 bc
       -0.033232555 0.031086974 0.04559421 -0.015688984
0000a0 e0 65 11 3d 97 c7 21 bd e8 df 08 3d 4c 78 de bc
       0.035497546 -0.039496984 0.03341666 -0.027156971
0000b0 e6 6d 91 bc 7c cb 13 3d fe 05 59 bd 24 c2 5a bc
       -0.017752599 0.03608273 -0.05298423 -0.013351951
0000c0 b1 8d 2d 3c af d0 8f bc 61 18 21 bd 48 f1 21 3d
       0.010592864 -0.017555563 -0.03932989 0.039536744
0000d0 45 80 ec 3c 99 33 34 3d c5 e4 4a 3a 10 45 15 3d
       0.028869757 0.04399452 0.0007739778 0.036442816
0000e0 fc 1f 52 3b 7b 82 0d 3d 4e a2 c3 3b cd 0b 9c 3b
       0.0032062521 0.034548264 0.005970276 0.004762149
0000f0 ec 29 c7 3b 37 91 4e bc aa 32 b1 bc 27 44 39 3c
       0.0060779955 -0.012607864 -0.021630604 0.011307753
000100 7f ff 21 3d c9 90 6a bc 83 d2 9c bc 7a 30 c9 3b
       0.0395503 -0.014316746 -0.019143349 0.006139812
000110 8e bd 47 bc e4 c3 8d bc 90 25 41 3c 43 1b b5 bc
       -0.012191189 -0.017305322 0.011788741 -0.022107726
000120 6e 4a c6 bc b3 31 7a bb 21 b0 37 3b c8 1f b8 3c
       -0.024205413 -0.0038176596 0.0028028565 0.022476092
000130 9e b5 3f 3c 54 50 24 3d a6 76 ad bc 83 18 87 bb
       0.011701016 0.04011567 -0.02117474 -0.004122795
000140 b1 00 09 3d 79 13 f2 3c 66 e8 94 bc c0 39 03 3d
       0.033447925 0.0295503 -0.018177222 0.032037497
000150 e9 c2 cb 3c 26 2c 1f bd 92 b9 02 3d cb 69 75 bb
       0.024873214 -0.038860463 0.031915255 -0.003744709
000160 a3 48 37 bd 09 5e 2e bd 7d 2d a8 bc 46 1b 08 3d
       -0.044747006 -0.042570148 -0.020529503 0.033229135
000170 97 07 bf 3c f9 52 17 bd 59 f2 33 bd 42 0b f6 3b
       0.023319049 -0.036944363 -0.043932293 0.0075086663
000180 09 07 97 bc aa bd 4b 3b 52 0e 02 bd e1 b6 c2 bc
       -0.018435972 0.003108839 -0.03175194 -0.023768844
000190 81 97 29 bd 8e 02 35 3d 87 71 38 3d 5a cf f7 3c
       -0.04140425 0.04419189 0.045030143 0.03025024
0001a0 7d e2 0c bd 67 6b d8 3c a5 f3 93 3c c6 c1 f4 bc
       -0.034395684 0.0264184 0.018060515 -0.029877555
0001b0 49 69 ed bc c1 cf 3d bd e2 45 05 bd bf 3e a6 3b
       -0.028980868 -0.046340708 -0.03253735 0.005073398
0001c0 d2 47 92 3c 3a ff 38 bd 97 e9 84 bb b4 0b f2 bc
       0.017856512 -0.045165278 -0.0040561664 -0.029546596
0001d0 c1 92 0c bd 58 1b 32 3c 5e f7 9f 3c d9 be 08 3d
       -0.034319643 0.010870777 0.019527134 0.03338513
0001e0 25 e2 c0 3c 14 82 9c 3b b1 06 c7 3b 97 b3 0a bb
       0.023545334 0.0047762487 0.0060737957 -0.0021164173
0001f0 36 22 87 3b 4f bf 22 bd 7d 69 9a bd 12 e7 7a bd
       0.0041239513 -0.039733227 -0.075396515 -0.061255522
000200 74 02 54 bd fa 5a 92 3c aa 29 25 bc bf 03 de 3c
       -0.051760152 0.017865647 -0.010080734 0.027101396
000210 59 7d 25 bc 62 8a 9d bc 3c 41 e9 bc a4 8b 3e bd
       -0.010100686 -0.019231025 -0.028473489 -0.04651989
000220 e5 d6 9e 3c 08 2d dc 3c 5a 9a 48 3d f6 51 de bc
       0.01938958 0.026876941 0.048975326 -0.027138691
000230 92 81 dc 3c c8 57 af bc 23 53 b2 bc 5e 7f 2d bd
       0.026917253 -0.021404162 -0.021768158 -0.042357795
000240 b4 b9 83 3c 26 26 19 3c f8 12 ea 3b 12 3d 93 bc
       0.016079761 0.009347474 0.0071433745 -0.017973457
000250 1c 02 1e bd 4b ec 43 3d 25 1c 04 bd 04 07 0a bd
       -0.03857623 0.04783277 -0.032253403 -0.033698097
000260 9f dc 0a bd 5b 5b 37 bd 8a f4 96 bc c7 45 4c 3c
       -0.033901807 -0.044764858 -0.018427152 0.012467808
000270 e1 15 9e 3c 05 43 46 3d 2a dd 1d 3d b9 69 1c bd
       0.019297542 0.04840376 0.038540997 -0.038186762
000280 91 f4 d4 3c f1 63 c2 bc 7a be 00 3d 5f 68 37 bd
       0.025995525 -0.023729296 0.031431653 -0.04477727
000290 c6 7a 42 3a 63 37 46 3d 96 57 f9 bb 3d 4b 37 3d
       0.00074188074 0.048392665 -0.007609318 0.044749487
0002a0 e2 1f 2f 3d dc bd 4c bd 78 75 1a 3d 58 ff 4f 3c
       0.042755015 -0.04998575 0.037709683 0.012695156
0002b0 49 b2 17 3d e6 f1 ed bc 94 78 8e 3b b0 f6 5d 3c
       0.03703526 -0.02904601 0.00434787 0.013547584
0002c0 d1 fc 06 3d 74 3b 27 bd c8 a9 3b bb 08 52 83 bc
       0.03295595 -0.040828183 -0.0028635133 -0.016030326
0002d0 52 74 44 3c 75 aa ec bc e2 29 f3 3b 3d f7 b1 bc
       0.011990624 -0.028889874 0.0074207643 -0.021724338
0002e0 9b d5 3d bd 2d 01 05 3c 39 8e c6 bc 7b a1 74 bc
       -0.04634629 0.008117956 -0.024237739 -0.014931078
0002f0 95 55 a2 3c d7 c6 ab ba 8f aa 63 bc b7 bc 64 3a
       0.0198162 -0.0013105524 -0.013895645 0.00087256305
000300 ac 31 e6 bc 8d ac 39 bb 25 ec 08 3d 39 f2 a0 3c
       -0.028099857 -0.0028331608 0.03342833 0.01964675
000310 64 ac fc bc da 75 40 3d 4a 87 f1 3b d5 1a 45 3d
       -0.030843921 0.046987392 0.007370864 0.048121292
000320 d6 60 36 bd 62 93 15 3d 57 67 3c 3c 0d 41 a3 3c
       -0.044525944 0.03651751 0.0114992475 0.01992848
000330 5a 6b 32 3d 3b a3 2f 3d 05 1d fd 3a 19 e6 7f 3c
       0.04355941 0.042880278 0.0019311017 0.015618824
000340 ee ef ae bc 72 5a c1 3c 63 e6 21 bb 23 8c 1f bd
       -0.021354642 0.023602698 -0.0024703972 -0.038952004
000350 24 0d 47 bc 8b e3 bd ba 0f 4b 3c 3d 04 d2 97 bb
       -0.012149129 -0.0014487369 0.04597002 -0.00463319
000360 04 37 4a 3d a1 87 d3 bc 37 d1 57 3c a6 44 18 3d
       0.049368873 -0.025821509 0.013172439 0.037174843
000370 ee 83 ab bc ec 13 b2 bc f9 bf b0 bc a5 79 56 3d
       -0.020936932 -0.021738015 -0.021575915 0.052362103
000380 c8 f8 04 3d af 53 1b 3d df 7d 16 3d df 9b 0b 3d
       0.03246382 0.037921604 0.036741134 0.034084197
000390 21 b0 3f bd d9 49 f0 3c 55 98 13 3d a2 cc 06 3d
       -0.04679883 0.029332088 0.036033947 0.032909997
0003a0 b4 0a 86 bb bf d0 98 3c 7b 28 30 bc e7 c0 4c bc
       -0.0040906314 0.018654225 -0.010751839 -0.012497163
0003b0 f0 cd 92 bc a9 79 d9 bb 35 72 12 3d 92 e7 0f bb
       -0.017920464 -0.0066368175 0.035753448 -0.0021958095
0003c0 ae d9 9b bb 7a 73 04 3d 0c 89 98 3c 91 d3 d3 3c
       -0.004756174 0.03233669 0.018620037 0.025857719
0003d0 40 15 10 3d e4 fc 2c bd c1 af 07 bd 96 cf 22 bd
       0.035176516 -0.042233363 -0.033126596 -0.03974875
0003e0 e5 a5 8e 3c 28 46 e3 3c 85 df 23 bd c3 07 d8 3c
       0.017413089 0.027743414 -0.040008087 0.026370889
0003f0 35 1a b6 bb 60 89 c0 3c 47 5d 94 3b e0 7c 1a 3b
       -0.0055573233 0.023503006 0.004527721 0.0023572966

nonreduce2_1.bias f4 [16]
000000 cf b7 ac bc 15 30 5f 3b e7 ae 64 3d e4 50 ba bc
       -0.02108374 0.0034055759 0.055830862 -0.02274365
000010 0c 2c 3b 3c ed 39 a3 3c ac 98 5f 3d d7 ff fc bc
       0.011424076 0.019925082 0.05458896 -0.030883713
000020 ae 64 39 3d b7 42 fb bc 24 61 d9 3c 25 c6 92 3c
       0.04526203 -0.03067146 0.026535578 0.017916748
000030 73 08 63 3d 8d 95 c0 bc ad be e5 3c 7b 62 7d 3d
       0.05542798 -0.023508811 0.028045023 0.061861496
