02_deep3D/model/model_dwig.pt (torch, 739938 bytes, 25 tensors)

reduce1.weight f4 [64, 1, 4, 4, 4]
-0.00710262 0.10747102 0.014127845 0.08680348 -0.02022332 0.040033255 -0.10963963 0.030991536
-0.11712478 -0.011243495 0.055137105 -0.079306394 -0.049837664 0.079166956 0.026083646 -0.02691251
0.021309046 -0.08869205 0.057412367 0.06404222 -0.017822627 -0.11325113 0.06832157 0.04244912
0.10708073 0.0019339987 0.10808731 -0.06948927 0.10338895 0.056900963 -0.10543739 0.089751095
0.08683936 -0.10670258 -0.007597361 -0.027013414 0.09350557 0.09596315 -0.0044653756 -0.08843525
-0.104560025 -0.036588505 0.019682512 0.07168545 0.060041063 0.054678507 -0.007849284 -0.05016599
-0.043198872 -0.04846063 -0.028443303 0.033936687 0.078604646 0.10275414 -0.105216876 -0.114154905
0.03658353 -0.112469584 0.019436143 0.015058006 -0.08438377 -0.13287455 0.08090944 -0.047193907
-0.03907142 -0.04580785 0.053806182 -0.11544902 0.030878905 0.02885412 0.007810036 -0.09422486
0.051668532 0.1132028 -0.07019333 0.08000806 0.08199084 0.10220306 0.038429264 -0.09961938
0.009529341 -0.07019012 0.024499534 -0.087409526 -0.10137019 0.071479544 -0.006850656 0.013485545
0.03793345 0.038923245 0.04052578 0.030831512 -0.08479255 -0.07215667 0.06600242 -0.027918398
0.08235123 -0.123773515 0.008322521 -0.07958215 -0.065340675 0.024975248 -0.10261747 -0.08792075
-0.10393019 0.028685514 -0.040700305 0.11651314 0.110149965 0.08577392 0.059468918 0.027099805
0.009541235 0.0112611605 -0.06622645 -0.04567148 0.11197982 -0.023729727 -0.059946418 -0.034975726
0.034478437 0.07541607 0.014159681 0.09100448 0.06766427 -0.104654975 0.09726828 -0.01491847
0.0529688 0.06024262 -0.027756438 -0.08200742 0.06722362 -0.026175061 -0.011493757 -0.026742207
0.09582445 -0.13212833 -0.07936073 0.021485785 -0.0072751646 0.038337402 -0.042764265 0.020592136
0.0070905113 0.03727253 -0.07874298 0.018596599 0.03871598 0.0916499 -0.12235157 -0.056180682
0.053268854 0.041737024 -0.040278874 -0.12705831 0.07922486 -0.003176038 0.0027256988 0.02285106
-0.04281295 0.0033022661 0.05739101 0.103287086 0.0324611 0.038705505 0.047189306 0.07475169
-0.023542276 0.02906906 0.033383593 0.05433484 0.044577703 0.07818426 -0.09696314 -0.032359038
-0.083495796 -0.09416472 -0.05776242 -0.12004113 0.09213512 0.10011085 0.10271093 -0.048587274
0.08033605 -0.015259977 -0.110808 -0.1281692 -0.10155907 0.09020405 -0.03139622 -0.107574634
-0.04597976 -0.055342376 0.06282524 -0.003688229 -0.005711377 -0.0011696423 -0.032970406 0.10175886
0.06268586 -0.10497199 -0.071140274 0.10914901 -0.0845697 -0.060375337 0.030651718 -0.067652725
0.0187436 0.06313776 -0.04442708 -0.043446887 0.018595552 0.034927938 -0.12292202 0.043658063
-0.10905562 -0.087938644 -0.0063784244 -0.00064445124 -0.06334244 -0.098598346 -0.09651869 -0.063849226
-0.037227925 -0.07391512 0.07912435 0.03400194 -0.09368293 0.07932598 0.048515186 -0.035989527
0.076470636 -0.09476358 0.03700004 0.08963682 -0.098041594 0.10607696 -0.10019008 -0.093816996
0.101965465 0.09357219 -0.039105672 0.05084918 0.08922056 -0.029509358 0.08672815 -0.08795945
0.01083641 -0.04666788 -0.030845854 -0.061364144 0.061466504 0.11523448 -0.11572221 -0.102618806
00000000: 18bd e8bb c419 dc3d 7a78 673c 06c6 b13d
00000010: 60ab a5bc e9f9 233d be8a e0bd f6e1 fd3c
00000020: 1edf efbd a336 38bc 72d7 613d 646b a2bd
00000030: 9422 4cbd 4922 a23d 5fad d53c a077 dcbc
00000040: 4f90 ae3c 2da4 b5bd 3b29 6b3d 9128 833d
00000050: c200 92bc 35f0 e7bd 2eec 8b3d 21df 2d3d
00000060: 244d db3d 3a7e fd3a e15c dd3d 6450 8ebd
00000070: 96bd d33d fc10 693d 8fef d7bd 6ccf b73d
00000080: d6d8 b13d e286 dabd 49f3 f8bb 3c4b ddbc
00000090: d97f bf3d 5488 c43d 4952 92bb 8a1d b5bd
000000a0: 9123 d6bd d4dd 15bd 383d a13c d2cf 923d
000000b0: 9eed 753d 92f6 5f3d 499a 00bc da7a 4dbd
000000c0: 4df1 30bd a77e 46bd ee01 e9bc 3201 0b3d
000000d0: 79fb a03d c370 d23d f27b d7bd 0cca e9bd
000000e0: 9dd8 153d 7456 e6bd 8c38 9f3c dbb5 763c
000000f0: 66d1 acbd 4410 08be d9b3 a53d 664e 41bd
00000100: 5a09 20bd 03a1 3bbd df63 5c3d 8970 ecbd
00000110: c2f5 fc3c 7a5f ec3c 55eb ff3b f7f8 c0bd
00000120: 62a2 533d dfd6 e73d 85c1 8fbd 44db a33d
00000130: d0ea a73d d74f d13d 0168 1d3d 3f05 ccbd
00000140: f420 1c3c d6bf 8fbd 3fb3 c83c c403 b3bd
00000150: 2d9b cfbd de63 923d 787b e0bb 7af2 5c3c
00000160: 1b60 1b3d fb6d 1f3d 5cfe 253d 5e92 fc3c
00000170: b7a7 adbd e0c6 93bd 472c 873d 20b5 e4bc
00000180: c3a7 a83d f87c fdbd 2f5b 083c f7fb a2bd
00000190: 55d1 85bd e498 cc3c 1c29 d2bd cb0f b4bd
000001a0: 5ad9 d4bd e2fd ea3c 5db5 26bd 719e ee3d
000001b0: 4e96 e13d 3daa af3d ae95 733d 6900 de3c
000001c0: d752 1c3c bb80 383c bca1 87bd 0512 3bbd
000001d0: ad55 e53d d864 c2bc 608a 75bd b542 0fbd
000001e0: 4339 0d3d be73 9a3d 02fe 673c 8f60 ba3d
000001f0: 9193 8a3d 5955 d6bd 9834 c73d 996c 74bc
00000200: d0f5 583d f7c0 763d 7861 e3bc 82f3 a7bd
00000210: 8aac 893d 156d d6bc 5050 3cbc 7912 dbbc
00000220: 9c3f c43d a64c 07be e187 a2bd f502 b03c
00000230: 8164 eebb ae07 1d3d 9529 2fbd d7b0 a83c
00000240: 8557 e83b 15ab 183d 0044 a1bd e557 983c
00000250: a694 1e3d f1b2 bb3d 7693 fabd b71d 66bd
00000260: 7130 5a3d 71f4 2a3d 76fb 24bd 931b 02be
00000270: a540 a23d 1325 50bb a3a1 323b 2532 bb3c
00000280: a25c 2fbd d56a 583b d612 6b3d 2e88 d33d
00000290: eef5 043d aa89 1e3d 9349 413d 6a17 993d
000002a0: bbdb c0bc 3d22 ee3c 3cbd 083d 368e 5e3d
000002b0: 1c97 363d 121f a03d 9c94 c6bd e98a 04bd
000002c0: d8ff aabd 6fd9 c0bd 4a98 6cbd 20d8 f5bd
000002d0: 56b1 bc3d eb06 cd3d 1c5a d23d 7303 47bd
000002e0: 3a87 a43d fc04 7abc 4eef e2bd c93e 03be
000002f0: 34fe cfbd e7bc b83d 5399 00bd 1750 dcbd
00000300: 4655 3cbd b0ae 62bd 85aa 803d 37b6 71bb
00000310: 8126 bbbb af4e 99ba fa0b 07bd f366 d03d
00000320: 7261 803d 8efb d6bd feb1 91bd 8489 df3d
00000330: e132 adbd 214c 77bd 5019 fb3c 838d 8abd
00000340: 2e8c 993c 5f4e 813d 2bf9 35bd 5df5 31bd
00000350: b355 983c 9910 0f3d 8abe fbbd ccd2 323d
00000360: 8e58 dfbd 2d19 b4bd 1a02 d1bb 64f0 28ba
00000370: aeb9 81bd eeed c9bd 97ab c5bd 62c3 82bd
00000380: 4f7c 18bd cf60 97bd f20b a23d 9e45 0b3d
00000390: d6dc bfbd a975 a23d dcb7 463d c169 13bd
000003a0: a39c 9c3d 6813 c2bd 5b8d 173d 8293 b73d
000003b0: 08ca c8bd e13e d93d 7530 cdbd 2023 c0bd
000003c0: 45d3 d03d c7a2 bf3d 452d 20bd 3b47 503d
000003d0: 45b9 b63d 9cbd f1bc 879e b13d 1624 b4bd
000003e0: 338b 313c d226 3fbd 72b0 fcbc f858 7bbd
000003f0: 4dc4 7b3d 0e00 ec3d c4ff ecbd cf29 d2bd

reduce1.bias f4 [64]
-0.061973203 0.05016426 0.0199118 -0.11518221 -0.11337841 0.093497775 0.0454863 -0.032044005
-0.046387114 -0.12166143 0.08976959 0.13066362 0.11620443 0.006286545 0.050484534 -0.097398564
0.100759 -0.037268836 0.035354566 0.08258623 -0.07931525 0.124130845 -0.009450076 -0.10700587
-0.07116608 -0.11047229 0.056147486 -0.092769794 0.12574582 0.06355215 0.08757914 -0.08309319
-0.0532011 0.13830605 0.0023562328 0.018533312 -0.12591939 0.052602604 0.007529372 0.11061006
-0.11432816 0.02479743 0.098733805 -0.020349456 -0.112035275 0.037241198 -0.052139547 -0.093039714
0.06026581 -0.10188425 0.034197696 0.08535072 0.008198946 0.08284652 0.061357375 0.11764447
0.025466885 0.015111351 -0.028914098 0.019771986 0.04449332 0.15592325 -0.104063846 -0.10801903
00000000: 9dd7 7dbd 0a79 4d3d 121e a33c a7e4 ebbd
00000010: f132 e8bd c37b bf3d d84f 3a3d 9340 03bd
00000020: 6a00 3ebd a129 f9bd 1ed9 b73d afcc 053e
00000030: 97fc ed3d 5dff cd3b dfc8 4e3d e678 c7bd
00000040: bc5a ce3d 35a7 18bd f3cf 103d f822 a93d
00000050: 0970 a2bd 5038 fe3d 7ed4 1abc e525 dbbd
00000060: 86bf 91bd 4c3f e2bd e8fa 653d 17fe bdbd
00000070: 83c3 003e a127 823d b15c b33d c32c aabd
00000080: 66e9 59bd 1aa0 0d3e 076b 1a3b 2cd3 973c
00000090: 03f1 00be d475 573d f3b8 f63b 8787 e23d
000000a0: e224 eabd fb23 cb3c f334 ca3d e7b3 a6bc
000000b0: c072 e5bd 3a8a 183d 4790 55bd 9b8b bebd
000000c0: 48d9 763d b1a8 d0bd e212 0c3d 5ccc ae3d
000000d0: df54 063c 70ab a93d df51 7b3d 95ef f03d
000000e0: ee9f d03c 9a95 773c 42dd ecbc dcf8 a13c
000000f0: a13e 363d 58aa 1f3e 6d1f d5bd 1539 ddbd

nonreduce1_1.weight f4 [32, 64, 3, 3, 3]
0.028463168 0.02639597 -0.0099733705 0.011480241 0.02314256 0.017160088 0.030918768 -0.002647374
-0.004167717 -0.012762797 0.0049605756 0.028544016 -0.001049476 0.04376589 0.013390154 0.01003993
0.03746739 0.033144843 0.027390981 0.043400917 0.026666071 0.018563617 0.05392356 0.04855929
0.007440858 0.015716815 0.064987764 0.003863886 0.014201109 -0.011525113 -0.0077796457 0.009477915
-0.02529532 -0.0237113 0.003422348 0.009966465 -0.017081626 -0.0030045381 0.01559593 -0.00096542615
0.010674951 0.020835277 -0.008482999 -0.0070641986 0.02314284 -0.017689496 0.01012086 0.00909448
-0.00024700176 0.0027157601 0.02085236 0.019335575 -0.016468205 0.0037405742 0.017016921 0.018128792
0.0071509574 0.025288086 -0.011090135 0.008409021 0.010193619 0.020148922 0.019528948 0.017829183
0.016864663 0.0026123927 0.010252131 0.0329997 -0.0042284946 0.0045437026 -0.002791469 0.016334757
-0.005839239 0.019983232 0.0009891484 0.007348327 0.019450832 0.012874882 0.021369055 0.0005935474
-0.009720391 0.009513763 0.0016347903 -0.0061929123 -0.015140276 0.0021917082 0.0027914545 0.018767659
-0.018235683 0.016733197 0.00836796 -0.01151703 0.00053809007 -0.016082115 0.016281934 -0.0067062955
-0.01770985 0.0014885245 -0.001640149 -0.0021095471 -0.016046507 0.0056681316 0.01564641 0.015070024
0.006846535 -0.01641479 0.018505106 -0.017870883 -0.013372878 -0.017097794 0.012518181 0.014186285
-0.020550286 0.00043219057 0.024148393 0.0042078216 0.0010514938 -0.01354694 0.022424053 -0.0143162515
0.017688775 0.01639189 0.014552373 0.007057859 -0.0043990184 0.02286283 0.0072663534 0.022841033
-0.00026673853 0.015814383 -0.015827477 -0.004141529 -0.014754345 -0.007648245 0.010840598 -0.016522996
0.0013851471 -0.011821045 0.008358639 -0.005343666 0.018328479 -0.019640036 0.02505506 -0.0066465805
0.017246416 0.013338464 0.013729837 -0.018466318 0.010392846 0.020611275 0.0031471087 -0.0072945007
-0.012811102 0.010198119 0.010158486 -0.0035893987 0.0005266489 0.022651587 -0.008030972 0.023364473
-0.0028570897 0.026012303 0.028255874 0.013650351 0.0006017939 -0.008701845 0.022047836 0.025419181
0.014484053 0.0032513316 0.026221937 0.045300696 0.015943263 0.03458012 0.038873505 0.021839323
0.01098787 0.009474605 -0.0053774468 0.02762079 0.008896727 0.04356619 0.01549304 0.03221733
0.03727875 0.011194178 -0.013066688 0.016216544 -0.0076387534 0.0015390675 0.002105799 0.040795237
0.019119537 0.014333588 0.0124523 0.00156455 0.0065686097 0.021720573 0.010263065 0.046577066
0.025054324 0.02176371 0.0510604 0.03363261 0.021435639 0.049375266 0.056560118 0.029560257
0.042999245 0.0110072475 0.03730128 0.03500423 0.032249372 0.030305415 0.017292283 0.016841251
0.13122754 0.06559831 0.013874864 0.07653677 0.04633465 -0.0016564832 0.012902627 -0.0054511223
0.015939504 0.17696199 0.085266046 0.037757065 0.18750416 0.061420396 0.04336727 0.10358902
0.05665193 0.03163766 0.08502283 0.15477844 0.046863977 0.095744036 0.15924464 0.038338274
0.08337185 0.08894824 0.042780824 -0.0025490161 -0.004373536 0.012227823 0.013069553 -0.010192914
0.021038689 -0.012437421 0.030949969 0.0109672025 0.03304656 -0.0013185908 0.0031814429 -0.009382074
00000000: 972b e93c 5c3c d83c 5967 23bc 9f17 3c3c
00000010: 7795 bd3c 5093 8c3c 5b49 fd3c 917f 2dbb
00000020: 5891 88bb 0d1b 51bc 538c a23b 24d5 e93c
00000030: 928e 89ba dd43 333d 6062 5b3c 857e 243c
00000040: 6877 193d e3c2 073d 0d63 e03c 29c5 313d
00000050: ce72 da3c ba12 983c f3de 5c3d 1be6 463d
00000060: 71d2 f33b 8dc0 803c 4e18 853d 4039 7d3b
00000070: c5ab 683c d4d3 3cbc 66ec febb 4249 1b3c
00000080: 2238 cfbc 333e c2bc 7949 603b 624a 233c
00000090: c4ee 8bbc c9e7 44bb 1286 7f3c a714 7dba
000000a0: fde5 2e3c beae aa3c 47fc 0abc cb7a e7bb
000000b0: 0e96 bd3c 90e9 90bc f7d1 253c 0401 153c
000000c0: 0480 81b9 e5fa 313b 92d2 aa3c a465 9e3c
000000d0: 54e8 86bc 6c24 753b 1267 8b3c d582 943c
000000e0: 9452 ea3b f628 cf3c 66b3 35bc fec5 093c
000000f0: 2303 273c 5a0f a53c 2cfb 9f3c 820e 923c
00000100: c327 8a3c ad34 2b3b 8ef8 273c b22a 073d
00000110: 2f8f 8abb 57e3 943b 14f1 36bb 78d0 853c
00000120: 1657 bfbb e0b3 a33c 50a6 813a 3cca f03b
00000130: 5a57 9f3c 2bf1 523c 280e af3c 4b98 1b3a
00000140: 4642 1fbc 9ddf 1b3c 7646 d63a eaed cabb
00000150: ec0e 78bc c3a2 0f3b d6f0 363b a2be 993c
00000160: 0063 95bc 0f14 893c c519 093c edb1 3cbc
00000170: 9d0e 0d3a a4be 83bc b161 853c 7cc0 dbbb
00000180: 3f14 91bc 981a c33a 45fa d6ba 5440 0abb
00000190: f773 83bc bcbb b93b e62c 803c 43e8 763c
000001a0: e658 e03b 4f78 86bc 0598 973c f565 92bc
000001b0: ea19 5bbc ac10 8cbc 0f19 4d3c 986d 683c
000001c0: 1359 a8bc a397 e239 dad2 c53c c4e1 893b
000001d0: 47d2 893a fcf3 5dbc a6b2 b73c b68e 6abc
000001e0: 0de8 903c 4948 863c 146d 6e3c 9d45 e73b
000001f0: a425 90bb d44a bb3c 971a ee3b 1e1d bb3c
00000200: 0ad9 8bb9 2a8d 813c a0a8 81bc aab5 87bb
00000210: 35bc 71bc 219e fabb c39c 313c 3c5b 87bc
00000220: d38d b53a 0ead 41bc acf2 083c eb19 afbb
00000230: 9b25 963c 24e4 a0bc 4540 cd3c 8fcb d9bb
00000240: 5b48 8d3c 9389 5a3c 1cf3 603c ad46 97bc
00000250: c146 2a3c fad8 a83c b93f 4e3b b506 efbb
00000260: a8e5 51bc 0316 273c c76f 263c 1e3c 6bbb
00000270: cf0e 0a3a d28f b93c 5794 03bc da66 bf3c
00000280: 033e 3bbb c117 d53c dd78 e73c b9a5 5f3c
00000290: b4c1 1d3a 2f92 0ebc aa9d b43c e33b d03c
000002a0: 854e 6d3c 4b14 553b 63cf d63c 398d 393d
000002b0: 729b 823c e2a3 0d3d d339 1f3d 61e8 b23c
000002c0: 7806 343c 603b 1b3c 4b35 b0bb ff44 e23c
000002d0: 94c3 113c 7672 323d 85d6 7d3c 52f6 033d
000002e0: 9ab1 183d c967 373c a915 56bc 8fd8 843c
000002f0: 824e fabb 89ba c93a 7201 0a3b e818 273d
00000300: 93a0 9c3c 6dd7 6a3c bb04 4c3c 9611 cd3a
00000310: 7e3d d73b 58ef b13c 6a26 283c 98c7 3e3d
00000320: ba3e cd3c cf49 b23c b624 513d 59c2 093d
00000330: cb99 af3c b83d 4a3d 95ab 673d 5a28 f23c
00000340: fa1f 303d be57 343c 3ac9 183d 9860 0f3d
00000350: eb17 043d 1043 f83c 8ca8 8d3c aaf6 893c
00000360: 8360 063e 6858 863d 6653 633c 4fbf 9c3d
00000370: 67c9 3d3d 5a1e d9ba 8a65 533c 549f b2bb
00000380: 9093 823c 8635 353e f79f ae3d 27a7 1a3d
00000390: 1701 403e f493 7b3d e1a1 313d 7b26 d43d
000003a0: db0b 683d 7e96 013d 7320 ae3d 3d7e 1e3e
000003b0: 71f4 3f3d 7315 c43d 0711 233e 9808 1d3d
000003c0: dcbe aa3d 7f2a b63d f23a 2f3d 650d 27bb
000003d0: e14f 8fbb 3557 483c ae21 563c 2e00 27bc
000003e0: 5459 ac3c 53c6 4bbc ca8a fd3c c8af 333c
000003f0: d45b 073d 91d4 acba c17f 503b 45b7 19bc

nonreduce1_1.bias f4 [32]
0.0178076 0.013426228 -0.018608801 -0.013847328 -0.018117376 -0.02144896 0.01512208 -0.0015402563
-0.00029239032 -0.019616833 -0.021311656 -0.00894455 0.008830521 0.019732906 -0.003780101 -0.0033998752
0.00797308 0.013461334 -0.022511905 -0.026116757 -0.002577557 -0.026902003 0.023894897 -0.016131686
-0.012511906 -0.019886142 -0.015407364 -0.026487155 0.008474032 0.005978901 -0.02314531 0.015807796
00000000: 3ee1 913c aff9 5b3c 7c71 98bc e7df 62bc
00000010: e46a 94bc bbb5 afbc 9ac2 773c 6de2 c9ba
00000020: f74b 99b9 7bb3 a0bc c895 aebc 298c 12bc
00000030: e4ad 103c e7a6 a13c 92bb 77bb 71d0 5ebb
00000040: 85a1 023c ed8c 5c3c e36a b8bc cff2 d5bc
00000050: 3bec 28bb 9761 dcbc 3bbf c33c 9926 84bc
00000060: bdfe 4cbc 43e8 a2bc 2b6f 7cbc 97fb d8bc
00000070: abd6 0a3c a8ea c33b 3c9b bdbc 5a7f 813c

nonreduce1_2.weight f4 [32, 32, 3, 3, 3]
-0.01276867 0.02829562 0.013020509 0.036053013 0.0069921557 -0.022412218 0.019563949 -0.0005912709
0.023795007 0.020033296 0.02990315 0.009791871 -0.014616569 -0.01965947 0.0036752452 -0.024324972
0.0027039214 -0.013515801 -0.027258584 0.033514224 0.034699567 0.014131882 0.029719822 -0.009988278
-0.025858246 0.009017891 0.011960854 0.02026124 0.009343574 0.018236639 0.016280646 -0.019780321
0.012838777 -0.0036269273 -0.0117515195 0.02606364 0.011206816 0.029697662 0.023462724 0.03715586
-0.0036642146 0.0035589447 0.014077691 0.023096226 -0.018584725 0.021690108 -0.0028901135 0.02004353
0.014037752 0.016333375 0.021642175 -0.0121077625 0.03889486 -0.014136607 0.012440663 0.01151032
-0.018123573 0.0041001635 0.023085581 0.0011163276 0.025801372 0.032437794 0.017100202 0.036814667
-0.0064887856 0.02152693 0.012954674 0.014427059 0.03607002 0.028564194 0.053194694 -0.0067446013
-0.009557396 0.030725168 -0.00031036712 0.008193706 0.008706325 0.020907309 0.0045662606 -0.0077963644
0.038511723 0.02658932 0.034169912 -0.007352746 -0.026263662 0.036747243 -0.0006894975 -0.0069205905
-0.012494459 0.020101586 0.014798096 -0.008683418 -0.018204084 -0.003223625 0.03412342 0.001997125
0.010579938 0.006179902 0.014645592 0.029567631 -0.025056165 0.01579732 0.017904919 -0.026713122
0.0008125002 -0.026879666 -0.011821883 -0.00029739283 0.0002840412 -0.0030612343 0.035573557 0.022991987
-0.021502469 0.024322236 0.017885106 -0.007670913 0.029244682 0.027221598 0.03422936 0.002308173
-0.022127189 0.00085018325 0.019020936 0.025252955 -0.026474811 0.006758346 0.021956176 0.01179587
0.03254856 -0.026574686 -0.021272168 0.0056195385 0.020870635 0.028507072 0.027119745 -0.010344405
-0.010251968 -0.014694525 0.003668699 0.007105926 -0.029921817 0.0163958 -0.016961718 -0.012494546
0.032731783 0.026720002 0.01063756 0.018284675 0.022941055 0.008658487 -0.0012439972 0.026486157
0.017602438 -0.00087259477 0.028911091 0.025475962 0.014883514 0.0123901395 -0.01294683 0.02144134
0.01700831 -0.008925529 0.034000713 0.03484873 0.00087107753 -0.010478805 0.010220135 0.01077384
-0.016340023 0.021462856 -0.018759008 -0.004729864 0.017530708 0.0051281876 -0.019068472 0.011852665
0.00040137582 -0.022301339 -0.008988992 -0.002895308 -0.016789073 -0.022530397 0.01315005 0.025938993
-0.021258343 -0.0017000353 0.021664372 0.011972673 0.03585612 0.018085256 0.023565425 0.02024257
0.03229594 -0.021560492 0.031558424 -0.006860065 -0.019962821 -0.011488974 0.010241723 -0.0144252945
-0.020402284 -0.0112250475 -0.026121175 0.015509753 0.02248343 0.0085581755 -0.011991297 0.03017955
0.023660943 -0.010433241 -0.012446996 0.018017847 -0.018245522 -0.009101083 -0.033323813 -0.0049252603
0.022335326 0.009021912 -0.026441067 0.0063050836 0.026245626 0.03280806 0.009962276 -0.0044360505
0.0006974002 0.0039512725 0.027324075 -0.007633663 -0.0004906512 0.012900749 -0.01961751 -0.0027819166
0.038013425 0.03763254 -0.008435176 -0.012617413 0.025024537 0.034846567 0.038838215 0.022873145
0.021433314 -0.021067543 0.032343492 -0.032153912 -0.025694478 -0.009066663 -0.017412703 0.025373949
-0.007605684 0.015066917 0.009709864 0.019154381 -0.012780973 0.011262649 0.010871882 0.018421853
00000000: af33 51bc 37cc e73c f953 553c 53ac 133d
00000010: 741e e53b d499 b7bc 9344 a03c 85ff 1aba
00000020: bfed c23c de1c a43c 73f7 f43c 156e 203c
00000030: 557a 6fbc e60c a1bc 62dc 703b 2a45 c7bc
00000040: 4634 313b 6171 5dbc 654d dfbc 3646 093d
00000050: 2221 0e3d 6989 673c fc76 f33c e0a5 23bc
00000060: acd4 d3bc c7bf 133c 75f7 433c e6fa a53c
00000070: ca15 193c 0165 953c fd5e 853c 570a a2bc
00000080: bc59 523c beb1 6dbb 7289 40bc 6a83 d53c
00000090: cb9c 373c 8348 f33c e634 c03c be30 183d
000000a0: 5223 70bb 2f3d 693b 1ea6 663c 4c34 bd3c
000000b0: fe3e 98bc 74af b13c 0f68 3dbb 5432 a43c
000000c0: 99fe 653c 92cd 853c ee4a b13c a35f 46bc
000000d0: 3750 1f3d 3a9d 67bc ecd3 4b3c c895 3c3c
000000e0: e377 94bc aa5a 863b f91d bd3c bd51 923a
000000f0: 665d d33c 7edd 043d b915 8c3c faca 163d
00000100: e19f d4bb 3f59 b03c d73f 543c 795f 6c3c
00000110: 28be 133d 75ff e93c aee2 593d d101 ddbb
00000120: a096 1cbc 59b3 fb3c c5b8 a2b9 e53e 063c
00000130: f9a4 0e3c ce45 ab3c 92a0 953b a578 ffbb
00000140: 78be 1d3d d8d1 d93c c0f5 0b3d 4eef f0bb
00000150: e426 d7bc 4784 163d 65bf 34ba 1fc6 e2bb
00000160: 8fb5 4cbc 15ac a43c b773 723c e544 0ebc
00000170: bb20 95bc 7443 53bb 00c5 0b3d 33e2 023b
00000180: 7a57 2d3c c680 ca3b 11f4 6f3c d137 f23c
00000190: 9642 cdbc 6269 813c 56ad 923c 7ad5 dabc
000001a0: f7fd 543a bf32 dcbc 92b0 41bc 64eb 9bb9
000001b0: 5deb 9439 fd9e 48bb 94b5 113d b159 bc3c
000001c0: f225 b0bc 6d3f c73c c983 923c 485c fbbb
000001d0: 8b92 ef3c d4ff de3c 1634 0c3d b844 173b
000001e0: 1444 b5bc d5de 5e3a cbd1 9b3c 49df ce3c
000001f0: b4e1 d8bc 1e75 dd3b 70dd b33c 7743 413c
00000200: a451 053d 28b3 d9bc f842 aebc 1b24 b83b
00000210: e5f8 aa3c aa87 e93c 3a2a de3c 947b 29bc
00000220: dff7 27bc 4ec1 70bc 8e6e 703b d4d8 e83b
00000230: 991e f5bc 7c50 863c 4df3 8abc edb5 4cbc
00000240: c311 063d e8e3 da3c 2949 2e3c bec9 953c
00000250: e1ee bb3c 54dc 0d3c 9f0d a3ba 7ff9 d83c
00000260: fd32 903c d8be 64ba f4d6 ec3c f7b2 d03c
00000270: fbd9 733c 0300 4b3c f11e 54bc c0a5 af3c
00000280: 0355 8b3c 623c 12bc 5544 0b3d 8bbd 0e3d
00000290: 0659 643a 4baf 2bbc 5a72 273c c384 303c
000002a0: 83db 85bc dfd2 af3c 7eac 99bc fafc 9abb
000002b0: 8f9c 8f3c 5b0a a83b 7c35 9cbc ae31 423c
000002c0: c06f d239 4cb1 b6bc 9146 13bc 35bf 3dbb
000002d0: 3d89 89bc ab91 b8bc 4f73 573c 037e d43c
000002e0: fa25 aebc b8d3 deba 7b79 b13c 0829 443c
000002f0: dedd 123d 8827 943c 470c c13c bfd3 a53c
00000300: bf48 043d a19f b0bc 6843 013d 65ca e0bb
00000310: 1289 a3bc 403c 3cbc e6cc 273c 1258 6cbc
00000320: b122 a7bc 43e9 37bc 13fc d5bc 9e1c 7e3c
00000330: 2c2f b83c 9737 0c3c 2577 44bc 1b3b f73c
00000340: 98d4 c13c 2ff0 2abc 7cee 4bbc 2a9a 933c
00000350: a277 95bc b51c 15bc 8d7e 08bd 1464 a1bb
00000360: 93f8 b63c a4d0 133c f09a d8bc e09a ce3b
00000370: 1101 d73c bf61 063d d038 233c 4a5c 91bb
00000380: bcd1 363a ad79 813b bdd6 df3c ce23 fabb
00000390: 0b9f 00ba aa5d 533c e6b4 a0bc d150 36bb
000003a0: f7b3 1b3d 9424 1a3d b133 0abc 44b9 4ebc
000003b0: 4200 cd3c 46bb 0e3d d214 1f3d 7660 bb3c
000003c0: eb94 af3c d795 acbc 9c7a 043d d2b3 03bd
000003d0: 3a7d d2bc 578c 14bc 16a5 8ebc 07dd cf3c
000003e0: 1a39 f9bb 3bdb 763c 1f16 1f3c a6e9 9c3c
000003f0: 4967 51bc f986 383c fa1f 323c 6de9 963c

nonreduce1_2.bias f4 [32]
0.009675044 0.019444523 0.0026101896 -0.021814976 -0.02446091 0.014146862 -0.03140484 -0.025720289
-0.011295754 0.008651262 1.050744e-05 -0.020102607 -0.008563891 0.02449103 -0.016437722 0.005748918
0.021042885 0.023710474 -0.028016213 0.026383474 -0.030210963 -0.032787308 -0.012317727 -0.0134548135
0.01605586 -0.0064986525 -0.03531786 0.0022429216 -0.02664031 -0.012328293 0.028314395 0.013300992
00000000: 1384 1e3c 1f4a 9f3c b70f 2b3b 52b5 b2bc
00000010: 3f62 c8bc 3dc8 673c 5da2 00bd 5bb3 d2bc
00000020: d411 39bc 06be 0d3c 1c49 3037 39ae a4bc
00000030: 904f 0cbc 6aa1 c83c 67a8 86bc 6b61 bc3b
00000040: 2162 ac3c 783c c23c 4282 e5bc 2822 d83c
00000050: fb7c f7bc fc4b 06bd 4bd0 49bc 9471 5cbc
00000060: 9487 833c a6f2 d4bb 76a9 10bd fbfd 123b
00000070: c83c dabc 9cfc 49bc 97f3 e73c 67ec 593c

nonreduce1_3.weight f4 [32, 32, 3, 3, 3]
0.008682317 -0.02536618 -0.02376419 -0.004206749 0.009833247 -0.016596846 0.018742451 -0.006710658
0.00078171445 -0.021571957 0.027744498 -0.005565351 0.0025343497 0.008080101 -0.01002267 4.406677e-05
0.006189987 -0.016495448 -0.006107918 0.03366287 0.00012351901 0.03310533 -0.031786427 -0.019657642
0.029952582 0.026062777 -0.02273423 -0.028965587 0.014973982 -0.024287198 0.003815822 0.02133288
-0.018092131 -0.004626853 -0.0044073723 -0.014713473 -0.020988947 0.016865805 -0.027982717 -0.027150711
-0.012867811 0.007661718 -0.03306266 0.006483178 -0.009736886 0.025412107 -0.028042398 0.033048965
-0.00023046006 0.023611093 0.013947187 -0.004921526 -0.018737232 -0.011985921 -0.024720525 -0.029222049
-0.017310629 -0.0065236436 0.013779464 0.019960957 -0.008703912 0.00044548104 0.017916912 -0.015762676
-0.009795437 0.016054746 -0.001012728 0.01567186 -0.032091524 -0.0073238597 -0.0015760363 0.012468485
-0.020315839 -0.01177092 -0.00039416613 -0.027082402 -0.009508314 -0.0027799052 0.015713941 -0.012127771
-0.022155367 -0.011299357 0.013430238 0.008551769 0.0024016413 0.03187529 0.01710073 0.022890972
-0.01839016 -0.020995213 0.021787224 -0.0022010943 0.03018978 0.026734702 -0.0077129407 0.022605535
0.010701967 -0.027170839 0.023036972 0.027846318 -0.015605401 -0.01655632 0.027887365 0.019402895
-0.03343648 -0.008192867 -0.004814425 0.0022128904 0.009659697 -0.0057786745 -0.009611568 -0.006867285
0.0042663286 -0.018338306 0.015848765 -0.0090811355 -0.006193517 0.0021663932 -0.015634023 0.028793018
0.007596977 0.011842279 -0.00027461682 0.022351412 0.005656092 0.028962346 0.021215891 0.011119649
-0.027446598 0.0053564683 -0.028005445 -0.009607561 0.010189712 0.006037201 0.007742453 0.01648231
-0.013464977 -0.0050906083 0.02129304 -0.027493684 -0.008317941 -0.033652645 0.011304954 0.016533308
-0.0030159734 0.02546581 -0.011713732 0.010579306 0.016334513 -0.032310776 0.020549446 0.009834792
-0.008901619 -0.017625786 -0.017433548 -0.017656524 -0.03226827 0.0034807215 0.024984471 0.010366057
0.013542548 0.015216832 0.03069566 0.015084995 0.012979854 -0.018482905 0.006300789 -0.0034702818
-0.007547475 -0.02411306 0.0050612628 0.004873424 0.0026393249 -0.022991283 0.033157192 -0.029146511
0.00023746538 0.005306431 -0.019791882 0.026366888 -0.01528041 0.0258994 0.0010452793 -0.029776827
0.021233743 0.0142039275 0.018387465 -0.009449531 -0.014473962 0.011975749 0.01917195 0.014946506
-0.010652523 -0.030372886 -0.017013147 -0.0056602643 -0.016729841 -0.00262873 -0.010815336 -0.014160223
-0.013732475 0.023590265 0.01453047 0.02192782 -0.0061334334 -0.018579178 0.0037512553 -0.014846231
0.021817107 -0.032615904 -0.0034581327 -0.01948639 -0.012826503 0.0023418556 -0.026709136 -0.00852379
0.025248893 -0.014632452 0.014603435 0.011156008 -0.005331116 -0.005311706 -0.022648841 0.010858708
0.018615972 -0.025582943 0.0013973186 -0.01279544 -0.022165235 0.006448652 0.022297114 -0.00010343029
-0.02531318 -0.017793946 -0.008758651 0.030838966 0.032546323 -0.006170707 0.01982586 -0.016309123
0.0065256497 0.0027936837 0.00238653 -0.0031319715 0.008369279 -0.008155729 -0.008388528 -0.021633875
0.029136753 0.016916888 -0.033657905 -0.03236204 0.010299845 -0.024937898 -0.031435672 0.020863507
00000000: 4740 0e3c bccc cfbc 1ead c2bc c5d8 89bb
00000010: a11b 213c 1cf6 87bc c589 993c 14e5 dbbb
00000020: f8eb 4c3a acb7 b0bc 6e48 e33c 8c5d b6bb
00000030: 5517 263b 6662 043c 2036 24bc 56d4 3838
00000040: 60d5 ca3b 7621 87bc ee24 c8bb 14e2 093d
00000050: e284 0139 7499 073d 7c32 02bd 1009 a1bc
00000060: 1e5f f53c 9b81 d53c 233d babc 3d49 edbc
00000070: 6f55 753c f2f5 c6bc df12 7a3b 4bc2 ae3c
00000080: f335 94bc db9c 97bb b86b 90bb c710 71bc
00000090: 03f1 abbc 282a 8a3c 033c e5bc 2b6b debc
000000a0: 83d3 52bc 260f fb3b b66c 07bd d770 d43b
000000b0: 7687 1fbc 0d2d d03c 2cb9 e5bc 5a5e 073d
000000c0: a7a7 71b9 0d6c c13c be82 643c c144 a1bb
000000d0: d37e 99bc 9960 44bc b382 cabc 1463 efbc
000000e0: 05cf 8dbc 4ac4 d5bb 43c3 613c 2985 a33c
000000f0: da9a 0ebc 748f e939 7dc6 923c ba20 81bc
00000100: 0a7d 20bc 3e85 833c 83bd 84ba 4662 803c
00000110: 6772 03bd fdfc efbb 0193 ceba 9e48 4c3c
00000120: 676d a6bc d1da 40bc 15a8 ceb9 eadb ddbc
00000130: c2c8 1bbc 122f 36bb 86ba 803c 8fb3 46bc
00000140: 2c7f b5bc f020 39bc 800a 5c3c b81c 0c3c
00000150: db64 1d3b aa8f 023d d516 8c3c d985 bb3c
00000160: f6a6 96bc 27fe abbc 1f7b b23c 3c40 10bb
00000170: 8f50 f73c bc02 db3c d6bc fcbb 3e2f b93c
00000180: 4e57 2f3c 6195 debc 08b8 bc3c f61d e43c
00000190: ccad 7fbc 1fa1 87bc 0b74 e43c d2f2 9e3c
000001a0: b1f4 08bd 603b 06bc 53c2 9dbb 2406 113b
000001b0: b543 1e3c 095b bdbb d779 1dbc f606 e1bb
000001c0: 8fcc 8b3b 373a 96bc 45d5 813c 0bc9 14bc
000001d0: fcf2 cabb 0cfa 0d3b ec12 80bc 56df eb3c
000001e0: 10f0 f83b 1e06 423c 72fa 8fb9 4f1a b73c
000001f0: bd56 b93b 7142 ed3c f3cc ad3c 302f 363c
00000200: b0d7 e0bc 5085 af3b ad6b e5bc 0869 1dbc
00000210: c0f2 263c b6d3 c53b 67b4 fd3b e905 873c
00000220: 359c 5cbc 1ecf a6bb be6e ae3c 6f3a e1bc
00000230: f947 08bc 5bd7 09bd 6a38 393c dc70 873c
00000240: a3a7 45bb ad9d d03c f4ea 3fbc d354 2d3c
00000250: f5cf 853c 4e58 04bd 5057 a83c 1c22 213c
00000260: 19d8 11bc f463 90bc cdd0 8ebc 6aa4 90bc
00000270: bc2b 04bd d11c 643b 3cac cc3c 65d6 293c
00000280: 90e1 5d3c 0550 793c 7775 fb3c 0e27 773c
00000290: 74a9 543c 7669 97bc d976 ce3b ab6d 63bb
000002a0: cf50 f7bb c188 c5bc f3d8 a53b 3eb1 9f3b
000002b0: 86f8 2c3b 3758 bcbc d6cf 073d aac4 eebc
000002c0: 2100 7939 92e1 ad3b 9622 a2bc 5fff d73c
000002d0: af5a 7abc fa2a d43c c101 893a 88ee f3bc
000002e0: 63f2 ad3c 97b7 683c 4fa1 963c 35d2 1abc
000002f0: 3224 6dbc ef35 443c 7e0e 9d3c 31e2 743c
00000300: eb87 2ebc 8fd0 f8bc 285f 8bbc bd79 b9bb
00000310: 050d 89bc c546 2cbb cf32 31bc 4800 68bc
00000320: 2dfe 60bc 5f40 c13c 3511 6e3c f9a1 b33c
00000330: f8fa c8bb 5c33 98bc 9fd7 753b 9b3d 73bc
00000340: cab9 b23c 4198 05bd d7a1 62bb eca1 9fbc
00000350: 4126 52bc d179 193b 1ecd dabc 5ea7 0bbc
00000360: c4d6 ce3c f4bc 6fbc 3f43 6f3c b0c7 363c
00000370: a4b0 aebb d20d aebb 108a b9bc b9e8 313c
00000380: 8680 983c 5293 d1bc 3b26 b73a f7a3 51bc
00000390: de93 b5bc 374f d33b 70a8 b63c b7e8 d8b8
000003a0: 965d cfbc 9cc4 91bc 7280 0fbc 00a2 fc3c
000003b0: 4b4f 053d a433 cabb d869 a23c b69a 85bc
000003c0: 1ed5 d53b 3c16 373b 5467 1c3b c341 4dbb
000003d0: 4d1f 093c 9b9f 05bc 0970 09bc 8639 b1bc
000003e0: 33b0 ee3c 4995 8a3c dfdc 09bd 0f8e 04bd
000003f0: aec0 283c 904a ccbc b1c2 00bd f2e9 aa3c

nonreduce1_3.bias f4 [32]
-0.024290474 0.028310247 0.011526314 -0.021023912 0.012095854 0.017803429 -0.010338387 0.021863446
0.018184012 0.03519827 0.011342389 -0.037740517 -0.01562845 -0.01352884 -0.0219162 0.010474602
0.0059479172 0.015355771 0.0059896307 0.025290389 0.024600403 -0.0345252 0.019105017 -0.026986102
0.0025612751 0.033749036 -0.0044598146 0.0066544386 0.0054280083 -0.013512955 -0.0007722201 0.01571406
00000000: d1fc c6bc e4ea e73c ddd8 3c3c 573a acbc
00000010: b02d 463c 7fd8 913c 5762 29bc f81a b33c
00000020: a3f6 943c 102c 103d 6dd5 393c cd95 1abd
00000030: 3c07 80bc 11a8 5dbc 9a89 b3bc aa9d 2b3c
00000040: bfe6 c23b c696 7b3c aa44 c43b ca2d cf3c
00000050: c986 c93c 4c6a 0dbd 2082 9c3c f511 ddbc
00000060: 11db 273b 6e3c 0a3d a323 92bb 7a0d da3b
00000070: 6fdd b13b 7165 5dbc d06e 4aba c6ba 803c

reduce2.weight f4 [16, 32, 4, 4, 4]
0.0012199569 -0.0004813807 0.017392054 -0.004731638 0.011534272 -0.0070604114 0.016923936 -0.011313664
0.006114646 -0.008944435 -0.0064657833 -0.017118832 -0.0026719968 0.009282114 0.015176654 -0.008932232
0.01777632 -0.014670392 -0.013565102 0.009208764 0.00872805 -0.01783826 0.01793902 -0.011753538
-0.007975233 0.019928718 0.020073611 -0.0047163 0.007815278 0.002391081 0.013117612 -0.0064851074
-0.015876662 0.01113544 0.009125258 0.006226071 -0.01308981 0.008953832 0.00010450809 -0.0029253894
-0.007220243 -0.01658417 0.005022499 0.00079610845 0.01267103 -0.011034589 -0.0038328269 0.0007411457
0.0064851884 0.019010397 0.0072133457 0.013152919 0.014617781 0.011536341 0.008591692 -0.0105439825
0.013432294 0.01078356 0.013918184 -0.003369723 0.0037908545 -0.010614008 0.012407128 -0.019207178
0.0028350356 -0.01930638 0.006638742 0.018671628 -0.02001378 0.022887586 0.02076846 0.0069511044
-0.0047372296 0.017750572 -0.0065528792 0.015449568 0.012156419 0.024748687 -0.00045214 -0.0077273035
-0.0185408 0.023579575 -0.0006933925 0.010685273 -0.012279743 0.022564955 0.008513749 0.0047552036
0.007641745 0.023339659 0.009060307 0.024468986 0.016760059 -0.015490157 0.0028198003 -0.011168863
-0.009590495 0.017481385 0.016249819 0.002356333 -0.013053063 -0.007773697 0.018676622 -0.01494326
-0.01893909 -0.010033628 0.013837938 0.010963349 0.0053575 0.009167769 -0.0017572229 -0.006783374
0.018454183 -0.015586135 -0.018524729 -0.010189657 -0.010628785 -0.010825979 -0.019526392 -0.0065788156
0.016726106 -0.010878405 -0.0038544245 -0.003447908 -0.016018663 -0.0117126405 -0.02523924 -0.0050393157
0.007621676 0.017338678 0.023880996 0.022814492 0.003783161 -0.015639244 0.003667404 0.013751336
-0.0019025304 0.005903534 -0.012048978 -0.006564335 0.018256575 0.00801965 -0.0030866652 0.0036641655
0.0019888063 0.016378047 -0.004184627 -0.0057262843 0.0112096425 0.016762402 0.028290216 -0.0038102805
0.007233137 0.016888225 -0.0026328925 0.015179456 -0.009514025 0.014747155 0.011244867 -0.004882951
-0.0015948446 -0.011805 0.0095282635 0.025276568 -0.006585565 0.01830876 0.015409011 0.014777226
0.010969725 0.028804312 -0.004888576 0.010205671 -0.0041776667 0.0024352872 -0.017736599 -0.0076678037
0.005934706 -0.01838104 0.004112859 0.004084015 0.01986309 -0.004553894 -0.010856357 0.015776385
-0.010915018 0.0027581588 -0.010370114 -0.0059534716 -0.013071834 -0.017434452 -0.00062018796 -0.03193839
0.0047496213 -0.021709783 0.0131234145 -0.003197184 -0.011098073 -0.016631419 -0.0057345903 0.02006607
-0.018611915 -0.0061803176 -0.0033764942 0.012932194 0.0033280323 0.00705458 0.016840694 -1.8410765e-05
-0.0027404316 -0.01381239 -0.009533013 -0.010067726 -0.018253684 0.003678452 -0.010490762 -0.0155177545
0.019804327 0.012985075 0.02793193 -0.01555709 -0.011470181 -0.022005923 0.0069025285 -0.014957723
0.011821087 0.011055836 -0.00855715 0.014158076 0.015593835 0.016472409 0.01818574 0.011625115
0.015255317 0.00076455425 0.002661326 0.023158515 0.010727057 -0.014510177 0.016003923 0.0095872395
-0.01624122 -0.014383311 -0.018556328 -0.016804194 0.012491798 0.009172298 0.019628592 -0.006847921
-0.005774436 -0.019221751 -0.010647584 -0.01064102 -0.02352892 0.0014540083 -0.0058306037 -0.021979941
00000000: f6e6 9f3a d361 fcb9 c879 8e3c db0b 9bbb
00000010: 3efa 3c3c 065b e7bb 11a4 8a3c f25c 39bc
00000020: 5e5d c83b ae8b 12bc ecde d3bb cb3c 8cbc
00000030: ab1c 2fbb 0214 183c 80a7 783c 7f58 12bc
00000040: a59f 913c 155c 70bc 2940 5ebc 5be0 163c
00000050: 1800 0f3c 8b21 92bc daf4 923c e991 40bc
00000060: 8daa 02bc 8d41 a33c 6a71 a43c 318b 9abb
00000070: a70b 003c afb3 1c3b 41eb 563c 0681 d4bb
00000080: c60f 82bc 6c71 363c 1b82 153c 1204 cc3b
00000090: a476 56bc 18b3 123c 5b2b db38 e4b7 3fbb
000000a0: ca97 ecbb 86db 87bc c693 a43b efb1 503a
000000b0: 279a 4f3c 6cca 34bc 2a30 7bbb 7249 423a
000000c0: b481 d43b b1bb 9b3c ee5d ec3b 577f 573c
000000d0: 6b7f 6f3c ec02 3d3c 2bc4 0c3c abc0 2cbc
000000e0: 2013 5c3c 87ad 303c 1809 643c 92d6 5cbb
000000f0: fc6f 783b 60e6 2dbc 4447 4b3c 5f58 9dbc
00000100: 01cc 393b 6a28 9ebc ce89 d93b 3ef5 983c
00000110: f0f3 a3bc bf7e bb3c 9e22 aa3c 17c6 e33b
00000120: c33a 9bbb a669 913c 89b9 d6bb 2f20 7d3c
00000130: b82b 473c c2bd ca3c 340d edb9 5235 fdbb
00000140: e0e2 97bc f429 c13c c8c4 35ba 4911 2f3c
00000150: fa30 49bc 24da b83c 407d 0b3c 8ad1 9b3b
00000160: 9a67 fa3b d032 bf3c af71 143c 2f73 c83c
00000170: 644c 893c 6dca 7dbc 66cc 383b 9bfd 36bc
00000180: 7421 1dbc 1f35 8f3c 571e 853c b56c 1a3b
00000190: 84dc 55bc 7fba febb b7ff 983c 93d4 74bc
000001a0: 2726 9bbc 1664 24bc 85b8 623c 9e9f 333c
000001b0: f88d af3b 6934 163c 9e52 e6ba 1147 debb
000001c0: 3a2d 973c fd5c 7fbc 2cc1 97bc 85f2 26bc
000001d0: 5b24 2ebc 725f 31bc d0f5 9fbc 1b93 d7bb
000001e0: 3005 893c 563b 32bc 839a 7cbb 4cf6 61bb
000001f0: 9239 83bc 60e6 3fbc 86c2 cebc d820 a5bb
00000200: 41bf f93b d809 8e3c 14a2 c33c 75e5 ba3c
00000210: e9ee 773b df1d 80bc d458 703b 494d 613c
00000220: 545e f9ba 6f72 c13b 1469 45bc a219 d7bb
00000230: d08e 953c da64 033c a649 4abb 7f22 703b
00000240: a256 023b 412b 863c 321f 89bb 8ea3 bbbb
00000250: a6a8 373c 4e51 893c e2c0 e73c e6b5 79bb
00000260: f303 ed3b 2d59 8a3c 9b8c 2cbb 41b3 783c
00000270: b7e0 1bbc 0d9e 713c 643c 383c 2901 a0bb
00000280: 1b0a d1ba c269 41bc 6f1c 1c3c ce10 cf3c
00000290: b9cb d7bb 41fc 953c 1476 7c3c 2e1c 723c
000002a0: 5dba 333c 05f7 eb3c 5930 a0bb b035 273c
000002b0: cfe4 88bb 5799 1f3b 584c 91bc 3342 fbbb
000002c0: ec77 c23b d693 96bc 29c5 863b 33d3 853b
000002d0: ebb7 a23c d538 95bb ddde 31bc 7a3d 813c
000002e0: e7d4 32bc 3ac2 343b 69e7 29bc 5715 c3bb
000002f0: 3f2b 56bc b2d2 8ebc 1c94 22ba d4d1 02bd
00000300: b6a2 9b3b b7d8 b1bc 9703 573c d987 51bb
00000310: b1d4 35bc 9d3e 88bc 3be9 bbbb 9961 a43c
00000320: 0478 98bc 4384 cabb 2c48 5dbb 8ee1 533c
00000330: 1e1b 5a3b 1b2a e73b 7ff5 893c d170 9ab7
00000340: d098 33bb 5d4d 62bc 5b30 1cbc 1af3 24bc
00000350: c088 95bc 2f12 713b 72e1 2bbc 2e3e 7ebc
00000360: af3c a23c 5abf 543c 81d1 e43c 2ae3 7ebc
00000370: 6ded 3bbc c445 b4bc 9b2e e23b 3d11 75bc
00000380: 3cad 413c 8a23 353c 4a33 0cbc 46f7 673c
00000390: 497d 7f3c 25f1 863c 43fa 943c 4477 3e3c
000003a0: 70f1 793c 5e6c 483a a469 2e3b edb6 bd3c
000003b0: 8ac0 2f3c 18bc 6dbc a91a 833c cc13 1d3c
000003c0: 4f0c 85bc fba7 6bbc 7103 98bc f3a8 89bc
000003d0: 66aa 4c3c 6847 163c 24cc a03c 8664 e0bb
000003e0: 7b37 bdbb ef76 9dbc 3473 2ebc ac57 2ebc
000003f0: b9bf c0bc 6c94 be3a a60e bfbb 470f b4bc

reduce2.bias f4 [16]
0.00066192687 0.014294066 -0.013200058 0.015874209 0.0256197 -0.014620377 -0.007554036 -0.018870626
0.0044288733 -0.018064586 0.004292589 -0.0047761784 0.00774043 -0.013643822 0.013718482 0.019233914
00000000: 2985 2d3a a831 6a3c 0e45 58bc a10a 823c
00000010: 68e0 d13c 4e8a 6fbc d987 f7bb 9296 9abc
00000020: 1520 913b 2ffc 93bc d9a8 8c3b 7d81 9cbb
00000030: 6fa3 fd3b 568a 5fbc 7cc3 603c 7190 9d3c

nonreduce2_1.weight f4 [16, 16, 3, 3, 3]
-0.029213855 0.0043195765 0.01544053 -0.028731748 -0.032832112 0.027029566 0.050327156 0.036916893
0.030178567 -0.027010508 -0.010368784 -0.018579604 0.029451266 -0.017643418 -0.035509713 -0.028452149
-0.012306556 0.007999145 -0.0421984 -0.036116414 -0.026980586 -0.031894423 0.010984288 -0.011399717
0.045240708 -0.011463128 0.037106477 -0.03108207 0.027783295 -0.04223929 -0.007899818 -0.00069200125
-0.004279947 0.046319548 0.0027839995 0.01978261 0.041355077 -0.016978 0.0055802604 -0.019396286
0.032457493 -0.037325386 -0.0021320663 -0.049799357 -0.050160952 0.049548004 0.025229527 0.047617402
0.058965616 -0.013281261 0.016371006 -0.008200284 -0.0049913824 -0.029309891 0.0052739056 0.029415242
-0.0027781199 0.0018740698 -0.038324326 0.012026178 -0.043058224 -0.0046857954 -0.027248794 0.039095525
0.016923023 0.027032888 -0.011177472 0.032315318 0.04304837 0.044048984 0.007953053 0.03235125
0.027817674 -0.025852915 -0.013022815 0.01637681 -0.039071698 -0.035065234 0.01944145 -0.0041205334
0.017206255 0.010052601 -0.057266414 -0.049019456 0.045412038 0.031214122 -0.024002427 -0.029330814
0.016570726 -0.07067017 0.0566272 0.04880564 0.016206678 0.01761135 0.016064838 0.049645707
0.02423559 0.04851431 0.0117746545 -0.025101883 0.030119408 0.055747297 0.010082102 0.08428496
0.044533864 0.0066100606 0.044135433 -0.00077609706 -0.0068828333 0.039877765 -0.004514463 0.042811323
0.031107508 0.029548207 -0.007672498 -0.00541594 -0.038485765 0.015328822 -0.027162103 -0.0037897425
-0.017312564 0.037272874 -0.036439016 -0.004837667 0.035129394 0.00052204775 -0.037119433 -0.006641017
-0.009589607 -0.008621729 0.013885942 0.002196292 -0.0016489617 0.016379818 -0.027391827 -0.04116553
0.01888354 -0.045105856 -0.023625499 -0.028534701 0.0146018285 0.010436391 -0.023200504 0.04352219
0.04714631 -0.012326449 0.010108838 -0.03252615 -0.010736205 -0.04121149 0.047111567 0.0124219125
0.0021630372 0.03870272 -0.04617286 0.01198145 0.03949742 0.04196763 0.018399816 -0.032042537
-0.01788936 -0.037377506 -0.041595034 -0.04475554 -0.026621804 0.020310245 -0.035093535 -0.05274464
-0.03413533 -0.027006175 -0.035469003 0.03052035 -0.023147784 -0.013044353 0.016593566 -0.031905033
-0.015757406 -0.03909168 0.014298711 -0.03910566 0.023322664 0.043424044 0.0004886945 0.04346085
0.029059142 0.02073717 -0.03819111 0.027399978 0.045587394 -0.039261956 -0.019110085 -0.029749408
0.008989672 -0.037492618 -0.013205647 0.040025484 -0.018989451 -0.044410195 0.042355523 0.02068028
-0.05009799 0.0315669 0.049395267 0.02538017 0.01398018 -0.017350215 0.016368767 0.04494322
-0.024476716 -0.022404986 0.039391994 0.037583727 0.033321384 0.016408408 0.015610292 -0.0128723
0.022558406 0.0228249 0.006665634 0.0027666 0.006768688 -0.02262628 -0.0026663006 0.004860657
-0.025593547 0.0380279 0.00079883204 0.031279292 -0.045198362 -0.034509104 0.031201338 0.010669689
0.041094087 -0.0021099937 -0.027415127 0.040673077 -0.04560071 0.011594565 -0.047601014 0.026343165
0.03922447 0.0025093972 -0.0058841314 -0.027212368 0.014844372 0.046177227 -0.053288158 -0.021128668
-0.023373332 -0.047702763 -0.014413365 0.025795741 0.0011472282 0.019735822 -0.019972848 -0.0033461067
00000000: e551 efbc 3c8b 8d3b 47fa 7c3c d85e ebbc
00000010: f77a 06bd 1c6d dd3c d923 4e3d 2b36 173d
00000020: 0b39 f73c 2445 ddbc d5e1 29bc 4134 98bc
00000030: c843 f13c ee88 90bc a272 11bd 7b14 e9bc
00000040: 70a1 49bc d90e 033c 3bd8 2cbd ceee 13bd
00000050: 6406 ddbc baa3 02bd 71f7 333c e1c5 3abc
00000060: 524e 393d d8cf 3bbc f6fc 173d d39f febc
00000070: cb99 e33c 1b03 2dbd 3d6e 01bc 6b67 35ba
00000080: cc3e 8cbb 91b9 3d3d c373 363b 240f a23c
00000090: f163 293d 7215 8bbc 9eda b63b f6e4 9ebc
000000a0: 26f2 043d 81e2 18bd 23ba 0bbb 69fa 4bbd
000000b0: 9275 4dbd d9f2 4a3d 27ae ce3c 770a 433d
000000c0: ee85 713d a599 59bc 7d1c 863c 7c5a 06bc
000000d0: c08e a3bb 4c1b f0bc bad0 ac3b 3cf8 f03c
000000e0: 1e11 36bb 59a3 f53a f8f9 1cbd 7209 453c
000000f0: d25d 30bd 4d8b 99bb dd38 dfbc a122 203d
00000100: 27a2 8a3c 1374 dd3c b721 37bc 115d 043d
00000110: 7d53 303d b56c 343d 864d 023c bf82 043d
00000120: e4e1 e33c 7ec9 d3bc a55d 55bc a928 863c
00000130: a509 20bd 90a0 0fbd ad43 9f3c 8a05 87bb
00000140: 22f4 8c3c aab3 243c 3090 6abd a0c8 48bd
00000150: f901 3a3d c2b4 ff3c bda0 c4bc 2d47 f0bc
00000160: 55bf 873c 86bb 90bd ecf1 673d 6ce8 473d
00000170: dec3 843c ae45 903c 689a 833c 4c59 4b3d
00000180: b789 c63c f1b6 463d 7bea 403c 77a2 cdbc
00000190: fabc f63c 4757 643d 672f 253c 989d ac3d
000001a0: 2469 363d 3599 d83b 5bc7 343d fe72 4bba
000001b0: 6489 e1bb de56 233d 0fee 93bb ed5a 2f3d
000001c0: 2cd5 fe3c 150f f23c 9469 fbbb 3378 b1bb
000001d0: 40a3 1dbd bd25 7b3c 0f83 debc 545d 78bb
000001e0: 14d3 8dbc 71ab 183d 1441 15bd 4b85 9ebb
000001f0: d7e3 0f3d 08da 083a 8c0a 18bd e39c d9bb
00000200: ba1d 1dbc 2742 0dbc dd81 633c aaef 0f3b
00000210: f921 d8ba f82e 863c d364 e0bc 309d 28bd
00000220: a7b1 9a3c ebc0 38bd 438a c1bc 9bc1 e9bc
00000230: 823c 6f3c 66fd 2a3c fc0e bebc 5344 323d
00000240: 7d1c 413d e0f4 49bc 8a9f 253c 243a 05bd
00000250: e8e6 2fbc 61cd 28bd 0ff8 403d 4785 4b3c
00000260: bec1 0d3b be86 1e3d c11f 3dbd d84d 443c
00000270: 0cc8 213d 40e6 2b3d 36bb 963c 093f 03bd
00000280: b58c 92bc 2819 19bd 8e5f 2abd 9651 37bd
00000290: f815 dabc ac61 a63c 3dbe 0fbd c30a 58bd
000002a0: 7dd1 0bbd 0e3c ddbc f247 11bd d005 fa3c
000002b0: 6ca0 bdbc fbb7 55bc 3bef 873c daae 02bd
000002c0: ad15 81bc 991e 20bd 2445 6a3c 422d 20bd
000002d0: 2c0f bf3c 69dd 313d bc1b 003a 0104 323d
000002e0: 700d ee3c ffe0 a93c 486e 1cbd eb75 e03c
000002f0: d9b9 3a3d 25d1 20bd c18c 9cbc 08b5 f3bc
00000300: 6b49 133c dc91 19bd 7f5c 58bc c3f1 233d
00000310: c48f 9bbc 77e7 35bd fc7c 2d3d b169 a93c
00000320: 8d33 4dbd 4b4c 013d b152 4a3d 13ea cf3c
00000330: 200d 653c 0a22 8ebc cb17 863c 6216 383d
00000340: 6583 c8bc a98a b7bc 8059 213d 65f1 193d
00000350: 017c 083d ed6a 863c 4fc2 7f3c 57e6 52bc
00000360: 68cc b83c 49fb ba3c 646b da3b d94f 353b
00000370: dfcb dd3b c05a b9bc 1abd 2ebb 2546 9f3b
00000380: 8fa9 d1bc 25c3 1b3d b668 513a b71e 003d
00000390: eb21 39bd 6b59 0dbd f399 ff3c ebcf 2e3c
000003a0: 4652 283d d247 0abb b095 e0bc d098 263d
000003b0: cfc7 3abd 21f7 3d3c 48f9 42bd 9fcd d73c
000003c0: d6a9 203d b374 243b accf c0bb 79ec debc
000003d0: cf35 733c 5524 3d3d af44 5abd 0716 adbc
000003e0: 6e79 bfbc f963 43bd 0926 6cbc 9751 d33c
000003f0: 975e 963a 05ad a13c 199e a3bc 5b4a 5bbb

nonreduce2_1.bias f4 [16]
0.033404328 -0.02168406 0.018221064 0.0010379687 0.034027148 0.049576655 0.022583805 -0.0025265634
0.03112541 0.020392679 -0.0014761382 0.027026886 -0.03272238 -0.027435487 -0.026136437 0.028822968
00000000: fad2 083d c5a2 b1bc 5744 953c 730c 883a
00000010: 0d60 0b3d e410 4b3d ac01 b93c b394 25bb
00000020: b7fa fe3c 8c0e a73c fb7a c1ba 7d67 dd3c
00000030: e707 06bd 63c0 e0bc 151c d6bc 251e ec3c

nonreduce2_2.weight f4 [16, 16, 3, 3, 3]
-0.00024807727 0.04443292 0.060256526 0.010243533 -0.02635498 0.025256839 -0.059050705 -0.02231827
0.03125878 0.0285359 -0.021763628 0.048495386 0.037912272 0.009304268 0.061882958 -0.044816773
-0.023080777 0.008410405 0.024156379 -0.009607905 0.033945028 0.055820737 -0.004400251 0.06679232
-0.025928557 0.026500458 0.036314357 0.016305521 -0.03363317 -0.008717417 -0.040022455 -0.046708506
0.012609843 0.023298774 0.03635182 0.045495335 0.046883475 -0.007327327 -0.00999805 -0.029578261
-0.030632395 -0.019367673 0.024938464 0.014395007 -0.038345262 -0.01916691 0.0137653155 -0.00036131218
-0.0050925347 -0.045701206 0.01841703 -0.03465343 -0.021663958 0.0063742516 -0.03662086 0.035421874
-0.037783947 0.006837558 0.03755952 -0.020329498 0.018002598 -0.038228028 -0.008199711 -0.025944268
-0.01841352 -0.042833067 -0.0011358052 0.04777331 0.016143112 0.03990231 0.026664808 0.0021610379
0.009724689 -0.02364032 -0.038998652 -0.0068262606 0.025735969 0.046021253 -0.0053856433 -0.043052915
0.038210306 -0.04120991 -0.008208303 -0.0298986 -0.01995911 0.024795204 -0.027458614 -0.018868491
0.03130206 0.019463222 -0.030799164 0.0005099546 0.04149244 0.0037855513 -0.019579291 -0.012509838
0.016435575 0.0053708614 0.032958128 -0.03835808 0.022131786 -0.000800028 0.00578698 -0.019089404
0.026281897 -0.03362928 -0.0038096164 0.00655577 -0.012647505 0.03751924 0.028852742 0.0045456076
0.034528583 0.029722491 -0.04193007 -0.043876946 -0.022995794 0.0014735591 -0.0067090895 0.04048003
-0.0044572097 0.04626062 0.022913156 0.014899892 0.020907974 0.03693706 0.037150733 0.010499615
-0.025038796 0.00089094765 0.049979083 0.040806875 0.0461551 0.033799868 -0.034037564 0.05117175
-0.02610016 0.024274493 0.012195964 0.015278065 0.03690712 -0.015060212 -0.00054077565 -0.0012905078
-0.02750099 -0.03969502 0.04999024 0.024929263 -0.0348983 0.02216671 -0.04964986 0.033918366
-0.041236427 -0.021213079 0.015125276 0.02181587 0.016764525 -0.02596701 -0.0003615707 0.034957122
-0.032645233 0.015104542 0.046818335 -0.021260908 -0.05003222 0.040911023 0.10968332 0.07738152
0.0851131 0.027444301 0.009523834 0.06377834 0.006453708 -0.036589745 0.015954165 0.07969419
0.0058183065 0.025865076 0.06968375 0.022205885 0.029398143 0.05515826 0.039045747 0.04459006
0.06836918 0.02957747 0.028000645 0.054645963 0.01633549 0.060436077 -0.008314286 0.014499817
0.06216631 -0.004371865 0.0608805 -0.0018282305 0.042790346 0.018707184 0.06568515 0.022406738
0.015443584 -0.013890687 -0.0055694506 0.036633357 -0.033180203 0.06006067 0.023108602 0.037530392
-0.006653444 -0.018050786 0.016692726 -0.014495414 0.024556896 0.031011343 0.032917663 0.03496244
0.059583534 0.027443556 0.01973222 0.05094973 -0.009515134 -0.010645804 0.023793986 -0.029129475
-0.014859267 -0.010951707 -0.015362501 0.0019514491 0.006774746 -0.02729929 -0.04216332 0.03577716
0.00794161 -0.013405091 0.029598473 -0.027727865 0.030650262 0.009514882 0.026431752 -0.020696307
-0.03466006 -0.04091023 0.0075372225 -0.03878823 0.029894875 -0.00657024 -0.008692725 0.019650802
-0.005281059 0.011512757 0.03940546 -0.012587292 0.03388651 0.008167815 -0.0341934 0.0157191
00000000: 5e10 82b9 4bff 353d 8ccf 763d 7ed4 273c
00000010: 66e6 d7bc 6ee7 ce3c 27df 71bd ced4 b6bc
00000020: 3509 003d 1fc4 e93c a349 b2bc 19a3 463d
00000030: e649 1b3d ee70 183c fc78 7d3d cb91 37bd
00000040: e613 bdbc cccb 093c 99e3 c53c 796a 1dbc
00000050: f109 0b3d 49a4 643d fb2f 90bb 69ca 883d
00000060: 2068 d4bc 7d17 d93c 5dbe 143d 2893 853c
00000070: efc2 09bd 7fd3 0ebc 96ee 23bd 6b51 3fbd
00000080: 8499 4e3c 12dd be3c a5e5 143d 5159 3a3d
00000090: e308 403d 131a f0bb dcce 23bc 1c4e f2bc
000000a0: caf0 fabc f4a8 9ebc c04b cc3c 09d9 6b3c
000000b0: ec0f 1dbd ec03 9dbc eb87 613c 806e bdb9
000000c0: 47df a6bb 3031 3bbd 50df 963c c1f0 0dbd
000000d0: 9d78 b1bc 19df d03b c1ff 15bd 8716 113d
000000e0: 57c3 1abd 980d e03b 03d8 193d 0c8a a6bc
000000f0: 2f7a 933c fe94 1cbd 1558 06bc 1389 d4bc
00000100: f3d7 96bc ba71 2fbd 4cdf 94ba f2ad 433d
00000110: 8f3e 843c 9b70 233d 2870 da3c 33a0 0d3b
00000120: 4d54 1f3c 58a9 c1bc 0dbd 1fbd d3ae dfbb
00000130: 3dd4 d23c c880 3c3d 0d7a b0bb 4158 30bd
00000140: 6982 1c3d b9cb 28bd 1e7c 06bc e9ed f4bc
00000150: 4a81 a3bc 501f cb3c e3f0 e0bc 1892 9abc
00000160: 9736 003d 5671 9f3c 874e fcbc 79ae 053a
00000170: faf3 293d 0317 783b c064 a0bc 10f6 4cbc
00000180: e6a3 863c 0dfe af3b 1aff 063d 5d1d 1dbd
00000190: b84d b53c f8b8 51ba b5a0 bd3b 6261 9cbc
000001a0: 224d d73c dbbe 09bd c2aa 79bb c9d1 d63b
000001b0: 7b37 4fbc c6ad 193d 965c ec3c 52f3 943b
000001c0: d86d 0d3d 957c f33c ddbe 2bbd 50b8 33bd
000001d0: ad61 bcbc 7024 c13a ecd7 dbbb 63ce 253d
000001e0: c90d 92bb c77b 3d3d 5fb4 bb3c ad1e 743c
000001f0: 3347 ab3c 514b 173d 5e2b 183d 9406 2c3c
00000200: 291e cdbc 7c8e 693a deb6 4c3d 1c25 273d
00000210: 210d 3d3d bb71 0a3d f96a 0bbd 7899 513d
00000220: 01d0 d5bc 4ddb c63c 95d1 473c d950 7a3c
00000230: ec2b 173d 1cbf 76bc d7c2 0dba 4226 a9ba
00000240: c249 e1bc 3f97 22bd 91c2 4c3d 7438 cc3c
00000250: 85f1 0ebd f696 b53c a75d 4bbd fced 0a3d
00000260: 87e7 28bd 0dc7 adbc 01d0 773c 32b7 b23c
00000270: c255 893c c4b8 d4bc 3391 bdb9 332f 0f3d
00000280: 02b7 05bd 0a79 773c 95c4 3f3d 5b2b aebc
00000290: 96ee 4cbd 5192 273d a6a1 e03d 347a 9e3d
000002a0: c74f ae3d dfd2 e03c db09 1c3c 389e 823d
000002b0: a079 d33b 21df 15bd 4fb2 823c b536 a33d
000002c0: 7ea7 be3b ffe2 d33c 5bb6 8e3d 1ee9 b53c
000002d0: 60d4 f03c a1ed 613d 6fee 1f3d 11a4 363d
000002e0: 2405 8c3d 734c f23c 9c61 e53c 72d4 5f3d
000002f0: 01d2 853c d28b 773d a538 08bc a490 6d3c
00000300: 1aa2 7e3d dd41 8fbb d55d 793d 3ca1 efba
00000310: ee44 2f3d cf3f 993c f085 863d 568e b73c
00000320: 1607 7d3c c495 63bc f07f b6bb dc0c 163d
00000330: f7e7 07bd 2d02 763d 404e bd3c 78b9 193d
00000340: 2205 dabb 3edf 93bc 2fbf 883c 2c7e 6dbc
00000350: 8b2b c93c 800b fe3c acd4 063d c734 0f3d
00000360: dd0d 743d 4fd1 e03c 77a5 a13c aab0 503d
00000370: 5de5 1bbc bd6b 2ebc 9beb c23c f0a0 eebc
00000380: 4874 73bc ca6e 33bc 00b3 7bbc c4c7 ff3a
00000390: b0fe dd3b c3a2 dfbc 72b3 2cbd 128b 123d
000003a0: 871d 023c 07a1 5bbc 7f78 f23c 8c25 e3bc
000003b0: 4216 fb3c 4fe4 1b3c 6787 d83c 4d8b a9bc
000003c0: b5f7 0dbd 7c91 27bd cefa f63b 68e0 1ebd
000003d0: 19e6 f43c 2b4b d7bb ee6b 0ebc b8fa a03c
000003e0: bc0c adbb 01a0 3c3c 9f67 213d ee3a 4ebc
000003f0: 95cc 0a3d 4dd2 053c 610e 0cbd 58c5 803c

nonreduce2_2.bias f4 [16]
0.021098893 -0.012587687 -0.028209956 0.00045984366 0.051024728 0.03040571 0.0049577835 -0.033632442
0.019813715 0.017993031 0.027102415 0.007410897 -0.027319193 -0.00944645 0.040791236 -0.016548477
00000000: 96d7 ac3c 963c 4ebc 9118 e7bc 2c17 f139
00000010: 4eff 503d 6515 f93c e774 a23b 2cc2 09bd
00000020: 5f50 a23c 1f66 933c e205 de3c 1cd7 f23b
00000030: 80cc dfbc 48c5 1abc b614 273d ac90 87bc
