02_deep3D/model/model_iw.pt (torch, 739878 bytes, 25 tensors)

reduce1.weight f4 [64, 1, 4, 4, 4]
0	0xbdd7e708	-0.105421126
1	0xbcc637b9	-0.024196493
2	0xbda60c1f	-0.08107781
3	0xbc3ac4bf	-0.011399447
4	0xbc388b23	-0.0112636415
5	0xbd26ec67	-0.040752795
6	0x3dc81a55	0.097706474
7	0xbda58eac	-0.08083853
8	0xbd9b3521	-0.07578493
9	0x3dd12640	0.10212374
10	0x3cb81007	0.02246858
11	0xbd86f5d1	-0.065898545
12	0xbd0b9ba9	-0.034083996
13	0xbd8c93cc	-0.068641275
14	0x3d798910	0.06092173
15	0xbb420d3c	-0.002960994
16	0xbe06631d	-0.13123746
17	0xbc1dce49	-0.009631702
18	0xbd6be4a7	-0.057591107
19	0x3dfdceb0	0.12392938
20	0x3d5155be	0.05110716
21	0xbe008167	-0.12549363
22	0x3d66ccbb	0.05634759
23	0xbc6e9bff	-0.01456356
24	0xbdaffbb1	-0.08592928
25	0xbd28a615	-0.041174013
26	0x3d90b586	0.07065873
27	0x3da2c1dd	0.07947133
28	0xbdef69b5	-0.11690084
29	0x3c231c70	0.0099555105
30	0x3af81712	0.0018927774
31	0xbd507aeb	-0.050898474
32	0xbd8cbf86	-0.06872468
33	0x3de2a971	0.11067475
34	0xbd338b52	-0.043834038
35	0x3c5cc9e5	0.01347587
36	0xbd2ddc74	-0.04244657
37	0xbdfa7edd	-0.122312285
38	0x3e00fb05	0.12595756
39	0x3c39bb6a	0.011336187
40	0x3dee7a15	0.11644379
41	0x3d97598a	0.07390125
42	0x3daf8f9c	0.08572313
43	0xbc8bcbd1	-0.01706496
44	0x3d609ff3	0.05484004
45	0xbdee45bd	-0.11634395
46	0x3ca81a27	0.020520283
47	0xbda80231	-0.08203543
48	0xbd1000af	-0.035156902
49	0x3dd08b77	0.10182851
50	0xbd1cf93a	-0.03832362
51	0x3c89b5a8	0.016810253
52	0x3c6b26d2	0.014352517
53	0x3dedbad9	0.11607904
54	0x386b8034	5.6147765e-05
55	0xbcba02a2	-0.022706334
56	0x3cf1e3a8	0.0295275
57	0x3b3012c7	0.002686666
58	0xbd8af978	-0.06785864
59	0xbd9cadf1	-0.07650364
60	0x3be9f632	0.0071399445
61	0x3bae775b	0.005324287
62	0x3c19869b	0.009370471
63	0x3d7e57a7	0.06209531
64	0xbaaa3e59	-0.0012988552
65	0x3da7850b	0.08179673
66	0x3d92b9d1	0.07164348
67	0xbde8f085	-0.113740005
68	0xbc999952	-0.018749867
69	0x3dcea45d	0.100899436
70	0xbd9ffcd9	-0.07811899
71	0xbd686efd	-0.05674647
72	0xbd5010e5	-0.050797362
73	0xbc401a07	-0.011724955
74	0x3c9ce5ae	0.019152489
75	0x3ce800b9	0.028320657
76	0xbdc22a39	-0.094807096
77	0xbd6e80d1	-0.058228318
78	0x3d354d43	0.044263136
79	0xbd9c841d	-0.07642386
80	0xbd8e274a	-0.069410875
81	0xbc5ec16d	-0.013595921
82	0xbd8263da	-0.063667014
83	0x3dc2eb43	0.09517529
84	0xbaf25745	-0.0018489143
85	0x3daab683	0.083355926
86	0xbd42ceb9	-0.047560427
87	0x3d5c5f0b	0.053801578
88	0xbda43157	-0.08017223
89	0xbdf88fd9	-0.12136812
90	0xbdd96853	-0.106156014
91	0xbbe149e0	-0.0068752617
92	0xbd18c14a	-0.03729371
93	0xbc0fbef1	-0.008773551
94	0xbc2de511	-0.010613696
95	0x3d20fc23	0.039302956
96	0x3dc21284	0.09476188
97	0xbe1bf339	-0.15229501
98	0xbd8cc53d	-0.06873558
99	0xbd9824d3	-0.07428899
100	0xbdef40f8	-0.11682314
101	0xbd11dee6	-0.035612963
102	0xbdb1e8c8	-0.086869776
103	0x3ddc8a3f	0.10768556
104	0xbdad6270	-0.08466041
105	0x3d6e1d5a	0.05813346
106	0xbc996439	-0.018724548
107	0x3d9afef1	0.075681575
108	0xbdacc1a8	-0.084353745
109	0xbdc99bce	-0.098441705
110	0xbd2e06ef	-0.04248708
111	0x3d334e93	0.043776106
112	0xbe0d44e3	-0.1379581
113	0xbd51ba4e	-0.051203065
114	0xbd22722b	-0.03965966
115	0xbc87a197	-0.016556544
116	0xbd725334	-0.05916138
117	0xbdacc23a	-0.08435483
118	0xbd6c7f16	-0.057738386
119	0x3d8aca0f	0.06776821
120	0xbd433c5c	-0.047664985
121	0xbd4a2f5a	-0.049361564
122	0x3d988798	0.074477375
123	0x3dc8cf25	0.09805135
124	0xbdee6818	-0.11640948
125	0x3dd7f080	0.105439186
126	0xbdc77e22	-0.09740855
127	0x3daee121	0.08539034
128	0xbdaf7bec	-0.08568558
129	0x3ceead6b	0.029135427
130	0x3da22762	0.07917668
131	0x3d04294c	0.032265946
132	0xbdf5c74b	-0.12000903
133	0x3e00e79d	0.12588353
134	0xbdbcbdbf	-0.09215879
135	0xbdc3ea6e	-0.09566198
136	0xbde51317	-0.11185282
137	0xbc7f1239	-0.015568309
138	0x3d79d3da	0.060993053
139	0xbdfd21da	-0.12359972
140	0xbc5379a6	-0.012907421
141	0xbd696e8e	-0.0569902
142	0xbbfbf157	-0.007688682
143	0x3d952146	0.07281737
144	0xbd94a404	-0.07257846
145	0xbd9261ca	-0.07147558
146	0x3dcdfea0	0.100583315
147	0xbc6b3440	-0.014355719
148	0x3d20a60e	0.039220862
149	0xbd1aaaae	-0.03776043
150	0x3c9a01d1	0.018799694
151	0x3d4ad530	0.049519718
152	0xbda96a87	-0.082722716
153	0xbde63d3d	-0.11242149
154	0xbcf8a77f	-0.030353306
155	0xbd1eeac4	-0.03879811
156	0x3db8a16f	0.09015166
157	0x3d056bec	0.032573625
158	0xbb8ea265	-0.004352855
159	0xbdbd7336	-0.0925049
160	0xbd581961	-0.05275858
161	0x3d992566	0.07477836
162	0xbcd7d415	-0.026346246
163	0x3de21ea0	0.110409975
164	0x3dc0cb01	0.0941372
165	0x3d2f2b3a	0.042765833
166	0xbd5b1fce	-0.05349713
167	0xbdc79fe0	-0.097472906
168	0x3dd00d67	0.10158806
169	0x3d063177	0.032762017
170	0x3d94dcd7	0.07268684
171	0xbdbaae32	-0.09115256
172	0x3dbedb37	0.09319156
173	0x3d665972	0.056237645
174	0xbc011f5d	-0.007881013
175	0x3d5c66a4	0.053808823
176	0xbdfeb14c	-0.124361604
177	0xbba1f640	-0.0049426854
178	0xbdb1f304	-0.0868893
179	0xbdea4ef2	-0.11440839
180	0xbd089f08	-0.03335479
181	0xbdb378a6	-0.08763246
182	0xbda179e8	-0.0788458
183	0xbd8f5322	-0.06998278
184	0x3d374814	0.044746473
185	0xbd3c72c0	-0.04600787
186	0xbdb34322	-0.08753039
187	0x3d546298	0.05185184
188	0xbdf56842	-0.11982776
189	0xbdb511d4	-0.08841291
190	0x3a71de00	0.0009226501
191	0xbdaa71c6	-0.08322482
192	0x3cd7ab92	0.026326928
193	0x3d4d8d91	0.050183836
194	0xbda1817a	-0.07886024
195	0xbce9fe64	-0.028563686
196	0x3c839291	0.0160611
197	0xbd2d61a2	-0.042329438
198	0x3d8e4c60	0.06948161
199	0xbce47fd3	-0.027892983
200	0x3d7774ad	0.060414005
201	0xbbc8251b	-0.006107939
202	0x3d8249a3	0.06361701
203	0xbbdd0530	-0.006745003
204	0xbd9e761e	-0.07737373
205	0xbd06a019	-0.032867525
206	0xbcf6a05b	-0.03010576
207	0x3d7b9567	0.061421778
208	0xbd9fbcdc	-0.07799694
209	0x3dbfe24b	0.09369334
210	0x3af94651	0.0019018148
211	0x3d7b33b6	0.061328612
212	0x3cbb5810	0.02286914
213	0x3dc53cb3	0.09630718
214	0xbc652f93	-0.013988393
215	0x3c92dedb	0.017928531
216	0x3dc0daa6	0.09416704
217	0x3d0d95bd	0.03456663
218	0x3da7125d	0.081577994
219	0x3d82f22f	0.06393849
220	0x3cf35389	0.029702919
221	0xbd70d083	-0.058792602
222	0x3dc0466e	0.093884334
223	0x3dd1d3e3	0.10245492
224	0x3c9bbe6e	0.019011702
225	0x3d9b92c7	0.07596355
226	0x3d6e4bc7	0.058177736
227	0xbdca3d03	-0.09874918
228	0xbdb2638b	-0.087103926
229	0xbd6aa4fc	-0.057286248
230	0xbda1cd55	-0.07900492
231	0x3db48ab4	0.08815518
232	0xbc9d3b7a	-0.0191934
233	0xbd1d22c6	-0.03836324
234	0xbdfa99cb	-0.12236365
235	0xbd7cd479	-0.061726067
236	0xbdcab96f	-0.0989865
237	0xbcfe085c	-0.031009845
238	0x3d93b38d	0.07211981
239	0x3dea0043	0.11425831
240	0xbc20a581	-0.009805084
241	0x3d98d5e8	0.074626744
242	0xbd4964cf	-0.049168404
243	0x3d4f5d39	0.050626013
244	0xbc9d5527	-0.019205643
245	0xbde40785	-0.11134247
246	0x3c0af402	0.008481028
247	0xbd124dcb	-0.03571872
248	0xbdd5f319	-0.10446758
249	0x3de7483e	0.11293076
250	0xbcdedea7	-0.027205778
251	0xbda473dd	-0.08029912
252	0x3bfb1dc0	0.0076634586
253	0x3d634d6f	0.05549377
254	0x3d97f416	0.074196026
255	0x3db37418	0.087623775

reduce1.bias f4 [64]
0	0xbdead39c	-0.114661425
1	0xbc6bdf62	-0.01439652
2	0xbcd79e1a	-0.026320506
3	0x3dec2321	0.11530138
4	0xbc36f5da	-0.011167014
5	0x3ca1921a	0.019722987
6	0xbd3ee688	-0.04660657
7	0x3c2b7176	0.010464063
8	0x3d39e5f7	0.045385327
9	0x3d3a68d1	0.045510117
10	0xbd0be978	-0.0341582
11	0x3e03defe	0.12878034
12	0xbda9bbcb	-0.08287772
13	0x3d64b5a3	0.055837285
14	0xbd13d360	-0.036090255
15	0xbda184c1	-0.07886649
16	0xbd0c8001	-0.03430176
17	0x3d2c1886	0.042015575
18	0x3dd5b204	0.104343444
19	0xbd39d0d1	-0.04536516
20	0xbdab72f1	-0.08371533
21	0x3d539c46	0.051662706
22	0x3e0128bd	0.12613197
23	0xbde1610f	-0.110048406
24	0x3de081ad	0.10962234
25	0x3db5cdfc	0.08877179
26	0x3e1067af	0.14102052
27	0x3cdf1d8b	0.027235767
28	0x3c85f4d3	0.016352093
29	0x3d557f44	0.052123323
30	0x3da888a4	0.08229187
31	0x3da817d3	0.08207669
32	0x3df11ab0	0.11772668
33	0x3ddbc9a9	0.10731823
34	0xbbc15c66	-0.0059009073
35	0xbccaba40	-0.024747014
36	0xbd1b576d	-0.037925173
37	0xbd058481	-0.03259707
38	0x3df3e945	0.11909727
39	0x3dee74da	0.116433814
40	0x3dfcb35a	0.12338896
41	0x3d737d98	0.059445947
42	0xbd3a7e4e	-0.04553061
43	0x3debc110	0.11511433
44	0xbda7db4c	-0.081961244
45	0xbd049a75	-0.032373864
46	0x3d982eff	0.07430839
47	0xbdd26d01	-0.10274697
48	0xbd389020	-0.045059323
49	0xbdc734c8	-0.09726864
50	0x3ce80bd5	0.028325954
51	0x3dbb8bab	0.09157499
52	0xbde97d6a	-0.11400874
53	0x3d6574e1	0.056019668
54	0xbdbdbb1e	-0.092642054
55	0x3dc6326c	0.09677586
56	0x3e028d50	0.12749219
57	0x3c820da3	0.015875643
58	0xbdab1a23	-0.083545946
59	0xbc1b528d	-0.009480131
60	0x3df40f3e	0.1191697
61	0xbd08c96c	-0.033395216
62	0xbdf373f2	-0.11887349
63	0xbd17cffa	-0.037063576

nonreduce1_1.weight f4 [32, 64, 3, 3, 3]
0	0x3c8fd256	0.01755635
1	0xbbada1f8	-0.005298849
2	0x3ce2bd02	0.027678017
3	0xbc573649	-0.013135501
4	0x3cc1d7d7	0.02366249
5	0x3abd9d09	0.0014466356
6	0x3c84371f	0.016139565
7	0x3a5d4bb6	0.0008441763
8	0xba115eb3	-0.00055454223
9	0x3cab1cd4	0.02088777
10	0xbb6fd511	-0.0036595503
11	0x3cd6a544	0.026201852
12	0x3c9071ab	0.017632326
13	0x3c8b1808	0.016979232
14	0x3c68c24f	0.014206483
15	0x3c59f7c4	0.013303701
16	0xbc1d5083	-0.009601715
17	0x3cca0406	0.024660122
18	0xbc3f8632	-0.0116897095
19	0xbb651ef0	-0.0034961067
20	0x3c00be1b	0.007857825
21	0x3c820b34	0.015874483
22	0xbc42b874	-0.011884797
23	0x3d0551ba	0.032548644
24	0xbc663b68	-0.0140522495
25	0xbc9f75fd	-0.01946544
26	0x3d06dc9c	0.032925233
27	0x3b15825c	0.0022813296
28	0x3c1006fe	0.00879073
29	0x3d0dafa2	0.034591325
30	0x3c80b1d4	0.015709795
31	0x3b243a8e	0.0025059315
32	0x3d0157ee	0.031577997
33	0x3c67bef6	0.01414465
34	0x3937ece9	0.00017540496
35	0x3c5a8730	0.013337895
36	0x3c4c42f2	0.012467133
37	0x3d0c707e	0.03428697
38	0x3ba663ad	0.0050778002
39	0x3c80913a	0.01569425
40	0x3cfde14b	0.030991217
41	0x3ca9f487	0.020746483
42	0x3c8c923c	0.017159574
43	0x3c6bc538	0.014390282
44	0x3bc09e31	0.005878233
45	0xbba80a5a	-0.005128187
46	0xbba4ea1e	-0.0050327918
47	0x3bd38b1d	0.0064557926
48	0xbb833f54	-0.004005352
49	0xbc002bd1	-0.007822947
50	0xbbb315b7	-0.005465235
51	0xbbcdc2db	-0.006279332
52	0x3cfa23f0	0.030534714
53	0xbc27eb63	-0.010248992
54	0x3c938351	0.018006952
55	0xbb7577ab	-0.003745536
56	0xbcb2d9e6	-0.021832418
57	0x3b261acf	0.002534557
58	0xbca47689	-0.020076053
59	0x3bca7114	0.0061780307
60	0x3bd2725c	0.006422324
61	0xbcabf8e5	-0.020992706
62	0xbc6fc2bf	-0.014633833
63	0xbbfd48dd	-0.0077296332
64	0xbcc4a062	-0.024002258
65	0x3c8c11b5	0.017098287
66	0xbc595be7	-0.01326654
67	0x3bc9abf1	0.00615453
68	0x3c2b74ff	0.010464906
69	0xbbfc9c86	-0.0077090887
70	0x3c8238e3	0.015896266
71	0xbc742b72	-0.014902936
72	0xbbd43f7e	-0.0064772954
73	0xbc888f55	-0.016669909
74	0xbc3b0356	-0.01141437
75	0xbb60d612	-0.0034307283
76	0xbbd317d2	-0.0064420486
77	0xbc4f9192	-0.012668984
78	0xbbd1cdd6	-0.0064027114
79	0xbb9c418d	-0.0047685564
80	0x3b1f3be4	0.0024297172
81	0xbc520d15	-0.012820502
82	0xbbdf26c0	-0.0068100393
83	0xbcb19450	-0.021677166
84	0xbc77fa20	-0.015135318
85	0x3c99d4c2	0.018778209
86	0xbc0f40b8	-0.0087434575
87	0xbca18d30	-0.019720644
88	0xbbe68694	-0.007035086
89	0x3c832cf7	0.016012652
90	0x3bd68c41	0.0065474813
91	0x3ccb92b5	0.024850229
92	0xbc400d60	-0.011721939
93	0x3c88b2d0	0.016686827
94	0x3c414eed	0.0117986025
95	0xbacbd17b	-0.0015550101
96	0x3b704481	0.0036661925
97	0x3c97ce6c	0.018531047
98	0x3c870efa	0.016486634
99	0xbb8177bf	-0.0039510424
100	0x3c73a100	0.014869928
101	0xbcabc5b9	-0.020968305
102	0x3b32bada	0.0027272017
103	0x3b9ce3f4	0.0047879163
104	0x3cb8d56b	0.022562703
105	0x3bee3c5b	0.0072703785
106	0xbca9f30d	-0.020745778
107	0xb982fe70	-0.00024985103
108	0xbbab5352	-0.0052284384
109	0x3bd86265	0.0066035264
110	0xbc7eb885	-0.015546923
111	0xbaa03cef	-0.0012225191
112	0x3ba544e8	0.0050436147
113	0x3caa814b	0.020813605
114	0x3caee28b	0.021348258
115	0xbc9ca5d7	-0.019122047
116	0xbc86c1ef	-0.016449897
117	0xbada5130	-0.0016656276
118	0xbc2a06ba	-0.01037758
119	0xbc67d58c	-0.014150035
120	0x3ae9f5eb	0.0017849779
121	0xbc5bce6c	-0.013415914
122	0xbc22ce36	-0.00993686
123	0xbc5daa3e	-0.013529358
124	0x3c7c1584	0.015385989
125	0xbc96ec59	-0.018423246
126	0x3b138b22	0.002251335
127	0xbc564a5a	-0.01307925
128	0x3c4cb36b	0.012493948
129	0xbbdb3a1d	-0.0066902773
130	0x3cced10d	0.025246168
131	0x3bb39466	0.005480337
132	0x3d0a67e0	0.03379047
133	0xbc397ce2	-0.011321278
134	0x3cba782c	0.02276238
135	0xbc4d237e	-0.012520669
136	0xbc83abb5	-0.016073087
137	0x3caba081	0.020950558
138	0xbcb16c66	-0.021658134
139	0xbcacbd4f	-0.021086363
140	0x3ab0a9b4	0.001347831
141	0xbadf8bd1	-0.0017055218
142	0xbc02a1ff	-0.007973193
143	0xbc9cecda	-0.019155908
144	0x3abf7cec	0.0014609373
145	0x3c346591	0.011010543
146	0x3c807a86	0.015683424
147	0x3b630950	0.0034643002
148	0x3bf69a2f	0.0075257043
149	0xbc433433	-0.011914301
150	0xbc758f7e	-0.0149878245
151	0x3c42dce9	0.011893489
152	0x3ca603c2	0.020265464
153	0x3caed6e7	0.021342708
154	0xbc1ca584	-0.009560946
155	0x3cbbed26	0.02294023
156	0x3bde9564	0.006792711
157	0xbc83a842	-0.016071443
158	0xbb4af096	-0.0030966154
159	0xbc8c7f7e	-0.017150637
160	0x3c816d1c	0.015799098
161	0xbc9d3fbb	-0.019195428
162	0x3c4bc43a	0.012436921
163	0x3c9879cf	0.01861277
164	0x3c926b66	0.017873477
165	0x3d169244	0.036760584
166	0xbbcd5725	-0.006266492
167	0xbb35ca56	-0.002773901
168	0xbc09334e	-0.008374048
169	0xbb86d4ed	-0.004114738
170	0xbabe07df	-0.0014498195
171	0x3c21753a	0.009854609
172	0x3d24ad34	0.040204242
173	0x3c0b4c90	0.008502141
174	0x3ccb8ada	0.024846483
175	0x3c95402e	0.01821908
176	0x3b8664f9	0.0041013923
177	0x3cdd63e8	0.027025178
178	0xbbb0d94a	-0.0053969966
179	0x3d242652	0.040075608
180	0x3d1b966a	0.037985243
181	0x3b3a03fc	0.0028383723
182	0x3b150122	0.002273627
183	0x3d386716	0.045020185
184	0x3bd61ffc	0.0065345746
185	0x3d4352b6	0.0476863
186	0x3cd10c38	0.025518522
187	0x3c997e68	0.018737033
188	0x3c9aee35	0.018912414
189	0x3c645ce2	0.013938161
190	0xbc986d4e	-0.018606808
191	0x3c9d052c	0.019167505
192	0x3bbc5fff	0.0057487483
193	0xbc9aa0a7	-0.018875433
194	0x3cae3563	0.021265691
195	0xbc42886d	-0.011873347
196	0xbb252e79	-0.0025204702
197	0xbc99de09	-0.018782632
198	0x3a916bd0	0.0011094753
199	0xbaf9fbb0	-0.0019072201
200	0x3c2029b3	0.009775567
201	0x3c1667b6	0.00918
202	0x3c440709	0.011964568
203	0xbc71dbbd	-0.014761862
204	0x3c93b26a	0.01802941
205	0xbc5a58c7	-0.01332683
206	0x3c9fc743	0.019504195
207	0x3c3a5e3d	0.011375007
208	0x3bef46f9	0.007302162
209	0x3c622f0e	0.013805164
210	0x3adff0ac	0.0017085276
211	0xbc663455	-0.014050563
212	0xbc839ac5	-0.01606501
213	0x3b42bd0d	0.0029714734
214	0xbc8b480d	-0.01700213
215	0x3c95db92	0.018293176
216	0x3c7d4860	0.01545915
217	0x3bc8043b	0.00610402
218	0xbc9f6ee2	-0.019462053
219	0x3ca45f0b	0.020064851
220	0xbbe1a25a	-0.006885809
221	0x3cc3d26d	0.02390405
222	0x3c8f2652	0.017474327
223	0x3ca97466	0.020685386
224	0x3bf8c03d	0.007591276
225	0x3c03d8fc	0.008047339
226	0xba10665c	-0.0005508417
227	0x3c22f634	0.009946395
228	0x3ccd27d2	0.025043402
229	0xbc17efab	-0.00927345
230	0x3b2fcc40	0.0026824623
231	0xbc7158e6	-0.014730668
232	0x3b95bacd	0.0045693875
233	0xbc76409e	-0.015030054
234	0xbb0233e7	-0.0019867362
235	0xbc75007b	-0.014953728
236	0xbc6fd926	-0.014639175
237	0xbb93d8e4	-0.0045119394
238	0xbc7ccbf5	-0.0154294865
239	0x39de61b3	0.0004241593
240	0x3bc4c407	0.0060048136
241	0x3cc4c6b2	0.024020527
242	0x3c81d699	0.015849398
243	0x3c824d66	0.015906047
244	0x3cbc174b	0.022960326
245	0x3c9ec840	0.019382596
246	0xbc1eba61	-0.009687991
247	0x3cca635d	0.024705583
248	0xbb9b001f	-0.004730239
249	0xbbda40ba	-0.006660548
250	0x3bd0f6bc	0.0063770693
251	0x3ca3666f	0.019946305
252	0x3a8fafd4	0.0010962435
253	0x3c332980	0.010935187
254	0xbc6d0640	-0.014466822
255	0x3cb93756	0.022609394

nonreduce1_1.bias f4 [32]
0	0x3c09a00f	0.008399977
1	0x3a953b36	0.0011385444
2	0x3bc2d6c8	0.005946014
3	0x3cd3c685	0.025851497
4	0x3c4d1b5b	0.012518729
5	0x3b896687	0.0041931304
6	0xbccb638f	-0.024827747
7	0xbbf4ec7d	-0.0074744807
8	0xbc5fec3c	-0.0136671625
9	0x3c4762fa	0.012169594
10	0x3ca5bd50	0.020231873
11	0xbcb72de9	-0.022360759
12	0x3bf94ed3	0.0076082735
13	0x3cc66620	0.024218619
14	0x3c0cc6b8	0.0085923
15	0x3b52b113	0.0032149001
16	0x3b98937a	0.0046562525
17	0x3c2c1f5b	0.010505523
18	0x3c523944	0.012831036
19	0xbc827796	-0.015926164
20	0xbcb95096	-0.022621434
21	0xbc006891	-0.007837431
22	0x3bdf0109	0.0068055433
23	0xbaf1404c	-0.0018406003
24	0x3c801fb9	0.015640127
25	0xbb76f946	-0.00376852
26	0xbc0f78be	-0.0087568145
27	0x39c3c8de	0.00037342956
28	0xbc9c06d5	-0.019046227
29	0x3c6da50f	0.014504685
30	0x3cabd886	0.02097727
31	0x3aeca95d	0.0018055845

nonreduce1_2.weight f4 [32, 32, 3, 3, 3]
0	0xbc8fe573	-0.017565465
1	0x3b986776	0.0046510054
2	0xbbe364c1	-0.006939501
3	0xbbf6a134	-0.007526541
4	0xbb02ed5d	-0.0019977905
5	0xbc19d9aa	-0.009390274
6	0x3d0c738e	0.03428989
7	0xbcb87b88	-0.022519842
8	0x3d0604b1	0.032719318
9	0x3c8fe98d	0.01756742
10	0xbbdca6e7	-0.0067337635
11	0x3c9af292	0.018914495
12	0xbc5d733e	-0.013516245
13	0x3c010ef4	0.0078771
14	0xbaeb6513	-0.00179592
15	0xbbb950ec	-0.0056553986
16	0x3c590539	0.013245874
17	0xbb85d23b	-0.0040838993
18	0xbce65955	-0.028118769
19	0x3c00f66b	0.007871251
20	0x3d027035	0.03184529
21	0xbca6117a	-0.020272005
22	0x3c89eb51	0.01683584
23	0xbb6acb40	-0.0035826713
24	0xbc5b524e	-0.013386322
25	0xbc62f69f	-0.013852744
26	0xbc8015ec	-0.015635453
27	0xbab1118a	-0.0013509255
28	0x3c341aeb	0.010992746
29	0x3bf5d2e9	0.007501949
30	0x3ba6df5c	0.0050925445
31	0x3b5d51b5	0.0033770625
32	0x3ca960af	0.020675985
33	0x3d12a689	0.03580335
34	0x3c9f9191	0.019478591
35	0xbc4e0f2b	-0.0125768585
36	0xbbd13317	-0.006384264
37	0xbc9118ee	-0.017712083
38	0xbc362eef	-0.011119588
39	0x3caab897	0.020839972
40	0xbcd1ed77	-0.025625927
41	0x3d225e9c	0.039641008
42	0xbcb00ac7	-0.021489514
43	0x3c340568	0.010987617
44	0x3b59f8ca	0.0033259862
45	0x3c7ca05e	0.015419094
46	0x3ad88978	0.0016520461
47	0xbcbe5d73	-0.02323792
48	0x3d25f4a1	0.0405165
49	0xbcbc844f	-0.023012308
50	0x3d1bbe5d	0.03802334
51	0xbc06c32a	-0.008225242
52	0xbc86a9ac	-0.016438328
53	0x3c26803f	0.010162412
54	0x3cad5252	0.021157417
55	0x3cb13900	0.021633625
56	0x3c67222c	0.014107268
57	0xbb2fe5c9	-0.0026839843
58	0xbd0a587b	-0.033775788
59	0xbb8e33a3	-0.0043396517
60	0x3d038408	0.032108337
61	0xbcd98c21	-0.026556076
62	0xbcbc2ea6	-0.022971462
63	0x3c365594	0.011128802
64	0xbaa5d5f1	-0.001265226
65	0xbb372c16	-0.0027949861
66	0xbc27a1d8	-0.010231458
67	0x3c2a8c57	0.010409436
68	0xbc7926a9	-0.015206971
69	0xbc4f54d4	-0.012654502
70	0xbc9fb860	-0.019497097
71	0xbd0c7ca0	-0.03429854
72	0xbbf64265	-0.007515239
73	0xbcba1341	-0.02271426
74	0xbc066472	-0.008202659
75	0xbbba271b	-0.0056809313
76	0xbb5fc117	-0.003414219
77	0x3c3d09fc	0.011538025
78	0xbcfb0740	-0.030643106
79	0x3c7f378f	0.015577211
80	0xbcacdf9b	-0.021102717
81	0xbbcad47c	-0.006189881
82	0xbad1c2c3	-0.0016003478
83	0xbc8191e6	-0.01581664
84	0x3c1b3f8a	0.009475598
85	0xbd01ffe8	-0.03173819
86	0x3d0cc718	0.034369558
87	0xbcdea256	-0.027177017
88	0xbce43653	-0.027857935
89	0xbce16135	-0.027512172
90	0xbba2a676	-0.0049636913
91	0x3b026a8b	0.001989993
92	0x3c8a09e6	0.016850423
93	0xbd020635	-0.0317442
94	0xbbbed514	-0.0058237407
95	0xbc801b78	-0.015638098
96	0x3ca8ff8b	0.020629665
97	0x3d0bfd3c	0.03417705
98	0x3c6591c4	0.014011804
99	0x3cc20d7e	0.023688074
100	0x3ba60442	0.0050664255
101	0xbbf05767	-0.007334638
102	0xbc95b232	-0.018273447
103	0x3c5cd582	0.013478639
104	0xbc2b8fd3	-0.010471302
105	0x3bc41776	0.005984242
106	0xbc6f5ff2	-0.0146102775
107	0x3ce3ae56	0.02779309
108	0xbcf28321	-0.029603543
109	0xbc9da851	-0.019245299
110	0xbce37d3e	-0.027769681
111	0xbcdfa8b2	-0.02730212
112	0xbc2b40c8	-0.010452457
113	0x3b9664c6	0.00458965
114	0xbc363c08	-0.011122711
115	0x3be540bb	0.006996242
116	0x3d0b1bf7	0.033962216
117	0xbcf3fc7f	-0.029783485
118	0x397a4f62	0.0002387143
119	0xbcc9f072	-0.024650786
120	0x3bbc73ab	0.0057510934
121	0x3cb06452	0.021532211
122	0xbb99909f	-0.0046864296
123	0x3c4343e8	0.011918046
124	0x3c5ee1a0	0.013603598
125	0xbb726170	-0.0036984347
126	0xbca1fb9d	-0.019773299
127	0x3ce8ed8f	0.02843359
128	0xbbe3222c	-0.006931564
129	0xbca14a24	-0.019688673
130	0x3bc1702c	0.0059032645
131	0xbbc1d365	-0.005915093
132	0x3c22ad63	0.009929034
133	0x3cbfdd9f	0.023421107
134	0x3b7524ef	0.0037406047
135	0x3b0b2de0	0.002123706
136	0xbb439e00	-0.0029848814
137	0x3c2ae603	0.010430816
138	0xbcf537b0	-0.02993378
139	0x3cade88b	0.02122905
140	0x3c199bf6	0.009375563
141	0xba76b39f	-0.0009410921
142	0x3a8e32bb	0.0010848859
143	0xbccc112a	-0.024910528
144	0xba5d7acf	-0.0008448781
145	0x39aaa706	0.0003254937
146	0x3cdcdc9f	0.02696067
147	0x3ce82ef4	0.028342701
148	0x3cea1dee	0.028578725
149	0x3cfac995	0.0306137
150	0x3d08f683	0.033438217
151	0x3cd25032	0.025673006
152	0xbc29e877	-0.010370365
153	0x3d0c3ea9	0.034239445
154	0xbbad2f73	-0.0052851974
155	0x3aa1fe2b	0.0012359073
156	0x3b4bceb8	0.0031098556
157	0xbc805697	-0.01566629
158	0xbba4b0a4	-0.00502594
159	0xbcd22464	-0.025652118
160	0x3ce51c91	0.027967723
161	0xbb0d1b0e	-0.0021531018
162	0x38a4635f	7.838639e-05
163	0xbb22112a	-0.002472947
164	0xbc91ba5d	-0.01778906
165	0xbcb0805f	-0.021545587
166	0x3bb269cc	0.005444741
167	0x39a141f4	0.00030757452
168	0xbb3fdefd	-0.0029277198
169	0x3cfd43b3	0.03091607
170	0xbd09a154	-0.03360112
171	0x3c0a2edf	0.0084340265
172	0x3c9f897c	0.019474737
173	0xbc98853b	-0.018618217
174	0xbcff9060	-0.031196773
175	0xbc9e2a46	-0.019307267
176	0x3c0b2fe2	0.008495303
177	0x3cf2b7a1	0.029628577
178	0xbb51f784	-0.00320384
179	0xbb75ee9b	-0.0037526253
180	0xbcc6b3d5	-0.024255672
181	0x3b210e67	0.0024575235
182	0x3c5c3c9e	0.013442187
183	0x3c34c50f	0.011033311
184	0xbcc1059e	-0.023562249
185	0xbc22d178	-0.009937637
186	0x3cc46159	0.0239722
187	0x3caca5ae	0.021075096
188	0x3c3c2b06	0.011484867
189	0xbae2819d	-0.0017281059
190	0xbb4200f1	-0.0029602612
191	0xbcce7d8e	-0.025206354
192	0x3c9d46fe	0.01919889
193	0xbb11f5ae	-0.002227168
194	0xbcf488a0	-0.029850304
195	0x3c0df0e9	0.0086633945
196	0x3d0d18a7	0.03444734
197	0xbc947455	-0.018121878
198	0x3b4b40cf	0.003101397
199	0xbcfb0ebc	-0.030646674
200	0xbcb5d133	-0.02219448
201	0x3c9c1dd3	0.01905719
202	0x3b78e5d2	0.003797878
203	0xbca0e36c	-0.019639693
204	0xbc08f09f	-0.00835815
205	0x3c5a42bd	0.013321576
206	0x3d036195	0.032075483
207	0x3ca67240	0.02031815
208	0x3ccb4420	0.024812758
209	0xbc12c0dd	-0.008957115
210	0x3cf1ba4d	0.02950778
211	0x3bcccba1	0.0062498604
212	0x3c006a06	0.007837778
213	0xbc10a1f1	-0.008827672
214	0xbcc0e10b	-0.023544809
215	0x3cfe429e	0.031037625
216	0xbc7b66bf	-0.015344321
217	0x3c82ef9b	0.015983393
218	0xbcb139fa	-0.02163409
219	0x3c9c558a	0.019083757
220	0xbb5001bd	-0.0031739317
221	0x3cacc980	0.021092176
222	0x3bb2bcd6	0.00545464
223	0x3d08e2ac	0.033419296
224	0x3c8031b1	0.015648695
225	0xbbc9ed7d	-0.006162344
226	0xbcff4b27	-0.031163765
227	0x3cd77818	0.026302382
228	0x3b144087	0.002262147
229	0x3ca2c75a	0.019870449
230	0x3d04102d	0.03224199
231	0xbc826a6c	-0.015919887
232	0xbc36d5de	-0.011159388
233	0xb9897ccf	-0.00026223666
234	0xbcd2494c	-0.025669716
235	0x3cd891b0	0.026436657
236	0xbb695d34	-0.0035608532
237	0x3c2a9f38	0.010413937
238	0x3c5e92f3	0.01358484
239	0xbc4ff0df	-0.0126917055
240	0x3c7af180	0.015316367
241	0xbcd93c00	-0.026517868
242	0xbc4f74e8	-0.01266215
243	0x3cad03db	0.021120002
244	0x3cb7cd20	0.022436678
245	0x3aaa0272	0.00129707
246	0xbbcfbf19	-0.0063399193
247	0xbc8aeb3a	-0.016957868
248	0x3b00ec1e	0.0019671987
249	0x3ccf6058	0.025314495
250	0x3c891dc6	0.01673783
251	0xbcc8906c	-0.024482928
252	0x3c0350d9	0.008014881
253	0xbd04bdea	-0.03240768
254	0xbcae55a8	-0.021281078
255	0xbcd4fd0c	-0.025999568

nonreduce1_2.bias f4 [32]
0	0x3c37c425	0.011216198
1	0x3d0e2cbd	0.034710634
2	0xbd10d233	-0.03535671
3	0x3bfe9c39	0.007770088
4	0xbacdca9b	-0.001570064
5	0x3d049741	0.03237081
6	0xbae39c90	-0.0017365385
7	0xbc439757	-0.011937938
8	0xbcc8ec27	-0.024526669
9	0xbbcc13e6	-0.006227958
10	0xba6c2c3d	-0.00090092776
11	0x3ca4cab7	0.020116193
12	0xbcbd981d	-0.023143822
13	0xbc25656a	-0.01009498
14	0x3cb48e67	0.022040559
15	0xbcca99be	-0.024731513
16	0xbcd51e9f	-0.026015578
17	0xbb2d4454	-0.0026438432
18	0x3bd14907	0.0063868794
19	0x3cb4873c	0.022037141
20	0xbbd7f5bc	-0.006590573
21	0xbc3a26bc	-0.011361774
22	0x3bdcd54d	0.0067392946
23	0x3cf592dd	0.029977256
24	0xbceca104	-0.028885372
25	0x3c25c1a1	0.0101169655
26	0x3ceb0c52	0.028692398
27	0xbc4b24f8	-0.012398951
28	0x3cb2d811	0.021831544
29	0xbc4d4660	-0.012528986
30	0x3c1bff81	0.009521366
31	0xbbc267d2	-0.0059327865

nonreduce1_3.weight f4 [32, 32, 3, 3, 3]
0	0x3b4fe6ec	0.0031723334
1	0x398c29ab	0.00026733926
2	0x3c780b4b	0.015139411
3	0x3c6075cc	0.01369996
4	0x3b62e38c	0.0034620492
5	0x3b96068b	0.0045784167
6	0x3ce80e17	0.028327031
7	0xbc90fb37	-0.017697914
8	0x3ce5d07f	0.02805352
9	0x3cf68f2f	0.030097572
10	0xbc15baed	-0.009138805
11	0x3c57d3e1	0.013173074
12	0xbca1cf17	-0.019752068
13	0x3bd231c8	0.006414626
14	0x3cd5d165	0.026100824
15	0xbbf57ce8	-0.0074916966
16	0x3bf936ba	0.007605401
17	0xbd048db2	-0.032361694
18	0x3c5a9b1a	0.013342643
19	0x3cacfd5c	0.021116905
20	0x3d0be460	0.034153342
21	0x3c13d73d	0.009023485
22	0xbc1a3e0a	-0.009414205
23	0xbd040ae4	-0.03223695
24	0x3c49afb9	0.012309962
25	0xbc3e029f	-0.011597305
26	0xbcd0e5d1	-0.02550021
27	0x3ce60a55	0.028081099
28	0x3c9b117c	0.018929236
29	0xbc25115c	-0.01007494
30	0xbc3f0beb	-0.011660556
31	0xbce126bc	-0.02748429
32	0x3d00ce57	0.03144678
33	0x3cf04625	0.029330323
34	0xbb66a876	-0.0035195625
35	0xbcddea15	-0.027089158
36	0x3cb20d60	0.021734893
37	0x3cc34e1b	0.023840955
38	0xbb936b5e	-0.004498883
39	0xbcfb1823	-0.030651158
40	0xbcdd6e26	-0.027030062
41	0x3cfbd0e1	0.03073925
42	0x3c4ddf83	0.012565496
43	0xbc8c3e94	-0.017119683
44	0x3d055fcd	0.032562066
45	0xbc9f487e	-0.019443747
46	0x3b931701	0.0044888263
47	0x3c86df36	0.016463857
48	0x3cd82032	0.02638254
49	0xbcc20120	-0.023682177
50	0xbc91a4d9	-0.0177788
51	0xbcafaa65	-0.021443555
52	0xbc986a63	-0.018605417
53	0x3c1bc150	0.0095065385
54	0xbceca65d	-0.028887922
55	0x3c318801	0.0108356485
56	0xbc957b26	-0.018247198
57	0x3ceedf09	0.029159086
58	0x3caf5e07	0.02140714
59	0x3bf7496e	0.0075465953
60	0xbc8558a0	-0.016277611
61	0x3d087603	0.03331567
62	0x3c228cea	0.009921292
63	0x3c69ce73	0.014270413
64	0xbcc4282e	-0.02394494
65	0x3c89f57a	0.016840685
66	0xbce35904	-0.027752407
67	0xbbb1040f	-0.005402095
68	0x3d04d5be	0.032430403
69	0xbcbdbf2f	-0.023162453
70	0xbc14f051	-0.009090499
71	0xbb10b0a5	-0.0022077945
72	0xbca4b3ec	-0.020105325
73	0xbc08a95e	-0.0083411615
74	0xbc9472ce	-0.01812115
75	0xbc9286de	-0.017886575
76	0xbc18b3dc	-0.009320226
77	0xbc7b0089	-0.015319952
78	0x3d064719	0.032782648
79	0xbca3ea3d	-0.020009154
80	0x3caaa776	0.020831805
81	0xbc375294	-0.011189122
82	0xbc584fa4	-0.013202582
83	0xbb0949b7	-0.0020948478
84	0x3cac896d	0.021061623
85	0x3ccadd00	0.024763584
86	0xbccf45b8	-0.0253018
87	0xbcae40c7	-0.021271123
88	0xbcba63f0	-0.022752732
89	0xbaa6d8e8	-0.0012729438
90	0xbc81bafb	-0.01583623
91	0xbc087db8	-0.008330755
92	0xbc70a657	-0.014688096
93	0x3bc9c0a1	0.0061569964
94	0x3c1691a3	0.009189996
95	0xbcd9c34f	-0.026582388
96	0xbcde6d58	-0.027151749
97	0xbcf40edb	-0.02979224
98	0xbb1e0192	-0.0024109823
99	0xbc6c53b9	-0.014424258
100	0xbcd84290	-0.026398927
101	0x3d016661	0.031591777
102	0x3c51aeee	0.012798054
103	0xbc801ed4	-0.0156397
104	0xbc045dfd	-0.008079049
105	0x3ca3189d	0.019909197
106	0x3cf9d17c	0.030495398
107	0x3ca0f4b0	0.019647926
108	0xbc41f04d	-0.011837077
109	0xbbd960a5	-0.0066338354
110	0x3c1bd382	0.009510877
111	0x3cdc602e	0.02690133
112	0xbc3e3d8e	-0.0116113555
113	0x3c912251	0.017716559
114	0x3d0f2968	0.034951597
115	0xbc6ecfc2	-0.0145759005
116	0x3c252a76	0.010080924
117	0x3cdbba2e	0.026822176
118	0x3a486275	0.0007644066
119	0x3b18a602	0.0023292308
120	0x3cddae4f	0.027060656
121	0xbc114a57	-0.008867822
122	0xbc431575	-0.011906971
123	0x3cdf0bb1	0.027227255
124	0x3d0b5b70	0.03402275
125	0xbb1d7934	-0.0024028542
126	0x3b279bee	0.002557512
127	0xbc8ddb68	-0.017316535
128	0x3cbc75b0	0.023005337
129	0xbbcdc123	-0.006279127
130	0x3ac0c61b	0.0014707478
131	0x3cafd2c1	0.0214628
132	0x3d04b202	0.032396324
133	0x3ba60ec8	0.00506768
134	0xbc0852d5	-0.00832053
135	0xbcd17d4e	-0.025572445
136	0xbb8b355a	-0.0042483034
137	0x3cc877cd	0.024471188
138	0xbd112027	-0.035431053
139	0x3b92d186	0.0044805435
140	0x3c15b063	0.009136292
141	0x3c85d77e	0.016338106
142	0xbc9c1635	-0.019053558
143	0xbc19471c	-0.009355333
144	0x3cae1b38	0.021253213
145	0xbc65c26c	-0.014023405
146	0xbc8bb821	-0.017055573
147	0xbcc7814a	-0.024353642
148	0xbd06b800	-0.03289032
149	0xbcf0ac8e	-0.029379155
150	0x3c9b2abe	0.01894128
151	0xbd0dbaaf	-0.034601863
152	0x3ce17d09	0.027525442
153	0x3bf0a72a	0.0073441463
154	0xbccf8cad	-0.025335634
155	0x3c51a6c8	0.012796111
156	0x3b16e011	0.0023021738
157	0x3bd14f5b	0.0063876337
158	0xbaff04aa	-0.0019456346
159	0x3c52dd1d	0.0128701
160	0x3c1b6edc	0.00948688
161	0x3cb2b5c2	0.021815185
162	0xbc3017f1	-0.010747896
163	0x3cb9c6c6	0.02267779
164	0x3ac09226	0.0014691993
165	0x3ce77798	0.028255269
166	0x3d085f01	0.033293728
167	0x3c62c827	0.013841665
168	0x3c60c2b0	0.013718292
169	0xbcfc02bc	-0.030763023
170	0x3c7c7a15	0.015409966
171	0x3ca77d88	0.0204456
172	0x3ca40831	0.020023437
173	0xbc2c63f3	-0.010521877
174	0x3baacbd0	0.0052122846
175	0xbb9e62ce	-0.004833556
176	0xbcb7fa78	-0.0224583
177	0x3a9b81b2	0.0011864214
178	0x3bf59e47	0.007495675
179	0xbcd85f34	-0.026412584
180	0xbab52163	-0.0013819154
181	0xbb72f146	-0.003707008
182	0xbc4d77ae	-0.012540741
183	0xbcbd2cc7	-0.02309264
184	0x3c6dd500	0.014516115
185	0x3cc618a1	0.024181666
186	0x3cf5a718	0.029986903
187	0x3be15f89	0.0068778438
188	0xbc7aa7f6	-0.015298834
189	0xbcc02865	-0.023456762
190	0x3cce20b1	0.025162073
191	0xbc57abb0	-0.013163492
192	0x3ca4ed71	0.020132752
193	0x3c51dffa	0.012809748
194	0x3c50aba7	0.012736238
195	0x3c83ba19	0.01607995
196	0xbd05ed1c	-0.03269683
197	0x3b3471dc	0.0027533686
198	0xbbddef0d	-0.006772882
199	0x3cfcdeab	0.030867895
200	0xbd0035e6	-0.0313014
201	0xbc1d7408	-0.009610184
202	0x3c8e0a79	0.017338978
203	0x3c1c2344	0.009529892
204	0x3bf80c91	0.0075698574
205	0xbd06fd9c	-0.032956704
206	0x3c9cf6c5	0.019160638
207	0xbcc66352	-0.024217281
208	0x3b890353	0.0041813045
209	0x3beeb62e	0.007284901
210	0x3cf7b894	0.03023938
211	0xbc512737	-0.012765697
212	0xbc8dd25c	-0.017312221
213	0x3c9c9aeb	0.01911684
214	0xbc1488d7	-0.009065828
215	0x3cc12131	0.023575397
216	0x3c1fca47	0.0097528165
217	0x3c38f0e3	0.011287901
218	0x3d0726c7	0.032995965
219	0xbbd0207e	-0.0063515296
220	0x3c8fa731	0.017535778
221	0x3cffc8d2	0.031223688
222	0x3c960fda	0.018318105
223	0x3cc0d73f	0.023540137
224	0x3caa5600	0.020792961
225	0xbbaaa401	-0.005207539
226	0x3d009a44	0.03139712
227	0x3ad055a2	0.0015894661
228	0x3d0b2606	0.03397181
229	0xbc8eb793	-0.01742152
230	0xbcfe6375	-0.031053284
231	0xba96b3b7	-0.0011497651
232	0x3ca33ea6	0.019927334
233	0xbc2ef34e	-0.010678126
234	0x3c4e5df1	0.01259564
235	0xbd06b791	-0.032889906
236	0xbcad7f96	-0.021179002
237	0x3cad712b	0.021172127
238	0xbc5cfcc9	-0.013488003
239	0x3c9b4a9f	0.01895648
240	0xbc8c9183	-0.01715923
241	0xbcdc3c23	-0.026884144
242	0xbc8a8343	-0.016908294
243	0x3cdb29be	0.026753303
244	0x3c2f8ed6	0.010715207
245	0x3be0e452	0.0068631554
246	0xbb3ac7d1	-0.0028500448
247	0xba364cc7	-0.000695419
248	0x3ce28e93	0.027655875
249	0x3cbef061	0.023307981
250	0x3bdfb471	0.00682693
251	0xbc1a0e14	-0.009402771
252	0x3a1620c5	0.0005726929
253	0x3cd70777	0.026248677
254	0x3d08d3db	0.033405166
255	0xbb94358e	-0.004522986

nonreduce1_3.bias f4 [32]
0	0x3bc6d9f9	0.006068465
1	0x3c5ac0ac	0.013351601
2	0x3d11fd37	0.035641875
3	0xbb971187	-0.0046102437
4	0xbcf53b20	-0.02993542
5	0x3bb2e348	0.005459223
6	0xbc0a9051	-0.008457259
7	0xbd10fa8d	-0.035395194
8	0x3c12d197	0.008961103
9	0xbbcbefb8	-0.006223645
10	0xbcbd2d74	-0.023092963
11	0x3bb6a392	0.0055736983
12	0x3c5d44b4	0.01350515
13	0xbc8d5da3	-0.017256564
14	0x3d010a87	0.03150418
15	0xbc8e81a0	-0.017395794
16	0x3c37cf53	0.011218864
17	0x3cad7f45	0.02117885
18	0x3c83afe3	0.01607508
19	0x3c987811	0.01861194
20	0xbcdc7934	-0.026913263
21	0x3c0d4c1a	0.008624101
22	0x3d01bd5c	0.031674728
23	0xbc487c75	-0.012236704
24	0x3cdf56b4	0.027263023
25	0x3c8cf5f4	0.017207123
26	0x3c985fb4	0.018600322
27	0x3c4b039f	0.012391
28	0x3ada7439	0.0016666717
29	0x3cea99d1	0.028637799
30	0xbcb8cc40	-0.022558331
31	0xbcf74bae	-0.030187454

reduce2.weight f4 [16, 32, 4, 4, 4]
0	0x3b182a78	0.0023218673
1	0xbc4d99a3	-0.012548837
2	0xbc676aa4	-0.014124546
3	0x3ca7dc00	0.020490646
4	0x3c80774c	0.015681885
5	0x3b58c06b	0.0033073674
6	0x3ad520cc	0.0016260385
7	0xbbee24eb	-0.0072675846
8	0xbb653388	-0.0034973342
9	0x3c6188e0	0.013765544
10	0x3c4957ce	0.012289001
11	0xbbf8304b	-0.0075741163
12	0x3c712a70	0.014719591
13	0x3baaf91c	0.0052176844
14	0x3c948ef8	0.018134579
15	0xbc75b2d6	-0.014996251
16	0xbad53c4f	-0.0016268584
17	0xbc13f5bf	-0.009030758
18	0xbc3e0fd3	-0.0116004525
19	0x3cbde747	0.02318157
20	0x39f4e185	0.00046707332
21	0xbbc86cbd	-0.0061164782
22	0xbbd85022	-0.0066013495
23	0xbc8b5eef	-0.017013041
24	0x3c2ea5aa	0.010659615
25	0x3bc60511	0.0060430844
26	0x3c4e7dd2	0.01260324
27	0xbc121b9d	-0.008917716
28	0x3bd56572	0.0065123374
29	0xbc4f5826	-0.012655294
30	0x3bb216c4	0.005434843
31	0xbc73a8ef	-0.01487182
32	0x3c87a9df	0.016560493
33	0x3c63a870	0.013895139
34	0xbc512caa	-0.012766996
35	0xbc0e96ac	-0.008702915
36	0xbc9730d1	-0.018455895
37	0xbc11be85	-0.008895521
38	0xbc46ddda	-0.0121378545
39	0xbc37d177	-0.011219374
40	0x3cb277a7	0.02178557
41	0x3caef96c	0.021359168
42	0x3c1a7b3f	0.009428798
43	0x3c2d7746	0.010587519
44	0xbc03b594	-0.008038897
45	0x3c4bb5d1	0.012433485
46	0xbca91ff6	-0.020645123
47	0x3c6bd5b7	0.014394215
48	0xbc542f17	-0.01295068
49	0xb96a5bcd	-0.00022350177
50	0x3bc40f9d	0.0059833066
51	0xbc356a76	-0.011072746
52	0xbca035bc	-0.019556873
53	0x3aae8b83	0.0013316724
54	0xbc16df04	-0.0092084445
55	0x3c8deafa	0.01732396
56	0xbb0058e8	-0.0019584242
57	0xbca96c6e	-0.020681586
58	0x3c3927bf	0.01130098
59	0x3c335725	0.01094607
60	0x3cbc789f	0.023006735
61	0x3cab006d	0.020874226
62	0xbca1bf1f	-0.019744454
63	0x3ca84cdf	0.020544467
64	0xbbd5cf36	-0.0065249456
65	0xbcae46e4	-0.021274038
66	0xbc2eace9	-0.010661342
67	0xbc76f0b3	-0.015072036
68	0xbc972a23	-0.01845271
69	0x3c07c750	0.008287266
70	0x3cb71130	0.022347063
71	0x3c16b6fb	0.009198899
72	0xbc13d6be	-0.0090233665
73	0xbc7e210d	-0.01551081
74	0x3c98154a	0.018564839
75	0xbc668197	-0.014068983
76	0x3c1f26b6	0.009713819
77	0xba0091f2	-0.000490456
78	0xbc72329e	-0.014782576
79	0x3ba6fdf4	0.0050961915
80	0x3c6103ca	0.013733814
81	0xbc4efeeb	-0.012634019
82	0xbc75f409	-0.015011796
83	0x3c718014	0.014740009
84	0x3b318047	0.0027084516
85	0xbba337bf	-0.0049810107
86	0xbc7541c4	-0.014969293
87	0x3bbb68a1	0.00571926
88	0x3c0753be	0.008259712
89	0x3c62304f	0.013805463
90	0xbca50ad0	-0.020146757
91	0xbbbaf011	-0.0057048877
92	0xbc19e9a4	-0.009394083
93	0x3cb1cd0f	0.021704225
94	0xbc4e2261	-0.012581439
95	0x3c872586	0.016497385
96	0xbc383243	-0.011242452
97	0x3ca0c069	0.019622998
98	0xbc08c228	-0.008347072
99	0xb9cff0a6	-0.00039661414
100	0x3c9efb1c	0.019406848
101	0xbca66ffa	-0.020317066
102	0x3c750696	0.0149551835
103	0xbc9641b9	-0.018341886
104	0xbc7d0fe0	-0.015445679
105	0xbc5b7943	-0.01339561
106	0x3beaea8c	0.0071690734
107	0x3c81e3ea	0.015855748
108	0x3b54c911	0.0032468478
109	0x3c979768	0.018504813
110	0xbc851564	-0.016245551
111	0x3c3b518e	0.011433018
112	0xbc9fd44f	-0.019510416
113	0xbc19042d	-0.0093393745
114	0x3abdce68	0.001448107
115	0xbc58c8f0	-0.013231501
116	0x3a27b92e	0.00063981384
117	0x3ca280b0	0.019836754
118	0x3b83fdc4	0.004028054
119	0x3c826f2d	0.015922153
120	0xb97e5cdc	-0.0002425792
121	0xbca7dfe8	-0.020492509
122	0xbbe6cdfd	-0.0070435987
123	0xbc92b4da	-0.017908502
124	0x3c44a469	0.012002089
125	0xbc3e4feb	-0.011615734
126	0xbca9b6d8	-0.02071707
127	0x3c16124c	0.009159636
128	0xbc69775b	-0.014249648
129	0xbc907041	-0.017631652
130	0x3c3b814e	0.011444403
131	0x3c6cd18e	0.014454259
132	0x3bfc00f0	0.0076905414
133	0x3b3c7d93	0.0028761372
134	0x3cbff0a5	0.023430178
135	0xbbf14372	-0.0073627764
136	0x3c89c09f	0.016815482
137	0x3cad9b66	0.021192264
138	0xbc6a74ba	-0.014310056
139	0x3c4f3165	0.012646054
140	0x3c8465ef	0.016161887
141	0x3c431ee7	0.011909223
142	0xbc174749	-0.009233304
143	0x3be407f9	0.006958958
144	0x3b3ec760	0.0029110536
145	0xbc5249e4	-0.012835
146	0xbc9c59ac	-0.019085728
147	0x3bf0da45	0.0073502385
148	0xba5b9588	-0.0008376469
149	0xbc429c6f	-0.011878117
150	0xb856ff7d	-5.1259518e-05
151	0xbb8e3368	-0.004339624
152	0x3b69e502	0.0035689478
153	0xbc506c76	-0.012721172
154	0x3bafffa5	0.0053710514
155	0xbc95c7e8	-0.0182838
156	0x3ad71bec	0.001641152
157	0x3b5881b2	0.0033036289
158	0xbc28b2f4	-0.010296572
159	0x3c20b90e	0.0098097455
160	0xbb2946ba	-0.002582951
161	0x3ca91d04	0.020643719
162	0xbc315e30	-0.010825679
163	0x3ca2bd4a	0.01986565
164	0xbc828530	-0.01593265
165	0x3bbaa7e6	0.0056962846
166	0x3c1c039f	0.009522348
167	0x3b0a7d89	0.0021131954
168	0xba95320b	-0.0011382712
169	0x3a8d3bce	0.001077527
170	0xbbf45a9f	-0.007457092
171	0x3a4ca185	0.00078060507
172	0xbb58ec6c	-0.0033099903
173	0x3cbe8fc2	0.023261908
174	0x3c67a01b	0.014137293
175	0x3c3d80ca	0.01156635
176	0x3cb05947	0.021526946
177	0xbbcc183f	-0.0062284763
178	0x3c144d96	0.009051701
179	0x3ba25e65	0.0049551004
180	0x3cab2680	0.020892382
181	0xbb8a94de	-0.004229172
182	0x3ca3277e	0.019916292
183	0xbc91108f	-0.017708091
184	0x3c948f4f	0.018134741
185	0xbc333b05	-0.010939364
186	0xbca7020c	-0.020386718
187	0x3c52e03c	0.012870844
188	0xbb0af954	-0.002120574
189	0x3c0faf06	0.008769756
190	0xbc060f9b	-0.008182432
191	0x3b8f2b0d	0.0043691457
192	0x3a0804f1	0.00051887246
193	0xbc89253a	-0.016741384
194	0x3c9697bb	0.018382898
195	0x3b3735f3	0.002795574
196	0x3c70be06	0.014693743
197	0x3c61b87a	0.013776893
198	0x3b225466	0.0024769544
199	0xbcad87f4	-0.021182992
200	0xbc959b71	-0.018262597
201	0x3c497834	0.012296725
202	0xbc8ced9d	-0.017203147
203	0x3c86fc02	0.016477589
204	0xbb77b5a5	-0.0037797478
205	0xba7ae8d9	-0.000957144
206	0x3b542446	0.0032370253
207	0x3a056389	0.0005088379
208	0x3b36a56f	0.0027869602
209	0x3cb3fe4d	0.021971846
210	0xbb3d3c6a	-0.002887512
211	0x3c23e6c3	0.010003748
212	0x3c5d865f	0.013520806
213	0x3c7dd20f	0.015491976
214	0x3c841f98	0.016128346
215	0x3b32f9f2	0.0027309624
216	0x3bb9bf8f	0.0056685875
217	0x3c932c3c	0.017965429
218	0x3c87a3c5	0.016557584
219	0x3c1ec211	0.009689824
220	0x3c5fa16e	0.013649328
221	0x3c770e34	0.01507907
222	0xbae316b3	-0.001732549
223	0xb99dbd49	-0.00030086402
224	0xbbeb0bb1	-0.0071730246
225	0x3c9d97f6	0.0192375
226	0xbc9eb12a	-0.019371588
227	0x3c1a683b	0.009424265
228	0x3c94ed35	0.018179515
229	0x3bdd0e59	0.006746095
230	0x3b791cf1	0.0038011635
231	0x3c2c99fb	0.010534759
232	0x3c7fd42a	0.015614549
233	0xbc337372	-0.010952817
234	0xbb90ec85	-0.0044227266
235	0x3b864506	0.0040975837
236	0x3ca79606	0.020457279
237	0x3c903271	0.017602177
238	0xbc0d6181	-0.008629204
239	0x3cb744e2	0.022371713
240	0xbc26248d	-0.01014055
241	0xbbd19fa7	-0.006397206
242	0xbca08cda	-0.019598413
243	0x3b689d03	0.0035493977
244	0xbb076c40	-0.0020663887
245	0xbb18377a	-0.0023226426
246	0xbc870aa3	-0.016484564
247	0x3c3a28f4	0.011362303
248	0x3c2d34fb	0.010571714
249	0xbca9c276	-0.020722609
250	0xbbb3988d	-0.005480832
251	0xb85a7e4c	-5.2092873e-05
252	0xbca66e8d	-0.020316387
253	0xbcb2ccf1	-0.02182624
254	0xbc76d71f	-0.015065937
255	0x3c14b5cb	0.009076546

reduce2.bias f4 [16]
0	0xbc6d2d18	-0.014476083
1	0xbc28f515	-0.010312338
2	0x3ca1dc96	0.019758504
3	0x3b75186e	0.0037398594
4	0x3c88d1c7	0.016701592
5	0x3b68d035	0.0035524492
6	0x3ae35c83	0.0017346296
7	0xb80955ca	-3.2743243e-05
8	0xbca4b635	-0.020106414
9	0x3c9d0513	0.019167459
10	0x3bf54b8b	0.007485812
11	0x3ba89f27	0.0051459256
12	0xbc340102	-0.010986568
13	0xbca8aa86	-0.020589124
14	0xbc888ba4	-0.016668148
15	0xbc6791f3	-0.014133918

nonreduce2_1.weight f4 [16, 16, 3, 3, 3]
0	0xbd3c9e08	-0.046049148
1	0x3d061cfe	0.032742493
2	0xbd0b70c4	-0.03404309
3	0xbc37c6b5	-0.011216809
4	0x3d2c4879	0.042061303
5	0x3d242fdd	0.04008471
6	0x3a0f0321	0.00054554833
7	0xbc8a8d3f	-0.016913055
8	0x3c110304	0.008850817
9	0xbca8a31a	-0.020585585
10	0x3d07337d	0.033008087
11	0x3cebde1d	0.028792435
12	0xbc29aa1b	-0.010355498
13	0x3d01b796	0.03166922
14	0xbc91cb95	-0.01779727
15	0xbc99993a	-0.018749822
16	0xbd283af0	-0.041071832
17	0xbd13b6f2	-0.036063142
18	0x3d0cc736	0.03436967
19	0x3d08a211	0.033357684
20	0x3c3ac056	0.0113983955
21	0x3d334f75	0.043776948
22	0x3d071171	0.032975618
23	0x3b9d549a	0.004801345
24	0x3d3d536e	0.046222143
25	0x3ce08336	0.027406316
26	0xbc9bc896	-0.019016545
27	0xbcb5f2cb	-0.0222105
28	0x3c9cf268	0.019158557
29	0x3c3ad222	0.011402639
30	0xbc403659	-0.0117317075
31	0x3b84a9ea	0.0040485756
32	0x3cda7856	0.026668709
33	0xbd1131e4	-0.03544797
34	0xbd14eba4	-0.036357537
35	0x3d4293e3	0.047504317
36	0xbd1bd6d3	-0.03804667
37	0x3c664072	0.014053451
38	0x3b8219c9	0.003970359
39	0xbd28c3ed	-0.041202474
40	0xbc1cf7bf	-0.009580552
41	0xbd3c57b8	-0.045982093
42	0xbc6cd825	-0.01445583
43	0x3cf2d1e4	0.0296411
44	0xbc7e94c2	-0.015538396
45	0x3d15df58	0.03658995
46	0x3d021213	0.03175552
47	0xbcff1f53	-0.031142866
48	0xbd27a5b8	-0.040929526
49	0xbc0a6a8a	-0.008448252
50	0xbc6e8f19	-0.014560484
51	0xbc27137b	-0.010197516
52	0xbc8252b9	-0.015908586
53	0xbd094ac2	-0.03351856
54	0x3d18e3fe	0.037326805
55	0x3bc212de	0.0059226593
56	0xbd21b62a	-0.039480366
57	0xbbeb9511	-0.007189401
58	0x3cf27fc8	0.029601946
59	0x3d2d7e91	0.04235703
60	0xbd084585	-0.033269424
61	0xbcba724c	-0.02275958
62	0xbcc603a3	-0.024171656
63	0x3cc400b2	0.023926113
64	0x3d41cf7a	0.047317006
65	0xbc2040f1	-0.009781108
66	0x3d2069e1	0.039163474
67	0xbd0e2619	-0.0347043
68	0xbae29d72	-0.0017289354
69	0x3be6af50	0.007039942
70	0xbd34ede5	-0.044172186
71	0x3caa2d21	0.020773472
72	0xbd35cdd4	-0.044385746
73	0x3c8630ec	0.01638075
74	0xbca23646	-0.01980127
75	0x3c9d8430	0.019228071
76	0x3d372094	0.044708803
77	0xbc8a75e2	-0.016901914
78	0x3d1ae4ae	0.037815742
79	0x3c1c99dd	0.009558168
80	0xbcb264ea	-0.021776635
81	0xbd2c4bae	-0.04206436
82	0xbc5985d0	-0.013276532
83	0xbb7dad16	-0.0038707904
84	0x3d1187ee	0.035530023
85	0x3cde2171	0.027115555
86	0xbca60606	-0.020266544
87	0xbcefd7ec	-0.029277764
88	0xbaea1fcc	-0.0017862259
89	0xbd3d3893	-0.04619653
90	0x3d26e83e	0.040748827
91	0x3c9bde03	0.019026762
92	0xbd1d7715	-0.038443644
93	0x3bcc1a1a	0.0062286975
94	0x3cb1bd29	0.021696644
95	0x3d0eae67	0.03483429
96	0xbc9fb5a7	-0.019495798
97	0xbc653741	-0.013990224
98	0x3d4352d3	0.04768641
99	0xbccbfb53	-0.024900114
100	0xbcedd2bc	-0.02903115
101	0xbb24a518	-0.0025122818
102	0xbd415229	-0.047197495
103	0xbd103491	-0.03520638
104	0xbad47580	-0.0016209334
105	0x3d0c8ef0	0.034316003
106	0xbcdd25d8	-0.026995584
107	0x3d129a67	0.03579178
108	0xbc53cc9d	-0.012927202
109	0x3bdcf6b6	0.0067432774
110	0x3cdab286	0.026696455
111	0xbbd117e1	-0.0063810204
112	0xbd101d43	-0.035184156
113	0x3be1ee0f	0.006894834
114	0x3ab271f2	0.0013614281
115	0xbc72bd36	-0.014815619
116	0x3d25ef89	0.04051164
117	0xbb3406df	-0.0027469916
118	0x3d40bc9b	0.04705487
119	0x3d255ac5	0.040369768
120	0xbccf554f	-0.025309233
121	0x3c1de554	0.009637196
122	0x3d0ec00d	0.034851123
123	0xbd21f732	-0.039542384
124	0xba6a7bbe	-0.00089448306
125	0xba1f9bac	-0.00060885656
126	0xbd25da6f	-0.040491518
127	0xbcce721f	-0.025200902
128	0x3d46d986	0.04854729
129	0xbceca5ef	-0.028887717
130	0xbc8c5f7c	-0.017135374
131	0xbd32e67c	-0.04367684
132	0xba1f2521	-0.0006070901
133	0xbcde84d3	-0.027162945
134	0x3cb85f63	0.022506421
135	0x3d102cc5	0.035198946
136	0x3d23890c	0.03992562
137	0x3c4fdf94	0.0126875825
138	0x3c0b8299	0.008515024
139	0xbd27d948	-0.0409787
140	0xbbf31f3a	-0.007419494
141	0xbcdea094	-0.027176179
142	0xbd2d6f98	-0.042342752
143	0xbb321ea5	-0.002717891
144	0xbc5f5762	-0.0136316735
145	0xbc00bed6	-0.007857999
146	0xbc66e4ce	-0.014092637
147	0x3cb69725	0.022288868
148	0x3ca27c99	0.019834803
149	0xbd28aa5b	-0.04117809
150	0xbd447e66	-0.047972105
151	0xbd3083f8	-0.043094605
152	0x3d137a04	0.036005035
153	0x3cd2d5d8	0.025736734
154	0x3c99f938	0.018795595
155	0xbb817b13	-0.003951439
156	0xbc91c7e9	-0.01779552
157	0x3d369b3c	0.044581637
158	0x3cf67574	0.030085303
159	0x3c0f2da9	0.008738914
160	0x3ce0509b	0.027382186
161	0x3cf2e6b5	0.029651025
162	0xbc4c2ade	-0.012461392
163	0x3d1ff163	0.039048564
164	0x3d343088	0.043991596
165	0x3ca635a0	0.020289242
166	0xbd0ef4a5	-0.03490128
167	0xbcc4ef42	-0.024039868
168	0x3d3e054e	0.046391778
169	0x3b7c93ed	0.003854032
170	0x3c841798	0.016124532
171	0xbd2e8ea0	-0.042616487
172	0xbd27ddc3	-0.040982973
173	0x3d28201d	0.04104625
174	0x3c07ff78	0.008300655
175	0x3d242b8f	0.040080603
176	0xbd2c8857	-0.04212221
177	0x3c19b3c4	0.009381238
178	0xbd00764f	-0.031362828
179	0x3d32a538	0.043614596
180	0x3d397738	0.04527971
181	0x3d122f64	0.035689726
182	0xbbbab5c5	-0.005697938
183	0xbce8da7a	-0.02842449
184	0xbcc4dc9b	-0.024030974
185	0x3bcc660f	0.0062377523
186	0xbb8b088c	-0.004242962
187	0xba55e1c2	-0.0008158946
188	0x3c63fb62	0.013914915
189	0x3d04810c	0.03234963
190	0x3cd77caa	0.026304562
191	0xbcf33523	-0.029688423
192	0xbc74d5c9	-0.0149435485
193	0xbd0c9f10	-0.03433138
194	0x3d1d90cb	0.038468163
195	0xbd0ed2a5	-0.034868855
196	0xbce9b56d	-0.028528893
197	0xbc7f340d	-0.015576375
198	0x3cc257af	0.023723451
199	0x3d322884	0.04349567
200	0x3b5b829d	0.00334946
201	0xbd14cfc4	-0.036330953
202	0x3cfc047c	0.030763857
203	0x3cec3c56	0.028837364
204	0x3c25da61	0.010122866
205	0x3d08308d	0.033249427
206	0xbcebebcf	-0.028798966
207	0xbba74ed4	-0.0051058326
208	0x3bbe4609	0.0058066887
209	0x3d23e780	0.040015697
210	0x3c206995	0.009790798
211	0x3d1a0ec9	0.037611756
212	0xbd210985	-0.03931572
213	0xbd13cc99	-0.03608379
214	0x3bb99467	0.005663443
215	0x3cf6de6a	0.030135352
216	0x3c925052	0.017860565
217	0xbd11e842	-0.03562189
218	0xbd324b5f	-0.04352891
219	0x3c3ad009	0.0114021385
220	0xbcf11b64	-0.029432006
221	0xbd0bf6f4	-0.03417106
222	0x3d425f1a	0.047453977
223	0x3d40ea63	0.04709853
224	0x3d015a08	0.03158
225	0x3c394c76	0.011309734
226	0x3c892ccc	0.016744994
227	0x3d341559	0.04396567
228	0xbcd9ee3f	-0.026602862
229	0xbbe9787a	-0.0071249576
230	0x3bcfbd91	0.0063397367
231	0x3d2d814f	0.042359646
232	0x3cacc850	0.02109161
233	0xbd115648	-0.035482675
234	0xbd26c7fc	-0.040718064
235	0x3ca940f6	0.020660859
236	0x3c9d0275	0.01916621
237	0xbc861f4c	-0.016372345
238	0xbc879bbe	-0.016553756
239	0x3cbce202	0.023056988
240	0x3b496463	0.003073
241	0xbd0c4ad2	-0.03425104
242	0xbc90e82d	-0.017688835
243	0x3d110689	0.035406623
244	0x3b52d9b1	0.0032173211
245	0x3cf56c8f	0.029958991
246	0x3a639f77	0.0008683125
247	0xbca13652	-0.019679222
248	0xbd10327a	-0.03520439
249	0xbd1ee1e7	-0.038789656
250	0x3cd42561	0.02589673
251	0x3ce4e593	0.0279415
252	0xbc8f7703	-0.017512804
253	0x3c6835ee	0.014173014
254	0xbc0d4ee3	-0.008624765
255	0xbbca087b	-0.0061655617

nonreduce2_1.bias f4 [16]
0	0x3c9ead3f	0.01936972
1	0x3d206aa5	0.039164204
2	0x3c5e3b90	0.0135640055
3	0x3cb74adc	0.022374563
4	0xbd1c32b7	-0.038134303
5	0x3c6a4898	0.014299534
6	0xbd17636c	-0.03696005
7	0xbd240754	-0.04004605
8	0xbd371dc1	-0.04470611
9	0x3c5caa0e	0.013468279
10	0x3d380296	0.04492434
11	0x3ccee797	0.025256915
12	0xbc3c2d48	-0.011485405
13	0x3cd3592a	0.025799353
14	0xbd0e0b22	-0.034678586
15	0x3bd37aea	0.0064538615
