02_deep3D/model/model_Be.pt (torch, 739878 bytes, 25 tensors)

reduce1.weight f4 [64, 1, 4, 4, 4]
0.09176184 -0.07637546 0.06859892 -0.049652655 -0.05690142 -0.07518241 0.09086747 -0.12120053
-0.085199684 0.022955516 0.120696045 0.079696216 -0.12200692 0.0041322242 0.079551466 0.03761849
0.02154312 -0.08164622 0.09938893 -0.12489402 0.03703214 0.11375944 0.045406215 -0.09537506
-0.040872093 0.09513584 -0.101248495 0.006932859 -0.060307372 0.027351728 0.046922922 0.049283333
0.0023339284 -0.03537905 -0.0748649 -0.049078062 -0.073795006 -0.060032126 -0.008535389 0.020742962
-0.07781875 0.07367764 0.044409785 0.030937448 -0.0028238373 -0.019192161 0.08725751 0.11806709
-0.05100907 -0.09388396 0.018814672 -0.012740843 0.047083862 -0.021066071 -0.08721762 -0.11594127
0.076342665 0.026832178 -0.02936419 0.026060645 -0.018781954 -0.02578031 -0.0046777073 -0.09818524
-0.07069248 0.07857623 0.09840551 0.070323944 -0.03942233 -0.05728772 -0.12266733 0.08917255
-0.06828267 -0.1174113 0.10996197 -0.03317714 0.117154285 0.062359028 0.056477424 0.03742569
0.10683617 0.083457515 0.08742724 0.044807732 -0.066758774 -0.039280724 -0.03860725 0.08508557
-0.0823793 -0.047442045 0.058531117 -0.13626075 -0.007687992 0.022416823 -0.090578504 -0.04954298
0.092135295 -0.101592995 -0.034744643 0.100554936 -0.0963468 0.026462233 -0.021808859 0.10730271
0.0065635787 -0.09494287 0.037503403 0.008669841 0.01607996 0.06896488 -0.03692716 0.0762242
0.046081945 0.008469867 0.09044763 0.06324173 -0.084107965 0.10595221 -0.038668565 0.08169091
-0.08074698 -0.049086016 -0.088878974 -0.060190782 0.03134818 -0.07057684 -0.034773447 0.040113587
-0.11395777 0.070345275 0.058630966 0.0727902 0.0598089 -0.08444496 -0.021161305 -0.018578686
0.06762285 -0.063714914 -0.018464923 0.03478038 0.03255081 0.113093585 0.040564016 0.063734956
0.055662565 0.053663325 -0.0610284 0.010104183 -0.10434752 -0.10523154 0.110985294 0.09034576
-0.016778614 -0.05434591 0.110065125 -0.013801361 0.10886035 -0.065529324 -0.12510677 0.001482798
-0.11259364 -0.013772052 -0.058276273 0.07759088 0.07880666 0.113981724 0.0017267022 0.07936736
-0.070934825 -0.08979131 -0.07358602 0.05851551 -0.038727984 0.122867525 -0.07571461 -0.10114068
0.09973448 -0.036145765 -0.017504513 -0.12467461 0.1074208 -0.07789257 -0.123780124 -0.037116256
0.02012172 -0.08256173 -0.0620197 0.0745737 0.12081205 0.09980148 -0.0675117 -0.057562523
0.007534289 -0.024430135 0.09093273 0.06178919 -0.1067886 0.08596499 0.02958495 0.015535876
-0.06955018 -0.013994348 -0.088647775 0.017801382 0.10819102 -0.042635344 -0.11150894 0.11250885
-0.08760543 0.06960152 -0.08474419 0.072901525 0.08263038 -0.11530673 -0.054351844 -0.10223375
-0.10733074 0.020046586 0.035839062 -0.03142192 -0.07517787 0.11282931 0.092710234 0.018915333
0.01840164 -0.107017994 -0.08813836 -0.01800095 0.056511663 0.031403754 0.038129717 -0.000101418904
0.02982913 0.08419786 6.1473824e-05 0.0519428 -0.10719222 -0.016472653 0.09917446 -0.12123951
-0.054031935 -0.09587887 0.069345415 0.021613967 0.06394725 -0.087125 -0.03810914 0.072199956
-0.059817836 -0.025369577 -0.124939136 0.006076063 -0.08211548 0.11329526 0.074150145 -0.086626045
00000000: a2ed bb3d bd6a 9cbd 977d 8c3d 9560 4bbd
00000010: 7711 69bd 3cf9 99bd b918 ba3d fc37 f8bd
00000020: 2c7d aebd 350d bc3c 7d2f f73d c537 a33d
00000030: c4de f9bd 9c67 873b e1eb a23d d915 1a3d
00000040: 327b b03c 2236 a7bd 6c8c cb3d 70c8 ffbd
00000050: 03af 173d b6fa e83d defb 393d 0054 c3bd
00000060: 7f69 27bd 94d6 c23d 5f5b cfbd 092d e33b
00000070: dd04 77bd bb10 e03c 4032 403d 52dd 493d
00000080: d2f4 183b 9fe9 10bd c552 99bd 1406 49bd
00000090: d621 97bd 3fe4 75bd 04d8 0bbc 25ed a93c
000000a0: 705f 9fbd 4de4 963d 09e7 353d 8870 fd3c
000000b0: 2110 39bb e138 9dbc 11b4 b23d 29cd f13d
000000c0: e3ee 50bd 3c46 c0bd 3a21 9a3c f8be 50bc
000000d0: 02db 403d c192 acbc 279f b2bd 9e72 edbd
000000e0: 8b59 9c3d 28cf db3c 2b8d f0bc 227d d53c
000000f0: 9ddc 99bc 3b31 d3bc 7447 99bb 5815 c9bd
00000100: 38c7 90bd 93ec a03d d488 c93d 0006 903d
00000110: 4f79 21bd 87a6 6abd 0239 fbbd 19a0 b63d
00000120: c9d7 8bbd 5675 f0bd be33 e13d c1e4 07bd
00000130: 96ee ef3d 2e6c 7f3d df54 673d ae4b 193d
00000140: eccc da3d c6eb aa3d 0e0d b33d 5088 373d
00000150: d3b8 88bd d3e4 20bd a322 1ebd 5841 ae3d
00000160: 7ab6 a8bd 9752 42bd 53be 6f3d f087 0bbe
00000170: 8deb fbbb 7ca3 b73c 3981 b9bd 94ed 4abd
00000180: 6eb1 bc3d fd0f d0bd 6650 0ebd bfef cd3d
00000190: 7951 c5bd 53c7 d83c 7ea8 b2bc 86c1 db3d
000001a0: 4a13 d73b 6871 c2bd 2b9d 193d f30b 0e3c
000001b0: 1fba 833c 763d 8d3d ef40 17bd 6f1b 9c3d
000001c0: 6cc0 3c3d 32c5 0a3c 9b3c b93d e184 813d
000001d0: cc40 acbd 79fd d83d ee62 1ebd 904d a73d
000001e0: ac5e a5bd 6b0e 49bd 2e06 b6bd 9c8a 76bd
000001f0: f366 003d 978a 90bd 9a6e 0ebd 254e 243d
00000200: b162 e9bd 2f11 903d 0627 703d 0713 953d
00000210: 2dfa 743d 7bf1 acbd 795a adbc 5432 98bc
00000220: d97d 8a3d f77c 82bd c043 97bc df75 0e3d
00000230: 0054 053d 9c9d e73d 7426 263d 7987 823d
00000240: 6efe 633d 13ce 5b3d eaf8 79bd 048c 253c
00000250: 27b4 d5bd a283 d7bd 424c e33d 3307 b93d
00000260: 4e73 89bc d199 5ebd d369 e13d 1b1f 62bc
00000270: 2df2 de3d 3d34 86bd fd1b 00be 725a c23a
00000280: 7f97 e6bd 2ca4 61bc 1ab3 6ebd f8e7 9e3d
00000290: 6365 a13d 406f e93d 8352 e23a 5b8b a23d
000002a0: 4746 91bd 82e4 b7bd 44b4 96bd f6ad 6f3d
000002b0: 3ca1 1ebd f8a1 fb3d 4310 9bbd d822 cfbd
000002c0: 9741 cc3d 950d 14bd a065 8fbc 6755 ffbd
000002d0: 70ff db3d 2486 9fbd 6f80 fdbd 3707 18bd
000002e0: 4ed6 a43c 2016 a9bd 5e08 7ebd 19ba 983d
000002f0: 4f6c f73d b864 cc3d 9343 8abd aec6 6bbd
00000300: 32e2 f63b b521 c8bc f03a ba3d a916 7d3d
00000310: fbb3 dabd 6a0e b03d 235c f23c 308a 7e3c
00000320: 5370 8ebd 8d48 65bc f78c b5bd 34d4 913c
00000330: 4193 dd3d 66a2 2ebd cd5e e4bd 0a6b e63d
00000340: 7a6a b3bd 3e8b 8e3d 5d8e adbd 654d 953d
00000350: 1e3a a93d ef25 ecbd 0aa0 5ebd ee5f d1bd
00000360: 38d0 dbbd bd38 a43c fbcb 123d 45b4 00bd
00000370: dbf6 99bd 0e13 e73d ddde bd3d 54f4 9a3c
00000380: 09bf 963c 402c dbbd e281 b4bd ba76 93bc
00000390: c678 673d 39a1 003d e82d 1c3d dcb0 d4b8
000003a0: 385c f43c ed6f ac3d 82eb 8038 f9c1 543d
000003b0: 9887 dbbd a8f1 86bc fb1b cb3d 6c4c f8bd
000003c0: 9750 5dbd 245c c4bd f804 8e3d c60f b13c
000003d0: c7f6 823d 986e b2bd 5418 1cbd 92dd 933d
000003e0: 8c03 75bd dcd3 cfbc 17e0 ffbd b619 c73b
000003f0: 292c a8bd 5807 e83d 08dc 973d ff68 b1bd

reduce1.bias f4 [64]
0.068053015 0.0025423672 0.07151504 -0.09025341 -0.039247014 -0.12020605 -0.029089699 -0.09717107
0.05846966 0.07596565 -0.06449257 -0.043564882 -0.026508715 -0.017844632 -0.054077823 -0.01011533
0.10196267 -0.08354295 -0.0030605197 0.08702653 0.053294927 0.02701551 -0.006572682 0.108530566
0.089729466 0.11260919 -0.015094655 0.018373126 0.1239045 0.022885025 0.0023488312 0.04594095
-0.08051906 0.036623836 -0.075247854 -0.07353259 0.12691168 0.10369294 -0.01770195 0.054119032
0.02454355 0.07201485 0.06727419 -0.07188231 0.022533888 0.0056272196 -0.08752379 0.088352785
-0.08152974 -0.09991858 -0.032032095 0.109119356 -0.09459074 0.07809817 -0.089309186 0.096249655
-0.08218538 0.08495964 -0.040884044 -0.043430865 0.10455237 0.10041969 0.025849972 0.00027892605
00000000: 615f 8b3d d89d 263b 7a76 923d c8d6 b8bd
00000010: 7ac1 20bd 972e f6bd 854d eebc a001 c7bd
00000020: e27d 6f3d e193 9b3d ae14 84bd 1771 32bd
00000030: ce28 d9bc e82e 92bc b580 5dbd c5ba 25bc
00000040: ced1 d03d 9118 abbd 0093 48bb f73a b23d
00000050: c84b 5a3d a14f dd3c a75f d7bb 4645 de3d
00000060: 15c4 b73d a69f e63d 924f 77bc 3d83 963c
00000070: a4c1 fd3d 6079 bb3c d9ee 193b 942c 3c3d
00000080: 2de7 a4bd e002 163d 8c1b 9abd 4198 96bd
00000090: 23f5 013e f75c d43d ae03 91bc ebab 5d3d
000000a0: 8e0f c93c 867c 933d 0dc7 893d 0837 93bd
000000b0: fd98 b83c 8a64 b83b ac3f b3bd 4ef2 b43d
000000c0: 10f9 a6bd 1da2 ccbd 1634 03bd f879 df3d
000000d0: cab8 c1bd eff1 9f3d bce7 b6bd 8a1e c53d
000000e0: cf50 a8bd 52ff ad3d 0776 27bd 90e4 31bd
000000f0: 8e1f d63d d7a8 cd3d 52c3 d33c d23c 9239

nonreduce1_1.weight f4 [32, 64, 3, 3, 3]
-0.0213195 -0.01898341 0.003457791 0.0067117093 0.010615077 0.006031877 0.0123696085 0.0064675324
-0.0135935815 -0.01071312 0.0033022682 -0.016211787 0.017424446 -0.015025146 0.01925491 0.0012163213
-0.0010251367 -0.0034150667 0.017163966 -0.012926621 -0.006842938 -0.008093674 -0.0027520792 -0.015567601
-0.014243279 0.01668091 0.009911082 0.030400401 0.017632524 0.031733304 0.014888628 0.015693275
-0.0072344877 0.0386299 0.017325822 0.016799413 0.0101489285 -0.0033093945 0.021379912 -0.008335432
-0.010697794 0.017526507 0.039873965 0.031168077 0.014165635 -0.003422397 0.0062676263 -0.007712685
-0.0022400054 0.0073911822 0.008432225 0.006843573 0.010004432 0.014421003 0.014789655 -0.004122522
-0.0035078495 -0.008405822 0.010066884 -0.0028377094 -0.0074002445 -0.008539383 -0.019031916 0.01982541
0.012915829 0.0025172858 0.018906187 -0.00096601277 -0.004399214 0.018395893 0.026819875 0.017140003
-0.004673475 0.014985919 0.0095330095 0.0086666485 -0.001573459 -0.015731856 -0.0075840354 -0.017897597
0.022039147 -0.014026275 -0.0097766 -0.0062802276 -0.020610621 -0.0064203828 0.014557367 -0.020106662
-0.00705525 0.017130362 -0.007074703 0.020116726 -0.006468403 0.026158623 -0.007919123 0.014404479
-0.014946427 -0.013798369 -0.0072859414 0.021737827 0.01519493 -0.012916888 0.009379912 0.008986463
0.013674873 -0.007303698 -0.0062663425 0.025628472 0.029942418 0.0029914454 0.063909814 0.008974312
0.02884818 0.040662903 0.04158926 0.04811103 0.06606054 0.010882791 0.019721704 0.04134244
0.010124689 0.014983244 0.061898764 0.023710715 0.0063953893 0.044867355 -0.002066943 0.037330985
0.05959918 0.02646558 0.04811042 0.073075 0.011217723 0.0069193672 0.034408584 0.011103409
0.00010808242 -0.008649605 -0.0041975663 -0.0081230635 -0.003574748 -0.011949563 0.017006593 0.011634779
-0.0075114435 -0.003030597 0.008418954 0.0070634647 0.025824476 -0.016585093 0.008043942 -0.017496627
0.009966069 0.018253626 0.020554587 0.011177679 -0.011823326 0.0035357892 0.016800845 0.014808488
-0.0076591894 -0.011874888 0.006021425 0.009604999 0.021168241 -0.008945018 -0.009381002 -0.013369933
0.0053323773 -0.01638731 0.012730709 0.020831155 0.017140549 0.0051573184 -0.018540623 0.0048827506
0.012298 0.006834612 -0.013226558 0.006234712 0.021115862 0.026343426 -0.0129230805 0.02538481
0.008598576 -0.015465537 0.025414705 -0.008471761 0.0030712103 0.018013889 0.016759353 -0.009687155
0.019011525 0.006457774 0.01426264 0.005967555 -0.009581575 0.00083553104 -0.0006835718 -0.017064143
0.023332542 -0.014779736 0.016023733 0.025016665 0.017840426 0.017485753 0.022752434 -0.0074739116
0.01906177 0.005629018 0.024085324 -0.015739053 0.009366144 -0.013583608 0.02639969 -0.016523011
-0.021137962 -0.00828584 0.009271926 0.007851536 0.023779102 -0.00037513964 -0.012789031 -0.014854699
-0.012590686 0.0010444778 -0.016615828 0.012654794 -0.0065501537 -0.019737553 0.022004321 -0.0043733846
-0.01461066 -0.019194076 0.021618007 0.023429472 -0.014947949 -0.0073760534 0.014808003 -0.006510412
0.007108195 0.019917712 0.004909644 0.009847663 -0.010168466 0.01831656 -0.0027535614 -0.020371586
-0.01699333 -0.010672567 0.0258853 0.023546742 -0.0014216385 0.023742154 0.017788824 0.0076143527
00000000: 3ba6 aebc 1983 9bbc 1b9c 623b e6ed db3b
00000010: dcea 2d3c 0da7 c53b e6a9 4a3c 98ed d33b
00000020: 9db7 5ebc 1586 2fbc de6a 583b 95ce 84bc
00000030: b6bd 8e3c 082c 76bc 79bc 9d3c f86c 9f3a
00000040: e15d 86ba 50cf 5fbb 729b 8c3c 2eca 53bc
00000050: b93a e0bb 549b 04bc 3a5c 34bb 400f 7fbc
00000060: a45c 69bc 67a6 883c 1762 223c 430a f93c
00000070: 1572 903c c8fa 013d 6fef 733c 2f8f 803c
00000080: 480f edbb 633a 1e3d e2ee 8d3c ec9e 893c
00000090: b147 263c 6de2 58bb ed24 af3c 5691 08bc
000000a0: cd45 2fbc c093 8f3c e252 233d 3254 ff3c
000000b0: fb16 683c 4b4a 60bb a960 cd3b b1ba fcbb
000000c0: 0ecd 12bb bb31 f23b 5127 0a3c 0d40 e03b
000000d0: a1e9 233c 1246 6c3c 4f50 723c 3916 87bb
000000e0: f3e3 65bb 93b8 09bc 92ef 243c ddf8 39bb
000000f0: c07d f2bb c5e8 0bbc d2e8 9bbc e668 a23c
00000100: ea9c 533c 0cf9 243b 26e1 9a3c 053c 7dba
00000110: 4827 90bb fcb2 963c 5bb5 db3c 3169 8c3c
00000120: f323 99bb 8087 753c 5730 1c3c 8ffe 0d3c
00000130: 863c ceba 18e0 80bc 8083 f8bb fb9d 92bc
00000140: 718b b43c 76ce 65bc 082e 20bc 5eca cdbb
00000150: 9bd7 a8bc 1362 d2bb 0682 6e3c bab6 a4bc
00000160: ba2f e7bb f954 8c3c e9d2 e7bb d5cb a43c
00000170: e6f4 d3bb 9c4a d63c 36bf 01bc c400 6c3c
00000180: dce1 74bc 8e12 62bc e8be eebb 8713 b23c
00000190: 28f4 783c 5ba1 53bc 34ae 193c f53b 133c
000001a0: 930c 603c dc53 efbb e455 cdbb cdf2 d13c
000001b0: cd49 f53c 200c 443b 26e3 823d fe08 133c
000001c0: 0553 ec3c 258e 263d 8059 2a3d 1210 453d
000001d0: c04a 873d bc4d 323c 698f a13c b156 293d
000001e0: 06e2 253c 487c 753c 8f89 7d3d f93c c23c
000001f0: 6a90 d13b d5c6 373d 8d75 07bb 60e8 183d
00000200: 451e 743d 58ce d83c 6f0f 453d 58a8 953d
00000210: 8aca 373c dcbb e23b 04f0 0c3d 13eb 353c
00000220: 4faa e238 13b7 0dbc bd8b 89bb 9916 05bc
00000230: 5246 6abb 1ac8 43bc 6951 8b3c cd9f 3e3c
00000240: 8e22 f6bb fb9c 46bb a7ef 093c a374 e73b
00000250: da8d d33c 76dd 87bc bdca 033c 1655 8fbc
00000260: b948 233c a188 953c 1862 a83c 9522 373c
00000270: a0b6 41bc b3b8 673b eda1 893c 4d9f 723c
00000280: f0f9 fabb e48e 42bc 604f c53b 495e 1d3c
00000290: 0569 ad3c 208e 12bc c6b2 19bc 900d 5bbc
000002a0: 39bb ae3b ae3e 86bc 7794 503c 19a6 aa3c
000002b0: 566a 8c3c b9fe a83b 81e2 97bc 7bff 9f3b
000002c0: 8d7d 493c e2f4 df3b 35b4 58bc 8e4c cc3b
000002d0: 2cfb ac3c 2bce d73c 54bb 53bc cef3 cf3c
000002e0: 0be1 0c3c 2a63 7dbc 8032 d03c 24cd 0abc
000002f0: 5c46 493b dd91 933c e94a 893c dfb6 1ebc
00000300: 0fbe 9b3c bc9b d33b d9ad 693c 7b8b c33b
00000310: 0afc 1cbc 8a07 5b3a ba31 33ba 1aca 8bbc
00000320: e323 bf3c b526 72bc 3444 833c c0ef cc3c
00000330: 1626 923c 483e 8f3c 5063 ba3c b7e7 f4bb
00000340: 6e27 9c3c a073 b83b 964e c53c 30ef 80bc
00000350: 7574 193c c88d 5ebc 2a44 d83c 445b 87bc
00000360: 8529 adbc 55c1 07bc 47e9 173c bba3 003c
00000370: 64cc c23c 64ae c4b9 1589 51bc 2061 73bc
00000380: 2a49 4ebc dce6 883a eb1d 88bc 0e56 4f3c
00000390: aca2 d6bb a6b0 a1bc 6842 b43c 9c4e 8fbb
000003a0: 8d61 6fbc e53c 9dbc 3f18 b13c 2aef bf3c
000003b0: 3ee8 74bc d2b2 f1bb 449d 723c 4b55 d5bb
000003c0: ddeb e83b 782a a33c 14e1 a03b 1858 213c
000003d0: a399 26bc 9c0c 963c 1875 34bb 50e2 a6bc
000003e0: 9935 8bbc fedb 2ebc 690d d43c 19e5 c03c
000003f0: 4656 baba e87e c23c deb9 913c d281 f93b

nonreduce1_1.bias f4 [32]
0.025890818 -0.014085581 0.025049513 0.021031396 0.01774986 0.0075381543 0.023553614 0.01036977
0.0037817326 -0.013121304 0.0052962885 -0.0027372865 0.018089224 0.011994323 0.0014044049 0.0197764
-0.0014965285 -0.005148505 -0.009440943 -0.01103224 -0.0067536063 -0.022376578 0.002402924 -0.02084506
-0.013032417 0.003557074 -0.0061588725 0.0041903504 0.014803395 0.0059113055 -0.016317714 0.019986259
00000000: fb18 d43c 35c7 66bc a334 cd3c 094a ac3c
00000010: 2868 913c 9f02 f73b 82f3 c03c f8e5 293c
00000020: f2d6 773b bdfa 56bc 7d8c ad3b 0c64 33bb
00000030: da2f 943c d683 443c 0214 b83a 1e02 a23c
00000040: 2a27 c4ba cab4 a8bb 2fae 1abc 92c0 34bc
00000050: 5b4d ddbb 164f b7bc 607a 1d3b 42c3 aabc
00000060: eb85 55bc cc1d 693b 5ed0 c9bb 354f 893b
00000070: f089 723c a0b3 c13b baac 85bc 39ba a33c

nonreduce1_2.weight f4 [32, 32, 3, 3, 3]
0.029385744 -0.0137835285 -0.019871943 0.019079797 -0.037346475 -0.0026146371 -0.038055826 -0.03536606
0.009909319 -0.013255072 0.03295796 0.013220066 -0.010829638 0.013273623 0.0053235614 -0.028162817
-0.0046019168 -0.023742925 0.027494796 0.01300726 0.015110368 2.7876322e-05 -0.0077479947 -0.029643754
0.027292203 0.012824348 0.01961488 -0.02241474 0.0055625406 -0.013947252 0.0030675202 -0.011090843
-0.03515945 0.009019788 -0.007399503 -0.023876643 -0.024354089 -0.0027717566 0.0068550943 0.024054721
-0.031236038 0.032248776 -0.03007858 0.031723693 0.023954164 0.007030012 0.019137233 -0.003043046
0.012293833 -0.0016087824 0.021290792 0.017228447 -0.02028165 -0.019393975 -0.0156008 0.01048597
-0.0019440844 0.008864728 0.013966013 0.011208601 -0.019351617 -0.036367267 -0.0138914725 0.017222859
-0.028204387 -0.026795836 -0.008789364 -0.0005877238 -0.010787152 -0.027505768 -0.0058264835 -0.026499745
-0.002383826 6.6883e-07 -0.0084835915 0.020666085 0.033454098 -0.0061459355 0.015666908 -0.014677761
-0.021604579 0.010773644 0.013384656 0.023470234 -0.008030164 -0.030818684 0.020225724 0.029219968
0.011945804 -0.022705885 -0.030377781 -0.032038253 -0.028906522 0.0111332275 -0.024118725 -0.0069400663
-0.01914767 -0.009365656 0.009008627 0.0035010912 -0.0006739014 -0.028459825 -0.029005712 -0.035813637
-0.032755733 -0.027898122 -0.007855456 -0.025038807 0.01674582 0.001215226 0.026153462 0.00992878
-0.028200028 0.010650493 0.008422966 0.022632787 0.012863167 -0.012584104 0.01982331 0.026316673
-0.01873738 0.0139213335 -0.012035956 -0.0128934225 0.0065092253 -0.012177718 0.022319483 0.01284272
-0.030267501 0.028959801 -0.023076886 0.00065337593 -0.027544556 0.009888092 0.0313549 0.009837723
-0.0029734597 0.019528631 -0.016044566 0.017201899 -0.012057343 -0.013815483 -0.0026533196 0.01997309
0.034888167 -0.010251365 0.02059236 -0.03172281 0.01976144 -0.01804125 -0.029149199 0.029627293
0.009461884 -0.0067671826 0.0029505657 0.0002290092 0.017723357 -0.009043655 -0.018005904 -7.8458026e-05
-0.02358353 0.016176552 -0.006106308 0.017757766 0.0057650884 0.021911219 0.018567055 -0.032660183
0.0019441551 0.02152496 -0.029257765 0.013440985 0.0050893677 0.026882399 -0.00350236 0.02784386
0.022234721 -0.014989183 0.031785898 0.023688745 -0.028883535 -0.015541215 -0.008323088 -0.012749666
0.029229635 0.035384797 -0.010233241 -0.02717676 -0.01450035 0.03046448 -0.032856 0.021640945
0.010788876 -0.03346551 -0.03682883 -0.022807835 -0.026243597 0.020432262 -0.0010527511 0.015829034
-0.0020110921 0.0062217335 0.008588268 -0.031091671 -0.017500112 -0.031558175 0.032412365 -0.01933121
-0.017611012 -0.022473104 0.023704799 -0.026339388 0.027964827 0.02042696 -0.017088577 0.012576464
-0.023583375 0.027395276 0.00432279 -0.025559856 0.018488513 -0.00281906 0.004279665 -0.03186856
-0.025027625 -0.013189661 -0.0047245114 -0.028078517 -0.01030668 -0.0120039 0.031944923 -0.029215075
-0.009784105 0.022153214 0.031332802 -0.0023666546 0.025372043 0.009920129 0.022315975 0.0082488265
-0.02724452 0.029173303 0.00014173595 0.0074211415 0.029058622 0.0020640688 0.024608321 0.030839592
0.02693585 -0.025294416 -0.020280503 -0.02572419 -0.008481225 -0.030210374 0.032793168 0.032654367
00000000: 5fba f03c 4fd4 61bc 7cca a2bc 3c4d 9c3c
00000010: 9ef8 18bd 555a 2bbb 6de0 1bbd 00dc 10bd
00000020: b25a 223c cd2b 59bc edfe 063d fa98 583c
00000030: cb6e 31bc 9c79 593c 4571 ae3b b5b5 e6bc
00000040: adcb 96bb 8680 c2bc c43c e13c 671c 553c
00000050: 7a91 773c f2d7 e937 e4e2 fdbb 75d7 f2bc
00000060: e693 df3c 371d 523c 63af a03c 1e9f b7bc
00000070: f945 b63b 0483 64bc 7308 493b 5eb6 35bc
00000080: 5b03 10bd bcc7 133c 8877 f2bb f398 c3bc
00000090: 3a82 c7bc 5ca6 35bb b3a0 e03b 680e c53c
000000a0: b8e2 ffbc 4b17 043d 5b67 f6bc b4f0 013d
000000b0: 863b c43c 045c e63b b0c5 9c3c d76d 47bb
000000c0: 136c 493c c8dd d2ba 076a ae3c ac22 8d3c
000000d0: b425 a6bc 1de0 9ebc 7f9a 7fbc 59cd 2b3c
000000e0: a6d0 feba 5d3d 113c b4d1 643c 48a4 373c
000000f0: 4887 9ebc d8f5 14bd 0f99 63bc f416 8d3c
00000100: e30c e7bc f182 dbbc 4401 10bc 7a11 1aba
00000110: 98bc 30bc c753 e1bc 16ec bebb fe15 d9bc
00000120: f739 1cbb a689 3335 c3fe 0abc ec4b a93c
00000130: 2a07 093d d863 c9bb e357 803c fe7a 70bc
00000140: 16fc b0bc f083 303c 514b 5b3c a644 c03c
00000150: f390 03bc 7777 fcbc 6bb0 a53c b75e ef3c
00000160: 55b8 433c b101 babc d3da f8bc 8b3a 03bd
00000170: 5fcd ecbc 2468 363c a294 c5bc 7f69 e3bb
00000180: 93db 9cbc 6972 19bc ec98 133c 9072 653b
00000190: c2a8 30ba 9424 e9bc 639d edbc 52b1 12bd
000001a0: e02a 06bd 9a8a e4bc 2cb4 00bc 2f1e cdbc
000001b0: 882e 893c 3848 9f3a c93f d63c 52ac 223c
000001c0: bf03 e7bc 687f 2e3c 7b00 0a3c 6568 b93c
000001d0: 08c0 523c 8f2d 4ebc 7f64 a23c 1096 d73c
000001e0: 227f 99bc 4e16 643c 7532 45bc ef3e 53bc
000001f0: 574b d53b 0d85 47bc 59d7 b63c 466a 523c
00000200: 8df3 f7bc 1b3d ed3c bd0b bdbc 5147 2b3a
00000210: 1fa5 e1bc aa01 223c ff6d 003d 672e 213c
00000220: 60de 42bb 82fa 9f3c e56f 83bc ffea 8c3c
00000230: 298c 45bc 565a 62bc 51e3 2dbb 9b9e a33c
00000240: e5e6 0e3d 57f5 27bc 4fb1 a83c c7ef 01bd
00000250: bee2 a13c 3ecb 93bc 4dca eebc f0b4 f23c
00000260: 0506 1b3c 3ebf ddbb 475e 413b 3022 7039
00000270: 9330 913c d72b 14bc 1e81 93bc d589 a4b8
00000280: 3f32 c1bc b084 843c 6d17 c8bb bc78 913c
00000290: 11e9 bc3b 287f b33c f019 983c afc6 05bd
000002a0: 05d3 fe3a 1d55 b03c fbad efbc 9437 5c3c
000002b0: b6c4 a63b 7a38 dc3c da87 65bb cf18 e43c
000002c0: 9725 b63c 3195 75bc ee31 023d e60e c23c
000002d0: 2a9d ecbc 95a0 7ebc 905d 08bc fae3 50bc
000002e0: fd72 ef3c a6ef 103d 53a9 27bc cca1 debc
000002f0: e092 6dbc a590 f93c 0394 06bd 5a48 b13c
00000300: d3c3 303c 2113 09bd d4d9 16bd 7fd7 babc
00000310: d0fc d6bc 8f61 a73c 77fc 89ba e4ab 813c
00000320: 87cc 03bb afdf cb3b cfb5 0c3c f6b3 febc
00000330: 655c 8fbc 2543 01bd d4c2 043d 7c5c 9ebc
00000340: f844 90bc 8419 b8bc 9130 c23c b3c5 d7bc
00000350: 7e16 e53c 7156 a73c 58fd 8bbc 830d 4e3c
00000360: ec31 c1bc 0f6c e03c 31a6 8d3b e762 d1bc
00000370: 3975 973c fbbf 38bb 6f3c 8c3b 9b88 02bd
00000380: bc06 cdbc 7319 58bc 13d0 9abb eb04 e6bc
00000390: 59dd 28bc 01ac 44bc aed8 023d 7454 efbc
000003a0: 834d 20bc a87a b53c d356 003d e019 1bbb
000003b0: 08d9 cf3c 0988 223c fecf b63c 1626 073c
000003c0: e62f dfbc dafc ee3c f49e 1439 0c2d f33b
000003d0: 590c ee3c 5445 073b 6497 c93c 50a3 fc3c
000003e0: 92a8 dc3c 3c36 cfbc 4c23 a6bc 89bb d2bc
000003f0: d6f4 0abc bf7b f7bc 2152 063d 96c0 053d

nonreduce1_2.bias f4 [32]
-0.023671547 -0.02214 0.020682953 -0.02259255 -0.024435999 -0.02188827 -0.019033633 -0.015326376
-0.02400239 -0.025846036 0.0072372174 0.026975295 0.008786563 0.013883257 -0.024890836 0.036497373
-0.019797672 -0.020089507 0.021626044 0.009672794 0.00620867 0.011213378 -0.027964149 0.0069645783
0.002493497 -0.029417075 0.033771243 0.026992625 0.020037895 0.02526484 0.0122755375 -0.030858275
00000000: d5ea c1bc f25e b5bc 4c6f a93c 0314 b9bc
00000010: 012e c8bc 074f b3bc 6cec 9bbc 7b1b 7bbc
00000020: a9a0 c4bc 11bb d3bc 2e26 ed3b 4bfb dc3c
00000030: 84f5 0f3c 9a76 633c dee7 cbbc 457e 153d
00000040: ba2e a2bc c092 a4bc 1a29 b13c a37a 1e3c
00000050: 1972 cb3b 51b8 373c 1215 e5bc 1e37 e43b
00000060: f069 233b 14fc f0bc b753 0a3d a31f dd3c
00000070: 8326 a43c 36f8 ce3c 561f 493c 7eca fcbc

nonreduce1_3.weight f4 [32, 32, 3, 3, 3]
-0.021343997 -0.022460112 -0.0352666 -0.011573551 0.0004834668 -0.029272625 0.007038749 -0.0034070057
0.00979787 -0.030289348 -0.036905188 -0.01947187 0.003547514 0.007918987 0.026729034 -0.032943178
0.0041797496 0.0076576862 -0.03330989 -0.034691814 0.02316708 -0.009525 0.01004291 0.009337166
0.0125981085 0.030023402 -0.03142195 0.010454353 -0.008300075 -0.0067662327 -0.016226878 0.013857686
0.011986986 0.010293951 0.016542515 -0.030190961 0.029909426 -0.012548287 0.022645669 0.013517013
-0.033155337 -0.018475948 -0.0002848724 -0.024084223 0.020111922 0.0056761666 -0.012196827 -0.0008082316
-0.030895948 -0.026353808 -0.015451431 0.0039043147 0.035254672 0.006535709 0.017852413 -0.0013235885
-0.014246776 0.020223713 0.01445993 0.026630687 -0.0035344905 0.014810782 0.029496323 0.028548641
0.017788714 0.032978702 0.022429567 -0.013371882 0.020813683 -0.0035088242 0.008261755 0.027327383
0.03306122 -0.026142871 0.0012470487 -0.01963876 0.024609808 0.033832204 -0.029171675 0.02581833
0.028822212 -0.012291949 0.0034146784 0.0061703273 -0.023687463 -0.011519581 0.0149292685 0.033647604
0.0060094134 -0.026508765 -0.031365354 -0.022572542 0.014270471 -0.030768022 0.0292262 -0.03254912
0.0125716925 0.0017538889 -0.010109135 -0.026165336 0.027186146 -0.02954487 -0.011376699 -0.005514929
0.015148772 -0.017692143 0.024635425 0.008492913 0.028559227 -0.0074464497 0.0024647994 0.026360719
0.019630805 -0.016572732 0.0027355964 0.009509141 0.0379962 -0.02993482 0.031832304 0.024671994
-0.0156786 -0.028124716 -0.021104513 0.029477594 0.0026143377 0.0168984 0.022689229 -0.014117126
-0.019723566 0.02190844 0.026946075 0.0047065904 -0.0066681555 0.021353649 0.039502233 0.030780131
-0.02452594 -0.024425413 -0.015043961 0.02179988 0.013428971 0.014586786 -0.0081361355 0.0016716351
-0.029043205 -0.0011640713 -0.0093924 0.01827912 -0.03457064 -0.015574264 -0.004987764 0.02999
-0.01038838 0.006671714 0.010824569 0.01587748 0.019480363 -0.02251463 0.03236459 -0.022622917
0.014383234 -0.009826051 -0.011498763 0.000876927 0.01669455 -0.031928856 0.0023439676 -0.020921782
0.024692377 0.0018714407 -0.021115499 0.032058485 -0.029871672 -0.0014365538 0.03162645 0.013827276
-0.009208624 0.008806186 0.019579494 0.00043982154 -0.0040922593 0.028477993 -0.022186449 0.0015017937
-0.028702417 0.017526472 0.02572418 0.017071303 0.024352647 0.021097224 -0.033017404 -0.0144152185
0.025600994 0.010395768 -0.01695841 -0.011658574 0.020168576 -0.02613175 -0.03266948 -0.02795404
0.023694957 -0.0033038491 -0.02635288 0.0072627757 -0.0200054 0.018920543 -0.0002446193 0.008344607
0.017497113 0.010017438 0.0026587895 -0.024736764 -0.016104618 0.026498718 -0.01792321 0.023422265
-0.026000472 -0.015373496 0.0033559087 -0.007284037 -0.004905767 -0.013921892 0.014524946 -0.0028524965
0.017048234 0.002814114 -0.014716088 -0.018129691 0.03159525 0.03364645 -0.02154188 0.028538309
0.0050471583 0.026311448 -0.019952454 0.023596235 -0.0028394894 -0.0028481057 0.004642159 0.018268155
0.028463883 -0.031262267 0.032510858 -0.020917974 0.036154665 0.010954542 -0.011201259 0.023005094
-0.020633638 -0.0013210919 0.03842665 0.028627284 -0.006278125 0.014714446 0.0011790808 0.009307565
00000000: 9bd9 aebc 45fe b7bc b673 10bd fe9e 3dbc
00000010: d179 fd39 25cd efbc 4ea5 e63b 1248 5fbb
00000020: 3f87 203c 5e21 f8bc e529 17bd 7983 9fbc
00000030: 697d 683b a4be 013c d9f6 da3c 6def 06bd
00000040: 48f6 883b 54ed fa3b f46f 08bd 0119 0ebd
00000050: e3c8 bd3c bf0e 1cbc 058b 243c eafa 183c
00000060: 4c68 4e3c a3f3 f53c 4db4 00bd bc48 2b3c
00000070: 0afd 07bc 46b7 ddbb 3bee 84bc 590b 633c
00000080: 1065 443c f6a7 283c 2b84 873c 0953 f7bc
00000090: 9d04 f53c 5597 4dbc 6983 b93c 7676 5d3c
000000a0: e4cd 07bd df5a 97bc ed5a 95b9 474c c5bc
000000b0: c2c1 a43c 23ff b93b 33d5 47bc 81df 53ba
000000c0: 8019 fdbc f1e3 d7bc 0028 7dbc 88df 7f3b
000000d0: 3467 103d 8029 d63b 393f 923c 437c adba
000000e0: 4f6b 69bc 33ac a53c 58e9 6c3c 9928 da3c
000000f0: e9a2 67bb eca8 723c 46a2 f13c d7de e93c
00000100: a3b9 913c ad14 073d 36be b73c bd15 5bbc
00000110: 7581 aa3c 4df4 65bb 505c 073c addd df3c
00000120: 346b 073d 9329 d6bc 0374 a33a 77e1 a0bc
00000130: 829a c93c a393 0a3d 70f9 eebc f680 d33c
00000140: 8f1c ec3c 2c64 49bc ccc8 5f3b 7530 ca3b
00000150: 360c c2bc a0bc 3cbc e499 743c 12d2 093d
00000160: 9dea c43b e928 d9bc f578 00bd 0dea b8bc
00000170: b2ce 693c 380d fcbc c96b ef3c 3a52 05bd
00000180: 80f9 4d3c bfe2 e53a c9a0 25bc b058 d6bc
00000190: 7bb5 de3c 1508 f2bc 5665 3abc 94b6 b4bb
000001a0: 8e32 783c 1def 90bc 3bd0 c93c dc25 0b3c
000001b0: 0af5 e93c 5901 f4bb 7988 213b 6ff2 d73c
000001c0: c8d0 a03c 8ac3 87bc b147 333b 3acc 1b3c
000001d0: e7a1 1b3d de39 f5bc 9762 023d ec1c ca3c
000001e0: 6870 80bc ce65 e6bc 5fe3 acbc ff7a f13c
000001f0: 4f55 2b3b 836e 8a3c c3de b93c 854b 67bc
00000200: 5193 a1bc 5479 b33c 04be dc3c be39 9a3b
00000210: 8b80 dabb d9ed ae3c 18cd 213d 9d26 fc3c
00000220: a0ea c8bc ce17 c8bc f27a 76bc a995 b23c
00000230: 3005 5c3c 6afd 6e3c 6d4d 05bc c41a db3a
00000240: 04ec edbc c093 98ba 95e2 19bc 18be 953c
00000250: f299 0dbd 332b 7fbc 6670 a3bb 97ad f53c
00000260: 0634 2abc 659e da3b 8859 313c 7d11 823c
00000270: 4895 9f3c 9a70 b8bc bb90 043d b253 b9bc
00000280: a8a7 6b3c 72fd 20bc 4f65 3cbc 93e1 653a
00000290: 02c3 883c d5c7 02bd 409d 193b 2864 abbc
000002a0: ab47 ca3c 214b f53a 69fa acbc c24f 033d
000002b0: 70b5 f4bc bf4a bcba bd8a 013d cd8b 623c
000002c0: c5df 16bc d247 103c 2d65 a03c d997 e639
000002d0: 5c18 86bb ae4a e93c 5bc0 b5bc d6d7 c43a
000002e0: 5521 ebbc ad93 8f3c 84bb d23c 1ed9 8b3c
000002f0: 347f c73c 16d4 ac3c 423d 07bd cf2d 6cbc
00000300: 2db9 d13c 0353 2a3c 5dec 8abc 9b03 3fbc
00000310: 9238 a53c 4012 d6bc 6fd0 05bd dfff e4bc
00000320: ed1b c23c 6485 58bb ffe1 d7bc 94fc ed3b
00000330: 5de2 a3bc 41ff 9a3c 3f40 80b9 d2b7 083c
00000340: 1b56 8f3c 2e20 243c 163f 2e3b c1a4 cabc
00000350: d5ed 83bc d713 d93c b2d3 92bc 0de0 bf3c
00000360: f1fe d4bc 1ee1 7bbc ceee 5b3b eeae eebb
00000370: 8ec0 a0bb a618 64bc 0afa 6d3c f3f0 3abb
00000380: bda8 8b3c 006d 383b bf1b 71bc b884 94bc
00000390: 056a 013d dcd0 093d 9978 b0bc 2cc9 e93c
000003a0: a262 a53b 1b8b d73c 5473 a3bc e44c c13c
000003b0: ba16 3abb 49a7 3abb 411d 983b 19a7 953c
000003c0: 172d e93c dd0c 00bd 1b2a 053d 2c5c abbc
000003d0: ea16 143d ae7a 333c 7c85 37bc 2e75 bc3c
000003e0: e007 a9bc 7d28 adba 4365 1d3d c483 ea3c
000003f0: bbb8 cdbb dc14 713c 638b 9a3a c27e 183c

nonreduce1_3.bias f4 [32]
0.016739134 0.0316839 -0.014468128 0.005219226 0.021123407 -0.02173327 0.019757546 0.02498832
-0.012898271 0.030886915 -0.020049065 -0.017285498 0.023955563 0.011401391 -0.01291823 -0.027052496
0.0133837825 -0.015761107 -0.031233052 0.028087018 0.026039546 -0.021038173 0.0064545004 0.018559346
0.010228373 0.02510239 -0.023759337 0.03127407 0.005452505 0.008995748 0.018597113 -0.007221597
00000000: 8220 893c fac6 013d ba0b 6dbc 0a06 ab3b
00000010: ff0a ad3c f809 b2bc 94da a13c 4eb4 cc3c
00000020: 4553 53bc 8e06 fd3c f03d a4bc 519a 8dbc
00000030: 753e c43c e6cc 3a3c fca6 53bc 329d ddbc
00000040: a747 5b3c 701d 81bc 75dc ffbc bf16 e63c
00000050: e350 d53c 3f58 acbc 4680 d33b c509 983c
00000060: e894 273c 87a3 cd3c f1a2 c2bc 3d19 003d
00000070: edaa b23b e762 133c f958 983c 25a3 ecbb

reduce2.weight f4 [16, 32, 4, 4, 4]
-0.009393165 -0.008001935 -0.015204488 -0.014001794 0.009295464 -0.013181607 -0.012242432 0.024956984
-0.005225839 0.012728418 0.012567865 0.0021970521 0.014266605 0.0064117084 0.009662547 0.01505222
0.026223058 -0.009951482 0.02493008 0.024501322 -0.0011583801 0.016711228 0.009994044 0.016052172
-0.0038225467 0.012366926 0.004050828 0.020867689 -0.002113482 0.022519646 -0.0029996415 -0.01685426
-0.0034397363 0.012711999 -0.0137417745 -0.0018233478 -0.0036456888 -0.007879976 0.0112941805 0.020565769
0.0005191415 0.017799085 0.02169647 0.018670065 -0.0117165875 0.005185075 -0.0055203293 0.024200732
0.01654484 0.0028654744 0.01904252 0.011208797 -0.0070664813 0.017748252 0.0061701806 0.00028118366
-0.0028989299 0.016426884 0.012336223 0.01567597 -0.0033889178 0.01706171 -0.012323544 -0.01240269
0.016844666 0.015413106 0.0253224 -0.008497321 -0.013662667 0.005489006 -0.0040267576 -0.016073195
0.0035625326 0.00042123662 0.004279909 0.0061732666 -0.01302147 -0.017066984 -0.008790971 -0.008291255
0.023867443 0.018374797 0.0032581892 -0.0029191084 -0.0040216525 -0.0049046264 0.0028103292 0.00881679
-0.01655161 -0.003674057 -0.014837303 0.024607867 0.022364588 0.020394422 0.021155661 0.01777809
-0.0109512005 0.00014814436 -0.010043176 -0.0020786303 -0.0024694498 -0.016798634 0.011623097 -0.011372588
0.012288047 -0.010683523 -0.01339784 -0.00552742 0.012167229 0.018680876 -0.0051188488 -0.016318379
-0.001717014 0.015309413 0.0022697938 -0.0051943427 -0.0111470185 -0.012732133 -0.009714349 -0.01130369
0.021324534 0.020978088 0.0062403027 0.0147882765 0.011846927 -0.0015013545 0.006658632 0.016696487
-0.013151303 -0.00655964 -0.0011070011 0.010773855 -0.0011277822 -0.007639195 -0.009755857 0.018421933
-0.012126972 0.020719634 -0.018388579 0.021829361 0.0036069974 -0.0014709568 0.009480258 -0.0010530639
0.022941787 0.0036972922 -0.008075358 0.020206328 0.021504356 0.02278162 0.0046164603 0.017297316
0.013884552 -0.009074807 0.003350485 0.022312917 -0.0127809215 -0.008244468 0.017945223 0.008334575
-0.017089656 -0.0062332456 -0.0052528502 0.0024819928 -0.010707287 0.0056911553 -0.00029530845 0.002228112
-0.0013297376 0.0023384378 0.0049636615 -0.014676376 0.024490586 0.022846673 0.003935446 0.021552479
0.013010986 0.020500029 0.00035139328 -0.015668835 -0.010996474 -0.007564135 0.022301637 -0.0031779262
0.02102021 -0.00839181 0.022429775 0.015427367 -0.007919067 -0.006444825 -0.0039648646 -1.6587075e-05
-0.013926422 0.0042768093 -0.014883846 0.001027008 0.0058040214 -0.015359623 -0.012811069 -0.00626643
0.018171642 0.015651856 0.007958302 0.012650716 0.0042019747 0.012198913 0.009073178 0.0001635245
-0.014639505 0.007577566 -0.01586662 -0.017269632 0.020238286 0.00031685023 0.006096247 0.012666979
0.017853394 -0.00050779886 0.009022655 -0.007856043 0.0067496174 -0.015050076 -0.020779489 -0.015735248
0.02133241 -0.0074733947 -0.012039574 0.012650442 0.00816356 -0.02016814 -0.021896845 -0.021765713
0.009107078 -0.0019180521 -0.0067987577 -0.022516657 0.017145997 0.014048938 -0.014663825 -0.019802697
0.01297178 0.0044133835 -0.0073217344 0.010803491 0.0126253385 0.0005686058 -0.019040931 0.009528712
-0.013227272 -0.011853167 0.009732013 -0.020233048 0.009580635 0.016813053 -0.0044751284 0.0059314496
00000000: cae5 19bc 8c1a 03bc 3f1c 79bc c867 65bc
00000010: 004c 183c abf7 57bc 7b94 48bc 9772 cc3c
00000020: 843d abbb db8a 503c 72e9 4d3c 6bfc 0f3b
00000030: 7abe 693c 4f19 d23b a94f 1e3c 969d 763c
00000040: bdd1 d63c 8a0b 23bc 2b3a cc3c ffb6 c83c
00000050: c9d4 97ba fce5 883c 0fbe 233c d87f 833c
00000060: b183 7abb a69e 4a3c cfbc 843b b7f2 aa3c
00000070: 5882 0abb 1f7b b83c a295 44bb f211 8abc
00000080: 336d 61bb fd45 503c 2e25 61bc 66fd eeba
00000090: 82ec 6ebb 041b 01bc 3a0b 393c 8b79 a83c
000000a0: ff16 083a 63cf 913c ccbc b13c f7f1 983c
000000b0: eef6 3fbc 90e7 a93b e1e3 b4bb 9d40 c63c
000000c0: 0b89 873c afca 3b3b 0fff 9b3c 1aa5 373c
000000d0: f18d e7bb c864 913c 3a2f ca3b d56b 9339
000000e0: f9fb 3dbb ac91 863c df1d 4a3c e46a 803c
000000f0: 9b18 5ebb 00c5 8b3c b1e8 49bc a734 4bbc
00000100: d3fd 893c 4187 7c3c ec70 cf3c 5938 0bbc
00000110: 61d9 5fbc 1fdd b33b e4f2 83bb efab 83bc
00000120: 6179 693b 6cd9 dc39 7b3e 8c3b 1d49 ca3b
00000130: 0158 55bc 0fd0 8bbc 0108 10bc 0bd8 07bc
00000140: a885 c33c be86 963c 5887 553b 834e 3fbb
00000150: 11c8 83bb fdb6 a0bb 802d 383b 4c74 103c
00000160: 3e97 87bc 73c8 70bb 2918 73bc 7096 c93c
00000170: f135 b73c 3412 a73c a34e ad3c 5ba3 913c
00000180: aa6c 33bc 3357 1b39 228c 24bc a139 08bb
00000190: 7ed6 21bb 4a9d 89bc cd6e 3e3c 1754 3abc
000001a0: ce53 493c f109 2fbc 9d82 5bbc 5c1f b5bb
000001b0: 0f59 473c a308 993c 04bc a7bb 1fae 85bc
000001c0: 6e0d e1ba 55d4 7a3c d2c0 143b 4e35 aabb
000001d0: fca1 36bc 709a 50bc ef28 1fbc 1d33 39bc
000001e0: cab0 ae3c 3dda ab3c 747b cc3b 874a 723c
000001f0: 9d19 423c 19c9 c4ba a730 da3b 12c7 883c
00000200: 9078 57bc 40f2 d6bb cb18 91ba d384 303c
00000210: 17d2 93ba 3652 fabb 08d7 1fbc 98e9 963c
00000220: 35b0 46bc 39bc a93c a5a3 96bc 7dd3 b23c
00000230: 6063 6c3b 1fcd c0ba 1653 1b3c f606 8aba
00000240: 6af0 bb3c 454e 723b 824e 04bc be87 a53c
00000250: e729 b03c 85a0 ba3c ad45 973b 1ab3 8d3c
00000260: 087c 633c 80ae 14bc d093 5b3b 94c9 b63c
00000270: 1267 51bc ce13 07bc dc01 933c be8d 083c
00000280: 9bff 8bbc 4140 ccbb 1a20 acbb eea8 223b
00000290: 9e6d 2fbc df7c ba3b a1d3 9ab9 8405 123b
000002a0: 974a aeba 7a40 193b 36a6 a23b 2f75 70bc
000002b0: 7ba0 c83c f228 bb3c eaf4 803b d38e b03c
000002c0: 082c 553c adef a73c 353b b839 ee5b 80bc
000002d0: 8e2a 34bc 90dc f7bb ecb1 b63c c144 50bb
000002e0: 9332 ac3c cd7d 09bc a6be b73c 11c3 7c3c
000002f0: f9be 01bc 1c2f d3bb b2eb 81bb 7924 8bb7
00000300: a62b 64bc 7a24 8c3b 60db 73bc ac9c 863a
00000310: a92f be3b eea6 7bbc 85e5 51bc a056 cdbb
00000320: b2dc 943c 5238 803c 8a63 023c f344 4f3c
00000330: b8b0 893b f3dd 473c aba7 143c c677 2b39
00000340: 89da 6fbc 3b4d f83b b7fa 81bc 0b79 8dbc
00000350: c3ca a53c eb1e a639 07c3 c73b 2989 4f3c
00000360: 4841 923c ce1d 05ba c2d3 133c a2b6 00bc
00000370: e52b dd3b 9894 76bc bf39 aabc 35e7 80bc
00000380: 4ec1 ae3c 61e3 f4bb a241 45bc cd43 4f3c
00000390: 74c0 053c a837 a5bc 0361 b3bc 024e b2bc
000003a0: db35 153c 2667 fbba 1dc8 debb da74 b8bc
000003b0: c375 8c3c 842d 663c 8a40 70bc 4439 a2bc
000003c0: 9787 543c 259e 903b 29eb efbb 2001 313c
000003d0: 82da 4e3c 7d0e 153a bafb 9bbc 511e 1c3c
000003e0: 33b7 58bc c933 42bc 0573 1f3c c7bf a5bc
000003f0: 18f8 1c3c 87bb 893c 19a4 92bb 9b5c c23b

reduce2.bias f4 [16]
-0.00018788716 0.0019400998 -0.008746338 0.01667309 -0.014482753 -0.012903693 -0.014100811 0.013774508
0.017108135 0.0034594634 -0.010184443 -0.01636969 -0.0042833854 0.011319615 0.022304283 0.012772514
00000000: 9303 45b9 f24a fe3a cd4c 0fbc 0196 883c
00000010: 1249 6dbc 036a 53bc 1707 67bc 79ae 613c
00000020: 5c26 8c3c 2ab8 623b a6dc 26bc ba19 86bc
00000030: a45b 8cbb e875 393c 79b7 b63c ce43 513c

nonreduce2_1.weight f4 [16, 16, 3, 3, 3]
-0.029587036 -0.03911812 0.0039573717 0.050344683 0.04262275 -0.0024211868 0.007126619 -0.027616132
-0.035559494 0.024150912 0.030345831 0.019965848 0.034939483 -0.009756667 0.021734865 -0.042282242
0.045680888 0.04535526 -0.019554714 0.012425479 0.04705254 -0.038791172 0.0144905755 0.03865118
0.031167546 0.03819368 0.0124958195 0.049057994 -0.04615787 -0.045699 0.00019854841 0.009759982
-0.038226902 -0.0021100747 0.03469552 0.010650441 -0.011615422 0.0051301452 0.035069674 -0.026203461
-0.003380302 0.048417296 -0.0041533676 0.028208142 0.01946352 -0.018558763 -0.03755092 -0.0026471715
-0.0073344097 -0.0060054567 0.04816155 0.012396641 -0.03395625 0.018702403 0.020410657 0.015051501
0.032653656 0.048131194 -0.00040533955 -0.007912262 0.034604322 -0.021886678 0.048637684 -0.022814626
0.026195306 -0.034052506 -0.023226665 0.003411837 -0.030949168 0.0030201278 0.043240156 0.0019278536
-0.016581858 0.011544613 -0.0024256296 0.036101114 -0.027952416 -0.036449376 -0.0152535 0.04310115
-0.026655216 0.0061295168 0.0016997623 0.03770508 0.019953266 -0.018896542 -0.036160495 0.01461197
-0.014187931 0.02263497 -0.031397574 0.047552846 0.006731199 0.033382293 0.019777266 0.041916564
-0.0012407792 0.047311727 -0.023657864 0.0209177 -0.022618154 0.047246642 0.03314389 0.010827659
-0.02391312 0.023387212 0.029656205 -0.01056609 -0.042138536 0.04285776 0.043416858 0.018759467
0.03077721 -0.03435932 0.041907225 0.049043074 -0.008415693 0.025300559 -0.027765527 -0.027655428
0.045396134 0.024652215 0.04084391 -0.017613295 -0.018908227 -0.0143285785 -0.042028144 -0.029772254
0.038496986 -0.00060051965 0.024928013 -0.030770384 0.01740471 0.012167757 -9.55467e-05 0.0028836136
0.04557113 0.050981443 0.03320476 0.0015194992 -0.010174927 0.024318952 0.047145978 -0.022208223
0.024771497 -0.013301855 0.012857362 0.014188176 -0.007464326 0.047482014 0.049639847 0.037200235
0.019931912 0.021653228 0.008435535 0.048597474 -0.021346644 0.034031328 0.0394163 0.048821665
0.018106807 0.01813162 0.025442977 -0.0113096535 0.0055599366 0.020330979 0.00019825793 -0.0074630473
0.047582407 -0.021492252 -0.008794468 -0.0088190995 0.008984353 0.04147305 -0.013718071 0.028149942
-0.02016612 0.018646944 -0.014303944 0.007087247 0.023506505 -0.036371853 -0.04179793 -0.025575932
0.044813495 -0.033779643 -0.04128907 0.036622304 -0.026024688 -0.013388549 -0.02429511 0.015903855
-0.008175537 -0.02257515 0.043107677 -0.009357364 0.006323167 -0.015422542 -0.0044409363 -0.020356048
0.04000682 -0.012765863 0.040403906 -0.04612137 -0.019968333 -0.014071946 -0.030299798 -0.034948096
-0.0379681 0.01292934 0.044282548 -0.031710416 -0.0110666165 0.002128949 0.034040697 0.02626331
0.048704065 0.015585309 0.016230753 0.02138075 0.016958637 -0.03833024 -0.04123406 0.03176816
0.024428545 -0.027878305 0.032947376 0.025062796 -0.0386385 0.03030674 0.016048612 0.026129922
-0.039542682 -0.033639587 0.013837268 -0.0032217773 0.019732133 -0.024619328 0.040480334 -0.027024329
0.048052456 0.033847746 -0.01634819 0.016582264 -0.020382004 -0.019080127 -0.018031962 0.023606211
-0.014227783 -0.027751362 -0.042350594 0.016026057 -0.009113478 0.021475457 -0.044324722 -0.011694623
00000000: 8360 f2bc 523a 20bd d7ac 813b 3a36 4e3d
00000010: 3195 2e3d c6ac 1ebb 6a86 e93b 3a3b e2bc
00000020: d5a6 11bd 22d8 c53c d297 f83c 6b8f a33c
00000030: b41c 0f3d 6dda 1fbc 510d b23c 2530 2dbd
00000040: e21b 3b3d 70c6 393d 3531 a0bc 3c94 4b3c
00000050: 2aba 403d 7ee3 1ebd e169 6d3c b350 1e3d
00000060: 1553 ff3c fa70 1c3d 44bb 4c3c 09f1 483d
00000070: 0910 3dbd e02e 3bbd 6f31 5039 55e8 1f3c
00000080: d093 1cbd 2e49 0abb e41c 0e3d 307f 2e3c
00000090: 9c4e 3ebc c71a a83b 38a5 0f3d a4a8 d6bc
000000a0: 0f88 5dbb 3751 463d f918 88bb c314 e73c
000000b0: f671 9f3c 8c08 98bc fece 19bd 2b7c 2dbb
000000c0: 7d55 f0bb 6cc9 c4bb 0c45 453d 481b 4b3c
000000d0: b515 0bbd c835 993c 4034 a73c 929a 763c
000000e0: d7bf 053d 3725 453d c183 d4b9 6fa2 01bc
000000f0: 43bd 0d3d b14b b3bc 4f38 473d bde5 babc
00000100: 8a97 d63c a47a 0bbd d945 bebc 2099 5f3b
00000110: 1c89 fdbc 56ed 453b 971c 313d 08b0 fc3a
00000120: add6 87bc 9e25 3d3c 50f7 1ebb c3de 133d
00000130: 77fc e4bc f14b 15bd d1e9 79bc d58a 303d
00000140: 0a5c dabc 1dda c83b 8fca de3a a470 1a3d
00000150: 0875 a33c eccc 9abc 071d 14bd 0b67 6f3c
00000160: 7f74 68bc f96c b93c be9a 00bd c6c6 423d
00000170: 6491 dc3b dfbb 083d ef03 a23c b4b0 2b3d
00000180: a4a1 a2ba f1c9 413d 23ce c1bc 995b ab3c
00000190: b549 b9bc b285 413d e3c1 073d 7e66 313c
000001a0: 73e5 c3bc 8a96 bf3c 92f1 f23c 651d 2dbc
000001b0: 7599 2cbd 9e8b 2f3d e0d5 313d 74ad 993c
000001c0: 7d20 fc3c 5cbc 0cbd e9a6 2b3d 64e1 483d
000001d0: fae1 09bc 1e43 cf3c 8874 e3bc a38d e2bc
000001e0: 4cf1 393d 71f3 c93c f24b 273d c249 90bc
000001f0: 6de5 9abc 6ac2 6abc b425 2cbd f1e4 f3bc
00000200: 04af 1d3d 316c 1dba d535 cc3c 2c12 fcbc
00000210: 5394 8e3c 465b 473c 3e60 c8b8 02fb 3c3b
00000220: cba8 3a3d ebd1 503d b701 083d ef29 c73a
00000230: bdb4 26bc 8a38 c73c 241c 413d 05ee b5bc
00000240: 98ed ca3c 06f0 59bc afa7 523c 8675 683c
00000250: 4e97 f4bb 807c 423d 2753 4b3d 465f 183d
00000260: 4048 a33c 1c62 b13c 3335 0a3c 250e 473d
00000270: 28df aebc 6f64 0b3d fc72 213d 3af9 473d
00000280: ba54 943c c388 943c ca6d d03c 204c 39bc
00000290: 2130 b63b 278d a63c 75e3 4f39 948c f4bb
000002a0: c5e5 423d 8510 b0bc ac16 10bc fc7d 10bc
000002b0: 1c33 133c a5df 293d c3c1 60bc b59a e63c
000002c0: 6b33 a5bc 7ac1 983c 175b 6abc 233c e83b
000002d0: b790 c03c a7fa 14bd 4e34 2bbd 9e84 d1bc
000002e0: 5b8e 373d 865c 0abd ba1e 29bd 4501 163d
000002f0: ba31 d5bc a55b 5bbc 8a06 c7bc cd48 823c
00000300: b0f2 05bc 85ef b8bc ad91 303d a14f 19bc
00000310: 9232 cf3b d4ae 7cbc 4685 91bb bac1 a6bc
00000320: 31de 233d e927 51bc 917e 253d c3e9 3cbd
00000330: a194 a3bc 058e 66bc 4837 f8bc bc25 0fbd
00000340: 7084 1bbd 95d5 533c 9e61 353d c8e2 01bd
00000350: c150 35bc d685 0b3b 426e 0b3d 2726 d73c
00000360: ea7d 473d 8659 7f3c 5bf6 843c af26 af3c
00000370: d7ec 8a3c 2b00 1dbd 0ce5 28bd 551f 023d
00000380: 5f1e c83c 0b61 e4bc d4f3 063d 7e50 cd3c
00000390: 6743 1ebd d745 f83c 6178 833c 6b0e d63c
000003a0: 82f7 21bd aac9 09bd b5b5 623c 7424 53bb
000003b0: 48a5 a13c 79ae c9bc b5ce 253d 2062 ddbc
000003c0: a7d2 443d efa3 0a3d a4ec 85bc 87d7 873c
000003d0: 29f8 a6bc ed4d 9cbc c4b7 93bc d061 c13c
000003e0: a61b 69bc d356 e3bc d177 2dbd 1449 833c
000003f0: b250 15bc 4ced af3c d78d 35bd ce9a 3fbc

nonreduce2_1.bias f4 [16]
0.020523643 -0.03222825 -0.032571066 0.016282745 -0.044333477 -0.023494001 0.028981837 0.04753005
0.0099785905 -0.0025099274 -0.007008773 0.02802999 -0.010901503 -0.043282125 -0.047037028 -0.03770563
00000000: 3321 a83c c501 04bd 3d69 05bd 6463 853c
00000010: 0597 35bd 7e76 c0bc 516b ed3c dfae 423d
00000020: 3e7d 233c 987d 24bb d9a9 e5bb 269f e53c
00000030: 389c 32bc 9948 31bd e6a9 40bd 3871 1abd

nonreduce2_2.weight f4 [16, 16, 3, 3, 3]
0.04823587 0.032160252 -0.00068304205 -0.000102381295 0.025659587 0.023396175 -0.030321648 -0.0031422118
-0.01469567 0.021409111 0.0469389 -0.044599783 0.027136505 -0.043571543 0.045954138 0.05128539
-0.043462787 -0.017156238 0.010097259 -0.0046495814 0.049800467 0.027975237 0.034635525 0.034038525
-0.04154736 -0.029467003 0.0076550343 0.0033260244 0.037096195 -0.019025085 0.031543713 0.009889699
-0.01832344 0.020652581 -0.028811347 -0.014737836 0.02661118 0.02130634 0.03605404 -0.025107691
0.015124169 -0.040920537 -0.034271173 0.020146545 0.015127476 0.000644291 0.005337127 -0.00939898
0.019602692 0.024096673 -0.0061077666 0.037148967 0.026816647 -0.016587196 0.014723032 0.048058163
-0.0036250502 -0.05301189 -0.014365424 -0.023778426 0.036408775 -0.03602144 0.039188605 -0.043560117
-0.040550236 0.018698676 0.022256728 -0.046739824 -0.03290847 0.031312887 -0.021416578 -0.032068603
0.038543418 0.04279369 -0.01177227 -0.0048233406 -0.005787148 -0.031372577 -0.008020194 0.015842792
0.010075932 0.050749265 0.0018709521 0.0033685653 0.0103488 -0.013941582 0.030824102 -0.039167058
0.0038318492 0.026269775 0.026668232 -0.01601238 0.046125162 0.04582205 0.04717777 -0.02438403
-0.00091282686 0.034856487 -0.04037153 0.045953613 0.031216547 0.022056894 -0.021253021 -0.025723044
0.0076684454 0.044065524 0.047145892 0.024078771 0.022169366 -0.021207556 -0.013350792 -0.0015229505
-0.006784579 0.016648406 -0.013958253 -0.017438032 -0.00023218284 -0.013012667 0.02207673 -0.013282111
-0.029197045 0.011989839 0.055606674 -0.02547287 0.012136652 -0.0019368846 0.066833615 0.020449946
0.054431204 0.016582254 0.052278824 0.0064263307 -0.013340405 0.017409397 -0.015231653 -0.03033664
0.0018337594 0.03132523 0.0038056325 0.015289373 -0.042872768 0.003370912 0.025335394 0.03737725
0.05339716 0.020872425 0.024327902 0.02967486 -0.02393701 0.0023484693 0.019766064 0.044564262
0.044097 -0.018564591 -0.034460917 0.03182519 -0.036054455 0.03798335 0.04675309 0.018709354
0.0014626839 -0.016007494 0.0036878965 0.03174292 -0.029258963 -0.012500019 -0.03814697 0.051018123
-0.035023477 0.022689957 -0.022001546 -0.0060140267 -0.026465364 -0.040672574 0.026654264 0.03572598
-0.020780282 0.017290782 0.0016113432 -0.037860587 -0.037430137 -0.032247495 -0.007445402 0.04652587
0.032863107 -0.029377786 -0.035012603 -0.025176313 0.0048662764 -0.040187456 -0.034635313 0.00778642
0.0039507463 0.025533153 0.03351052 0.026396837 0.03472557 0.01225087 -0.040752526 0.029675372
-0.013059026 -0.034774907 0.016875243 0.008349136 0.04410563 0.022568388 -0.022165114 0.048798617
0.020635016 0.021988465 -0.042402346 -0.031305123 0.03713382 0.019909857 0.040683158 0.015027455
-0.04387954 0.008673367 -0.014634703 -0.0018726388 -0.022489984 -0.011792464 -0.006199024 0.027566265
0.0003287806 0.026043488 0.012001231 -0.0005768025 0.03638348 -0.010068499 0.039268315 0.0026637437
0.020504296 -0.0031427294 0.039673667 0.033151988 -0.01967034 0.0014073446 0.039985836 0.000700479
-0.017864974 0.01248875 0.014844672 -0.023461077 -0.023074983 -0.028818807 0.049660288 -0.03132907
0.02464929 0.033345804 -0.01987173 0.032306675 0.020270634 0.013862156 -0.028157808 0.031542677
00000000: fa92 453d 78ba 033d 2d0e 33ba 8ab5 d6b8
00000010: 0e34 d23c 56a9 bf3c 1b65 f8bc 91ed 4dbb
00000020: 1cc6 70bc 2962 af3c 0143 403d 43ae 36bd
00000030: 604d de3c 1378 32bd 683a 3c3d a110 523d
00000040: 0906 32bd 3d8b 8cbc f96e 253c 845b 98bb
00000050: 93fb 4b3d 532c e53c fbdd 0d3d fb6b 0b3d
00000060: 912d 2abd c964 f1bc 15d7 fa3b 6ef9 593b
00000070: 2ef2 173d 7fda 9bbc fb33 013d 6708 223c
00000080: 0a1b 96bc 9a2f a93c c605 ecbc f776 71bc
00000090: b0ff d93c a28a ae3c 67ad 133d a5ae cdbc
000000a0: 5dcb 773c 4b9c 27bd ee5f 0cbd 5e0a a53c
000000b0: 3cd9 773c a3e5 283a 11e3 ae3b 2efe 19bc
000000c0: d395 a03c 6366 c53c a923 c8bb 8429 183d
000000d0: 96ae db3c dfe1 87bc df38 713c a3d8 443d
000000e0: 4092 6dbb ff22 59bd f55c 6bbc f9ca c2bc
000000f0: 5e21 153d 388b 13bd 3b84 203d 186c 32bd
00000100: 0118 26bd f72d 993c be53 b63c 4272 3fbd
00000110: 08cb 06bd f141 003d d271 afbc 5e5a 03bd
00000120: b4df 1d3d 7048 2f3d 7be0 40bc 1d0d 9ebb
00000130: 1ea2 bdbb 8880 00bd 2267 03bc bec8 813c
00000140: 8615 253c 76de 4f3d bc3a f53a 26c3 5c3b
00000150: 038e 293c 3c6b 64bc d482 fc3c a36d 20bd
00000160: c31f 7b3b b633 d73c 5677 da3c 652c 83bc
00000170: bded 3c3d e7af 3b3d 7a3d 413d 04c1 c7bc
00000180: c64a 6fba adc5 0e3d 9e5c 25bd db39 3c3d
00000190: d8b9 ff3c a9b0 b43c d11a aebc 22b9 d2bc
000001a0: 9547 fb3b 0d7e 343d 0d1c 413d d840 c53c
000001b0: 889c b53c 78bb adbc 48bd 5abc bd9d c7ba
000001c0: 2c51 debb 3d62 883c 28b1 64bc 34da 8ebc
000001d0: 1b76 73b9 1533 55bc 42da b43c 369d 59bc
000001e0: a42e efbc 0871 443c d3c3 633d 7bac d0bc
000001f0: cfd8 463c 10df fdba 10e0 883d a586 a73c
00000200: 41f3 5e3d 82d7 873c 5222 563d f893 d23b
00000210: b791 5abc 279e 8e3c 2f8e 79bc 8c84 f8bc
00000220: c15a f03a e24e 003d eb67 793b 4780 7a3c
00000230: 5b9b 2fbd 85ea 5c3b 2c8c cf3c e318 193d
00000240: fbb6 5a3d a6fc aa3c 4f4b c73c b118 f33c
00000250: 8c17 c4bc c7e8 193b 71ec a13c 0489 363d
00000260: 0e9f 343d c514 98bc e426 0dbd 215b 023d
00000270: d6ad 13bd 6e94 1b3d 2b80 3f3d 5c44 993c
00000280: 87b7 bf3a 2622 83bc a3b0 713b dd04 023d
00000290: 7eb0 efbc e1cc 4cbc ff3f 1cbd 61f8 503d
000002a0: c774 0fbd 4ae0 b93c 963c b4bc 5011 c5bb
000002b0: e4cd d8bc 4998 26bd 0b5a da3c 6855 123d
000002c0: 693b aabc 66a5 8d3c b533 d33a b413 1bbd
000002d0: 5850 19bd f315 04bd 8ff8 f3bb e991 3e3d
000002e0: 779b 063d afa9 f0bc 6069 0fbd 8e3e cebc
000002f0: 4975 9f3b 9a9b 24bd c2dd 0dbd 3a25 ff3b
00000300: 4375 813b e72a d13c 5442 093d 2e3e d83c
00000310: 663c 0e3d dfb7 483c 1fec 26bd c419 f33c
00000320: 86f5 55bc 2270 0ebd f33d 8a3c d1ca 083c
00000330: 1ba8 343d 57e1 b83c 9d93 b5bc 0fe1 473d
00000340: c40a a93c 2721 b43c 15ae 2dbd cd39 00bd
00000350: a219 183d ff19 a33c 62a3 263d b735 763c
00000360: 08bb 33bd bd1a 0e3c 65c6 6fbc 5573 f5ba
00000370: ea3c b8bc 2e35 41bc 2f21 cbbb a6d2 e13c
00000380: 2f60 ac39 2759 d53c d0a0 443c 8f34 17ba
00000390: d806 153d 58f6 24bc d0d7 203d 3492 2e3b
000003a0: a0f8 a73c 40f6 4dbb db80 223d 61ca 073d
000003b0: b123 a1bc a676 b83a 30c8 233d 5aa0 373a
000003c0: 9159 92bc 9d9d 4c3c 1137 733c 7231 c0bc
000003d0: bf07 bdbc 6b15 ecbc 9668 4b3d e952 00bd
000003e0: 4fed c93c 9c95 083d 0aca a2bc 0154 043d
000003f0: 9a0e a63c 191e 633c 34ab e6bc e532 013d

nonreduce2_2.bias f4 [16]
0.0044326517 0.04782992 0.019198874 -0.04785548 -0.017265359 0.03953749 -0.00144401 -0.0016424358
-0.042372126 0.011589309 -0.034561746 -0.039613765 -0.01899957 -0.0030995295 -0.042071436 0.042378966
00000000: c73f 913b 4ee9 433d f546 9d3c 1c04 44bd
00000010: 1570 8dbc 10f2 213d ef44 bdba 0047 d7ba
00000020: 658e 2dbd 16e1 3d3c 9e90 0dbd 0b42 22bd
00000030: fca4 9bbc 7a21 4bbb 1953 2cbd 9195 2d3d
