02_deep3D/model/model_sho.pt (torch, 739908 bytes, 25 tensors)

reduce1.weight f4 [64, 1, 4, 4, 4]
0	0xbbbf9bd0	-0.0058474317
1	0xbd40e8de	-0.04709708
2	0x3d995630	0.07487142
3	0xbc17ee43	-0.009273115
4	0x3cb3d8a9	0.021953898
5	0x3dbf1337	0.09329837
6	0xbde9f088	-0.11422831
7	0xbdf9fc13	-0.122062825
8	0x3df09dce	0.11748849
9	0xbd87d399	-0.06632156
10	0x3dbbe6c3	0.09174874
11	0xbd000da2	-0.031263
12	0x3df6fe60	0.12060237
13	0xbd764b3a	-0.060130335
14	0x3c104b49	0.008807012
15	0xbd1ab209	-0.037767444
16	0xbce7c564	-0.028292365
17	0xbdd2ce49	-0.10293252
18	0x3dc079bc	0.09398219
19	0x3d49e6fe	0.049292557
20	0xbcf7bf20	-0.030242503
21	0xbc9bcf33	-0.019019699
22	0xbd7893ba	-0.060687758
23	0x3dd8c515	0.105844654
24	0x3c570b00	0.013125181
25	0xbccf008d	-0.025268817
26	0xbdb65b9c	-0.08904192
27	0x3dbaf123	0.091280244
28	0xbde631c3	-0.1123996
29	0xbdd80078	-0.105469644
30	0x3b549078	0.0032434743
31	0x3d9a0e7d	0.07522295
32	0xbd889d9e	-0.06670688
33	0xbd19a62c	-0.03751199
34	0x3d6fdf01	0.058562282
35	0xbd9dcf95	-0.07705609
36	0xbda23d87	-0.07921892
37	0xbd1bd800	-0.03804779
38	0xbd0f1cae	-0.03493946
39	0x3d743bb4	0.05962725
40	0x3d98c44d	0.074593164
41	0x3daf64cf	0.085641496
42	0x3c083d97	0.008315465
43	0x3dc7c4f6	0.09754364
44	0xbdb98ea3	-0.09060409
45	0xbd37bfde	-0.044860713
46	0xbd1eefaa	-0.03880278
47	0xbcf310b5	-0.029671052
48	0xbdab6469	-0.08368761
49	0xbd922feb	-0.07138046
50	0xbb455c62	-0.003011488
51	0xbcf38187	-0.02972485
52	0x3d8db592	0.069193974
53	0x3d490a01	0.049081806
54	0x3dedfb5a	0.11620207
55	0xbd9f7168	-0.077853024
56	0xbca254e3	-0.019815868
57	0x3c8051fb	0.015664091
58	0xbbacbfc2	-0.0052718828
59	0x3d80ad37	0.06283038
60	0xbc0b7f8f	-0.008514299
61	0x3cfddc3f	0.03098881
62	0x3d6259a7	0.05526128
63	0xbd8ab1b3	-0.06772175
64	0xbd3ec5d6	-0.04657539
65	0xbdadb897	-0.08482473
66	0x3d8072fc	0.062719315
67	0xbde5bb99	-0.11217422
68	0x3dc92bb1	0.098227866
69	0xbd9eb9e0	-0.077502966
70	0xbd770ae1	-0.06031311
71	0xbcbe41b7	-0.023224695
72	0xbd20e762	-0.039283164
73	0x3d54f1e8	0.051988512
74	0xbdc43f96	-0.095824406
75	0xbd069c70	-0.032864034
76	0xbc380fc8	-0.011234231
77	0xbcce1ed4	-0.025161184
78	0x3ba27063	0.004957245
79	0xbd9e293b	-0.07722708
80	0x3d5e8c84	0.054333225
81	0x3d8f0e6d	0.069851734
82	0x3d2bb6b1	0.041922275
83	0xbd8e597a	-0.0695066
84	0xbd19d5af	-0.0375573
85	0xbddb7a00	-0.10716629
86	0x3ddca56c	0.10773739
87	0xbce9a37b	-0.028520336
88	0xbd9f128f	-0.07767212
89	0x3d70e62d	0.058813263
90	0x3cf9b9ec	0.030484162
91	0xbdb7c698	-0.089734256
92	0xbdc4cdb3	-0.096095465
93	0x3d4ed7eb	0.050498884
94	0x3d64d108	0.05586341
95	0x3c8af829	0.016964035
96	0xbc94074c	-0.018069886
97	0x3deb8880	0.11500645
98	0xbdc4e51d	-0.096140124
99	0xbd70375d	-0.05864655
100	0x3d3884af	0.045048412
101	0x3d60becc	0.054869458
102	0xbdd8fd92	-0.1059524
103	0xbdabaf88	-0.08383089
104	0xbdf29345	-0.11844496
105	0xbd1b8cb8	-0.037975997
106	0xbdf4d92c	-0.11955485
107	0xbd0acc70	-0.033886373
108	0xbda90e69	-0.08254702
109	0x3de58198	0.11206359
110	0x3d9f4fca	0.077788904
111	0x3dc2b072	0.095063105
112	0xbd847615	-0.06467835
113	0x3da28e77	0.07937329
114	0x3d3d54a5	0.0462233
115	0x397e2c14	0.00024239748
116	0xbdf53842	-0.11973621
117	0x3dd271c3	0.102756046
118	0x3d7339e4	0.05938138
119	0xbde29d79	-0.11065192
120	0xbc862366	-0.016374301
121	0x3d65fa9c	0.056147203
122	0x3ddeb248	0.10873848
123	0x3d79bbc2	0.060970075
124	0xbda4900a	-0.08035286
125	0xbd803c11	-0.06261457
126	0x3dd19f98	0.10235518
127	0xbd9352c9	-0.071935244
128	0x3d1fdc59	0.0390285
129	0xbdf0b871	-0.117539294
130	0xbd09a636	-0.033605777
131	0x3dbb42f8	0.09143633
132	0xbddf56b7	-0.109052114
133	0x3c503e92	0.01271023
134	0xbdb69a6d	-0.08916173
135	0x3df7bcc9	0.12096555
136	0x3dd668a9	0.10469181
137	0xbde65125	-0.11245946
138	0x3dbb6f1b	0.09152051
139	0xbdcacd28	-0.09902412
140	0x3d9b375d	0.07578919
141	0xbd379d56	-0.04482778
142	0x3dff6384	0.12470153
143	0x3de1e328	0.11029655
144	0xbdcacd68	-0.099024594
145	0xbdbfd8b5	-0.093675055
146	0xbcde4c25	-0.027135918
147	0x3de2fbad	0.110831596
148	0x3df669a1	0.12031866
149	0xbdb72c51	-0.089439996
150	0xbce6409b	-0.028106978
151	0xbd713c99	-0.05889568
152	0xbdcb239b	-0.099189006
153	0x3dde4de5	0.10854701
154	0xbd130a74	-0.03589864
155	0xbcaeff3d	-0.021361941
156	0xbc217952	-0.009855585
157	0xbdcd7aaa	-0.10033162
158	0x3de6ab16	0.11263101
159	0x3c2b0028	0.010437049
160	0xbd13aa54	-0.03605111
161	0x3d99a080	0.07501316
162	0x3de1d040	0.11026049
163	0xbdc7a138	-0.09747547
164	0x3d0a2aef	0.03373235
165	0x3db9064f	0.090344064
166	0x3d702165	0.058625598
167	0x3dd0efa6	0.10201959
168	0xbdd37634	-0.1032528
169	0x3d08617b	0.03329609
170	0xbd0eaf9d	-0.034835447
171	0xbd92c2ba	-0.071660474
172	0x3d39232a	0.04519955
173	0xbd90f736	-0.07078402
174	0xbdfa3b4e	-0.12218343
175	0xbde9aeef	-0.11410319
176	0x3de1f522	0.110330835
177	0xbd4e90fb	-0.050431233
178	0xbb19025c	-0.0023347354
179	0xbdf2bd30	-0.11852491
180	0x3db2a878	0.08723539
181	0x3d802a49	0.06258065
182	0x3dc0f665	0.09421996
183	0xbd55f0c3	-0.05223156
184	0xbdcdd9c7	-0.10051303
185	0x3e015722	0.12630895
186	0xbd2c7cfb	-0.04211138
187	0xbcd47bcc	-0.025937937
188	0x3c36710f	0.011135354
189	0xbdeb751e	-0.11496948
190	0x3c44a44b	0.012002061
191	0x3d468499	0.0484663
192	0xbc90480d	-0.017612481
193	0x3cb86dbe	0.022513267
194	0xbda2bcf1	-0.07946194
195	0x3db18c1d	0.086693026
196	0xbce9ca74	-0.02853892
197	0xbd6b0151	-0.057374302
198	0x3db8e2d8	0.09027642
199	0x3d6bd85b	0.05757938
200	0x3dac4407	0.08411413
201	0xbda11f51	-0.07867301
202	0xbd3365d9	-0.0437983
203	0x3d07d1db	0.03315912
204	0xbd76e947	-0.060281064
205	0xbdb7d5e2	-0.08976342
206	0xbdfacdda	-0.12246294
207	0x3db9e218	0.09076327
208	0xbd4294f1	-0.047505323
209	0x3d37422e	0.04474085
210	0xbdc097ba	-0.094039395
211	0xbd73bf89	-0.059508834
212	0xbcf0fb24	-0.029416628
213	0x3c56bb9b	0.013106252
214	0xbdaf602b	-0.085632645
215	0xbc7e6932	-0.01552801
216	0x3d444146	0.047913812
217	0xbd2ba88d	-0.04190879
218	0xbd0ede0f	-0.03487974
219	0xbdccb1cf	-0.09994852
220	0xbce50811	-0.027957948
221	0x3bfee29d	0.0077784793
222	0x3d7ca9e0	0.061685443
223	0xbdf533f5	-0.11972801
224	0xbd8faa65	-0.07014922
225	0x3e05f757	0.13082634
226	0xbd95ed7e	-0.07320689
227	0xbd8348c3	-0.064103626
228	0x3cc92c2c	0.024557196
229	0x3b7e36ef	0.0038790067
230	0xbdbd8161	-0.09253193
231	0x3c5e5097	0.013569019
232	0x3cb21c95	0.021742145
233	0xbcde062a	-0.027102549
234	0x3cdf836b	0.027284345
235	0xbce542e9	-0.027986007
236	0xbd10fd24	-0.035397664
237	0x3dae128c	0.08499631
238	0x3d04e085	0.03244068
239	0x3ce32231	0.027726265
240	0x3d5ef73d	0.054435004
241	0x3c6be4ad	0.014397782
242	0xbd16733c	-0.03673099
243	0xbdc0cbbb	-0.094138585
244	0xbca29f2d	-0.019851292
245	0x3dbc8220	0.09204507
246	0x3d9440b1	0.072389014
247	0x3dda3de4	0.10656336
248	0x3da00db9	0.078151174
249	0xbd8a072f	-0.067396514
250	0x3d9e9ad4	0.07744375
251	0xbde03ba3	-0.10948875
252	0xbd649ed1	-0.05581552
253	0x3ca96e2a	0.020682413
254	0x3dd62682	0.104565635
255	0x3d90b883	0.07066443

reduce1.bias f4 [64]
0	0xbcabe90a	-0.020985145
1	0x3e0b64c3	0.13612656
2	0x3db0a854	0.08625856
3	0x3cfa7419	0.030572938
4	0x3dfbc871	0.122940905
5	0x3e16d9fb	0.1473159
6	0x3e370917	0.17874561
7	0xbd846834	-0.06465188
8	0xbdb8e1d5	-0.09027449
9	0x3d913582	0.07090284
10	0xbc37f914	-0.011228818
11	0x3d0c962a	0.034322895
12	0x3d902335	0.07037965
13	0xbdac2098	-0.08404654
14	0x3d7e515c	0.06208931
15	0x3d38eba9	0.045146618
16	0xbcf6a4a0	-0.030107796
17	0x3db893e8	0.09012586
18	0x3def5c59	0.11687536
19	0x3dc0258f	0.09382164
20	0x3e0b042b	0.13575809
21	0x3de00d92	0.10940088
22	0xbd81b750	-0.06333792
23	0xbb4a2fbc	-0.0030851206
24	0xbc48265a	-0.012216175
25	0x3de3925f	0.111119024
26	0xbd50fae0	-0.051020503
27	0xbd43828c	-0.04773192
28	0xbd4a74e5	-0.049427886
29	0xbdbe9f23	-0.09307697
30	0xbde68c38	-0.11257213
31	0x3d97ff8e	0.0742179
32	0x3ddb657b	0.10712715
33	0x3d8c09e4	0.06837824
34	0x3d0c0cdc	0.03419195
35	0x3ded0060	0.11572337
36	0x3da776c8	0.081769526
37	0xbccd05a1	-0.025027098
38	0xbdfdd394	-0.12393871
39	0xbdda045e	-0.10645364
40	0x3e372732	0.17886046
41	0xbb0d5bb9	-0.0021569564
42	0xbdb5a15e	-0.08868669
43	0xbde61e68	-0.11236268
44	0xbd43b540	-0.047780275
45	0x3d925294	0.07144657
46	0xbc8d00e2	-0.017212335
47	0x3d885ca8	0.06658298
48	0x3e40c4b8	0.18825042
49	0xbd4b7317	-0.049670305
50	0x3e07aede	0.132503
51	0xbdd88caa	-0.105737045
52	0xbabc18e2	-0.0014350677
53	0x3d990924	0.074724466
54	0xbc0cc905	-0.008592849
55	0x3dc981c8	0.09839207
56	0x3d9779ed	0.07396302
57	0x3dc0bd07	0.09411054
58	0x3d492faa	0.04911772
59	0x3de0858d	0.10962973
60	0xbd878c18	-0.06618518
61	0xbdbbebd1	-0.09175838
62	0xbd39b809	-0.045341525
63	0x3d0a4994	0.033761576

nonreduce1_1.weight f4 [32, 64, 3, 3, 3]
0	0x3bd2e660	0.0064361542
1	0x3a066eae	0.0005128187
2	0xbbd1912d	-0.00639548
3	0x3ad70652	0.0016405082
4	0xbcc3713c	-0.023857705
5	0xbc8361a6	-0.016037773
6	0xbcc0bed1	-0.023528488
7	0x3c15f685	0.009153013
8	0x3c0ada29	0.008474865
9	0x3c3c7498	0.0115024075
10	0x3c9d3563	0.019190496
11	0x3ceafc0d	0.02868464
12	0xbc1d75b1	-0.009610579
13	0xbaf6d041	-0.0018830375
14	0x3c2c2225	0.010506188
15	0xbc237365	-0.009976243
16	0xbbffceb0	-0.0078066215
17	0xbc18000a	-0.009277353
18	0xbb389064	-0.0028162235
19	0x3c01a2b5	0.007912328
20	0xbad4dbc6	-0.0016239814
21	0x3cb4164f	0.021983294
22	0x3c7f6fa1	0.015590579
23	0x39056622	0.00012721916
24	0xbcbe9632	-0.023264978
25	0x3c991c9d	0.018690402
26	0x3b23c351	0.0024988244
27	0x3c2dd917	0.01061084
28	0xbc88ee40	-0.016715169
29	0xbc5aedd3	-0.013362366
30	0x3abceb08	0.0014413306
31	0x3cb1e872	0.021717284
32	0xbc47aa0d	-0.012186539
33	0xbb80bad2	-0.0039285207
34	0x3c8102a8	0.015748337
35	0xbc1326e2	-0.008981438
36	0xbb57e26b	-0.0032941352
37	0x3ca7cc77	0.020483239
38	0xbc47c66d	-0.0121933045
39	0x3c8bea69	0.017079549
40	0x3c9495df	0.01813787
41	0xbca3eea6	-0.020011257
42	0xbbcc9e0e	-0.0062444275
43	0x39fd680d	0.00048333444
44	0x3be459ad	0.006968698
45	0xbbb7ce3f	-0.0056093032
46	0x3c8cac81	0.0171721
47	0x3ccabb07	0.024747385
48	0x3ca935fb	0.020655623
49	0xbc3aebc8	-0.011408754
50	0x3b7d9e68	0.0038699154
51	0x3c98e349	0.018663066
52	0x3c4d320d	0.01252414
53	0x3caebdee	0.0213308
54	0x3cb97fe4	0.02264399
55	0x3ceb4db5	0.028723577
56	0x3c60fc3c	0.013732012
57	0x3c685efc	0.014182802
58	0x3ba74d46	0.0051056473
59	0xbc7ffab3	-0.015623736
60	0x3cdf1690	0.027232438
61	0x3c90d5fb	0.017680159
62	0x3cf35132	0.029701803
63	0xbc378483	-0.011201027
64	0x3ae11098	0.0017171083
65	0x3c1c7e79	0.009551638
66	0x3ca467a9	0.02006896
67	0x3c80ad34	0.01570759
68	0xbb7c11fa	-0.0038462863
69	0x3c82eb49	0.015981333
70	0x3ce7d245	0.028298507
71	0x3d10fcb1	0.035397235
72	0xbc12377d	-0.008924362
73	0x3c406b75	0.01174437
74	0x3cc62cef	0.024191348
75	0x3b3d6072	0.0028896597
76	0x3c36c8c1	0.011156262
77	0xbb21f72d	-0.0024713979
78	0x3da8de53	0.0824553
79	0x3d35037b	0.044192772
80	0x3d96093c	0.0732598
81	0x3a805623	0.0009791296
82	0x3cec0908	0.0288129
83	0x3be90e5d	0.007112308
84	0xbc3b15f9	-0.011418813
85	0x3c82aa36	0.015950304
86	0xbc2ae0b2	-0.010429548
87	0x3d725423	0.05916227
88	0x3c54dad3	0.012991625
89	0x3d23b213	0.039964747
90	0xbba989d5	-0.0051739016
91	0x3cd4f7fe	0.025997158
92	0x3cdbbe45	0.026824126
93	0xbba9c7a5	-0.00518127
94	0xbc191673	-0.009343731
95	0x3c9db366	0.019250583
96	0x3d5a1a85	0.053247947
97	0x3c6d233b	0.014473732
98	0xbb17c85b	-0.0023160193
99	0x3ae52daf	0.0017484928
100	0x3cff3033	0.031150913
101	0x3c446572	0.011987077
102	0x3d1df34b	0.0385621
103	0x3cd3d022	0.025856081
104	0x3c9518cc	0.0182003
105	0x3d6aa2e4	0.05728425
106	0x3cd91cd6	0.026503008
107	0x3cf94984	0.030430563
108	0x3d2beca8	0.04197374
109	0x3d52bdf7	0.051450696
110	0x3d0883a8	0.033328682
111	0x3bcd7478	0.0062699877
112	0x3cc4eef5	0.024039725
113	0x3d469b3f	0.048487898
114	0x3c22c750	0.009935215
115	0x3bdbd268	0.006708432
116	0x3c91127d	0.017709011
117	0x3d3c0ff8	0.045913666
118	0x3d4d6635	0.0501463
119	0x3d5b782e	0.05358141
120	0xbc347782	-0.011014821
121	0xbbc60fb5	-0.006044353
122	0x3c91e538	0.017809495
123	0x3c54d32c	0.0129898
124	0x3bca25d0	0.0061690584
125	0x3cb81663	0.022471612
126	0x3d24752f	0.040150817
127	0x3cc994cd	0.024607087
128	0x3d3da2bb	0.04629777
129	0x3c1a61e1	0.00942275
130	0x3cd45b0c	0.02592232
131	0x3c0e1c4b	0.008673738
132	0x3c402027	0.011726416
133	0xbc24b701	-0.010053397
134	0x3d209939	0.039208625
135	0x3ce3f0fa	0.027824868
136	0x3d5f0782	0.05445052
137	0x3dbb3146	0.091402575
138	0x3d138152	0.036012
139	0x3db981de	0.09057973
140	0x3da33107	0.079683356
141	0x3d381c34	0.04494877
142	0x3d813b4e	0.063101396
143	0x3d8ca265	0.06866912
144	0x3cef98e3	0.029247707
145	0x3d5dcefe	0.05415248
146	0x3cd3903b	0.02582561
147	0x3d61ea73	0.05515523
148	0x3d338405	0.043827076
149	0x3d79ddc1	0.061002497
150	0x3c8fb257	0.017541094
151	0x3d8c9b9b	0.06865617
152	0x3d3b41c5	0.04571702
153	0x3d4e34bb	0.050343256
154	0x3d64f350	0.055896103
155	0x3d7eac9d	0.062176336
156	0x3d49286b	0.04911081
157	0x3dc2ccce	0.0951172
158	0x3da3c02f	0.079956405
159	0x3da5749e	0.080788836
160	0x3db03af0	0.086049914
161	0x3da2353f	0.07920312
162	0x3d8b6555	0.06806437
163	0x3d59620b	0.053072017
164	0x3db5f54f	0.088846795
165	0x3d88438f	0.06653511
166	0x3d9321f0	0.071842074
167	0x3d8d9368	0.06912881
168	0x3da1dfc6	0.079040095
169	0x3dbdb44d	0.09262905
170	0x3d8f7d0c	0.07006273
171	0x3d897236	0.06711237
172	0x3da18f64	0.07888678
173	0x3d6d9f5f	0.058013316
174	0x3d48dd5a	0.049039222
175	0x3dc18355	0.09448878
176	0x3db4db28	0.08830863
177	0x3dc9631f	0.09833359
178	0x3dd84de9	0.10561735
179	0x3d968638	0.07349819
180	0x3d0b4bc1	0.03400779
181	0x3d8e08bf	0.06935262
182	0x3d917c57	0.07103794
183	0x3d04df07	0.032439258
184	0x3d9d882c	0.07691988
185	0x3d9d087b	0.07667633
186	0x3dbd15cd	0.09232674
187	0x3dc02755	0.09382502
188	0x3db02966	0.08601646
189	0x3c5a8a1b	0.013338591
190	0x3c082108	0.0083086565
191	0x3d14133e	0.036151163
192	0x3cf5d30f	0.030007867
193	0x3c4efae7	0.012633062
194	0xbb26093e	-0.0025335099
195	0x3ccdf4ef	0.025141208
196	0x3d29c98c	0.041451976
197	0x3d2d960d	0.042379428
198	0x3cdcd890	0.026958734
199	0xbb6e1f72	-0.003633466
200	0x3aa80eb1	0.0012821761
201	0x3a80e75b	0.0009834574
202	0x3cfbd11a	0.030739356
203	0x3c04fed7	0.008117399
204	0x3d075610	0.03304106
205	0x3cdb1df0	0.026747674
206	0x3cfd14e8	0.030893758
207	0x3bf28a29	0.007401724
208	0x3c9e56dc	0.019328527
209	0x3cdbcaba	0.026830066
210	0xbb3ff113	-0.0029287979
211	0xbc11e653	-0.008905011
212	0x3b7a28ef	0.003817137
213	0x3d776ccd	0.060406495
214	0x3d10e175	0.035371263
215	0x3c4bb3c3	0.012432995
216	0x3cb50a8e	0.02209976
217	0x3c846dc8	0.016165629
218	0x3d736e22	0.059431203
219	0x3c50cd44	0.012744252
220	0x3c8ceb64	0.017202087
221	0x3d0f4e25	0.034986634
222	0xbc9d7e45	-0.019225249
223	0x3c4215d6	0.011846026
224	0x3d412e7d	0.047163475
225	0x3bb54508	0.005531911
226	0xbc3c877a	-0.0115069095
227	0x3d857383	0.06516173
228	0x3c1187c0	0.008882463
229	0x3c7117b8	0.014715128
230	0x3ce3b577	0.02779649
231	0xbca1c403	-0.019746786
232	0xbb9d8fca	-0.0048084008
233	0x3c88c3c2	0.016694907
234	0xbcaa27b7	-0.02077089
235	0x3cc0b957	0.023525877
236	0x3ca2d659	0.0198776
237	0x3c249621	0.010045559
238	0x3cb68581	0.022280456
239	0x3c436953	0.011926967
240	0x3b76577f	0.0037588773
241	0x3c991127	0.018684937
242	0x3bbb7e82	0.005721868
243	0x3c9c58e9	0.019085364
244	0xbc4e5b7d	-0.012595055
245	0x3bb23c81	0.0054393415
246	0x3b6ac00f	0.0035820042
247	0xbc01a32d	-0.007912439
248	0x3b7f6f04	0.0038976083
249	0x3c9bf4a3	0.01903755
250	0xbcadb9ac	-0.0212067
251	0xbc99b055	-0.01876084
252	0x3b1b7736	0.0023722178
253	0xbca06174	-0.01957772
254	0x3c873a5d	0.016507322
255	0xb81c67bb	-3.7289905e-05

nonreduce1_1.bias f4 [32]
0	0x3d45c236	0.048280917
1	0xbb6dc8c7	-0.0036283003
2	0x3cace80a	0.021106739
3	0x3bbf4826	0.005837458
4	0x3cf00ec8	0.029303923
5	0xb988f44c	-0.00026121957
6	0x3c08707a	0.008327598
7	0x3c7f5641	0.015584529
8	0x3bc78763	0.0060891374
9	0x3b471ab2	0.0030380902
10	0xbb9b39e3	-0.0047371252
11	0x3c82d3cb	0.015970131
12	0x3c2e3435	0.010632564
13	0x3c5da71b	0.013528611
14	0x3c9ad847	0.018901957
15	0xbbb4a360	-0.00551264
16	0x3b75b7e2	0.0037493636
17	0xbbd82908	-0.006596688
18	0x3c6035bb	0.013684685
19	0x3c92d725	0.017924855
20	0xbb32e55e	-0.0027297358
21	0x3c953a66	0.018216323
22	0x3d07d104	0.033158317
23	0x3d174f9e	0.036941163
24	0x3d169e41	0.036772016
25	0x3c551f18	0.013007902
26	0x3c812825	0.015766213
27	0x3cfcfa01	0.03088093
28	0x3b1a23e6	0.0023519932
29	0x3a88c4b1	0.0010434595
30	0x3c03e0d7	0.008049211
31	0x3cdc45c5	0.026888737

nonreduce1_2.weight f4 [32, 32, 3, 3, 3]
0	0x3d4b7564	0.0496725
1	0x3d745018	0.059646696
2	0x3d38d0a6	0.045120858
3	0x3c174c44	0.009234492
4	0x3d48bb40	0.0490067
5	0x3d07df97	0.033172216
6	0x3d82c881	0.06385899
7	0x3d3a9df3	0.04556079
8	0x3c091c7b	0.008368607
9	0x3cfbade0	0.030722558
10	0x3ca54192	0.020172868
11	0x3ca93ea4	0.020659752
12	0x3d3873f8	0.04503247
13	0x3d2a8baa	0.0416371
14	0x3cf433e6	0.029809903
15	0x3d3fb87d	0.0468068
16	0x3cbff381	0.023431541
17	0x3d405363	0.046954524
18	0x3d90665b	0.07050773
19	0x3c2b55a7	0.010457433
20	0x3ce5faa4	0.028073616
21	0x3cdce300	0.02696371
22	0xbb941c54	-0.0045199785
23	0x3c9c68f2	0.01909301
24	0xbc2040fe	-0.00978112
25	0x3d1ec64b	0.038763326
26	0x3d4ca399	0.049960706
27	0x3c021dfd	0.00794172
28	0xbcc41c16	-0.023939174
29	0xbb2217e8	-0.0024733488
30	0x3c14f697	0.009091995
31	0x3bfd5e8d	0.0077322186
32	0x3cf6dcc3	0.030134564
33	0x3b263dab	0.0025366347
34	0x3c413ac9	0.011793801
35	0xbc89b6e5	-0.016810844
36	0x3c7955ed	0.01521824
37	0x3c87cca6	0.016577076
38	0xbc17c7ae	-0.009263916
39	0x3cf68589	0.030092971
40	0x3c8d05ac	0.017214619
41	0xbc41a664	-0.011819456
42	0xbcf92016	-0.030410808
43	0xbd025b24	-0.0318252
44	0xbcc86c99	-0.024465846
45	0x3cda2f7a	0.026633967
46	0xbc77f646	-0.0151344
47	0xbbcbdbb6	-0.00622126
48	0x3c8735fc	0.016505234
49	0x3cdae5fb	0.026720991
50	0xbc43b5ba	-0.011945182
51	0x3be80397	0.007080506
52	0xbbbbc5e2	-0.0057303766
53	0xbb0c8d11	-0.0021446387
54	0x3cc343ae	0.023835983
55	0xbc1f4dfd	-0.009723184
56	0xbc517009	-0.012783059
57	0x3bbc8c98	0.005754065
58	0x3cfb4e0d	0.030676866
59	0x3c9d2944	0.019184716
60	0xbcf831f1	-0.030297251
61	0x3c42d5d1	0.011891798
62	0xbba8f67e	-0.0051563373
63	0x3cdabd3b	0.02670156
64	0xbb95a6a3	-0.004566984
65	0x3b55b1a0	0.0032607093
66	0x3bd148ee	0.0063868677
67	0xbd086aac	-0.033304855
68	0xbc49c733	-0.012315559
69	0x3c6380f8	0.013885729
70	0xbd11be9a	-0.035582162
71	0xbce879b0	-0.028378338
72	0xb90c3a47	-0.0001337315
73	0x3ca277ab	0.019832453
74	0x3cc18785	0.023624191
75	0x3c1fab5c	0.009745445
76	0xbc75c341	-0.015000165
77	0xbb64e4f9	-0.0034926517
78	0x3b7177ce	0.003684509
79	0xbcb4820b	-0.022034666
80	0x3c0c5f84	0.008567695
81	0x3cdea6bd	0.027179116
82	0x3cc8c9d9	0.024510311
83	0x3b5b8752	0.0033497405
84	0xbcaa3049	-0.020774977
85	0xbcab6dd7	-0.0209264
86	0xbd0aea1e	-0.033914678
87	0x3cdf2ac0	0.027242064
88	0x3c978989	0.018498199
89	0xbcbf87f3	-0.023380255
90	0xbce86f40	-0.02837336
91	0xbc64dafd	-0.0139682265
92	0xbd08b654	-0.033377007
93	0xbcdf4fce	-0.027259734
94	0x3c25ff28	0.010131635
95	0xbd0a6ee8	-0.033797175
96	0x3c977131	0.018486591
97	0x3c533122	0.012890132
98	0xba577672	-0.0008219249
99	0x3cdabb5e	0.026700672
100	0x3c2c46b6	0.010514906
101	0xbb39e0fb	-0.0028362859
102	0x3ce2611e	0.0276342
103	0xbcf72ed1	-0.030173691
104	0x3bf14343	0.0073627545
105	0xbc0fa949	-0.008768388
106	0x3cdfce59	0.027320074
107	0xbcf35931	-0.029705616
108	0x3cdaace5	0.02669377
109	0xbcf53010	-0.029930145
110	0xbc42fec7	-0.011901564
111	0xbbf805fe	-0.0075690737
112	0x3bc1c0af	0.0059128623
113	0xbcc3999e	-0.023876961
114	0x3c7fe0c8	0.015617557
115	0x3a904fd2	0.0011010116
116	0x3ccee4d0	0.02525559
117	0x3b50e531	0.003187489
118	0xbc3c6e5c	-0.011500921
119	0xbbd24fcc	-0.006418204
120	0xbd1ec33a	-0.0387604
121	0xbca85fd1	-0.020553501
122	0x3c221549	0.00989277
123	0xbd0145d8	-0.03156075
124	0x3ca400d9	0.020019935
125	0x3c89dd0a	0.016829032
126	0xbc5aabcc	-0.013346624
127	0xbc918e52	-0.017768059
128	0x3bd3a365	0.006458687
129	0x3c5e139d	0.013554481
130	0xbc8c434f	-0.017121939
131	0x3d01de3e	0.031706087
132	0xbce961d0	-0.028489023
133	0xbc007c2b	-0.007842104
134	0xbbf97b37	-0.0076135653
135	0xbb95888c	-0.004563397
136	0x3ccbea43	0.024891978
137	0xbd084245	-0.033266325
138	0xbcea063f	-0.028567431
139	0xbc157aa4	-0.009123478
140	0xbd028e70	-0.03187412
141	0xbcf85b40	-0.030316949
142	0x3cb6896b	0.022282323
143	0x3b8a1b80	0.004214704
144	0x3be63eee	0.007026545
145	0x3b5f0890	0.0034032203
146	0x3b6318b5	0.0034652178
147	0xbd460a0d	-0.04834943
148	0x3b800a9f	0.003907516
149	0x3c5e85a4	0.013581667
150	0x3c246830	0.010034606
151	0xbc4432f0	-0.011975035
152	0xbc96b485	-0.018396625
153	0x3d1faa61	0.038980845
154	0x3c9628af	0.018329946
155	0xbb448352	-0.00299855
156	0xbce02c3a	-0.027364839
157	0x384c9848	4.8779213e-05
158	0xbcf86888	-0.030323282
159	0xbcc04b0b	-0.023473283
160	0xbce082c8	-0.027406111
161	0x3c6f2818	0.014596961
162	0x3c0283fb	0.007966037
163	0x3d0033e9	0.031299505
164	0xbb4519ff	-0.003007531
165	0x3c10283b	0.008798654
166	0x3c2a80fc	0.010406729
167	0xbc7ead3d	-0.015544233
168	0x3d4b8f39	0.049697135
169	0x3cf8eb87	0.030385746
170	0x3ca1cd88	0.019751325
171	0x3c786886	0.015161639
172	0x3cc1c4f7	0.02365349
173	0xbcc9f63a	-0.024653543
174	0xbcbfa6bc	-0.023394935
175	0x3cb3772f	0.021907417
176	0x3d036f95	0.032088835
177	0x3caf369c	0.021388344
178	0x3d0b7c08	0.034053832
179	0xbba2a56c	-0.0049635675
180	0x3c8929a1	0.016743483
181	0x3cbbb0bb	0.02291142
182	0xbcaa7924	-0.020809717
183	0x3d0791d5	0.03309806
184	0x3d23ec75	0.040020425
185	0xbc9785e0	-0.018496454
186	0x3d1a1701	0.037619594
187	0x3ce5bef1	0.02804515
188	0x3bb1052e	0.005402229
189	0xbbcfe36a	-0.0063442485
190	0x3b1bcd5d	0.002377353
191	0xbcc5da45	-0.02415193
192	0xbc567f65	-0.013091897
193	0x3bf91abf	0.0076020653
194	0xbd0fe40f	-0.035129603
195	0x3ca0a7e7	0.019611312
196	0x3bf9e53b	0.0076262034
197	0x3c0ac502	0.008469822
198	0xbc0de6e0	-0.008661002
199	0x3ccc50a6	0.0249408
200	0xbbc6b8e7	-0.0060645225
201	0xbce4b964	-0.027920432
202	0xbcd26239	-0.025681602
203	0xbcfcd726	-0.03086431
204	0xbc597d69	-0.013274529
205	0xbcbe9329	-0.02326353
206	0xbcbffcd8	-0.023435995
207	0xbcc0473a	-0.023471463
208	0x3ce70e60	0.028205097
209	0xbd0c8fdf	-0.034316894
210	0x3b0e6ef9	0.0021733625
211	0xbb4cbd39	-0.0031240715
212	0x3c66003c	0.014038142
213	0xbc89b524	-0.016810007
214	0x3d052844	0.032509103
215	0xbc7c4c6e	-0.015399082
216	0x3cbad5db	0.022807052
217	0x3d314fde	0.043289058
218	0x3a9da2aa	0.0012026627
219	0x3c8b6944	0.017017968
220	0xbb8acc6f	-0.004235796
221	0x3d4099a8	0.047021538
222	0x3d697e37	0.057005133
223	0x3cdb2e06	0.026755344
224	0x3d2b53ce	0.04182797
225	0xbad29acf	-0.0016067865
226	0xbc149a34	-0.009069968
227	0xbaa91f2e	-0.0012902969
228	0x3c980f77	0.018562062
229	0x3a829a7d	0.0009964254
230	0xbc189322	-0.009312423
231	0x3d57143b	0.052509528
232	0x3d1bfe8d	0.038084555
233	0x3d3d617b	0.046235543
234	0x3bddcb78	0.00676864
235	0x3d56b37c	0.052417263
236	0xbc4b9373	-0.012425291
237	0x3d0c8083	0.034302246
238	0xbc17fdf5	-0.009276857
239	0xbc5d5e56	-0.013511261
240	0x3d4f290e	0.050576262
241	0x3d018d2f	0.031628784
242	0x3cfc8609	0.030825632
243	0xbb811542	-0.0039393017
244	0xbce4929a	-0.027901936
245	0x3c0ddef0	0.0086591095
246	0xbcf55159	-0.029946016
247	0xbc4f87fb	-0.012666698
248	0x3cbc6b96	0.02300052
249	0xbd10526f	-0.035234865
250	0x3aa1a460	0.0012332313
251	0xbbc84f0c	-0.0061129387
252	0xbcd68ce5	-0.02619023
253	0x3c6284f4	0.013825644
254	0xbc343db9	-0.011001044
255	0xbc888bd0	-0.01666823

nonreduce1_2.bias f4 [32]
0	0x3d4a70da	0.04942403
1	0xbc1e8a8c	-0.009676587
2	0xbc489536	-0.012242606
3	0xb99d2c7d	-0.0002997852
4	0x3ba39b69	0.0049928916
5	0xbc3ba885	-0.011453752
6	0xbca019c4	-0.019543536
7	0xbae3977c	-0.0017363871
8	0xbcd9aaa5	-0.026570627
9	0x3d20db20	0.039271474
10	0xbbcedeca	-0.0063131796
11	0xbc69e03b	-0.014274652
12	0xbc55f9c9	-0.013060042
13	0x3c0f7de2	0.00875804
14	0xbb8705f8	-0.0041205846
15	0x3b3fb4a8	0.0029251967
16	0x3d0e9fb7	0.034820285
17	0x3b9a3977	0.0047065574
18	0x3d7de35b	0.0619844
19	0x3d11f00c	0.035629317
20	0x3c99b020	0.01876074
21	0x3d2c1668	0.042013556
22	0xbb8ce00f	-0.004299171
23	0xbbe582cc	-0.0070041176
24	0x3c67aefa	0.014140839
25	0x3d043273	0.032274675
26	0x3bfd91fb	0.0077383495
27	0x3d4ca6ed	0.04996388
28	0x3cf9189d	0.030407244
29	0xbc0cfe9e	-0.008605627
30	0xbbd744fb	-0.0065695024
31	0x3d644776	0.055732213

nonreduce1_3.weight f4 [32, 32, 3, 3, 3]
0	0xbb5ac47c	-0.0033381274
1	0xbca21394	-0.019784726
2	0x3d009a0c	0.03139691
3	0x3cb518e3	0.022106593
4	0xbc15503a	-0.009113366
5	0x3b943ab0	0.0045235977
6	0xbc9ca694	-0.0191224
7	0xbcbe7501	-0.023249151
8	0x3c26d3b4	0.01018231
9	0xbc828e5b	-0.015937021
10	0xbc3e8aa6	-0.011629736
11	0x3cd7b081	0.02632928
12	0x3cad0226	0.021119189
13	0xbb989ae1	-0.004657135
14	0x3cb15fd1	0.021652134
15	0xbbf80343	-0.007568748
16	0x3b0988ae	0.0020986008
17	0xbcaef94a	-0.021359105
18	0xbc5aee23	-0.01336244
19	0x3b45be0c	0.0030173091
20	0xbcb9f08e	-0.022697713
21	0x3adea2b1	0.0016985742
22	0xbce8cbc9	-0.028417485
23	0xbc1a7c73	-0.009429085
24	0xbc8239eb	-0.015896758
25	0x3b08d206	0.0020877137
26	0xbc085eba	-0.008323366
27	0xbc1772f2	-0.009243714
28	0x3ba60fb4	0.00506779
29	0xbd080fcb	-0.033218186
30	0x3a4e91c6	0.00078799983
31	0xbb1a0357	-0.0023500526
32	0xbc666592	-0.014062302
33	0xbd0b22f8	-0.033968896
34	0xbc3802c3	-0.011231127
35	0xb9ff560b	-0.00048701497
36	0xbd09acea	-0.03361217
37	0xbcadf12f	-0.02123317
38	0x3ccaca13	0.02475456
39	0xb9b7fb5d	-0.0003509176
40	0xbbf52ef6	-0.007482405
41	0x3c903e31	0.01760778
42	0x3c7c7e1b	0.015410925
43	0x3c22a9bd	0.009928164
44	0x3c2c93b5	0.010533263
45	0xbc41c840	-0.0118275285
46	0xbc8e2200	-0.017350197
47	0x3b64a681	0.0034889283
48	0xbc810771	-0.015750619
49	0x3ca449a9	0.020054655
50	0xbbf84cea	-0.0075775282
51	0xbc1424ca	-0.009041974
52	0xbcb8d9b4	-0.022564746
53	0x3c3084a5	0.010773812
54	0xbcf54a8a	-0.02994277
55	0x3cb5180f	0.022106199
56	0xbc45e876	-0.012079349
57	0x3c5fa826	0.01365093
58	0xbcc51dbc	-0.02406203
59	0x3bab5473	0.005228573
60	0xbc8670a5	-0.016411135
61	0x3c18184e	0.009283138
62	0xbc3d04bc	-0.011536773
63	0x3be64909	0.0070277494
64	0xbcd88ec7	-0.026435269
65	0xbc4862dd	-0.012230602
66	0x38c769a0	9.508734e-05
67	0x3ce8210c	0.02833607
68	0xbccc875e	-0.024966892
69	0x3bdd9e6b	0.0067632697
70	0x3c8f0c4d	0.01746192
71	0x3cbeb3ae	0.023279037
72	0xbc5d2688	-0.013497956
73	0x3c7fad57	0.015605292
74	0xba0fc350	-0.0005484121
75	0xbc48139f	-0.012211709
76	0xbcbb68ce	-0.022877123
77	0x3c6e7a22	0.014555486
78	0xbc9cdb96	-0.019147675
79	0xbd073eeb	-0.033018988
80	0xbc5f2725	-0.013620173
81	0xbc8e1eaf	-0.017348615
82	0x3ce91ea4	0.028456993
83	0x3b4fad05	0.003168882
84	0x3c422125	0.011848723
85	0x3cf8f1fa	0.03038882
86	0xbd06453d	-0.032780875
87	0x3bc432c9	0.0059874994
88	0xbc331882	-0.010931136
89	0xbc8cee24	-0.017203398
90	0x3cd96c25	0.026540825
91	0x3d01c455	0.031681377
92	0xbca47704	-0.020076282
93	0xbcdc6e14	-0.026907958
94	0xbc935218	-0.017983481
95	0xbcdf4bfe	-0.027257916
96	0x3cd29716	0.025706809
97	0x3c773d49	0.015090295
98	0x3bb42338	0.0054973625
99	0xbcdffa20	-0.027340949
100	0xbafff4fb	-0.0019527966
101	0xbcf87ae9	-0.030332046
102	0x3add7977	0.0016897161
103	0x3c4a6529	0.01235322
104	0x3d0b899b	0.034066778
105	0xbca4d9c1	-0.020123364
106	0x3b3034fb	0.0026887048
107	0x3c812bc3	0.015767938
108	0x3bbaa3b6	0.0056957854
109	0xbbe6a935	-0.007039214
110	0x3a11c1aa	0.0005560169
111	0xbc54a2f8	-0.012978308
112	0xbc2c9162	-0.010532709
113	0xbc4c9b69	-0.012488225
114	0xbce6a914	-0.028156795
115	0x3cc4e8d5	0.024036804
116	0xbcb81f6c	-0.02247592
117	0xbc209f36	-0.009803584
118	0xbcaff7bc	-0.021480434
119	0xbce04c24	-0.027380057
120	0x3cc20c7e	0.023687597
121	0xbc7eae93	-0.015544551
122	0x3ce2b106	0.027672302
123	0x3b906971	0.004407101
124	0xbc9db099	-0.019249247
125	0x3c5f095f	0.013613074
126	0x3c28e4fb	0.010308499
127	0xbcd873bb	-0.026422372
128	0x3c2d399c	0.010572817
129	0x3c7a4035	0.015274097
130	0x39bb87af	0.00035768512
131	0xbbf29a7a	-0.007403669
132	0x39be791c	0.00036329858
133	0xba02fb6a	-0.000499657
134	0xbd01657a	-0.031590916
135	0x3c0ef335	0.008724977
136	0xbd00d36b	-0.031451624
137	0xbc93b653	-0.018031275
138	0xbcacddf6	-0.021101933
139	0xbcecc0cc	-0.028900526
140	0x3bd7e82e	0.0065889573
141	0xbc941d80	-0.018080473
142	0x3c390e2c	0.011294883
143	0xbc93b1d8	-0.018029138
144	0xbcbe5405	-0.023233423
145	0x3b87ffaa	0.0041503506
146	0xbc10cc0c	-0.008837711
147	0xbcd75258	-0.026284382
148	0x3c4dde63	0.012565228
149	0x3ca2a284	0.019852884
150	0x3cb69cb5	0.02229152
151	0x3ca37c30	0.019956678
152	0xbba0d486	-0.0049081473
153	0x3c8b0395	0.016969481
154	0xbc88c554	-0.016695656
155	0x3c2ccf2f	0.010547443
156	0xbbb27dbe	-0.0054471185
157	0xbceb72dc	-0.028741293
158	0xbcd0f8e4	-0.025509305
159	0xbcc294a2	-0.023752514
160	0x3caaaa52	0.020833168
161	0xbd092663	-0.033483874
162	0x3cb29776	0.021800738
163	0xbc62136e	-0.013798578
164	0xbd0e8644	-0.034796014
165	0x3c7dd3a3	0.015492353
166	0xbc31a2ff	-0.010842084
167	0x3b53483f	0.0032239107
168	0x3cb6acba	0.02229916
169	0xbce99d87	-0.028517498
170	0xbd028d6a	-0.031873144
171	0x3cbd6c69	0.023122983
172	0x3c5f5d96	0.0136331525
173	0x3c2cd1f2	0.010548102
174	0xbc87401d	-0.016510064
175	0xbcf067f1	-0.029346438
176	0xbc62dc80	-0.013846517
177	0x3ba3f952	0.0050040865
178	0xbd0cb253	-0.03434975
179	0xbcb6b913	-0.022305047
180	0x3b12f4d5	0.0022423763
181	0x3af7e836	0.0018913809
182	0xbb447e93	-0.002998267
183	0xbcc8b6a6	-0.024501156
184	0xbd1017cc	-0.035178944
185	0x3c8593ee	0.01630589
186	0x3d037065	0.03208961
187	0x3c8cc7c9	0.017185109
188	0xbceba2e8	-0.028764203
189	0x3b564d4d	0.0032699883
190	0x3cd36c6f	0.025808541
191	0xbc9c9fa1	-0.019119086
192	0x3ca56f29	0.020194607
193	0xbc96bb26	-0.018399786
194	0xba4a481e	-0.0007716435
195	0x3ca9e240	0.020737767
196	0xbd04b0e2	-0.03239525
197	0xbcfc99a6	-0.030834984
198	0x3c23f263	0.01000652
199	0x3c3aacef	0.01139377
200	0xbc882484	-0.016618975
201	0x3c921194	0.017830648
202	0xbb3cf0f3	-0.002883014
203	0xbc8edb25	-0.01743848
204	0xbd086e8c	-0.03330855
205	0x3c943fcb	0.018096825
206	0x3cc33246	0.023827683
207	0xbb6b410c	-0.0035896925
208	0x3c7d7068	0.015468694
209	0x3ad08f0c	0.0015911772
210	0xbbedbf38	-0.007255461
211	0x3ca128e5	0.01967282
212	0x3ceeac88	0.029135004
213	0x3cd23b87	0.02566315
214	0x3d008bd4	0.03138335
215	0xbb2a5c57	-0.002599498
216	0x3cee83e0	0.029115617
217	0x3add154f	0.0016867312
218	0xbcda48e8	-0.026646093
219	0x3c4ffc0f	0.012694373
220	0xbc484e7f	-0.012225746
221	0x3b7a2900	0.003817141
222	0xbcde4f31	-0.02713737
223	0xbaaaf8dd	-0.0013044138
224	0x3d058d63	0.03260554
225	0xbc97c115	-0.018524686
226	0x3c861781	0.01636863
227	0x3c870014	0.01647953
228	0x3c3afe59	0.01141318
229	0x3be3d91d	0.006953372
230	0xbcc970ed	-0.02458998
231	0xbd045905	-0.03231146
232	0xbcef4d24	-0.029211588
233	0x3ce332de	0.027734216
234	0x3c8516a1	0.016246142
235	0xbd0579bf	-0.03258681
236	0x3b0e691e	0.0021730135
237	0xba0784bf	-0.0005169622
238	0x3cee8102	0.02911425
239	0x3ce17375	0.027520875
240	0xbcaca74c	-0.021075867
241	0xbcaf99f7	-0.02143572
242	0xbc33b1f4	-0.01096772
243	0xbcdf8051	-0.027282866
244	0xbced727e	-0.028985258
245	0x3c44e241	0.012016834
246	0x3ac9f8e1	0.0015409255
247	0xbcd47a13	-0.025937116
248	0xbd014a64	-0.031565085
249	0x3b0ca3a8	0.0021459851
250	0xbd159f28	-0.036528736
251	0xbc8bfd13	-0.017088449
252	0xbc33ce2b	-0.010974447
253	0x3b3609ac	0.002777676
254	0x3ca48e0b	0.020087263
255	0xbaa557b2	-0.0012614636

nonreduce1_3.bias f4 [32]
0	0xbc84dc76	-0.016218405
1	0x3be623b3	0.0070232986
2	0x3cd1d7bb	0.025615564
3	0x3c7519e8	0.01495979
4	0xbc431ef4	-0.011909235
5	0x3caf58a8	0.02140458
6	0xbc468365	-0.012116288
7	0x3ca2253e	0.01979315
8	0x3d1305e1	0.03589428
9	0x3d205322	0.03914178
10	0x3cd06562	0.025438968
11	0x3d32853b	0.04358409
12	0x3bf43b5f	0.0074533666
13	0x3d38015a	0.044923164
14	0x3d5d552d	0.054036308
15	0x3d2a5d04	0.041592613
16	0x3d3ab2af	0.045580562
17	0x3cba9019	0.02277379
18	0x3d058fe3	0.032607924
19	0x3d0dbad2	0.034601994
20	0x394564c1	0.00018824918
21	0x3c69541d	0.014241246
22	0x3c045f51	0.008079366
23	0xbbe08642	-0.0068519423
24	0xbc16668c	-0.0091797225
25	0x3b9fb872	0.0048742825
26	0x3d080ba9	0.033214245
27	0x3b44f550	0.0030053444
28	0x3d3ed37b	0.046588402
29	0x3bfd699b	0.0077335364
30	0x3cb6f280	0.02233243
31	0x3d4f865e	0.050665252

reduce2.weight f4 [16, 32, 4, 4, 4]
0	0xbb934b84	-0.004495086
1	0xbc3db164	-0.011577938
2	0x3b53c8b0	0.0032315664
3	0xbc65a966	-0.0140174385
4	0xbbba4464	-0.0056844223
5	0x3cb246c7	0.021762265
6	0x3b91ddf5	0.004451508
7	0x3b0ae520	0.0021193698
8	0xbc8dc130	-0.017304033
9	0xbc20a255	-0.009804328
10	0x3c1e52f9	0.009663337
11	0x3c530e8f	0.012881889
12	0x3c19e310	0.009392515
13	0x3c65dce9	0.01402972
14	0xbb70810d	-0.0036698014
15	0x3c9a43f6	0.018831234
16	0xbacc67a8	-0.0015594857
17	0x3c30dac3	0.010794344
18	0x3bd6d82b	0.006556531
19	0x3b0fe200	0.0021954775
20	0x3c5e891e	0.013582496
21	0xbc609e4a	-0.013709614
22	0x3c695ada	0.014242852
23	0xbad4c9f6	-0.0016234505
24	0xbc8b5eac	-0.017012917
25	0xbc45005b	-0.0120240105
26	0xb6328069	-2.6598811e-06
27	0x3cac513c	0.02103483
28	0x3c896b24	0.016774721
29	0xb8af7c65	-8.3678206e-05
30	0x3c2b4bf6	0.010455122
31	0xbca833ec	-0.02053257
32	0xbb10b223	-0.0022078834
33	0x3c3201b8	0.010864668
34	0xbc8dff49	-0.017333644
35	0x3c389676	0.011266341
36	0xbc85b66d	-0.016322339
37	0xbc7a11d3	-0.015263039
38	0xbcbd41cd	-0.023102665
39	0x3c29cf03	0.010364297
40	0x3bdda0d7	0.0067635584
41	0xbc87924e	-0.016549256
42	0x3c55770b	0.01302887
43	0xba78784f	-0.00094783766
44	0x3bf3d4b5	0.007441128
45	0xbb12db46	-0.002240853
46	0xbc908527	-0.017641617
47	0x3cb7123f	0.022347568
48	0x3a6c42a6	0.0009012617
49	0x3c0e9938	0.008703522
50	0x3c29d654	0.010366041
51	0xbc1366da	-0.00899669
52	0x3c39f040	0.011348784
53	0xbc847e45	-0.016173491
54	0xbcabe222	-0.020981852
55	0xbc016fd7	-0.0079002
56	0x3bb7de67	0.005611229
57	0xbc719c0d	-0.014746678
58	0x3c80b7b6	0.0157126
59	0x3bab0ebc	0.0052202623
60	0x3c21e0a5	0.00988022
61	0xbc4827bc	-0.012216505
62	0x3c265c01	0.010153771
63	0x3c43e1a7	0.011955655
64	0x3c87124c	0.016488217
65	0x3b9afd11	0.004729875
66	0x3c722308	0.01477886
67	0xbc9dad3d	-0.019247646
68	0x3b66f64a	0.0035242015
69	0x3cafbc05	0.02145196
70	0x3c72e785	0.014825706
71	0x3c98c9c4	0.018650897
72	0x3b554bf2	0.0032546488
73	0x3c639737	0.013891033
74	0x3ca2dc0f	0.019880323
75	0x3c0c3848	0.00855834
76	0x3c24d509	0.010060557
77	0x3c377f8d	0.011199844
78	0xbbb2c1b1	-0.0054552187
79	0x3c4a80d9	0.012359821
80	0x3c7ddab6	0.015494039
81	0xbbf55419	-0.007486832
82	0xbbb89484	-0.005632939
83	0x3beb4462	0.0071797827
84	0xbb61112c	-0.003434251
85	0xbc94f8d1	-0.018185051
86	0xbb3a7e5f	-0.002845667
87	0xbbbc2f6c	-0.005742958
88	0xbc80340f	-0.015649823
89	0xbc1662fe	-0.009178875
90	0x3cb1f048	0.02172102
91	0x3c9cdfbc	0.019149654
92	0xbc5e804a	-0.013580391
93	0x3c0db065	0.008648013
94	0x3b27b8d0	0.0025592335
95	0xbb97ce80	-0.004632771
96	0xbc0ab19b	-0.008465196
97	0x3cb28125	0.021790097
98	0x3bbc7b4d	0.0057520033
99	0x3ca9f1a8	0.020745113
100	0xbbef9c6e	-0.007312349
101	0xbc955d92	-0.018233094
102	0xbc5700dd	-0.013122764
103	0xbc6db5de	-0.014508693
104	0x3c8b253d	0.01698553
105	0x3c973185	0.01845623
106	0xba9c01de	-0.0011902412
107	0x3c8147c1	0.015781285
108	0x3c072c3a	0.0082502905
109	0xbb1bcb07	-0.0023772137
110	0x3c9a8fde	0.01886743
111	0x3c1e8f0d	0.009677661
112	0x3cb97363	0.022638028
113	0x3aad76ea	0.0013234292
114	0xbc8d2f99	-0.01723461
115	0x3c666ef0	0.0140645355
116	0x3ad631c2	0.0016341733
117	0xbc850918	-0.016239688
118	0xbc183ef8	-0.009292357
119	0x3c4591c7	0.012058682
120	0xbc4b4184	-0.012405757
121	0xbc8a6089	-0.016891735
122	0xbbf68078	-0.007522639
123	0xbc170b62	-0.0092190225
124	0xbc29423c	-0.010330733
125	0xbc5119c6	-0.0127624925
126	0xbc3a0d33	-0.011355686
127	0xba2068e4	-0.00061191455
128	0x3c97ea65	0.018544385
129	0x3c10e1a8	0.008842863
130	0xb947f552	-0.00019069508
131	0x3c5e219d	0.013557819
132	0x3bfe1849	0.00775436
133	0xbc970ae4	-0.01843781
134	0xbbd8b98a	-0.006613915
135	0xbb3cc138	-0.002880169
136	0xbca491f3	-0.020089125
137	0x3bfbdeaf	0.007686458
138	0xbc3b8c19	-0.011446976
139	0xb911a3d4	-0.00013889308
140	0xbc2e1a31	-0.010626362
141	0x3bb80849	0.005616222
142	0x3c5f4d7c	0.013629314
143	0xbbf44544	-0.007454546
144	0xbc85e9af	-0.01634678
145	0x3ba3cd5f	0.0049988474
146	0xbc5e8371	-0.013581143
147	0x3cb94006	0.022613537
148	0x39a91989	0.00032253217
149	0xb98d9732	-0.00027006265
150	0x3ca6a4ec	0.020342313
151	0xbc3dd289	-0.01158584
152	0x3c95085f	0.018192468
153	0xbb1c843c	-0.0023882529
154	0xbc33bb47	-0.010969943
155	0xbc174d8c	-0.009234797
156	0x3cad6181	0.021164658
157	0x39560066	0.00020408779
158	0x3b856d63	0.004071878
159	0x3b242c81	0.002505094
160	0x3c194b81	0.00935638
161	0xbc2201e8	-0.00988815
162	0xb9824fe1	-0.00024855047
163	0xbc5e9489	-0.013585218
164	0x3c769355	0.015049775
165	0x3c870bb6	0.016485076
166	0xbc5da3e1	-0.013527841
167	0x3c9d12f3	0.019174075
168	0xbc52cb2d	-0.012865824
169	0xbc13371a	-0.008985305
170	0xbbfd9ea2	-0.007739858
171	0xbc166712	-0.009179847
172	0xbc50c40a	-0.012742052
173	0x3bd48e2e	0.0064866757
174	0x3c011ea9	0.007880845
175	0xbbc4f5f6	-0.006010766
176	0xbc5a6625	-0.013330017
177	0x3b14493b	0.0022626657
178	0x3bbd42b1	0.0057757725
179	0xbc7add5c	-0.015311565
180	0x3c949b4f	0.018140463
181	0x3cac7e6e	0.02105638
182	0x3bc03a7a	0.005866346
183	0xbcaaaad7	-0.020833416
184	0xbc1fbb6f	-0.0097492775
185	0x3c43334b	0.011914085
186	0x3ba9b8f2	0.005179518
187	0x3c7db7ae	0.015485687
188	0xbc989fa7	-0.018630816
189	0xbc285db7	-0.01027625
190	0x3b862e5c	0.004094882
191	0x3c6a8876	0.014314761
192	0x3bd48061	0.0064850305
193	0xbbe2f8d0	-0.0069266334
194	0x3b8a8c19	0.0042281267
195	0x3c85fada	0.016354967
196	0x3afe63f9	0.0019408456
197	0x3b44942c	0.0029995544
198	0x3ca1c935	0.019749263
199	0xbbaa5f34	-0.0051993374
200	0x3bc341c9	0.00595877
201	0x3c812407	0.01576425
202	0xbc99477d	-0.018710846
203	0x3ae41cdc	0.001740362
204	0xbbaf9548	-0.005358372
205	0x3c9d25ff	0.019183157
206	0xbbfcd024	-0.007715242
207	0xbc48e482	-0.012261512
208	0xbbea2631	-0.007145666
209	0x3cb4d70c	0.022075199
210	0xbbb21d87	-0.005435649
211	0x3cb8e6f0	0.022571057
212	0x3ae28dfe	0.0017284749
213	0x3c8e0b9d	0.017339522
214	0xbc474fb0	-0.012164995
215	0x3be90f38	0.00711241
216	0xbc039b15	-0.00803258
217	0x3ca04c34	0.019567586
218	0xbc0caca7	-0.008586085
219	0x3c483600	0.012219906
220	0xbc264691	-0.01014866
221	0x3b1392e0	0.0022517964
222	0x3c422f75	0.011852135
223	0xbb86a319	-0.004108798
224	0x3c9f0c58	0.019415066
225	0x3c041ae4	0.008063052
226	0xba46a3fd	-0.0007577537
227	0x3a099f14	0.000524984
228	0xbb267775	-0.0025400792
229	0xbc569b24	-0.013098512
230	0xbc3dd59c	-0.011586573
231	0x3c73a4eb	0.0148708625
232	0xbbcc805d	-0.006240888
233	0x3c15e643	0.009149137
234	0xbca4eb26	-0.020131659
235	0xbaf63f56	-0.0018787186
236	0xbbcf48a0	-0.0063257962
237	0xbc369df8	-0.011146061
238	0xbc25e387	-0.0101250475
239	0xbc9a472c	-0.018832766
240	0xba06a4d0	-0.00051362533
241	0xbc8e2f2d	-0.01735648
242	0x3c20dfbd	0.009818968
243	0xbbcf8138	-0.0063325427
244	0xbbb01456	-0.005373518
245	0x3b949240	0.004534036
246	0x3ca0fbd6	0.019651335
247	0xbc8c2bf5	-0.017110804
248	0xbbe5945b	-0.0070062107
249	0xbc82f01f	-0.01598364
250	0xbc985673	-0.01859591
251	0x3b870d4a	0.004121457
252	0xbc893574	-0.016749121
253	0x3c1edd3f	0.009696304
254	0xbb36da2f	-0.0027901044
255	0x3cc2ccc0	0.023779273

reduce2.bias f4 [16]
0	0x3ab24dfe	0.0013603566
1	0xbc616cf8	-0.01375889
2	0x3be8cf58	0.0071047954
3	0xbb226638	-0.0024780165
4	0x3bc8000e	0.006103522
5	0x3b3df3eb	0.0028984498
6	0xbbc5e08b	-0.0060387305
7	0x3ceb1333	0.028695678
8	0x3c472304	0.0121543445
9	0x3b0a77c3	0.0021128512
10	0x3c0f060e	0.008729471
11	0x3d169438	0.036762446
12	0x3b3a35c6	0.00284134
13	0x3cc2ac0e	0.023763683
14	0x3ccca845	0.02498258
15	0xbbd09454	-0.0063653383

nonreduce2_1.weight f4 [16, 16, 3, 3, 3]
0	0x3b21f99c	0.002471543
1	0xbd17bdd0	-0.037046254
2	0xbc18fa6f	-0.009337052
3	0xbd0abf4a	-0.033873834
4	0x3cb35d34	0.021895029
5	0xbcc6d68d	-0.024272228
6	0x3c7e2237	0.015511087
7	0x3bfb5160	0.0076696128
8	0xbcd8d617	-0.026469273
9	0x3ae0596a	0.0017116491
10	0xbc31e94d	-0.010858846
11	0xbc19a83b	-0.009378488
12	0x3d0b8fde	0.03407275
13	0x3d2865c7	0.041112687
14	0x3ced92b4	0.029000618
15	0x3c8a1183	0.016854053
16	0x3cc93409	0.024560945
17	0xbcde6890	-0.027149469
18	0xbbf827ed	-0.007573119
19	0xbd22777b	-0.039664727
20	0xbb96d7d9	-0.0046033678
21	0xbd22dade	-0.03975951
22	0xbd3cab2d	-0.046061683
23	0xbcf27222	-0.029595438
24	0x3d22ec10	0.039775908
25	0x3c24d02e	0.0100593995
26	0x3d3bfc79	0.045895074
27	0x3c8e244e	0.017351296
28	0x3cbf8bdc	0.02338212
29	0x3cfd5627	0.03092487
30	0xbcda02c4	-0.026612647
31	0x3cafa00c	0.021438621
32	0x3d146147	0.036225583
33	0x3d126244	0.035738245
34	0x3c2c2b38	0.010508351
35	0x3c7d0866	0.015443897
36	0xbd1145b2	-0.035466857
37	0x3cf1ec89	0.029531734
38	0x3d3a85eb	0.04553787
39	0xbc7123a9	-0.014717975
40	0x3d15ae05	0.03654291
41	0xbd1d1d84	-0.038358226
42	0x3d0b3564	0.033986464
43	0xbce7eea2	-0.028312031
44	0xbc944e00	-0.0181036
45	0x3d03212a	0.03201405
46	0xbd607d28	-0.05480686
47	0xbc5f0f77	-0.013614527
48	0x3c397c08	0.011321075
49	0xbc89a501	-0.016802313
50	0xbd271011	-0.040786806
51	0x3d27ef19	0.040999506
52	0x3ce10fef	0.027473418
53	0x3d343529	0.04399601
54	0x3a4af62c	0.0007742371
55	0x3d154d06	0.03645041
56	0x3b519068	0.0031976942
57	0x3d0d3b91	0.034480635
58	0x3bc1b6da	0.00591169
59	0x3b9aad9c	0.004720403
60	0x3bc5c414	0.006035337
61	0xbc4ee68b	-0.012628208
62	0xbcb155a8	-0.02164729
63	0x3c392aea	0.011301735
64	0x3d2203b7	0.039554324
65	0xbc6a9d25	-0.014319693
66	0xbc9ced93	-0.019156253
67	0x3bc8602a	0.0061149793
68	0xbc47efa8	-0.012203135
69	0xbc8d12f4	-0.017220952
70	0x3c42405e	0.011856167
71	0xbcb4c8c2	-0.022068385
72	0xbcc6dae5	-0.024274299
73	0xbb7b7608	-0.0038369913
74	0x3b377299	0.002799189
75	0x3cb7e61c	0.022448592
76	0x3c3f3f3d	0.011672792
77	0x3d2444bd	0.040104616
78	0xbcad0dcf	-0.021124749
79	0xbb846c18	-0.004041206
80	0x3d095a5c	0.03353344
81	0x3cf1615f	0.029465375
82	0xbc94d6cb	-0.018168828
83	0x3d0301dc	0.031984195
84	0x3ccb544c	0.02482047
85	0xbd1f4c07	-0.038890865
86	0x3d028ff7	0.031875577
87	0xbb730c1b	-0.0037086073
88	0xbd36ce88	-0.044630557
89	0xbd2e33cc	-0.042529866
90	0xbca8753d	-0.020563716
91	0x3d08377c	0.03325604
92	0x3cbec3e8	0.023286775
93	0xbd1776db	-0.036978584
94	0xbd341f82	-0.04397536
95	0x3bf4d19f	0.007471278
96	0xbc9659d9	-0.01835339
97	0x3b525474	0.0032093795
98	0xbd01d1ea	-0.03169433
99	0xbcc2de55	-0.023787657
100	0xbd297962	-0.041375525
101	0x3d350806	0.044197105
102	0x3d381b6c	0.044948027
103	0x3cf77aed	0.030209983
104	0xbd0cfc4e	-0.034420304
105	0x3cd85eab	0.026412329
106	0x3c941d29	0.01808031
107	0xbcf4a7cb	-0.029865166
108	0xbcf0ec74	-0.029409625
109	0xbd407e76	-0.046995603
110	0xbd048b16	-0.032359205
111	0x3b80456b	0.0039145253
112	0x3c8f7d1a	0.017515708
113	0xbd375a43	-0.044763815
114	0xbb925d16	-0.004466663
115	0xbcf49521	-0.029856266
116	0xbd0bd4b3	-0.034138393
117	0x3c23a633	0.009988355
118	0x3c9d5785	0.019206772
119	0x3d08595b	0.03328834
120	0x3cb5790f	0.022152452
121	0x3b5f62c2	0.0034085964
122	0x3bd58bb6	0.006516899
123	0xbadcbfb1	-0.0016841796
124	0x3b833ec3	0.0040052845
125	0xbd219d73	-0.039456796
126	0xbd9cf14c	-0.07663211
127	0xbd6efcff	-0.058346745
128	0xbd484f9d	-0.04890405
129	0x3c6f9b50	0.014624432
130	0xbc3050a3	-0.010761413
131	0x3ce12530	0.027483553
132	0xbc1fbc57	-0.009749494
133	0xbc9a4068	-0.01882954
134	0xbcecd9b5	-0.028912405
135	0xbd3e9da3	-0.046537053
136	0x3c9e6000	0.019332886
137	0x3cdbea88	0.026845232
138	0x3d488d6d	0.048963
139	0xbcdf0563	-0.027224248
140	0x3cdc4e00	0.026892662
141	0xbcae87f7	-0.021305067
142	0xbcb2e6ed	-0.02183863
143	0xbd2d79e6	-0.04235258
144	0x3c83764d	0.016047621
145	0x3c18b1ce	0.009319736
146	0x3be95a02	0.0071213255
147	0xbc9340b1	-0.017975183
148	0xbd1e237f	-0.03860807
149	0x3d43e481	0.04782534
150	0xbd039e53	-0.03213341
151	0xbd09f0d7	-0.03367695
152	0xbd0abd05	-0.03387167
153	0xbd3791cb	-0.044816773
154	0xbc97375d	-0.018459016
155	0x3c4bcff8	0.01243972
156	0x3c9de40d	0.019273782
157	0x3d462cc7	0.048382547
158	0x3d1dde3c	0.038542017
159	0xbd1c0dd7	-0.038099136
160	0x3cd57d20	0.02606064
161	0xbcc1e437	-0.023668392
162	0x3d013701	0.031546596
163	0xbd3791bc	-0.044816718
164	0x3a2c70dd	0.0006578097
165	0x3d46c38b	0.048526328
166	0xbbf912fb	-0.0076011396
167	0x3d36cf83	0.044631492
168	0x3d2fa7f3	0.04288478
169	0xbd4ccd53	-0.0500005
170	0x3d195626	0.037435673
171	0x3c525dd7	0.012839756
172	0x3d17c90d	0.03705697
173	0xbcee503e	-0.029090997
174	0x3b91a7c9	0.0044450504
175	0x3c5e9341	0.013584913
176	0x3d06c73b	0.032904845
177	0xbd26ffbc	-0.04077123
178	0xbb3a5433	-0.0028431534
179	0xbc845bdc	-0.016157083
180	0x3c44d510	0.012013689
181	0xbcec3eb1	-0.028838487
182	0x3bf36549	0.0074278456
183	0xbcb1cac2	-0.021703128
184	0xbd3da73e	-0.046302073
185	0x3c04b2ea	0.008099297
186	0xbcc64be4	-0.02420611
187	0xbc74073c	-0.014894303
188	0x3ca1b487	0.019739402
189	0xbaacb70e	-0.0013177113
190	0xbc617964	-0.013761852
191	0x3a5fb21c	0.0008533315
192	0xbce71978	-0.028210387
193	0xbb393583	-0.0028260655
194	0x3d081cfa	0.03323076
195	0x3c9fa3f0	0.019487351
196	0xbcfbe40e	-0.030748393
197	0x3d3fffc6	0.046874784
198	0x3bf12f1a	0.0073603513
199	0x3d454945	0.04816558
200	0xbd368eb1	-0.044569675
201	0x3d154474	0.036442235
202	0x3c3bfdab	0.011474053
203	0x3ca24543	0.019808417
204	0x3d321081	0.04347277
205	0x3d300080	0.042969227
206	0x3af741d2	0.001886422
207	0x3c7e6c7f	0.015528797
208	0xbcaf39db	-0.021389892
209	0x3cc0c31b	0.023530534
210	0xbb296ec1	-0.0025853368
211	0xbd1fcc9c	-0.03901349
212	0xbc492901	-0.0122778425
213	0xbacb725a	-0.001552175
214	0x3d3c765c	0.046011314
215	0xbb98da3d	-0.004664688
216	0x3d4a890d	0.049447108
217	0xbcd3753f	-0.025812743
218	0x3c582a62	0.013193699
219	0x3d180af9	0.03711984
220	0xbcabec9e	-0.020986851
221	0xbcb49d23	-0.022047585
222	0xbca1cdb5	-0.01975141
223	0x3d5f0870	0.054451406
224	0x3d0c16e7	0.03420153
225	0x3d1c0916	0.038094603
226	0x3d16a786	0.036780857
227	0x3d0bd228	0.034135967
228	0xbd3f9883	-0.046776306
229	0x3cef3fd1	0.029205235
230	0x3d133637	0.035940375
231	0x3d0d1f77	0.034453835
232	0xbb383603	-0.0028108365
233	0x3ca77d7f	0.020445583
234	0xbc2eef66	-0.010677194
235	0xbc4c121e	-0.012455491
236	0xbc91cce6	-0.017797899
237	0xbbd10781	-0.0063790684
238	0x3d135dbe	0.03597807
239	0xbb08069c	-0.0020755893
240	0xbb880435	-0.004150892
241	0x3d06e74d	0.03293543
242	0x3c98a7eb	0.018634757
243	0x3cd3ae24	0.025839873
244	0x3d1003c3	0.035159837
245	0xbd2d1336	-0.04225465
246	0xbd07b183	-0.033128273
247	0xbd22e954	-0.0397733
248	0x3c8e862f	0.017397968
249	0x3ce39bf4	0.027784325
250	0xbd23d39c	-0.03999673
251	0x3cd85dbe	0.026411887
252	0xbbb7cecc	-0.005609369
253	0x3cc04c1c	0.023473792
254	0x3b93ea50	0.004514016
255	0x3b1b5117	0.0023699456

nonreduce2_1.bias f4 [16]
0	0xbcaa0129	-0.020752506
1	0x3b6e2f1f	0.0036344004
2	0x3d6b0be9	0.057384405
3	0xbcbe85bb	-0.023257127
4	0x3c3b18e0	0.011419505
5	0x3caaff31	0.020873638
6	0x3d6259fc	0.055261597
7	0xbcdd1ea5	-0.026992152
8	0x3d385b8e	0.04500919
9	0xbcf7f71d	-0.0302692
10	0x3cd7ec4c	0.026357792
11	0x3c9f1af2	0.019422028
12	0x3d67cadd	0.05658995
13	0xbcbe2642	-0.023211602
14	0x3ce21de9	0.027602153
15	0x3d8109b3	0.06300678
