02_deep3D/model/model_dwig.pt (torch, 739938 bytes, 25 tensors)

reduce1.weight f4 [64, 1, 4, 4, 4]
00000000: 1438 ff3b 212e f23d 6f62 9a3c e57d b23d
00000010: f51c 22bc 6cbe 3d3d 4e8b dfbd 8a8a e03c
00000020: 0cfe e6bd 1d98 28bc 7b22 513d 8bdb b1bd
00000030: fc77 47bd 0609 9f3d 8e68 a63c c6d4 11bd
00000040: 6f17 eb3c 1290 aabd 3ea1 703d f524 7f3d
00000050: 9a72 51bc 09d3 e1bd aed4 893d 1897 1d3d
00000060: 618e dd3d f39c b23a a2fd d43d 1ce6 9bbd
00000070: 5ca0 d13d 5ff5 5f3d fb90 e2bd 45c8 a83d
00000080: 2bdc b73d b821 d5bd 2b0b f9bb 0c1a f0bc
00000090: e7d3 c33d 86d4 c73d 27ac b6bb 1e13 bcbd
000000a0: eab7 d6bd 6973 18bd 26e5 873c 4649 883d
000000b0: 9993 6f3d 3850 593d fb9d 3dbc 42f9 63bd
000000c0: 663c 19bd b5c7 2cbd fb78 c6bc 5eb6 133d
000000d0: cb3c ac3d 711f de3d 7466 d0bd 4127 e7bd
000000e0: aa4c 253d 8e29 debd 837c ae3c 2acb 733c
000000f0: 34f3 a6bd c9bd 04be d57b a83d 1b48 43bd
00000100: 7679 17bd a52a 34bd 513f 5f3d 14f9 ecbd
00000110: 56ea f83c b9fd e63c 5c92 c73b d029 c6bd
00000120: 6b0e 553d 9fdc e63d 474d 94bd bab7 9c3d
00000130: 56eb af3d 3aab d43d 642a 173d 5cd7 d3bd
00000140: d4eb 473c 518d 8abd 4393 d43c 5ff8 b1bd
00000150: 0df6 cebd dadb 923d 8a8c fbbb 8b89 423c
00000160: af7f 203d 5339 213d a38f 203d 6ebd e73c
00000170: 621b a4bd 5aff 8ebd 075c 853d 9814 febc
00000180: 1e84 af3d e3e2 f6bd 2d11 2b3c 2f81 a0bd
00000190: ca54 83bd 1f5f d53c 6f44 d2bd 26c5 b5bd
000001a0: ad23 d0bd ec0f f63c 43f1 28bd b0f6 ea3d
000001b0: da41 ed3d 7a1e b63d bf7f 723d ab3c c93c
000001c0: baa2 583c bcbe 713c 7dc6 82bd d5ad 34bd
000001d0: 3dc0 e83d 4bd3 b6bc 00a5 74bd 4654 11bd
000001e0: d3b6 183d 00e5 9d3d fd4c 623c 1126 b73d
000001f0: 9e1d 973d 7f81 cfbd 74a5 c63d c258 8fbc
00000200: 9f3f 5e3d d03c 7e3d 0c9f d2bc 7599 a3bd
00000210: 016a 8c3d 376e c8bc f1c2 1fbc 249a cdbc
00000220: 8f31 c53d 665d 06be a68c a0bd bafc b63c
00000230: dd32 f7bb 4189 1e3d c604 2dbd 6576 ac3c
00000240: f635 133c ac05 223d 987c 9cbd 97e7 aa3c
00000250: 7569 263d b81f c03d 115d f6bd 4f96 5ebd
00000260: cd18 5e3d 444e 303d 4ddf 1fbd 510d 01be
00000270: 2276 a23d 08e4 24bb 40f3 613b d3e1 bf3c
00000280: ea19 28bd 0b23 b13b 5a51 733d 213e d73d
00000290: a5ee 0b3d c471 263d 835e 483d fbf9 9b3d
000002a0: 9144 bbbc 29a0 f63c 0572 0c3d 350d 613d
000002b0: 69b7 353d 71d8 a03d d5d7 c5bd 05f5 03bd
000002c0: a86f a7bd 94cb bcbd 18b0 65bd ab29 f3bd
000002d0: 2fd2 bf3d 7e89 d03d f122 d53d f653 43bd
000002e0: 8a80 a53d 69c7 6cbc d0cd e1bd c919 03be
000002f0: 0dc6 d0bd 3a15 b93d ba59 00bd 8dd6 dcbd
00000300: b546 32bd 8588 5bbd 021b 833d 9a92 47bb
00000310: 9082 9bbb 4dfe 5eba 4fcd 07bd bc0b cf3d
00000320: b883 7e3d 9b34 d9bd 3ca0 94bd 4723 dc3d
00000330: 6fc4 b0bd 5716 80bd eded e73c fc34 8fbd
00000340: 7a35 a93c 21bf 833d 2bc1 33bd 2bcb 32bd
00000350: 1846 9e3c 0a7d 0f3d f7a4 fcbd 056c 2e3d
00000360: a37e e0bd 203f b6bd 830d ffbb a5ec 1cbb
00000370: 4d05 85bd f9f3 cdbd 5709 cabd 3f2e 87bd
00000380: 8bb7 10bd e1db 94bd 195f a33d 76f1 0a3d
00000390: 12d4 bdbd 7552 a33d 6a76 463d 6b33 16bd
000003a0: 8b79 9c3d f71f c3bd 2928 143d ab28 b53d
000003b0: 00be cabd 0da3 d63d b917 d0bd 982a c3bd
000003c0: 60c2 d53d 2485 c33d 27e0 19bd e395 543d
000003d0: 1f5d ba3d b0f3 e6bc f9a9 b33d bd00 b3bd
000003e0: ad2f 413c 87c6 3cbd b2a9 f9bc 8fde 7abd
000003f0: 86d1 7c3d f3f3 eb3d fc3a edbd fc73 d2bd
0.0077886675 0.11825205 0.018845765 0.08715419 -0.009894599 0.04632418 -0.10915242 0.02740981
-0.11278924 -0.010290173 0.051058274 -0.086844526 -0.04869841 0.07765393 0.020313527 -0.035603307
0.028697697 -0.083282605 0.058747523 0.062291104 -0.012783671 -0.1102658 0.067300186 0.038474172
0.10818172 0.0013627097 0.10399939 -0.07612249 0.10235664 0.054677363 -0.11062809 0.082413234
0.089775406 -0.10406822 -0.0076002083 -0.029309295 0.095619015 0.097573325 -0.0055747214 -0.09183334
-0.104842976 -0.03721944 0.016588759 0.06654601 0.05849037 0.05305502 -0.01157331 -0.055657633
-0.037411116 -0.042182643 -0.02422761 0.03606259 0.08410033 0.10845841 -0.101757914 -0.11286784
0.040356316 -0.1084777 0.021299606 0.014879981 -0.08151856 -0.12963022 0.08226744 -0.047676187
-0.03698107 -0.04398598 0.054503743 -0.115709454 0.030385178 0.028197156 0.0060904454 -0.09675944
0.052015703 0.11272549 -0.07241302 0.076522306 0.08589809 0.103842214 0.03690566 -0.10343811
0.012202222 -0.06765235 0.025949126 -0.08689951 -0.10105524 0.071708396 -0.0076766657 0.011873613
0.03918427 0.03936131 0.039199483 0.02828857 -0.08013035 -0.06982298 0.065116934 -0.03101568
0.08570121 -0.12054994 0.010441107 -0.0783714 -0.064126566 0.026046334 -0.10266959 -0.08875494
-0.101630546 0.030036889 -0.04124571 0.11472833 0.11584826 0.08892532 0.05920386 0.024565062
0.013222391 0.014754947 -0.06385515 -0.04411109 0.113647915 -0.02231755 -0.05972767 -0.03548076
0.03728373 0.07709694 0.013812301 0.089428075 0.07378696 -0.10132121 0.096995264 -0.017498378
0.054259893 0.062069714 -0.025710605 -0.07988254 0.06856156 -0.024466617 -0.0097510675 -0.025097914
0.09628593 -0.13121566 -0.078393266 0.022337306 -0.007543905 0.038705114 -0.04224088 0.021052549
0.008985033 0.03955619 -0.07640952 0.020862384 0.040627915 0.0938105 -0.1202947 -0.054342564
0.05422287 0.04304339 -0.039031316 -0.12602736 0.07932688 -0.0025160331 0.0034477264 0.023423111
-0.04104034 0.005405789 0.059403755 0.10509897 0.034163136 0.04063584 0.04891826 0.07616039
-0.022859843 0.030105667 0.034288425 0.054944236 0.044364367 0.07853783 -0.09660307 -0.03221609
-0.081755936 -0.09218517 -0.05607614 -0.11873182 0.09366261 0.101824746 0.10407055 -0.047687493
0.080811575 -0.01445184 -0.11025584 -0.12802805 -0.10194025 0.09037252 -0.03133557 -0.1078311
-0.043524463 -0.053596992 0.06401636 -0.0030452372 -0.004745789 -0.00085065217 -0.033154782 0.1010966
0.062137336 -0.10605737 -0.07257125 0.10748916 -0.08631217 -0.06254261 0.028311694 -0.06992528
0.020655382 0.06432939 -0.04388539 -0.043650787 0.019320533 0.035031356 -0.12336152 0.042583484
-0.10961654 -0.08898759 -0.007783593 -0.0023944762 -0.06495152 -0.100563 -0.09865063 -0.066006176
-0.03533129 -0.07268501 0.07977123 0.03392168 -0.09268965 0.07974712 0.048452772 -0.03667013
0.0764037 -0.09527581 0.036171112 0.088456474 -0.09899521 0.10480318 -0.10160775 -0.095296085
0.10437465 0.09546879 -0.037567284 0.051900756 0.09099793 -0.028192371 0.08772654 -0.08740375
0.011791152 -0.046087768 -0.030476425 -0.061247405 0.061723255 0.11521139 -0.11583516 -0.102760285

reduce1.bias f4 [64]
00000000: 122e 45bd 0806 4a3d 59ec e73c 513a dabd
00000010: 0168 debd bda6 ca3d 49ee 4b3d 6614 c1bc
00000020: 8de3 17bc cb51 eabd 0084 db3d 86a6 ec3d
00000030: 9b93 df3d b32b 93bb 1636 673d 3544 c0bd
00000040: b3e6 dc3d c458 03bd 62b8 343d 3eef a43d
00000050: 2e9b 9bbd ccbe 033e df7c 38bc 075f bcbd
00000060: 4aef 7dbd adc3 bdbd d8c2 293d 5d61 a5bd
00000070: 837c 043e 9a83 8b3d b7ff bb3d 360d 9ebd
00000080: 8548 46bd 4b0e 093e 26a0 a3bb 5bc6 bf3c
00000090: f51d f7bd 9eb7 7a3d 69ad 3d3c c242 d33d
000000a0: 9acf debd 4185 e23c 09ec d73d 3f47 84bb
000000b0: c8ec d4bd 3526 1b3d f761 62bd 8b44 b0bd
000000c0: 29bf 7b3d 4e88 bebd aafe 3d3d 5026 c33d
000000d0: ab0b 683c e42e bd3d bc09 7f3d e8bc e73d
000000e0: ee0c ea3c 5035 003d b87f 3bbc edf0 083d
000000f0: 2f43 383d b446 123e 9089 c6bd a334 b4bd
-0.04813964 0.049322158 0.028310942 -0.10655654 -0.10859681 0.09895084 0.049787793 -0.023569297
-0.009270561 -0.11441382 0.107185364 0.11555199 0.109168254 -0.0044912933 0.056448065 -0.093880095
0.1078619 -0.032067075 0.044121154 0.08053444 -0.075979576 0.12865752 -0.01126024 -0.091978125
-0.061995782 -0.09265838 0.041445583 -0.08075211 0.12938122 0.068122104 0.09179633 -0.077173635
-0.048409004 0.13384359 -0.0049934564 0.023410013 -0.12066261 0.061210267 0.011576989 0.103154674
-0.108794406 0.027651431 0.10543067 -0.0040368135 -0.10396725 0.037878234 -0.055269208 -0.086068235
0.0614616 -0.09303342 0.046385445 0.09528792 0.014162938 0.09237459 0.062265143 0.11315328
0.028570618 0.031300843 -0.011444025 0.03343289 0.044985946 0.14284784 -0.09694207 -0.08799102

nonreduce1_1.weight f4 [32, 64, 3, 3, 3]
00000000: d3ee 0d3d 47c3 fe3c 33a0 9fba cf53 843c
00000010: 0982 d23c 9293 be3c 91d8 153d 4490 103a
00000020: 33eb 243b 9149 28bc 28fb 833b d5d4 fa3c
00000030: fc95 dfba 6b5d 1f3d 2d64 303c 5d90 143c
00000040: 684e 013d b924 ee3c ec32 e83c 728b 0e3d
00000050: c7f3 763c a406 533c 7c4d 1a3d e381 e53c
00000060: 1cbe 19bb 0902 e7bb a4f4 163d b390 763c
00000070: 1900 c13c 152b b1bb a049 4939 b9af 8c3c
00000080: 3bee 83bc 04a6 89bc c0ff 2f3c 9558 9e3c
00000090: c4c8 28bc ef59 5939 94be 893c ad17 563b
000000a0: 8af9 5d3c eba8 c83c a1c6 9dbb 3c06 7cbb
000000b0: dd07 e43c 53a0 13bc 3d36 8a3c e935 823c
000000c0: 0650 983b dcb7 e33b ddb3 de3c 38a7 bb3c
000000d0: 959e 54bc 86a6 163c d669 a73c cece a63c
000000e0: 6bb3 023c 9105 eb3c 581d 10bc e71b 223c
000000f0: b2a7 5e3c 7c76 b73c 8d2e aa3c de80 a03c
00000100: e9e4 893c 714f fb38 90f2 403c cd0b 063d
00000110: 94cc d9bb 0a6d c73b df80 4cbb fc03 5d3c
00000120: e292 8abb fbba a13c 3b6e 1abb f6f5 083c
00000130: 4f2d 983c 5fab 133c dc8a b33c 4d22 6eba
00000140: 3893 76bc 53f5 253c c776 3f3b d309 a9bb
00000150: 8ef9 6abc 94a7 6a3b c51a 803b 045f 9b3c
00000160: 4142 8fbc 2722 8a3c ef0b 133c a29a 2dbc
00000170: c099 ae3a 2f53 78bc 5015 8e3c 1fa0 c0bb
00000180: e1d4 88bc 4d74 263b 94cd 91ba 0fc5 fdba
00000190: 859c 7fbc 9dc0 c43b 94db 823c 2a69 7c3c
000001a0: 7be2 e23b 19ed 83bc 6e75 983c fb5d 96bc
000001b0: a180 6abc 5d05 8fbc b70f 393c 7337 693c
000001c0: 6140 a4bc 6c91 8c39 80ec c73c a152 9b3b
000001d0: d276 3c3a bdae 61bc c97a b83c f645 6ebc
000001e0: 970a 943c 9484 8a3c 5725 733c 8eed ff3b
000001f0: af01 75bb ed60 bd3c 2fae e43b a678 bb3c
00000200: de21 beb9 7e8c 813c 0d86 80bc 3a89 83bb
00000210: 8c4e 6fbc 3112 fabb 214f 2f3c a314 8fbc
00000220: dd52 163b 3195 30bc 20b5 083c 1620 7ebb
00000230: d312 a33c 79a8 9fbc 4ee0 d83c 76d8 aabb
00000240: 1869 883c c0cf 673c 0059 703c 2e09 96bc
00000250: 5a83 3d3c 6818 b33c c650 6c3b 9bd7 c5bb
00000260: fdd6 3dbc 723d 113c c27b 293c e07f 53bb
00000270: d517 20b8 51cc bd3c 9ae0 f1bb 7b03 bd3c
00000280: 9fde 1abb 5531 d93c c98a 913c 74c3 603b
00000290: 4c71 b5bb 290d 3bbc 7ff3 9f3c 22ab cb3c
000002a0: d522 873c 9d7c a63b d7e0 ed3c 40e9 df3c
000002b0: eaaf dcba 5ec9 b83c d594 003d 1f16 713c
000002c0: 8b51 d43b 79b1 043c 28c0 e7bb e0a0 de3c
000002d0: 3a40 1ebb eff9 023d 97e4 273c 7496 d43c
000002e0: e828 063d 8467 243c c905 6bbc 335a 803c
000002f0: ecaa d1bb 64f2 a93b 767c c93b ca63 393d
00000300: 8d26 b53c 0064 8d3c 3236 7e3c a2f8 f53a
00000310: a7d4 e73b 74a9 b23c 0c80 503c f6bd 473d
00000320: b7df e13c cccb c03c 4a0a 543d f043 0c3d
00000330: 66c4 b13c d765 443d e452 5e3d 027b 033d
00000340: 2d96 393d 3e98 623c 7e4b 203d e8ea 113d
00000350: 8cb8 063d 0dc9 ff3c 1e2e 823c a394 6e3c
00000360: ed18 9e3d fd3b 693d 368c a63c c82d 523d
00000370: 23ee 2b3d d1f3 5b3b 186b 5e3c 663d b7ba
00000380: 5b65 c73c 7413 f13d 544f 563d 12ce 153d
00000390: 7ee9 fa3d b2f0 203d 1da8 233d 2df1 a33d
000003a0: ef00 473d 2c4c 043d ed01 863d b870 f03d
000003b0: 0907 373d 3409 903d e8c9 d63d a076 f03c
000003c0: 8884 853d 7098 7a3d 4d01 1d3d 9d3c 78bb
000003d0: c59f c2bb 2f0e 193c f563 503c 63ec 36bc
000003e0: a24e 973c 6385 4bbc ad69 f73c cdcb 043c
000003f0: 96bb 033d 4e52 30bb f8f6 823a 25fb 1fbc
0.03465159 0.031098975 -0.001217848 0.016153244 0.025696771 0.023263726 0.036583487 0.00055146613
0.0025164604 -0.010271446 0.004027743 0.030619064 -0.0017058249 0.03890745 0.010766071 0.009067622
0.031568915 0.029070245 0.028344594 0.034800954 0.0150727695 0.012880001 0.03767155 0.028016036
-0.0023459261 -0.007049803 0.0368544 0.015049147 0.023559617 -0.005406747 0.00019196281 0.017173635
-0.016104808 -0.016802795 0.010742128 0.019329349 -0.0103017725 0.00020728236 0.016814508 0.003266792
0.013548264 0.024494609 -0.004814938 -0.0038455864 0.02783578 -0.009010392 0.016871566 0.015894847
0.0046482114 0.006949408 0.027185375 0.022906885 -0.012977262 0.009194976 0.020436209 0.020362284
0.007977347 0.028689178 -0.008796059 0.009894348 0.013589786 0.022395365 0.02077415 0.019592699
0.016832786 0.0001198341 0.011776581 0.032726098 -0.006646702 0.0060859965 -0.0031204743 0.0134897195
-0.0042289356 0.01974248 -0.0023564238 0.008359423 0.018576292 0.009013026 0.0219168 -0.00090840907
-0.015049748 0.010129291 0.0029215084 -0.005158642 -0.014341725 0.003580545 0.003909441 0.018966205
-0.017487647 0.016861988 0.008975013 -0.010595949 0.0013320968 -0.015156551 0.017344147 -0.005878463
-0.016703071 0.002539891 -0.0011123889 -0.0019361096 -0.015601282 0.0060044066 0.015973844 0.015405932
0.006923971 -0.016104268 0.018610682 -0.01835536 -0.014312894 -0.017458612 0.011295251 0.0142344115
-0.02005023 0.0002681123 0.024404764 0.0047400747 0.00071893365 -0.013774571 0.022519486 -0.014543047
0.018071456 0.016908921 0.0148404455 0.007810301 -0.0037385037 0.023117507 0.006978772 0.022884678
-0.00036264857 0.015814062 -0.01568892 -0.0040141614 -0.014606129 -0.007631563 0.010700018 -0.017465895
0.0022937574 -0.0107777575 0.008343965 -0.003877645 0.019906437 -0.019489514 0.026474144 -0.0052137924
0.016651675 0.014148653 0.014669657 -0.018314924 0.011566961 0.021862224 0.0036058887 -0.006037665
-0.011586902 0.008864747 0.010344448 -0.0032272264 -3.8169168e-05 0.023168715 -0.007381511 0.023072949
-0.0023631228 0.026512781 0.017766373 0.0034296187 -0.0055371877 -0.011416712 0.019525288 0.024861876
0.016496101 0.005080773 0.029037876 0.027332902 -0.0016837094 0.022556957 0.031391937 0.014714747
0.0064794472 0.008098953 -0.0070724674 0.02717632 -0.0024147169 0.031976636 0.010247371 0.025950648
0.032753855 0.010034446 -0.014344641 0.01566801 -0.0063985493 0.005186366 0.00614887 0.045261182
0.022113109 0.017259598 0.015515851 0.0018766115 0.0070749107 0.021809317 0.012725841 0.048765145
0.027572496 0.023534678 0.051767625 0.034244478 0.021700095 0.047948685 0.05427827 0.03209973
0.045309234 0.013830243 0.039134495 0.035624415 0.03289084 0.031223798 0.015891131 0.014561805
0.07719598 0.056941975 0.02033053 0.05131319 0.04197515 0.0033562074 0.013575338 -0.001398009
0.024340322 0.117712885 0.052321747 0.036573477 0.12251566 0.039292045 0.039955247 0.08004985
0.048584875 0.032299206 0.06543336 0.117402494 0.044684444 0.07033005 0.10487729 0.02935344
0.06519419 0.061180532 0.03833132 -0.0037877925 -0.005939456 0.009341761 0.012719144 -0.011164757
0.018470112 -0.012421939 0.030201757 0.0081052305 0.032161318 -0.0026904526 0.0009991815 -0.009764467

nonreduce1_1.bias f4 [32]
00000000: f4da c33c b258 a33c c8dd 3fbc d8ea f8bb
00000010: a2d6 3cbc 4028 6fbc a05d ae3c 67e4 b2ba
00000020: 5472 0f3c 3877 9fbc 72da 81bc 6ef5 30bb
00000030: 019b 713c 5ee7 d23c 92bb 77bb e41c 033b
00000040: dee2 583c ba88 a73c 571b 8cbc faf8 97bc
00000050: 0d26 02bb 881c a7bc edf8 c83c 4c4d 0bbc
00000060: 40f1 98bb 617a 67bc 2b6f 7cbc d6eb d0bc
00000070: bc08 723c dd2e 643c 79b5 88bc 9be3 af3c
0.023908116 0.019939754 -0.011710592 -0.007596355 -0.011525782 -0.014596999 0.021284878 -0.0013648391
0.008755285 -0.019466028 -0.015851233 -0.0027001756 0.0147464285 0.02574509 -0.003780101 0.0020006234
0.013237683 0.020450938 -0.01710288 -0.018551338 -0.0019859106 -0.020399347 0.02453276 -0.008502316
-0.004667431 -0.0141282985 -0.015407364 -0.02550308 0.01477259 0.013927189 -0.016688095 0.021470835

nonreduce1_2.weight f4 [32, 32, 3, 3, 3]
00000000: b70c 31bc 1b01 f83c 686d 803c d8a2 193d
00000010: b415 093c eac6 a6bc a435 ae3c b897 7f3a
00000020: 4762 d43c 5ce2 ab3c ade5 fb3c 2a74 3e3c
00000030: 93e9 68bc 6845 a0bc 1cdf 973b 1b8a c0bc
00000040: 31d3 443b 61ed 4ebc 312d d5bc e6c0 0e3d
00000050: eca1 183d d9da 6f3c b3a0 f63c 0aa8 0bbc
00000060: 33fd cdbc be22 183c afbd 533c 922c b73c
00000070: 93ea 3c3c 0acd af3c 55b7 913c 393e 96bc
00000080: fb8f 793c 99be daba eba5 23bc 1301 ea3c
00000090: e120 443c bec2 f83c 6b44 d03c 95ab 183d
000000a0: 43bf 7ebb f9ea 913b d04c 733c 4878 be3c
000000b0: 37b3 90bc c810 bb3c 3a5e e1ba 377d b93c
000000c0: c373 6a3c c23f 863c a21b bc3c 4532 3abc
000000d0: eae4 1f3d 578e 57bc 7e85 843c bdba 663c
000000e0: 7050 66bc e510 d83b 0e9e c63c 440c 6c3b
000000f0: 172f ef3c f0a5 0c3d ea89 a43c 6e4b 203d
00000100: 0779 b9bb b5c6 c63c 3537 633c ed8a 5e3c
00000110: 53d6 163d 4f6e f93c fb03 593d 24b4 bdbb
00000120: 8567 b5bb 9c1c 093d f51f a23b 9071 293c
00000130: 2b3f 193c 4355 c23c 9f3d ed3b 3830 e6bb
00000140: b499 273d 6a90 eb3c c244 163d e823 7bbb
00000150: b03f cdbc 5d4e 1c3d aba1 e33a a785 b6bb
00000160: 00e4 35bc 250a b73c 3ae4 833c dc55 eebb
00000170: 1ace 7fbc 85d2 3abb 07e3 0c3d 4579 5c3b
00000180: 2eac 393c 4138 d63b 5a6f 813c f36a 003d
00000190: 3016 bdbc d77f 9c3c a702 993c bdb3 d4bc
000001a0: 65b5 363b b9c0 d3bc f49a 37bc 4fca 963a
000001b0: a9de f13a 7a93 e5ba 8527 183d f65a c73c
000001c0: 9a72 a8bc dfc4 d03c 244f 9f3c b51f d8bb
000001d0: 001a f93c 2b90 e53c 878c 0d3d e8ca 4d3b
000001e0: 8366 b0bc 0541 3a3a 5881 9d3c 0cc4 d73c
000001f0: 5ffe d7bc 321d e33b f948 bb3c 3420 4b3c
00000200: 07d7 0a3d a846 d5bc bfbf aebc 0134 c93b
00000210: dd17 b23c e7d1 e83c e541 df3c 3b6f e8bb
00000220: 6cb3 fabb cfe9 34bc 2316 bf3b 4c99 0c3c
00000230: e8ff e0bc dd6d 9e3c 3fb2 72bc 1500 1dbc
00000240: 3acb 0c3d 2f94 e03c ae00 503c 612b 9a3c
00000250: 2efe b63c 066b 163c d5ba bf39 07ed d93c
00000260: 60c6 963c 4ab7 f83a efe1 fb3c d35d ed3c
00000270: 165d 843c f2f6 4c3c 21d3 3bbc c20b c13c
00000280: 4efd 8e3c 0190 fcbb e3e4 163d 6aac 173d
00000290: 90ac 823b 81bb 0bbc c7a8 3a3c eb9d 523c
000002a0: 1ee0 67bc b925 bb3c 2d6e 87bc a419 4dbb
000002b0: a6dc 943c 9376 e13b 687b 95bc 59b3 3b3c
000002c0: 0d89 723a 6817 abbc aca9 13bc 8a66 14bb
000002d0: 6fa6 6dbc 34ab acbc 1da4 823c bc27 e03c
000002e0: 56b0 abbc 1692 a0b9 8f3c c13c 6928 4c3c
000002f0: 45d0 173d 5e1b 943c 8101 c13c a1d0 a53c
00000300: 1d41 043d 8caf b0bc 163d 013d 2cfc e0bb
00000310: c28e a3bc 2356 3cbc 71a7 273c 5e84 6cbc
00000320: 5f28 a7bc 7c11 38bc da0d d6bc ebf9 7d3c
00000330: a625 b83c f63a 0c3c b68b 44bc 4725 f73c
00000340: 8cc0 c13c 0b06 2bbc 1017 4cbc 4f81 933c
00000350: 9681 95bc aa24 15bc dc7b 08bd 5f75 a1bb
00000360: 6ead d03c a84d 363c caac b8bc 7208 ec3b
00000370: 95cc d83c 1d3f 0f3d 75e7 3e3c c728 56bb
00000380: 22dd 6e3b 9eef ae3b 143d e23c 9078 9fbb
00000390: 118e c5ba 73fd 313c 7bc8 9dbc c067 34bb
000003a0: fc5b 163d b1b7 1c3d 39b2 85bb 62ef 16bc
000003b0: c200 003d 5b2a 143d 7087 203d bb81 d43c
000003c0: b333 c03c 0ade a8bc 24c1 0e3d 2f5f 03bd
000003d0: c8ab d1bc adfd 12bc 6e32 8ebc 44b4 d03c
000003e0: 0c60 f6bb 9c93 773c 8917 203c 3881 9d3c
000003f0: edb7 50bc cb86 393c eb17 333c 0c26 973c
-0.010806254 0.030273965 0.015677169 0.037508816 0.008366991 -0.020358521 0.021265812 0.0009750086
0.025925769 0.02098196 0.030749166 0.011624375 -0.014215845 -0.019564345 0.004634751 -0.023503354
0.0030033106 -0.012629838 -0.026022526 0.03485193 0.037263796 0.01463958 0.030105924 -0.00852395
-0.025145149 0.009285627 0.012923642 0.02236012 0.011530536 0.021460075 0.017787615 -0.018340217
0.0152320815 -0.0016688883 -0.009988288 0.028564965 0.01197073 0.030366298 0.02542325 0.03727301
-0.0038871325 0.0044530598 0.0148498565 0.023250714 -0.017663581 0.02283515 -0.0017194219 0.022642715
0.014309826 0.016387824 0.022962395 -0.011364524 0.03903667 -0.013156495 0.016176935 0.014082608
-0.014057264 0.006593811 0.024245288 0.0036018053 0.029197259 0.034337938 0.020085294 0.039134435
-0.0056601795 0.024264673 0.013868143 0.013582927 0.03682549 0.030448107 0.05298231 -0.0057892967
-0.005536022 0.03347455 0.004947657 0.010342017 0.009353439 0.023722297 0.007240012 -0.007024791
0.040918067 0.028755385 0.036686666 -0.0038320962 -0.025054783 0.03816067 0.0017366906 -0.005570132
-0.011101723 0.022343704 0.016100038 -0.007273419 -0.015613103 -0.0028506827 0.034396198 0.0033641618
0.011332555 0.0065374677 0.015800167 0.031351995 -0.023081869 0.019103928 0.018678023 -0.025964612
0.0027879116 -0.025848733 -0.011206377 0.0011504384 0.0018453199 -0.0017515265 0.037147064 0.024335366
-0.020562459 0.0254845 0.019446917 -0.0065955766 0.030407906 0.028022846 0.034557845 0.003140146
-0.021533256 0.00071050256 0.019226715 0.0263386 -0.02636641 0.0069309706 0.022861945 0.012397815
0.033896472 -0.026034668 -0.021331666 0.0061402326 0.021739895 0.028420402 0.0272531 -0.007093338
-0.0076507833 -0.011042072 0.0058314963 0.008581471 -0.027465776 0.019339496 -0.014813005 -0.009582539
0.0343735 0.02741441 0.012695475 0.018819513 0.022338 0.00918079 0.0003656956 0.026602281
0.01840514 0.0018975523 0.030747382 0.028975403 0.016157668 0.012510048 -0.011463911 0.023565177
0.01745477 -0.0077075963 0.036839377 0.03702966 0.003987856 -0.008528591 0.011392779 0.012855033
-0.014152555 0.022845136 -0.016532028 -0.00312958 0.01817162 0.00688059 -0.018247321 0.011456334
0.00092519895 -0.020885184 -0.009012621 -0.0022644126 -0.014505013 -0.02107773 0.015947396 0.027362697
-0.020958107 -0.0003062642 0.023588447 0.012460806 0.037063856 0.018079456 0.023560287 0.020241084
0.03228866 -0.021568082 0.031552397 -0.0068659987 -0.019965533 -0.011495146 0.010232792 -0.014435856
-0.020404993 -0.011234637 -0.026129652 0.01550148 0.02247889 0.008558979 -0.0119962 0.030169142
0.023651384 -0.0104384525 -0.01245667 0.018005995 -0.018250268 -0.00910298 -0.033321247 -0.004927322
0.025473323 0.011126913 -0.02254333 0.007203155 0.02646474 0.0349723 0.011651863 -0.0032678114
0.0036447723 0.005338623 0.027617015 -0.004866667 -0.0015072246 0.01086365 -0.019260636 -0.002752766
0.036708817 0.03826112 -0.0040800837 -0.009212347 0.031250723 0.036173206 0.039191663 0.025940767
0.023462152 -0.020613689 0.034852162 -0.032073196 -0.025594607 -0.008971614 -0.017358031 0.025476582
-0.007518774 0.015110876 0.009771236 0.019226655 -0.012739164 0.011323641 0.010930995 0.01845076

nonreduce1_2.bias f4 [32]
00000000: 72a7 7d3c 71cc cc3c b70f 2b3b daec 88bc
00000010: 410a c7bc eec6 9a3c df14 dabc aafa 8dbc
00000020: b23f 7bbb 71fd 563c e177 dc3b 005b 44bc
00000030: 904f 0cbc 1686 fa3c ea20 32bc 9ffb 5f3c
00000040: 65fd e43c 47bc e93c 2d62 adbc e319 f93c
00000050: 85ca efbc fc4b 06bd 36a4 8ebb 7a0b 11bc
00000060: cbb8 b43c 543e 28ba 4374 fbbc 1ea7 0b3c
00000070: 2412 b0bc 3d53 9fbb 182d ed3c 3158 9d3c
0.015481817 0.024999829 0.0026101896 -0.016714502 -0.024296882 0.018893685 -0.02662128 -0.01733144
-0.0038337526 0.013121949 0.006728158 -0.011984587 -0.008563891 0.030581515 -0.010872105 0.013670831
0.02795286 0.02853216 -0.021164978 0.030407852 -0.029271374 -0.032787308 -0.0043530716 -0.008852834
0.022060772 -0.0006417979 -0.030695086 0.008523731 -0.021493025 -0.0048622177 0.028952166 0.019207092

nonreduce1_3.weight f4 [32, 32, 3, 3, 3]
00000000: 4740 0e3c bccc cfbc 1ead c2bc c5d8 89bb
00000010: a11b 213c 1cf6 87bc c589 993c 14e5 dbbb
00000020: f8eb 4c3a acb7 b0bc 6e48 e33c 8c5d b6bb
00000030: 5517 263b 6662 043c 2036 24bc 56d4 3838
00000040: 60d5 ca3b 7621 87bc ee24 c8bb 14e2 093d
00000050: e284 0139 7499 073d 7c32 02bd 1009 a1bc
00000060: 1e5f f53c 9b81 d53c 233d babc 3d49 edbc
00000070: 6f55 753c f2f5 c6bc df12 7a3b 4bc2 ae3c
00000080: f335 94bc db9c 97bb b86b 90bb c710 71bc
00000090: 03f1 abbc 282a 8a3c 033c e5bc 2b6b debc
000000a0: 83d3 52bc 260f fb3b b66c 07bd d770 d43b
000000b0: 7687 1fbc 0d2d d03c 2cb9 e5bc 5a5e 073d
000000c0: a7a7 71b9 0d6c c13c be82 643c c144 a1bb
000000d0: d37e 99bc 9960 44bc b382 cabc 1463 efbc
000000e0: 05cf 8dbc 4ac4 d5bb 43c3 613c 2985 a33c
000000f0: da9a 0ebc 748f e939 7dc6 923c ba20 81bc
00000100: 0a7d 20bc 3e85 833c 83bd 84ba 4662 803c
00000110: 6772 03bd fdfc efbb 0193 ceba 9e48 4c3c
00000120: 676d a6bc d1da 40bc 15a8 ceb9 eadb ddbc
00000130: c2c8 1bbc 122f 36bb 86ba 803c 8fb3 46bc
00000140: 2c7f b5bc f020 39bc 800a 5c3c b81c 0c3c
00000150: db64 1d3b aa8f 023d d516 8c3c d985 bb3c
00000160: f6a6 96bc 27fe abbc 1f7b b23c 3c40 10bb
00000170: 8f50 f73c bc02 db3c d6bc fcbb 3e2f b93c
00000180: 4e57 2f3c 6195 debc 08b8 bc3c f61d e43c
00000190: ccad 7fbc 1fa1 87bc 0b74 e43c d2f2 9e3c
000001a0: b1f4 08bd 603b 06bc 53c2 9dbb 2406 113b
000001b0: b543 1e3c 095b bdbb d779 1dbc f606 e1bb
000001c0: 8fcc 8b3b 373a 96bc 45d5 813c 0bc9 14bc
000001d0: fcf2 cabb 0cfa 0d3b ec12 80bc 56df eb3c
000001e0: 10f0 f83b 1e06 423c 72fa 8fb9 4f1a b73c
000001f0: bd56 b93b 7142 ed3c f3cc ad3c 302f 363c
00000200: b0d7 e0bc 5085 af3b ad6b e5bc 0869 1dbc
00000210: c0f2 263c b6d3 c53b 67b4 fd3b e905 873c
00000220: 359c 5cbc 1ecf a6bb be6e ae3c 6f3a e1bc
00000230: f947 08bc 5bd7 09bd 6a38 393c dc70 873c
00000240: a3a7 45bb ad9d d03c f4ea 3fbc d354 2d3c
00000250: f5cf 853c 4e58 04bd 5057 a83c 1c22 213c
00000260: 19d8 11bc f463 90bc cdd0 8ebc 6aa4 90bc
00000270: bc2b 04bd d11c 643b 3cac cc3c 65d6 293c
00000280: 90e1 5d3c 0550 793c 7775 fb3c 0e27 773c
00000290: 74a9 543c 7669 97bc d976 ce3b ab6d 63bb
000002a0: cf50 f7bb c188 c5bc f3d8 a53b 3eb1 9f3b
000002b0: 86f8 2c3b 3758 bcbc d6cf 073d aac4 eebc
000002c0: 2100 7939 92e1 ad3b 9622 a2bc 5fff d73c
000002d0: af5a 7abc fa2a d43c c101 893a 88ee f3bc
000002e0: 63f2 ad3c 97b7 683c 4fa1 963c 35d2 1abc
000002f0: 3224 6dbc ef35 443c 7e0e 9d3c 31e2 743c
00000300: eb87 2ebc 8fd0 f8bc 285f 8bbc bd79 b9bb
00000310: 050d 89bc c546 2cbb cf32 31bc 4800 68bc
00000320: 2dfe 60bc 5f40 c13c 3511 6e3c f9a1 b33c
00000330: f8fa c8bb 5c33 98bc 9fd7 753b 9b3d 73bc
00000340: cab9 b23c 4198 05bd d7a1 62bb eca1 9fbc
00000350: 4126 52bc d179 193b 1ecd dabc 5ea7 0bbc
00000360: c4d6 ce3c f4bc 6fbc 3f43 6f3c b0c7 363c
00000370: a4b0 aebb d20d aebb 108a b9bc b9e8 313c
00000380: 8680 983c 5293 d1bc 3b26 b73a f7a3 51bc
00000390: de93 b5bc 374f d33b 70a8 b63c b7e8 d8b8
000003a0: 965d cfbc 9cc4 91bc 7280 0fbc 00a2 fc3c
000003b0: 4b4f 053d a433 cabb d869 a23c b69a 85bc
000003c0: 1ed5 d53b 3c16 373b 5467 1c3b c341 4dbb
000003d0: 4d1f 093c 9b9f 05bc 0970 09bc 8639 b1bc
000003e0: 33b0 ee3c 4995 8a3c dfdc 09bd 0f8e 04bd
000003f0: aec0 283c 904a ccbc b1c2 00bd f2e9 aa3c
0.008682317 -0.02536618 -0.02376419 -0.004206749 0.009833247 -0.016596846 0.018742451 -0.006710658
0.00078171445 -0.021571957 0.027744498 -0.005565351 0.0025343497 0.008080101 -0.01002267 4.406677e-05
0.006189987 -0.016495448 -0.006107918 0.03366287 0.00012351901 0.03310533 -0.031786427 -0.019657642
0.029952582 0.026062777 -0.02273423 -0.028965587 0.014973982 -0.024287198 0.003815822 0.02133288
-0.018092131 -0.004626853 -0.0044073723 -0.014713473 -0.020988947 0.016865805 -0.027982717 -0.027150711
-0.012867811 0.007661718 -0.03306266 0.006483178 -0.009736886 0.025412107 -0.028042398 0.033048965
-0.00023046006 0.023611093 0.013947187 -0.004921526 -0.018737232 -0.011985921 -0.024720525 -0.029222049
-0.017310629 -0.0065236436 0.013779464 0.019960957 -0.008703912 0.00044548104 0.017916912 -0.015762676
-0.009795437 0.016054746 -0.001012728 0.01567186 -0.032091524 -0.0073238597 -0.0015760363 0.012468485
-0.020315839 -0.01177092 -0.00039416613 -0.027082402 -0.009508314 -0.0027799052 0.015713941 -0.012127771
-0.022155367 -0.011299357 0.013430238 0.008551769 0.0024016413 0.03187529 0.01710073 0.022890972
-0.01839016 -0.020995213 0.021787224 -0.0022010943 0.03018978 0.026734702 -0.0077129407 0.022605535
0.010701967 -0.027170839 0.023036972 0.027846318 -0.015605401 -0.01655632 0.027887365 0.019402895
-0.03343648 -0.008192867 -0.004814425 0.0022128904 0.009659697 -0.0057786745 -0.009611568 -0.006867285
0.0042663286 -0.018338306 0.015848765 -0.0090811355 -0.006193517 0.0021663932 -0.015634023 0.028793018
0.007596977 0.011842279 -0.00027461682 0.022351412 0.005656092 0.028962346 0.021215891 0.011119649
-0.027446598 0.0053564683 -0.028005445 -0.009607561 0.010189712 0.006037201 0.007742453 0.01648231
-0.013464977 -0.0050906083 0.02129304 -0.027493684 -0.008317941 -0.033652645 0.011304954 0.016533308
-0.0030159734 0.02546581 -0.011713732 0.010579306 0.016334513 -0.032310776 0.020549446 0.009834792
-0.008901619 -0.017625786 -0.017433548 -0.017656524 -0.03226827 0.0034807215 0.024984471 0.010366057
0.013542548 0.015216832 0.03069566 0.015084995 0.012979854 -0.018482905 0.006300789 -0.0034702818
-0.007547475 -0.02411306 0.0050612628 0.004873424 0.0026393249 -0.022991283 0.033157192 -0.029146511
0.00023746538 0.005306431 -0.019791882 0.026366888 -0.01528041 0.0258994 0.0010452793 -0.029776827
0.021233743 0.0142039275 0.018387465 -0.009449531 -0.014473962 0.011975749 0.01917195 0.014946506
-0.010652523 -0.030372886 -0.017013147 -0.0056602643 -0.016729841 -0.00262873 -0.010815336 -0.014160223
-0.013732475 0.023590265 0.01453047 0.02192782 -0.0061334334 -0.018579178 0.0037512553 -0.014846231
0.021817107 -0.032615904 -0.0034581327 -0.01948639 -0.012826503 0.0023418556 -0.026709136 -0.00852379
0.025248893 -0.014632452 0.014603435 0.011156008 -0.005331116 -0.005311706 -0.022648841 0.010858708
0.018615972 -0.025582943 0.0013973186 -0.01279544 -0.022165235 0.006448652 0.022297114 -0.00010343029
-0.02531318 -0.017793946 -0.008758651 0.030838966 0.032546323 -0.006170707 0.01982586 -0.016309123
0.0065256497 0.0027936837 0.00238653 -0.0031319715 0.008369279 -0.008155729 -0.008388528 -0.021633875
0.029136753 0.016916888 -0.033657905 -0.03236204 0.010299845 -0.024937898 -0.031435672 0.020863507

nonreduce1_3.bias f4 [32]
00000000: d1fc c6bc bb9b fd3c baa5 e43c 2b81 73bc
00000010: 1451 513c 0eb9 c43c 9af0 e3bb 057b c93c
00000020: 76f3 023d ab32 123d bf96 ea3c 27c2 b6bc
00000030: 9b6d 7fbc b925 39bc 5d1d acbc 2931 9e3c
00000040: 5876 083c 896c be3c 939e 1b3c fdf2 d03c
00000050: 0478 f73c ec72 8bbc 3f13 b33c f511 ddbc
00000060: cdc4 ea3b cff2 133d 4b21 7bbb 9ec4 c03b
00000070: 0573 163c 9ce3 48bc b930 3a3c d2bc 8f3c
-0.024290474 0.030958047 0.027911056 -0.014862339 0.012775678 0.024014022 -0.006956172 0.024594793
0.031970464 0.035692852 0.028636334 -0.022309376 -0.015590097 -0.011300498 -0.021010095 0.01931055
0.008328997 0.023245113 0.009498256 0.02550649 0.030208595 -0.017022572 0.021859763 -0.026986102
0.0071645738 0.036120232 -0.0038319405 0.0058828136 0.009182696 -0.012261298 0.011364155 0.017546091

reduce2.weight f4 [16, 32, 4, 4, 4]
00000000: f6e6 9f3a d361 fcb9 c879 8e3c db0b 9bbb
00000010: 3efa 3c3c 065b e7bb 11a4 8a3c f25c 39bc
00000020: 5e5d c83b ae8b 12bc ecde d3bb cb3c 8cbc
00000030: ab1c 2fbb 0214 183c 80a7 783c 7f58 12bc
00000040: a59f 913c 155c 70bc 2940 5ebc 5be0 163c
00000050: 1800 0f3c 8b21 92bc daf4 923c e991 40bc
00000060: 8daa 02bc 8d41 a33c 6a71 a43c 318b 9abb
00000070: a70b 003c afb3 1c3b 41eb 563c 0681 d4bb
00000080: c60f 82bc 6c71 363c 1b82 153c 1204 cc3b
00000090: a476 56bc 18b3 123c 5b2b db38 e4b7 3fbb
000000a0: ca97 ecbb 86db 87bc c693 a43b efb1 503a
000000b0: 279a 4f3c 6cca 34bc 2a30 7bbb 7249 423a
000000c0: b481 d43b b1bb 9b3c ee5d ec3b 577f 573c
000000d0: 6b7f 6f3c ec02 3d3c 2bc4 0c3c abc0 2cbc
000000e0: 2013 5c3c 87ad 303c 1809 643c 92d6 5cbb
000000f0: fc6f 783b 60e6 2dbc 4447 4b3c 5f58 9dbc
00000100: 9b12 353c b6e2 79bc 0228 0f3c 4469 ae3c
00000110: 0603 8abc a649 ba3c 321c a13c 1a97 f23b
00000120: 5915 9fbb 8f13 743c 5261 1bbc 5905 773c
00000130: 0740 8c3c bfff d23c 7167 1d39 b950 7fbb
00000140: aa33 53bc 183c d13c 344c 0bb9 2edf 463c
00000150: 342d 2bbc 7f69 ad3c 14c4 d53b 096c 963b
00000160: 7a69 e03b d8db a03c 4573 b43b 5ed0 c13c
00000170: eb79 ad3c 6b63 7ebc 5b46 2b3b 9915 03bc
00000180: be2d c5bb 6184 963c 4afd 873c fa45 873b
00000190: 9fe5 3ebc e8bf 11bc 76e4 903c 9164 5fbc
000001a0: 3b3f 9bbc 75ae 4cbc 39f8 463c f3c6 4b3c
000001b0: 2b22 2a3c a44d 2f3c 625e a439 471e 78ba
000001c0: 2ed5 a93c d6ac 71bc 2731 8dbc 37c5 e3bb
000001d0: a01c 0ebc 1d41 26bc 00ea 90bc 6efe f7ba
000001e0: 65fd 9a3c 824a 20bc d9e7 76ba ba0f 4f3b
000001f0: ce75 23bc 3d0d c6bb 90e2 8fbc 65a1 d53b
00000200: fec0 833c 96dc b03c 19ee d63c 61e8 d33c
00000210: 73f7 d73b 6289 82bc a28d 2a3b 8ac8 6c3c
00000220: 5cac 05bb d96c 4b3b 0291 73bc 90c4 ddbb
00000230: 285d c63c 6e9f 213c 60d9 03bb a08f f83b
00000240: 7028 fd3b f1d0 943c 540c 7bbb 61b4 8dbb
00000250: 2a72 4d3c 1886 723c 8054 d33c ba25 8dbb
00000260: fc20 d13b 9c5f 523c 413d d9bb 372a 643c
00000270: 4806 6abb 0e92 7a3c b8f8 333c d07d 12bb
00000280: 4458 f43a 1f1d 3abc ebe8 193c df16 db3c
00000290: 548a bebb 06ae 853c 9c40 5e3c 28b9 7c3c
000002a0: e869 313c 4153 d23c 3d4b f3bb 7b2a 323c
000002b0: 835e 2c3b 239d 8e3b b5ad 83bc a200 2ebb
000002c0: 9164 043c 7410 93bc f054 a43b 9326 eb3b
000002d0: 8dd8 ad3c dd53 9bbb 5e4b 21bc be0b a33c
000002e0: d8ab 12bc 2bbc 473b f74d 09bc 09d6 b6b8
000002f0: 4391 b8bb 987c 3abc 9530 dd3b 2fcb a9bc
00000300: 4712 4c3c 282b 92bc 8ec1 753c c7a2 6bba
00000310: 042b 09bc 61c6 8abc c4fc e7bb 1608 a53c
00000320: 635f 8dbc e9e4 02bc 451f bdbb bd0d 513c
00000330: f706 423c f431 413c 93df a23c cf3d b13b
00000340: 71b7 253b 7757 48bc d542 1abc 9b97 14bc
00000350: b0a5 8abc 6a6c e93a 9a26 56bc 9087 85bc
00000360: 3959 a53c 7109 203c 2308 c83c 2475 87bc
00000370: 078b 4fbb 3f7c 9abc b75b 0b3c 20e7 2ebc
00000380: 4364 763c cd94 3b3c af56 0fbc 66b9 7d3c
00000390: b50e 863c bbaf 6e3c ef0c 863c 0b2d 483c
000003a0: c47a 823c c8d7 e2ba 057e 193a 8db0 c63c
000003b0: 898e 993c f7f1 2dbc 6315 9e3c 2df9 843c
000003c0: 859e 68bc 6404 65bc 89d9 90bc 55c0 61bc
000003d0: ddcb 613c e3d5 123c d3cb a83c c243 33bb
000003e0: 683a 69bb d2cc 98bc d8d0 09bc aa95 90bb
000003f0: 8fa0 87bc f04f 043c 702e 163b 48b8 22bc
0.0012199569 -0.0004813807 0.017392054 -0.004731638 0.011534272 -0.0070604114 0.016923936 -0.011313664
0.006114646 -0.008944435 -0.0064657833 -0.017118832 -0.0026719968 0.009282114 0.015176654 -0.008932232
0.01777632 -0.014670392 -0.013565102 0.009208764 0.00872805 -0.01783826 0.01793902 -0.011753538
-0.007975233 0.019928718 0.020073611 -0.0047163 0.007815278 0.002391081 0.013117612 -0.0064851074
-0.015876662 0.01113544 0.009125258 0.006226071 -0.01308981 0.008953832 0.00010450809 -0.0029253894
-0.007220243 -0.01658417 0.005022499 0.00079610845 0.01267103 -0.011034589 -0.0038328269 0.0007411457
0.0064851884 0.019010397 0.0072133457 0.013152919 0.014617781 0.011536341 0.008591692 -0.0105439825
0.013432294 0.01078356 0.013918184 -0.003369723 0.0037908545 -0.010614008 0.012407128 -0.019207178
0.011051799 -0.015251806 0.008737566 0.021290429 -0.016847145 0.022740196 0.019666765 0.0074032666
-0.0048548398 0.014897241 -0.009483652 0.015076959 0.017120374 0.025756715 0.00015011222 -0.0038958027
-0.012890736 0.02554135 -0.00013284461 0.012138171 -0.010447789 0.021168469 0.0065236185 0.0045905155
0.0068485113 0.01963608 0.0055069053 0.023658928 0.0211763 -0.015526633 0.0026134464 -0.008000755
-0.006017416 0.01837367 0.01660027 0.004128215 -0.011651426 -0.008895852 0.017687064 -0.013634817
-0.01895105 -0.012492766 0.012144142 0.01243757 0.010384123 0.010699663 0.00031350838 -0.0009464961
0.020731535 -0.01475068 -0.017235352 -0.006951 -0.008673817 -0.01014736 -0.017689705 -0.001892043
0.018919656 -0.009783389 -0.0009418703 0.0031595067 -0.009976817 -0.0060440586 -0.017564088 0.006519484
0.016083237 0.021589559 0.02623658 0.025867643 0.0065907775 -0.01593465 0.002602436 0.014452109
-0.0020396924 0.003104022 -0.0148661155 -0.006767817 0.024214342 0.009864671 -0.002011858 0.007585481
0.007725768 0.018166037 -0.0038306909 -0.0043244814 0.012539426 0.014802478 0.025797129 -0.004307476
0.006382106 0.012840178 -0.0066296165 0.01392608 -0.003570931 0.015293611 0.010984592 -0.0022352822
0.0018642028 -0.011359482 0.009393911 0.026744304 -0.00581483 0.016318332 0.013565209 0.015425004
0.010828473 0.025674464 -0.0074247406 0.010874386 0.002630145 0.0043522283 -0.01607404 -0.002655067
0.0080806175 -0.017952181 0.005015008 0.0071762293 0.021221424 -0.004740222 -0.009844629 0.01990306
-0.008952104 0.0030477147 -0.008380405 -8.7183034e-05 -0.005632551 -0.0113822445 0.006750176 -0.020726768
0.0124555295 -0.017842844 0.01499976 -0.0008988794 -0.008372072 -0.016940298 -0.0070796926 0.020145457
-0.017257398 -0.007989147 -0.00577155 0.012759623 0.011842481 0.011791695 0.019882 0.0054089795
0.0025286342 -0.0122278845 -0.009415348 -0.009069349 -0.01692471 0.0017808799 -0.013070727 -0.016299993
0.020184146 0.009767876 0.024417942 -0.01653535 -0.003166856 -0.018858073 0.008505753 -0.010675222
0.015038553 0.011449051 -0.008748694 0.015486097 0.016364435 0.014568265 0.01636359 0.01221777
0.01592768 -0.001730674 0.0005855265 0.024254108 0.018744724 -0.010616771 0.019297307 0.016232098
-0.01419795 -0.013978098 -0.017681854 -0.013778766 0.013781515 0.008962127 0.020605003 -0.002735362
-0.0035587791 -0.018652353 -0.008411609 -0.0044123726 -0.016556052 0.008075699 0.0022915863 -0.009931631

reduce2.bias f4 [16]
00000000: 6ee8 753b dfed 783c 0e45 58bc 4ca5 453c
00000010: d41b d43c 4e8a 6fbc 0789 83bb 08df b2bc
00000020: 1520 913b 71f9 89bc c73a 103c 2037 f6bb
00000030: 957d e63b d559 81bc f844 603c 214e ba3c
0.0037522572 0.015193432 -0.013200058 0.012063336 0.025892176 -0.014620377 -0.0040141377 -0.021834865
0.0044288733 -0.016842576 0.008803076 -0.0075138956 0.0070340135 -0.015789906 0.013688318 0.022742333

nonreduce2_1.weight f4 [16, 16, 3, 3, 3]
00000000: a78d e7bc 6e44 3a3b 2e9f 323c 3a8c e2bc
00000010: 7af6 08bd 0f1b c73c 81f7 503d 95e3 143d
00000020: 01a5 e83c 7fb4 c8bc 0dc3 01bc 5a3d 8ebc
00000030: 1e2c ed3c f3ca 92bc b3c9 11bd e099 f1bc
00000040: 0414 5cbc 77ed dd3b 103f 22bd 885b 0cbd
00000050: 8f8f d1bc 49c8 02bd 8589 2f3c 4f4c 34bc
00000060: 4f32 3b3d 9f52 35bc 4095 1a3d b69f 02bd
00000070: 1dbe c83c f763 48bd b712 18bc b08a 19bb
00000080: b7ce 10bc 4330 393d 3175 e23a 4274 813c
00000090: d9fc 283d 3c56 91bc 123a 603b b917 afbc
000000a0: 0d22 053d ed6a 18bd b5bf 58bb e359 47bd
000000b0: 00d0 4fbd 3795 4e3d adc5 c73c 452d 3f3d
000000c0: facc 6f3d 7de8 58bc a272 953c 90c3 ecbb
000000d0: 9931 3abb 66d2 dabc bad0 ac3b 3cf8 f03c
000000e0: 1e11 36bb 59a3 f53a f8f9 1cbd 7209 453c
000000f0: d25d 30bd 4d8b 99bb dd38 dfbc a122 203d
00000100: 27a2 8a3c 1374 dd3c b721 37bc 115d 043d
00000110: 7d53 303d b56c 343d 864d 023c bf82 043d
00000120: e4e1 e33c 7ec9 d3bc a55d 55bc a928 863c
00000130: a509 20bd 90a0 0fbd ad43 9f3c 8a05 87bb
00000140: 22f4 8c3c 3e21 943c afae 3fbd e2f9 16bd
00000150: 6fed 3d3d 5a49 133d 885d 61bc 35a8 00bd
00000160: d5a2 893c 74fb 88bd c075 823d 9394 5f3d
00000170: 974e c73c 45aa 963c ecf5 8b3c 4639 693d
00000180: cb6c d13c d00b 503d fbc8 a73c 5687 8bbc
00000190: dfc2 fa3c cf73 5f3d c02b 763c fb21 a83d
000001a0: c81f 313d c330 7c3c e13c 423d 9505 a13b
000001b0: bd95 cbbb 7820 233d b9ad bcbb 8d02 313d
000001c0: c93d fe3c 5027 ec3c 4591 dabb 683a abbb
000001d0: 2ac6 20bd 716b 883c 1e15 d5bc 0105 30bb
000001e0: 9feb 8cbc 216d 193d d032 12bd df91 7fbb
000001f0: 355b 123d 82ca 5f3a 8e59 0fbd d047 a5bb
00000200: bebf 03bc 7213 efbb 3e4d 763c f9ea 803b
00000210: bb3b 1d3a 08db 963c 5e88 cfbc 309d 28bd
00000220: a7b1 9a3c ebc0 38bd 438a c1bc 9bc1 e9bc
00000230: 823c 6f3c 66fd 2a3c fc0e bebc 5344 323d
00000240: 7d1c 413d e0f4 49bc 8a9f 253c 243a 05bd
00000250: e8e6 2fbc 61cd 28bd 0ff8 403d 4785 4b3c
00000260: bec1 0d3b be86 1e3d c11f 3dbd d84d 443c
00000270: 0cc8 213d 40e6 2b3d 36bb 963c 093f 03bd
00000280: b58c 92bc 2819 19bd 7d29 2abd 37bf 39bd
00000290: 8822 f8bc a905 a73c a2c7 0cbd d44a 5dbd
000002a0: 5770 07bd 1d7a d3bc 137f 15bd 0dd7 fb3c
000002b0: ce5e b9bc 7605 3cbc e9c1 763c e319 06bd
000002c0: 2071 74bc adc2 1fbd 082c 6a3c d6f2 20bd
000002d0: d0f4 cc3c e608 333d dddb bc3a e75b 353d
000002e0: 8688 e93c 56fb ae3c 2c7a 11bd 5eb2 eb3c
000002f0: 4a7f 403d 6865 1fbd bbd2 abbc ab9b 15bd
00000300: caa2 333c e82a 10bd 7ef7 51bc 71f0 323d
00000310: 0c51 84bc 7ead 36bd 4488 273d 467e 9a3c
00000320: 4be5 4ebd 2304 eb3c 7a1a 3c3d 2ea4 ba3c
00000330: 85f8 813c 8b26 94bc a6bd 3f3c cb45 373d
00000340: 8343 d7bc 0e3e b8bc ed81 1e3d ecd6 0f3d
00000350: 1e5e 033d fd95 aa3c e987 8d3c 0ee9 69bc
00000360: 68cc b83c 49fb ba3c 646b da3b d94f 353b
00000370: dfcb dd3b c05a b9bc 1abd 2ebb 2546 9f3b
00000380: 8fa9 d1bc 25c3 1b3d b668 513a b71e 003d
00000390: eb21 39bd 6b59 0dbd f399 ff3c ebcf 2e3c
000003a0: 4652 283d d247 0abb b095 e0bc d098 263d
000003b0: cfc7 3abd 21f7 3d3c 48f9 42bd 9fcd d73c
000003c0: d6a9 203d b374 243b accf c0bb ef21 7bbc
000003d0: 9e14 553c 3f02 3a3d c7fe 31bd a45d cbbc
000003e0: 964d e2bc fe9c 19bd ff5b 9dbc 9e27 a43c
000003f0: 8249 fe3b a924 ef3c f9de 83bc 69de 1a3b
-0.028265787 0.0028422135 0.010902209 -0.027654756 -0.033438183 0.024304895 0.051017288 0.03634985
0.028398992 -0.02450013 -0.007920039 -0.01736324 0.0289517 -0.01791904 -0.035592746 -0.029492319
-0.0134325065 0.006772693 -0.039610922 -0.03426698 -0.02558115 -0.031929288 0.01071394 -0.0110045215
0.045702275 -0.011067062 0.037739992 -0.031890593 0.024504716 -0.04892346 -0.009281806 -0.0023428611
-0.008838347 0.04521204 0.0017277357 0.015802506 0.04125676 -0.017741315 0.00342143 -0.021373617
0.032503176 -0.037211347 -0.003307325 -0.048669707 -0.050735474 0.05043527 0.024386251 0.04667403
0.05854509 -0.013239023 0.018243138 -0.0072254613 -0.002841091 -0.026711654 0.0052739056 0.029415242
-0.0027781199 0.0018740698 -0.038324326 0.012026178 -0.043058224 -0.0046857954 -0.027248794 0.039095525
0.016923023 0.027032888 -0.011177472 0.032315318 0.04304837 0.044048984 0.007953053 0.03235125
0.027817674 -0.025852915 -0.013022815 0.01637681 -0.039071698 -0.035065234 0.01944145 -0.0041205334
0.017206255 0.018082257 -0.04679745 -0.0368594 0.046369012 0.035958625 -0.01375521 -0.031410415
0.016801277 -0.06688586 0.06370115 0.05458505 0.024329467 0.018391738 0.017085038 0.056939386
0.025564572 0.050792515 0.020481577 -0.017032307 0.0306105 0.054553803 0.015025079 0.08209606
0.0432432 0.015392485 0.04742134 0.0049139955 -0.0062129186 0.039825886 -0.005758014 0.043215323
0.03103532 0.02882734 -0.0066701495 -0.0052254684 -0.039251484 0.016652795 -0.026011046 -0.0026858451
-0.017202197 0.03745759 -0.03569299 -0.0038996858 0.035731513 0.0008536951 -0.034997515 -0.005043961
-0.00804132 -0.0072960192 0.015033064 0.003934261 0.0005997975 0.01841499 -0.02533358 -0.04116553
0.01888354 -0.045105856 -0.023625499 -0.028534701 0.0146018285 0.010436391 -0.023200504 0.04352219
0.04714631 -0.012326449 0.010108838 -0.03252615 -0.010736205 -0.04121149 0.047111567 0.0124219125
0.0021630372 0.03870272 -0.04617286 0.01198145 0.03949742 0.04196763 0.018399816 -0.032042537
-0.01788936 -0.037377506 -0.041543473 -0.045348372 -0.030289903 0.020388441 -0.034370072 -0.05402644
-0.03306612 -0.025815064 -0.03649814 0.030742193 -0.022628214 -0.011475911 0.01506088 -0.03273953
-0.014919549 -0.039004017 0.014292724 -0.039294086 0.02501908 0.043709658 0.0014408786 0.044277098
0.028507482 0.02136008 -0.035516903 0.028771576 0.046996392 -0.038915068 -0.020974508 -0.03652541
0.010964105 -0.03519717 -0.012815354 0.043686334 -0.016151927 -0.04459905 0.040901437 0.01885904
-0.05051164 0.028688496 0.045923688 0.022783365 0.015865574 -0.018084785 0.011702931 0.044744294
-0.02627731 -0.022490527 0.038698126 0.035117075 0.03207218 0.020823473 0.017276721 -0.014276756
0.022558406 0.0228249 0.006665634 0.0027666 0.006768688 -0.02262628 -0.0026663006 0.004860657
-0.025593547 0.0380279 0.00079883204 0.031279292 -0.045198362 -0.034509104 0.031201338 0.010669689
0.041094087 -0.0021099937 -0.027415127 0.040673077 -0.04560071 0.011594565 -0.047601014 0.026343165
0.03922447 0.0025093972 -0.0058841314 -0.015327915 0.013005404 0.0454123 -0.043455865 -0.024824925
-0.027624886 -0.037503235 -0.019208906 0.020038422 0.0077602277 0.029192286 -0.016097533 0.0023631102

nonreduce2_1.bias f4 [16]
00000000: a2a0 023d e804 ccbc e9bb 873c cb34 b5ba
00000010: b2dc 023d 2efb 453d 95cf a43c dc8e 56bb
00000020: 2c1e 063d 931f 8b3c 9528 103b c302 bf3c
00000030: c213 11bd c4bc febc a323 f7bc 145d cd3c
0.031891473 -0.024904683 0.016569095 -0.0013824938 0.031948753 0.048335247 0.020118514 -0.003273896
0.032743618 0.01698283 0.0021996845 0.023316747 -0.035419233 -0.03109587 -0.03016836 0.025068797

nonreduce2_2.weight f4 [16, 16, 3, 3, 3]
00000000: e8b4 563b 5b36 353d 2914 753d 71b7 dc3c
00000010: 812a aebc 4760 d43c def0 4dbd 4e11 9cbc
00000020: acdb e33c 143b 003d 460d bebc 488f 3a3d
00000030: aa50 663d 14d5 8f3c d8da 7b3d af5e 28bd
00000040: ff97 afbc 03af 843a 667b c83c 71f8 65bc
00000050: 60ca e53c 7f3b 803d 5622 44ba 4fba 863d
00000060: c97a e4bc 0b1e d63c e3bc 113d 451a 8b3c
00000070: de80 08bd cede 06bc 5660 18bd 904b 3bbd
00000080: d8a2 4f3c 3692 e33c 1f01 1b3d caef 393d
00000090: 1f76 403d 16c8 ecbb 36a8 1ebc 8995 ddbc
000000a0: 332b f2bc 78e9 9dbc 904f ec3c d995 833c
000000b0: 0927 1ebd 4380 a7bc 00ce 503c 62f8 87ba
000000c0: 5fb5 98bb 2812 3cbd 61c4 8f3c f3da 0abd
000000d0: 7404 b2bc a2d0 a33b 36da 17bd 8533 103d
000000e0: 94a4 17bd 97c2 cf3b 42ce 183d a7d9 a1bc
000000f0: e926 9b3c 45ea 1abd f837 00bc 5ea7 d8bc
00000100: 4958 9abc e0e1 2dbd bde1 09bb 6efe 403d
00000110: 9605 863c f2b2 233d 3f83 dc3c fe95 263b
00000120: c739 0d3c 7b59 cebc 187d 23bd 60da 0cbc
00000130: 0506 c33c b301 383d eb3e d5bb 9996 35bd
00000140: 8dc7 183d 7ffc 1dbd 5307 debb 762d f3bc
00000150: 04dd 92bc 8a03 da3c 184c dabc e4ad 5dbc
00000160: 737c 113d 78ee ac3c f9db e6bc 2e8a 993a
00000170: 1171 293d 2733 da3b 4cd8 93bc a25c 45bc
00000180: 1048 b53c 1fca 243c 1903 0f3d 86c3 1abd
00000190: cbde ad3c f7d2 d3ba b811 eb3b 8dd3 9bbc
000001a0: b36a d33c aa72 f1bc bb6b d6b9 e10e 003c
000001b0: eb6d 54bc 9708 183d 767b eb3c d5bb d13b
000001c0: 9948 0f3d 20d9 f13c cbaf 1bbd 9e85 2ebd
000001d0: 7bce bdbc 2489 853a cf34 edbb 222f 243d
000001e0: d2da 4abb b5c4 3e3d cb8c b83c db22 873c
000001f0: 117a b23c b771 163d e423 133d ffb5 183c
00000200: 44e6 d6bc 42fc 913a 558f 4b3d 2e8a 223d
00000210: 6e90 363d 97b4 0a3d 6bc5 0fbd 1e02 4d3d
00000220: ea9f dbbc 88f6 c23c 3a8b 693c 319e 883c
00000230: d6a3 193d 486a fcbb 7b9a 713b 9585 0cb9
00000240: a994 ebbc e5e1 24bd 3f92 4a3d be39 d03c
00000250: 0ffa 0abd 95f9 b73c 87d1 3dbd 141a 193d
00000260: a712 25bd cc4c bcbc ce83 673c 5544 aa3c
00000270: af2c 713c 36c9 d7bc 83db 46ba d628 033d
00000280: d907 02bd 292c 7b3c 4d12 3c3d 9b2c c6bc
00000290: d15c 5ebd 0283 1b3d bfa8 db3d 06f7 963d
000002a0: b965 a53d 437e c53c 602b a1bb 4727 853d
000002b0: 84f5 c93b f140 0abd 84e7 8a3c f5b6 a23d
000002c0: d810 043c 0f10 f33c 6e37 913d 3a90 c43c
000002d0: a5cd 093d 8bf1 633d 284a 263d 4bdb 3f3d
000002e0: b714 8c3d a6b1 fe3c 99e2 043d 4b4f 643d
000002f0: d9b5 9a3c f93f 673d 4244 37bc 0ac0 923c
00000300: 9649 4b3d 0c4d 98bc 15ff 513d dcbe 73bc
00000310: 5c65 093d 329b 7b3c e660 813d bd4c a03c
00000320: b3e1 4d3c e8f4 85bc 2030 8abc 8006 bd3c
00000330: 2096 27bd e8d4 483d 63e5 a03c 7648 153d
00000340: 95d5 18bc 0b3f a2bc c5a9 953c 3730 b1bc
00000350: 1167 8d3c e7b0 d33c 3a7e 9d3c 5284 083d
00000360: 330a 563d 3962 d23c 33c9 a53c 12e8 2f3d
00000370: bb54 23bc 1b54 23bc 6ac5 a03c befb debc
00000380: 86be 70bc 301b b6bc 1440 afbc a5a2 543a
00000390: 7c30 c2bb 18d9 f6bc c0c6 2abd 8d20 e73c
000003a0: 2813 0f3c ad50 35bc 60c6 ce3c a0b2 09bd
000003b0: 3970 e23c 9647 b93b a5af c53c c2c0 a2bc
000003c0: a33b 1dbd bbcf 26bd 0dc1 573c 2060 25bd
000003d0: 1c0e fc3c 763f 8cbb 6d83 2abc 988f a53c
000003e0: d782 61bb 0f04 523c 6c19 263d 2ab9 3ebc
000003f0: cd77 053d 5b3b 0d3c 25f9 08bd d746 6e3c
0.0032761637 0.04424129 0.05983368 0.02694294 -0.021260502 0.025924815 -0.050278537 -0.01905122
0.027814709 0.03130634 -0.023199689 0.0455468 0.05622927 0.017557658 0.061488003 -0.041105922
-0.021434782 0.0010122958 0.024472903 -0.014036284 0.028050601 0.06261348 -0.0007481923 0.06578504
-0.02789058 0.026137372 0.035580527 0.0169803 -0.033326022 -0.008231832 -0.037201248 -0.04572636
0.012673102 0.02777968 0.037842866 0.045394696 0.04698765 -0.0072260005 -0.009683659 -0.027048843
-0.029561615 -0.019276366 0.028846532 0.016062664 -0.038611446 -0.020446902 0.012744427 -0.0010373706
-0.004660293 -0.045915753 0.017549695 -0.033900212 -0.021730639 0.004999236 -0.037073337 0.035205383
-0.03702219 0.0063403356 0.037306078 -0.019757105 0.018939452 -0.037821073 -0.007825844 -0.026446994
-0.018840926 -0.04245174 -0.0021039092 0.047117643 0.016360085 0.039965577 0.026918052 0.0025418992
0.008619732 -0.025189152 -0.03991422 -0.0085969865 0.023806581 0.044923496 -0.0065077445 -0.044333074
0.03729968 -0.038570877 -0.0067757755 -0.029684763 -0.017927654 0.026613016 -0.026647612 -0.013530228
0.035519075 0.021109805 -0.028181063 0.0011714154 0.041367594 0.00665893 -0.018047474 -0.012046011
0.022129089 0.010057955 0.034915064 -0.037784122 0.0212244 -0.0016160895 0.007173743 -0.019021774
0.025807714 -0.029473621 -0.00040897526 0.007816047 -0.01296566 0.037117567 0.028745394 0.006400565
0.034981344 0.029522479 -0.038009446 -0.042607896 -0.023169747 0.0010187966 -0.0072389613 0.04008401
-0.003095318 0.046574313 0.022528073 0.016496113 0.021786721 0.03672954 0.0359229 0.009320735
-0.026232846 0.0011137801 0.04969724 0.03968256 0.044571333 0.03386363 -0.03510038 0.050050847
-0.026809651 0.023799196 0.014254386 0.016676994 0.03750976 -0.0077030994 0.003686576 -0.00013401204
-0.02875741 -0.040254492 0.049455877 0.025418159 -0.03392988 0.022457877 -0.0463424 0.037378386
-0.04030099 -0.022985838 0.014130546 0.020784536 0.014720126 -0.026341062 -0.00075858104 0.032021366
-0.031745765 0.015330353 0.04591589 -0.024191191 -0.054287735 0.037966736 0.10725545 0.07371335
0.08076043 0.024108058 -0.004918501 0.06501632 0.006163301 -0.03375334 0.016956098 0.079450525
0.0080606565 0.029670743 0.070906505 0.023994554 0.033643384 0.055650275 0.040598065 0.046839993
0.068398885 0.031090569 0.032442663 0.055739682 0.01888554 0.056457493 -0.0111857075 0.017913837
0.049630724 -0.018591426 0.051268656 -0.014877047 0.03354393 0.015356826 0.0631731 0.019567842
0.012566018 -0.016352132 -0.01686865 0.023074389 -0.040914655 0.04903117 0.01964063 0.036446057
-0.009328266 -0.019805452 0.018269429 -0.021629436 0.01726106 0.02584119 0.019225229 0.033329315
0.05225582 0.025681602 0.02023754 0.04294593 -0.009968932 -0.009968783 0.019625384 -0.02721965
-0.014693862 -0.02222976 -0.02139286 0.0008111394 -0.00592619 -0.030132815 -0.04169345 0.028213764
0.008732595 -0.011066598 0.025241077 -0.033617616 0.027641403 0.0056542857 0.024131605 -0.019867305
-0.038386952 -0.04072545 0.0131685855 -0.040374875 0.030768447 -0.004280026 -0.010407311 0.020210072
-0.0034410262 0.01281835 0.040551588 -0.011640826 0.032584954 0.0086201085 -0.033440728 0.014543257

nonreduce2_2.bias f4 [16]
00000000: 9cb8 9a3c 06c3 6fbc ff65 14bd 88fa 773a
00000010: 6a8d 3c3d b43e e73c b451 9c3b c6a8 09bd
00000020: 4c5a a23c 3769 933c 335a ea3c c06e e33b
00000030: acac f7bc eb8f 4fbc 10f5 193d 330b a3bc
0.018886857 -0.0146339 -0.036230084 0.00094596343 0.0460333 0.028228141 0.004770482 -0.03360822
0.019818448 0.017994506 0.028607463 0.0069406927 -0.030233704 -0.01266859 0.037587225 -0.019902801
