02_deep3D/model/model_iw.pt (torch, 739878 bytes, 25 tensors)

reduce1.weight f4 [64, 1, 4, 4, 4]
00000000: c2d7 78bd 8f75 3fbc 40c4 d23d 24b4 cd3d
00000010: 6fb0 80bd d00a ed3d 281d d7bc 4a84 4e3d
00000020: 7e34 ef3d b4c5 88bd 639a 92bc 4474 ff3d
00000030: b880 98bd 173e c7bd b300 813d 5450 b93d
00000040: 21b7 dfbd 8941 ed3a 0ffc f43d b36f 98bd
00000050: 58ee 52bb 84f0 a43c c83d f53d eb09 68bd
00000060: d382 45bd f9a7 68bd 8eb9 ecbd 2981 663d
00000070: da85 e6bd 5fb8 373c 407b dabd 70d2 963d
00000080: 4694 043d 806f a03c c3e7 fdbd af1a c7bd
00000090: 1231 623d ce2d cdbd 7242 613d 73a2 79bd
000000a0: 002e 4fbd 7408 a9bd e073 a639 68b9 a93d
000000b0: c7e0 c13b 0384 f03d 5781 4e3b 7ab1 9e3d
000000c0: 438d 323d 7edd e4bd c9ea 16bc 1e00 873d
000000d0: 934d cc3d e2aa cdbd cb84 023d f97d 6e3c
000000e0: f05b eebd 4bb9 fa3d 8a38 bfbd b29f acbd
000000f0: 41bf b13d 6692 3f3c 0071 f73d 4eec e5bd
00000100: 9296 ee3d af76 bc3d fb0c e13b 94c0 bd3d
00000110: 7efb ebbd c9e8 3dbd 2e7c b63d 2520 a5bd
00000120: fc54 f4bd 5485 8e3d 0ade 393d 912a 28bd
00000130: 31a2 343d bb5c e5bd d49c e0bd b709 9dbd
00000140: 410f 5b3d 620e 003e 437d b63d cd85 a33d
00000150: d77a 303d fc39 4d3d 062e 153d b928 403b
00000160: f762 d7bd 101a 58bd fdac 61bd 9583 afbd
00000170: 115d f6bd 54c3 80bb ef33 563d 623b 63bd
00000180: d774 ef3d ba11 0b3d 2f08 f53d 635f 843d
00000190: 465e 8bbd 1c50 29bd 0e0b 7bbd 1493 dd3d
000001a0: 9252 b53d fcf2 aabd 60b9 11be 4f4c c0bd
000001b0: 3d69 2b3c 7e77 49bd 0dd8 dfbc 42ac e3bd
000001c0: 226b e0bd b952 703d 4221 a4bd acad f5bd
000001d0: 77fd 6c3b 96df dfbc d410 f8bc 9eb7 ccbd
000001e0: dc04 01be 959e 3ebb 9ccf 363d f3fd 65bd
000001f0: 2d17 203d 62e0 683d 028c e4bd 1c89 983d
00000200: 8407 ce3d 70bb 85bc d7d2 c7bd ee76 2fbd
00000210: bd2c 54bc 4c1b 873d aa41 94bc 1613 54bd
00000220: b86c da3d 908a 81bd e7a1 3b3d 1f9d 323d
00000230: d785 d33c a285 a0bc 964e 583c 0288 b8bc
00000240: d81e cebd 8b93 403b c32c c83c b911 863d
00000250: cd4e b6bd 6778 bbbd 1c9d a63d e73c ddbd
00000260: a09a b0bd 6d8d 383c e306 f5bd 879b c33d
00000270: 7dd3 bf3d dd57 163d 610c a4bb 26ff 1abd
00000280: b4af 003e 84c7 ce3c fb4a 47bd 0469 d53d
00000290: cfdb fb3d 97de 3e3d 07d1 cebb b9c5 c13d
000002a0: 316c ef3d fdad 4bbd 6930 573d e913 673b
000002b0: 90e9 a9bd 011c d0bd ecf8 92bd 4403 9e3c
000002c0: b61e b53d 7f0f 703d f208 c13c 1fe2 9e3d
000002d0: 911d 77bd 7d36 053d 6493 dcbd ce16 ebbc
000002e0: 45cd f33d d6d3 003e 0369 1a3d 732d 6fbd
000002f0: fcfd 7f3d 8fce 75bc a73b 903d 7fd2 0dbd
00000300: ddc6 cd3d d5cf 013b 0870 e03c bde4 f7ba
00000310: 68c0 d2bc 2d8c 253d cce0 fd3d 21ab abbd
00000320: 96f1 f7bd cc9a e13c adfb db3d 2a1b af3c
00000330: 4754 11bc b93f 90bd 54b7 d43d 7f9f 963a
00000340: 59c8 b83c b389 4f3d 1eb2 f43d 14c5 e1bd
00000350: c991 9cbd 3567 82bd 98d0 1d3c 303a 903d
00000360: 156d 303d c696 ba3d 05b7 a33d c53c d7bd
00000370: 0555 45bd 8c11 043c bc8b 99bd 10fb cc3d
00000380: 9a70 06bd da3c 8abd 5107 87bd 80fd e53c
00000390: fb10 bebc 99d1 a23d c194 34bb 4a22 723d
000003a0: 3f66 983d 5e8f c7bd c194 4cbd fb3c 613d
000003b0: c5c7 be3d 7d86 c83d 3731 39bd 0272 6bbd
000003c0: 90c4 3cbd d863 c03d b7a3 f33c 0777 493d
000003d0: 3ee3 003e 120c d03c 720a ca3d 76f6 f1bd
000003e0: d148 fb3d e5e8 e73d 3d53 a03d b330 9ebd
000003f0: d500 8e3b 0101 7b3c b8ad cabd 28b5 8d3d
-0.060752638 -0.011685743 0.10291338 0.10044125 -0.06283652 0.11574328 -0.02625902 0.05041913
0.11679934 -0.06678334 -0.017895883 0.12473348 -0.07446426 -0.097286396 0.062989615 0.090485245
-0.10923601 0.0018101196 0.11962139 -0.0744318 -0.003218552 0.020134218 0.119746745 -0.056650084
-0.048220467 -0.056800816 -0.11558829 0.05627552 -0.11255999 0.011213391 -0.10668039 0.073643565
0.032367967 0.019584417 -0.12397721 -0.09721886 0.05522258 -0.10018502 0.054995008 -0.06094594
-0.05058098 -0.082535654 0.0003174832 0.082873166 0.005916688 0.11743929 0.0031510198 0.07748695
0.04359175 -0.11175059 -0.009211251 0.06591819 0.099757336 -0.10042359 0.031864922 0.014556401
-0.116386294 0.12242373 -0.09336956 -0.08428897 0.08679057 0.011692619 0.120821 -0.11226712
0.11649813 0.092023246 0.0068680025 0.09265247 -0.11522578 -0.04636458 0.08910404 -0.08062772
-0.11930272 0.06959024 0.04537777 -0.04105622 0.04409999 -0.111993276 -0.109674126 -0.076678686
0.053481344 0.12505487 0.089106105 0.07984505 0.0430859 0.050104126 0.036420844 0.0029321148
-0.10516923 -0.05275923 -0.055096615 -0.08570019 -0.1202947 -0.003929535 0.05229562 -0.055476554
0.11692207 0.033952452 0.119644515 0.06463506 -0.068050906 -0.041336164 -0.06128984 0.108190686
0.0885364 -0.08347127 -0.14230871 -0.09389555 0.0104621025 -0.049186222 -0.0273247 -0.1111684
-0.10957934 0.05867264 -0.08014156 -0.11996016 0.003616182 -0.027328294 -0.030281462 -0.0999596
-0.1259951 -0.0029086221 0.044631585 -0.056150388 0.039084602 0.056854613 -0.11159517 0.074480265
0.10060027 -0.016324729 -0.097570114 -0.04283803 -0.01295012 0.06597003 -0.018097717 -0.051776014
0.10665268 -0.06325257 0.0458087 0.043606874 0.025820656 -0.019594971 0.01320233 -0.022525791
-0.10064477 0.0029384817 0.024435407 0.06546349 -0.08901749 -0.09153824 0.08135435 -0.10802632
-0.086232424 0.011264187 -0.11964204 0.09551149 0.0936651 0.036704887 -0.0050063585 -0.037840985
0.12567025 0.02524162 -0.04865549 0.10420421 0.122977845 0.046598997 -0.006311539 0.09461541
0.11690558 -0.049726475 0.052536402 0.003525967 -0.08296502 -0.10161591 -0.07176384 0.019288667
0.08843748 0.05860853 0.023563836 0.07757973 -0.06033093 0.032522667 -0.107703 -0.028697398
0.119043864 0.12580809 0.037697803 -0.058392953 0.062498078 -0.015002861 0.07042628 -0.034624573
0.10047696 0.0019807715 0.02739717 -0.0018912774 -0.025726512 0.040416885 0.12396392 -0.083822496
-0.12106626 0.027539633 0.10741363 0.021375258 -0.008870191 -0.07043404 0.103865296 0.0011491625
0.02255647 0.05066843 0.11948036 -0.11023918 -0.07644994 -0.063673414 0.009632252 0.070423484
0.04307278 0.09110789 0.079938926 -0.10509638 -0.048176784 0.008060824 -0.07497355 0.10008824
-0.03282223 -0.06749888 -0.06593192 0.02807498 -0.023201456 0.07950134 -0.0027554485 0.05911473
0.07441377 -0.09744142 -0.04994655 0.054989796 0.09315447 0.097912766 -0.04521295 -0.057481773
-0.046085894 0.09394044 0.029741151 0.04918578 0.12586686 0.02539638 0.098652735 -0.11814587
0.12269748 0.11323718 0.078283764 -0.077241324 0.0043335953 0.015320064 -0.098964155 0.069193184

reduce1.bias f4 [64]
00000000: 9ac6 85bd 6da6 66bd dd70 97bd a097 bcbd
00000010: 837b e1bd bc45 d93d 6f73 913c c077 e9bc
00000020: 6810 213d 1769 86bd 6244 15bd ce58 9fbd
00000030: 7589 a1bd 8054 30bd 5990 e0bd 0ac9 e13d
00000040: 2382 8abd 60d8 e6bc 3cf6 63bd 2bd4 a2bc
00000050: e956 e1bd f564 abbd 1075 3e3d 3529 22bc
00000060: cce6 c73d 5c1f a1bc b1f3 e7bd 78e8 603c
00000070: 28f8 7ebd 1387 f63d 5f9e f43d 78a6 9f3d
00000080: 6eca e93c 0250 33bd 2c3b b13c a6af 34bd
00000090: 7d2e d2bd fa6a c53d fd78 533d 89b9 d1bd
000000a0: 4849 413d ed6c dbbd fbe7 0bbd b818 a63d
000000b0: 4f6d 64bd 2787 e7bd 8e86 bb3d 2712 84bd
000000c0: ed52 d2bd d3a6 d1bb 378c e63d 3959 dcbc
000000d0: 3af1 9fbd 7dd2 2ebd e0f0 1dbc d317 133c
000000e0: f704 e73d a372 bf3d 3a83 b6bd 5cb6 ccbd
000000f0: 62a0 15bd cf1f e0bc f0cd be3c 9d6d e7bd
-0.06532021 -0.05631106 -0.07394574 -0.09208608 -0.11009886 0.10609004 0.017755238 -0.028499484
0.039322287 -0.06563013 -0.036442168 -0.0778061 -0.07887546 -0.043049335 -0.10965032 0.11024673
-0.06763103 -0.028179348 -0.05565475 -0.01987656 -0.11002905 -0.083688654 0.04649836 -0.00989752
0.09760818 -0.019668274 -0.11325777 0.0137273 -0.06224838 0.12037482 0.119442694 0.07795423
0.028538909 -0.043777473 0.02163466 -0.044112824 -0.10262773 0.09639545 0.051629055 -0.10240466
0.047189027 -0.10714135 -0.03415678 0.081101835 -0.055768307 -0.11305075 0.09156524 -0.06448775
-0.10269723 -0.006398061 0.112572126 -0.026898013 -0.07809682 -0.042681206 -0.009639949 0.008977848
0.11280244 0.09348037 -0.08911748 -0.0999572 -0.036529906 -0.027358918 0.023291558 -0.11300204

nonreduce1_1.weight f4 [32, 64, 3, 3, 3]
00000000: cc9d d5bc e8ed 073c 3a79 8ebc 74d8 20bb
00000010: 4d19 d1bb 7bc9 e7bb 6e29 18bb f4d4 aabc
00000020: 4307 043c 7c34 96bc c727 923c 5540 643c
00000030: 5bd0 e0ba 8768 12bc d844 1c3b bc01 81bc
00000040: 3f2a 40bc a7f4 a7bc 2365 e13b bf46 ad3c
00000050: 3bea a5bc a40e 1c3c f1f7 45bc 4d83 a43c
00000060: 8e77 49bc 4bc5 aebb a7db 873c ecd3 c53c
00000070: c88f 063c cfec a53b 0bcb 823c 6ed4 db3c
00000080: 87be 77bb 1f12 0abc 355d 263c 8f33 05bc
00000090: 3a86 0cbc 3fa7 73bc 4c24 14bb 2ce7 8cbc
000000a0: 31d7 a83c 34c8 e73b 4f44 ccbb bca7 d3bb
000000b0: 8e52 aaba f041 bfba 6d1a caba 5d41 a83c
000000c0: 0716 36bc d3dc 283b 554a a73c 99cb a43c
000000d0: e146 e33b cddc 67bc ac16 3a3c d2e5 88bc
000000e0: f741 7f3c 3506 44bc 01e0 cf3c 1e0a bd3c
000000f0: 9ca3 9cbc f426 3dbc cbf7 7f3c f336 913c
00000100: 984c e8bb 2814 cdba 4761 1f3c 0428 1cbc
00000110: bbc5 85bc 46e7 0cba a814 7ebc da8e 983c
00000120: 6cb2 0b3c fb07 a138 825c b63c 35b5 a4bb
00000130: 76de d43c 323c ef39 4c42 2c3c e0e0 8e3b
00000140: 1bb0 8f3c 9977 e13b 4fba 58bc 1666 293c
00000150: 9d1a ecbb 99e1 97bb e3aa 903b 306e a63c
00000160: f0fb cc3c 8582 b73c e35d 9f3c 2fe2 d53c
00000170: d2f1 53bb 1249 993c 0d7b 90bb 569b 083b
00000180: 25c9 c53c 9e52 3d3c 881b c0b9 d62b aabc
00000190: dd3c 33bb 6f45 a83b 22a4 573c 39ae 37ba
000001a0: 5dc2 913c 1e44 043b 1e01 853c ea12 923c
000001b0: 4ec3 9a3c 930c 25bc 559f aebc 775e 46bb
000001c0: 703a 713c de83 b93c ef0b 523c bb39 dabb
000001d0: c93e 313b 752c a0bb 5c0e 243c 7e54 da3c
000001e0: e26f b4bb 37b9 3abc 66fc 13bc 6b5d 10ba
000001f0: 5280 cabb bcbb 793c 03f3 24bc 412f 81bc
00000200: 6dd3 383c 6f69 053c e93e 093c 02e0 c23c
00000210: 44f0 413c f66e 80bc 796b 74bc 57ff 813b
00000220: 3174 7abc b41f 203c a6cd 76bc bcbb 98bc
00000230: ff28 c73c 3853 81bc 965d 3d3c 0c3c 76bc
00000240: bbff bf3c fdfb 62bc f739 8c3c 106e c53b
00000250: fc1f c23b 8b8a dbbb 3b94 56bc 5983 743c
00000260: ecb7 e73b 692b 71bc 7033 6f3c 605e 8abc
00000270: c591 c43c ab71 553b be96 faba 23bb 82bc
00000280: c3a3 3abb 5ae5 7bbc 1a1d debb 21e3 9e3a
00000290: 2153 6c3c ed4b 9abc 8ff9 7ebc d6a9 d23a
000002a0: 1193 94b9 2c35 303c 5dc4 0a3c ce31 edbc
000002b0: aeac 7dbc 8acd 85bc e977 98bc d8ef b6bc
000002c0: 1e1d e7bc 03b1 823b 47f5 bdbc 7b54 e3bc
000002d0: 5203 3dbc 1171 87bc 2a91 08bd c915 2dbb
000002e0: d465 683b 9315 88bb 4a66 cb3b ad63 353c
000002f0: e894 c7bc 2c9a 78bc c0c3 78bc c70f 51bc
00000300: 9540 abbb b42f d1ba 498c 32bc 5ae1 103c
00000310: 17fe 9c3b c2c9 503c 894d 83bc 1c4f 753c
00000320: 98e4 dbbb f2be 63bc e140 9a3c 3d60 55bc
00000330: 77d1 a23b 846a 6abc 3e3c 043c 1cb1 de3c
00000340: fae3 eb3a 815a 29ba 27fe 1a3a 9a23 fc3b
00000350: b5f9 383b c167 633c 5be7 66bc ed6a 33bc
00000360: d7a5 27bb beaf db3b b79a b5bb 5d96 a03c
00000370: 4d39 40bc 1bd2 95bc b316 193c 75a2 5fbb
00000380: c934 e73b 922e 7e3a c8bc f0bb 68b5 96bc
00000390: 1e5c 223b 33fc 433c 8260 9a3c 40b6 9ebc
000003a0: 5f59 94bc b1e7 3c3c 12b8 8a3b cfd0 88bc
000003b0: d442 9dbc 07cb 583c 08cc b7bc 9bf9 013c
000003c0: 50fd 873c 9359 4b3c 40b4 8bbc ab07 303b
000003d0: 4bed 59bc bcd7 963c 5d46 44bc 8a2b b53c
000003e0: 5089 b0bc ab48 b2bb f496 ae3c f66e b93c
000003f0: d589 a8bb 8559 cfbc 0659 d9bc 06a5 9d3c
-0.02607622 0.008296467 -0.01739179 -0.0024543079 -0.00638119 -0.007073579 -0.0023218053 -0.020853497
0.008058372 -0.018335573 0.017841233 0.013931354 -0.0017151939 -0.008936054 0.0023844745 -0.015747897
-0.011728822 -0.020502402 0.0068785115 0.021151898 -0.020253291 0.009524975 -0.01208304 0.02008214
-0.01229657 -0.0053335777 0.01658423 0.024148904 0.008212991 0.00506363 0.015965959 0.026834693
-0.0037802772 -0.008427172 0.010154058 -0.008129968 -0.008576924 -0.014871418 -0.0022604642 -0.017200075
0.020610424 0.0070734266 -0.006233729 -0.0064592045 -0.0012994574 -0.0014591794 -0.0015419252 0.02053898
-0.01111365 0.0025766387 0.020421186 0.020116614 0.0069359397 -0.014151764 0.011357944 -0.01671115
0.015579692 -0.0119643705 0.025375368 0.023076113 -0.019120984 -0.011544932 0.015623043 0.017726397
-0.007089209 -0.0015646266 0.009727783 -0.009531025 -0.016329637 -0.00053750386 -0.0155078545 0.018622804
0.008526426 7.678565e-05 0.022260908 -0.0050264844 0.025984984 0.0004563048 0.010513853 0.0043603033
0.017540028 0.006880712 -0.013228013 0.010339281 -0.007205321 -0.0046350476 0.0044149025 0.020316213
0.025022477 0.022401104 0.019453948 0.02610883 -0.003234018 0.0187116 -0.0044092 0.002084454
0.024143765 0.011555342 -0.00036641606 -0.020772856 -0.002734951 0.0051352303 0.013161691 -0.0007006857
0.017792875 0.0020182203 0.016235884 0.017831285 0.018891957 -0.010073799 -0.02131621 -0.0030268708
0.014723405 0.022645887 0.012820228 -0.006659714 0.002704548 -0.004888112 0.010013189 0.026651617
-0.0055065015 -0.011396698 -0.009032344 -0.00055070844 -0.0061798478 0.015242513 -0.010067704 -0.015769603
0.011280877 0.008142813 0.008376815 0.023788456 0.011837069 -0.01567791 -0.014918202 0.0039672065
-0.015286491 0.009773184 -0.015063679 -0.018644206 0.02431154 -0.015786752 0.011557957 -0.015028965
0.023437371 -0.013854024 0.017117484 0.0060250834 0.005924223 -0.006699865 -0.013096864 0.014923894
0.0070714857 -0.014719822 0.014599666 -0.016890705 0.02399529 0.0032568972 -0.0019118411 -0.015958374
-0.0028478957 -0.015374506 -0.0067783715 0.0012122133 0.014424116 -0.018835032 -0.015562429 0.0016072344
-0.00028338333 0.010754865 0.008469668 -0.028954413 -0.015483065 -0.01633336 -0.018611865 -0.022331163
-0.028212126 0.0039883866 -0.023188246 -0.027750244 -0.011536436 -0.016533406 -0.033341564 -0.002641069
0.0035461085 -0.0041529625 0.006207262 0.011071128 -0.024362996 -0.015173476 -0.015183389 -0.012760109
-0.0052262046 -0.0015959651 -0.010897704 0.0088427905 0.004791032 0.012743415 -0.016028183 0.014972474
-0.0067106 -0.013900505 0.018829765 -0.013023433 0.004968818 -0.014307622 0.0080710035 0.027184062
0.001799702 -0.00064603245 0.00059125054 0.0076946737 0.002822501 0.013879717 -0.014093245 -0.010950786
-0.0025581026 0.0067042997 -0.005542125 0.019602949 -0.011732412 -0.018288663 0.009343791 -0.0034123932
0.007055853 0.00096962706 -0.007346723 -0.018397048 0.0024774144 0.011961984 0.018844847 -0.019374013
-0.018109022 0.011529849 0.0042333687 -0.01670113 -0.019196905 0.013231999 -0.022436157 0.007933046
0.016600281 0.012411493 -0.017053723 0.002686004 -0.013301204 0.018413417 -0.011979667 0.022115488
-0.02154985 -0.0054407916 0.021312214 0.022635918 -0.005143384 -0.02531124 -0.026531707 0.019243728

nonreduce1_1.bias f4 [32]
00000000: a557 a9bc 70fc 00ba 1f07 74bc 301d 993c
00000010: 3500 0c3c 013f f83b 16b0 ef3b 33ff 8f3c
00000020: ee3a 3c3c 522c 2bbb 9ca0 88bc 2fa2 a73c
00000030: c7dc 333c 3a1e 5c3c cf62 79bc 9ec4 973c
00000040: 817d a33c 79af 0a3a 0e36 69ba c524 13ba
00000050: c9ab 90ba 0d6f 36bc e1db e93b b1ef 873c
00000060: 6a97 5b3c 373c 36bc 07d8 efbb 3ee1 69bc
00000070: ba27 b63c 7077 b13b 9bb3 83bc 909a 983c
-0.020671675 -0.00049204286 -0.014894276 0.018690675 0.008544971 0.00757587 0.0073146923 0.017577743
0.011488659 -0.0026118946 -0.016678147 0.020463077 0.01097793 0.013434941 -0.015221312 0.018526372
0.019957306 0.00052904297 -0.00088962994 -0.0005613084 -0.0011037524 -0.011134875 0.0071368073 0.016593786
0.013402799 -0.011122755 -0.0073194536 -0.014274893 0.02223574 0.0054158494 -0.016076853 0.018628389

nonreduce1_2.weight f4 [32, 32, 3, 3, 3]
00000000: 74fd d93c 0f04 e2bc d860 a0bc 8fd0 e5bc
00000010: 312f 9fb9 4d30 e4bb 5ae5 ffbc 4bbb 83bc
00000020: 7fb2 f63a 5ace ab3b f7ae 38bc bd53 0d3d
00000030: 2660 313b 4160 f93c 1f9f af3b dcbf 303b
00000040: 8d44 97bc da6c e6ba 3663 bbbc 9760 0ebc
00000050: 26d2 563c 6dde e93c 5549 1a3c 39e0 093d
00000060: a75c cebc 76ed a1bc d0ae 4fbc 07b2 85bc
00000070: 005c 2c3b 5d69 e0bb 8860 453c 63de 3c3c
00000080: e921 003d a713 e63b c2e4 1d3c 3a1c 7ebc
00000090: 1cee abbb 9852 03bc 29df d1bb 81cc 6a3c
000000a0: ee64 cd3c 0caf 8c3c 0119 5d3b f66f d3bc
000000b0: a38c 8a3a db46 253c eea1 b139 fc70 dbbc
000000c0: c6a4 b1bc a1c0 503c 6d2a cc3c bcba 0b3d
000000d0: 6477 b5bc 0314 fc3c ae4a 673b 20da 5dbc
000000e0: 81af bf3c 136f 2d3c 2425 febb 5c47 08bd
000000f0: ac9b 20bc 6eb5 023d 829e 4c3c 2bcc 513c
00000100: cd1e 52bc 3b40 2b3d a101 9f3c f023 0b3c
00000110: 7aee 9a3b 8b55 8ebc 1d5f c83c 6a4e dc3c
00000120: 9ea3 95ba 2d75 92bc 9e25 dc3c b8b1 d63c
00000130: 6f00 233c c0b2 013d 3824 eb3c b0eb 62bc
00000140: 653c 50bc 9e00 58bb a40a d8bc 014f 7d3c
00000150: c43d 983a 3726 d0ba 057f da3c e2f6 eb3c
00000160: 218e 0e3d 04e5 1f3c ac2e 043d 44c9 743c
00000170: d58d 9e3c 3e2e db3c 5895 af3c 576c 3bbc
00000180: 6ae3 7dbc 4ac6 893c edad b53b 4f1b d5bc
00000190: 39ff fa3b 19cd 06bd c28a 02bd a56e 033c
000001a0: 16dd e2bc b80f af3c a470 13bc b9b1 013d
000001b0: d691 903c 4701 37bd 19e5 ce3c e436 5c3c
000001c0: e78b 2dbd 50fc 18bc c508 053c 68b3 983c
000001d0: be23 923c 320f 723b 4ff4 9fb9 ecbb c53b
000001e0: 0dfa adbc 5db8 85bb 0f8c 663c 4907 feba
000001f0: 93c4 10bc 725b 853c e6b0 afbc 4ae7 e2bc
00000200: 4b3e 813c 9b3e 9ebc 2b64 adbc ffba 2cbc
00000210: 83ad 123c 6ef3 0abd 46fd a73c d341 afbc
00000220: 3454 ae3a f61a 533c 75f0 923b df12 6e3c
00000230: e747 49bb 77fd f23c ac99 87bc e860 f53c
00000240: a7f6 ff3c bb25 b13c 1913 65bc 6b33 db3c
00000250: 2a8a 993a 441e a7ba 587d e6bc 8803 e63c
00000260: b248 9fbc 6c40 883b 6ce7 a4bb c213 e8bc
00000270: 1652 7abc 7164 9b3c 21d0 5c3c 6dd5 acbc
00000280: 1b40 ec3c d893 09bc feab a7bc 4616 0e3c
00000290: c282 14bc accf 823b 4302 24bb 7fb5 14bb
000002a0: 5f80 973c cd5a f3bc 5224 f03b 9c8a 1bbc
000002b0: f3f7 32bc 9f7e 763c 5268 ecbc ba34 7dbb
000002c0: 1b48 753c f4a0 ab3c 870d d6bc 3526 d7bb
000002d0: 4f9d efbc d142 8e3c 882d 1abc e0c4 abbc
000002e0: 6ab7 02bd 9838 803c ddc7 193c c06d 99bc
000002f0: 8699 e13c 1839 c3bc 7545 43bc b240 a0bb
00000300: afac c83c 980c e93c 3fcb e23b 4cf5 ee3c
00000310: 48a2 75bc 938f ec3c f1fa 2ebc 9b7e f33c
00000320: 9c01 8d3c 3072 ef3b e721 54bc 8425 333c
00000330: 0490 37bc 1bcc 8a3c 67ee b0bc b9b0 00bd
00000340: fca2 85bc 30ea b93c 1e66 da3b 59ed fe3c
00000350: 33ff 39bc 63f1 53bc 2a7d aa3c 9776 90bc
00000360: ab9c 053d 212d 87bb 29fd e7bc c0c5 98bc
00000370: 282e 803c 9a56 92bc f8fb c1bb b17d 7bb9
00000380: 1bd1 85bc 2d63 8abc 121a 5dbc b56d 013d
00000390: f516 d8bc 1b1e 42bb 7cb7 923b 6654 2dbc
000003a0: 0a67 26bb 4943 7e3c 05ce f6ba 6c23 aa3c
000003b0: 9f23 763c 80cb efbb d2eb 23bc 71da 03bd
000003c0: 530b 93bc 98e4 33bc e8e2 27bc 7bcd 2dbc
000003d0: 0f39 75bc 0bd1 f7bb 504d ed3c 8ad8 cdbc
000003e0: 3457 c33c 459b f43c a195 9d3b d4f1 b93c
000003f0: 89d4 f23b b4f1 013c 81b4 c83b 1263 773c
0.026610114 -0.027589826 -0.019577429 -0.02805355 -0.00030362004 -0.0069637657 -0.031237293 -0.01608052
0.0018821507 0.005243105 -0.011272184 0.034503687 0.0027065366 0.030441405 0.005359545 0.0026969826
-0.018465305 -0.0017580048 -0.022874456 -0.008690021 0.013111627 0.028548444 0.009416898 0.0336611
-0.025190664 -0.01976655 -0.012675956 -0.016320242 0.0026299953 -0.006848498 0.012046941 0.0115276305
0.03128234 0.0070213857 0.00963706 -0.015509659 -0.0052468907 -0.008015297 -0.0064047766 0.014330984
0.025072541 0.017173313 0.0033736827 -0.025810223 0.0010570477 0.010087694 0.00033880718 -0.026787274
-0.021685015 0.012741239 0.024922574 0.03411363 -0.022151656 0.030771261 0.0035292315 -0.013540775
0.023399116 0.010585564 -0.0077558924 -0.03327118 -0.00980274 0.031911306 0.012488963 0.012805025
-0.012824726 0.0418093 0.019409956 0.008492455 0.0047281357 -0.017374774 0.024459416 0.02689286
-0.001141656 -0.01787814 0.026873406 0.02620779 0.009948834 0.03166461 0.028703794 -0.013850138
-0.012709712 -0.0032959352 -0.026372261 0.0154607305 0.0011615087 -0.001588053 0.026671896 0.028804246
0.034803513 0.009759191 0.032271072 0.014940564 0.01935474 0.026755448 0.021433517 -0.011439404
-0.015496114 0.016818184 0.005544415 -0.026013998 0.0076598194 -0.03291044 -0.03187061 0.008021985
-0.027693313 0.0213698 -0.008999024 0.03166363 0.017647665 -0.044678953 0.025255727 0.013440821
-0.04236975 -0.0093375 0.008119767 0.018640235 0.017839309 0.0036935327 -0.00030508867 0.006034365
-0.021237398 -0.0040808157 0.0140714785 -0.0019380833 -0.008835929 0.016278956 -0.021446656 -0.027698178
0.015776774 -0.019316962 -0.021165928 -0.01054263 0.008952501 -0.03392356 0.020506512 -0.021393692
0.0013300241 0.012884846 0.004484231 0.014530866 -0.0030713023 0.029661877 -0.016552769 0.029953435
0.031245543 0.021624437 -0.013981604 0.026757916 0.001171415 -0.0012750109 -0.02813594 0.028077856
-0.019443844 0.0041580703 -0.0050324704 -0.028329734 -0.01527836 0.018968793 0.013477356 -0.021097863
0.028839162 -0.008397065 -0.020467754 0.008672303 -0.009064378 0.0039920416 -0.0025025762 -0.0022691188
0.01849383 -0.029706383 0.0073285485 -0.009493496 -0.0109233735 0.015044837 -0.028858338 -0.0038636164
0.014970805 0.020950772 -0.026129497 -0.006565834 -0.029249815 0.017365845 -0.00941027 -0.0209679
-0.0319132 0.015651986 0.00938603 -0.01872909 0.027539026 -0.023830935 -0.011918415 -0.004890525
0.024496404 0.028448388 0.0069212015 0.029169701 -0.014992304 0.028877055 -0.010679946 0.029723456
0.017212681 0.0073073134 -0.012947536 0.010934237 -0.01120377 0.016943028 -0.021598054 -0.031418536
-0.016313069 0.022694677 0.0066650053 0.031119036 -0.011352348 -0.012935969 0.020811636 -0.017634673
0.032620113 -0.004125253 -0.028318958 -0.018648982 0.015647009 -0.01786356 -0.0059199296 -0.00023984049
-0.01633506 -0.016892994 -0.013494985 0.031598765 -0.026378134 -0.0029619995 0.0044774394 -0.010579204
-0.0025391006 0.015518972 -0.0018829709 0.020768844 0.015023141 -0.0073179603 -0.010004954 -0.032190744
-0.017949736 -0.010979794 -0.01024697 -0.010608072 -0.014967217 -0.0075627617 0.02896753 -0.025127668
0.023845293 0.029859195 0.004809097 0.02269832 0.00741059 0.007931162 0.0061250334 0.015099304

nonreduce1_2.bias f4 [32]
00000000: 183a 39bc b3cd ce3c 5186 aebc ed65 d13c
00000010: db59 d13c e480 b53b 13a2 e93c 67a6 76bc
00000020: c2ee e53c 96d5 ac3b 57a3 003d 8447 6abc
00000030: 6866 d13c 4afd e9bb f793 fb3a 8edf d5bc
00000040: 0865 b03c 45b7 de3b d6c0 c7bb db67 37bc
00000050: 5fb2 753c 301e 263c ea96 c03c 7723 f9bc
00000060: 966b b9bc 4bb4 0bbb 0515 ef3c b209 e8bc
00000070: 9964 c63c 8fd5 a03c 871e a33c f87c d0bb
-0.011305355 0.02524457 -0.021304281 0.025561297 0.025555542 0.0055390466 0.028519666 -0.015054322
0.02806795 0.005274485 0.031405773 -0.014299277 0.025561526 -0.00714079 0.0019193877 -0.026107576
0.02153255 0.00679675 -0.006095986 -0.011194195 0.01499614 0.010139033 0.023509461 -0.030412419
-0.022634309 -0.002131718 0.029184828 -0.028324936 0.02421789 0.019633083 0.019912018 -0.0063625537

nonreduce1_3.weight f4 [32, 32, 3, 3, 3]
00000000: 3fb8 09bc 4d49 e43c fb11 183b f62f d9bc
00000010: 4279 3d3c e0fe ffbc d5ce 083c 1a3f 853c
00000020: 1b88 cabb a68e f33a 0de8 c3bc 1922 4a3c
00000030: 322a a73c 61ef 8ebc c3cd fb3c 24be ec3c
00000040: 2a11 ad3b aa91 ab3b 76b5 f23c 6174 3abc
00000050: 3620 03bd ed5c bc3c 5e04 0b3d bfd3 96bc
00000060: c17d ff3c 7c6b 1cbc e704 d4b9 8d99 a83c
00000070: 1535 a93c 78ab a3bc 19ec 573c 28e8 47bc
00000080: d1ac 08bc bec9 13bc 1fad e5bb 370c e3bc
00000090: a5e9 b03c 945a 8abc 8333 87ba c5a3 143c
000000a0: 943f 75bc 0fb7 5bbc bd4d 0fbc 258b 15bc
000000b0: 6c0f d53b 0c0f cd3c f84f 05bd e36b b43c
000000c0: 41fa 12bc 4eec d8bc 0763 803c 77fd 093c
000000d0: 5c61 02bd 9ec8 71bc d013 64bc 1cab 20bc
000000e0: 18bd cb3a 0c8c 823c 7fcf ac3a 7b69 9abc
000000f0: 1e5c 8abc 8e7e 783b f7b7 bf3c 3ea0 b63c
00000100: e8b5 c23c acf5 d93c 7a95 a9bb 3d29 42bb
00000110: 9df6 33bd cd7d f0bc 7068 14bd fa1a 813c
00000120: ba72 3fbc e51e fdbc dbb8 d33c c82c 3fbd
00000130: 5b07 11bd 67ba c2bc 3091 9f3c 67a5 43bc
00000140: 6b8d 8b3a 473d b53c 9f6b b73c fddf 8bbc
00000150: 8744 e6b9 56e7 c43b b386 ccbb 4fd7 9cba
00000160: 3fc9 b5bc 3d38 acbc 47e5 823c f09f df3a
00000170: 4a67 32bd 7d6c 193c f274 1abd dbda b4bc
00000180: 94ec ba3c b2b8 6cbc 353c 11bd 6406 db3c
00000190: a9bd 20bd 7174 9cba 8d7d d6bc 89c7 64bc
000001a0: 5105 783c 3031 00bd 324e 6b3c 5a22 c13c
000001b0: cbd4 d1bc deb9 e7bc 1690 1cbd 1aef 183c
000001c0: 60a6 883c c170 643c eda0 f639 491d edbc
000001d0: 1f4c 983c fe14 d1bc 3d88 f8bc 0787 27bd
000001e0: 1b8b 4dbd cd89 46bd e25c 09bb 5fc6 2c3c
000001f0: f568 983b b9ca 14bd 8c65 6bba d9cd a83c
00000200: 8aaa 5fbc 790c 483c f980 a9bc 3983 aa3c
00000210: 9841 a73c fe61 3c3c 6193 3bbc 572a 243c
00000220: db2d e93b d6a4 b6bc 60fc 87bc 8ca5 e33b
00000230: 3400 2d3c 51ad f3bc 0d7b d6bc dff0 ab3c
00000240: b985 0739 b5af 543c 5627 873c eab3 1b3c
00000250: 517c a63c ac95 9abc 4071 93bc e1b2 e9bc
00000260: 7c89 063d 8756 9a3c 5103 1e3c eeaa bfbc
00000270: 5bf9 73bc 0a88 a9bc 182f 483c 7555 923c
00000280: 54fa 9b3c 347d 803c aea4 c53c d70e 3bbc
00000290: 46cc c03c c738 023d 9eea b2bc 1f3e 0d3c
000002a0: eda9 e73c c03b f9bc a8ff debb baf6 babc
000002b0: e304 debc 0812 603c 6adc b4bc bdf1 bebc
000002c0: 2976 dfbc 0f06 0c3c c86a 093c 381d 0a3d
000002d0: 93ad f9bb 9c09 7a3b 838d 00bd f607 6fbc
000002e0: d8e2 883c f746 9e3a 7f98 1cbb 5669 6cbb
000002f0: d1c3 873c b715 043c 4bc3 02bd affc d4bb
00000300: 300f bf3b 113f 42bb 64c9 cfb9 6a49 c5bc
00000310: cf1b dfbc 4231 d73b 61f3 3dbc 95d6 013c
00000320: 805a 83bc acd6 173c 4eb9 d6bc df8c 073d
00000330: ca2f babc d922 a9bc a399 62bc 8f48 d53c
00000340: c7bd e4bc 893c b73c 7227 34bc 72c2 3ebc
00000350: 017a 06bd be76 aebc a4ed e4bc 1f96 8a3c
00000360: 9855 fb3c 49c5 703c a223 0d3d 4db0 a43c
00000370: 1f9d 04bb 2d35 98bc 1ef8 19bc 8301 9f3c
00000380: f1fd a13c 1fc2 ed3b 4554 873c 4625 2e3c
00000390: 7c53 a7b9 bf28 e8bb 650b dbbc 0759 b93c
000003a0: 69a4 c53c 4780 da3c 1d0f 8bbc fc5c c53a
000003b0: a180 18bc 33a0 8dbc d07a 743c b50d 78bc
000003c0: 75a0 9e3c 5062 ae3b 64d5 69bc 97ef 633c
000003d0: b3bc b3bb 3084 b039 a3dd a4bc b68e d43c
000003e0: 8343 01bd e53b 29bc 244e a5bb a289 733c
000003f0: 3e0e f8ba eebd 8bbc ed97 cc3c 0074 e03c
-0.008405744 0.027866984 0.0023204077 -0.026512127 0.011564555 -0.031249464 0.008350094 0.01626544
-0.006180776 0.0018581941 -0.023914361 0.012337231 0.020405862 -0.01744813 0.030737763 0.02889926
0.005281587 0.0052358704 0.029627543 -0.011380286 -0.03201314 0.02299353 0.03393971 -0.018411515
0.031187894 -0.009547111 -0.00040439444 0.020581031 0.020655194 -0.019979224 0.013178849 -0.012201346
-0.008341984 -0.009020267 -0.007009163 -0.027715785 0.021595785 -0.016888894 -0.0010315034 0.009072249
-0.0149687715 -0.013410344 -0.008746562 -0.009127413 0.0065020826 0.025031589 -0.032546967 0.0220241
-0.008970798 -0.026479866 0.01567222 0.008422247 -0.03183113 -0.0147573035 -0.013920739 -0.009806421
0.0015544025 0.01593592 0.0013184397 -0.018849125 -0.016889628 0.003791723 0.023403151 0.022293206
0.02376838 0.026606403 -0.0051752897 -0.002962663 -0.04393636 -0.029356861 -0.03623241 0.015759934
-0.011685068 -0.03089852 0.025844982 -0.046673566 -0.035407405 -0.023770524 0.01947841 -0.01194129
0.0010647004 0.022123946 0.022390185 -0.01707458 -0.00043920075 0.0060090227 -0.0062416433 -0.0011966022
-0.022190688 -0.02102291 0.015978469 0.0017061215 -0.043555535 0.0093642445 -0.037709184 -0.022077015
0.022817887 -0.014448332 -0.03545781 0.026736446 -0.039243374 -0.0011936558 -0.026182914 -0.0139635885
0.015137986 -0.03129691 0.014361905 0.02357595 -0.025614163 -0.02828687 -0.03822335 0.00933435
0.016680896 0.013942898 0.00047040675 -0.028944628 0.018590985 -0.025522705 -0.030338401 -0.040900256
-0.05018149 -0.04847126 -0.0020959903 0.010545342 0.0046511837 -0.036326144 -0.000897967 0.020605968
-0.0136514995 0.012210005 -0.020691382 0.020814525 0.02041702 0.0114979725 -0.011448712 0.01001986
0.007116062 -0.022295397 -0.016599834 0.006947225 0.01055913 -0.02974573 -0.026181722 0.02098888
0.00012924419 0.012981345 0.016498249 0.009503344 0.02032295 -0.018870197 -0.017998338 -0.028527679
0.03284596 0.018840088 0.009644345 -0.023396935 -0.014890994 -0.020694751 0.012218259 0.017863015
0.019040264 0.015684702 0.024126377 -0.011417112 0.023534905 0.03179243 -0.02184039 0.008620768
0.02827927 -0.030423999 -0.006805379 -0.022822727 -0.02710194 0.013676174 -0.022077758 -0.02330863
-0.027278023 0.008546366 0.008387275 0.03371927 -0.0076195686 0.00381527 -0.031384956 -0.0145893
0.01670973 0.0012075593 -0.0023894606 -0.0036073527 0.016572865 0.008061818 -0.031924527 -0.006499849
0.005830668 -0.0029639641 -0.00039632164 -0.024082858 -0.02723494 0.0065671513 -0.011593671 0.0079246955
-0.016034365 0.00926749 -0.026211407 0.03309333 -0.022727866 -0.0206465 -0.013830575 0.026035575
-0.027922524 0.022367733 -0.010995733 -0.011643039 -0.032831196 -0.021296855 -0.027945347 0.016917286
0.030680463 0.014695474 0.03445781 0.020103598 -0.0020235253 -0.018580044 -0.009397535 0.0194099
0.019774409 0.007255807 0.016519675 0.010629004 -0.00031914923 -0.0070849354 -0.026738832 0.02262546
0.024126248 0.026672496 -0.01697498 0.0015057619 -0.009308011 -0.017288303 0.014921859 -0.015139987
0.019363621 0.0053217784 -0.014272068 0.013912103 -0.005485141 0.00033667823 -0.020125216 0.025946956
-0.031558525 -0.010329221 -0.0050447155 0.014864357 -0.0018925143 -0.017058339 0.024974788 0.027399063

nonreduce1_3.bias f4 [32]
00000000: df24 81bc d3a0 03bd 8508 82bc 806f 95bc
00000010: 7e44 e63c a7a9 9b3c 1bcf b43c bd23 973b
00000020: 96c5 aabc 218b 65bb 100e 083d 2d82 9c3c
00000030: 5076 dbbc 9cb4 533c b37e 003d 36df e0bc
00000040: 3db9 223c f16e dd3a c6ce 36bb 4af0 35bb
00000050: 1eaf 06bd 3852 57bc bf9d 5b3c ad49 c2ba
00000060: 6ba7 fe3c bc3d d53c 1a4f dcbb 2ede ad3b
00000070: 6ee6 a1ba 6aa5 2e3c 55ca 3bbb bde0 243d
-0.015764652 -0.032135796 -0.015873203 -0.018241644 0.028108831 0.019001795 0.022071412 0.0046124146
-0.02084617 -0.0035025554 0.033216536 0.019105041 -0.026789814 0.012921479 0.03137083 -0.027450185
0.00993186 0.0016894025 -0.0027894243 -0.0027761632 -0.03288185 -0.013142161 0.013404309 -0.0014822982
0.03108569 0.026030414 -0.006723297 0.005306027 -0.0012351999 0.010659555 -0.0028654535 0.04025339

reduce2.weight f4 [16, 32, 4, 4, 4]
00000000: 2e53 4c3c 4a69 fdbb 3837 8aba f667 413c
00000010: 96d5 343c 3e99 7cbb 1d21 e0bb 295e 953c
00000020: f14f 58bc c712 33bc de4a 903a 50c9 bd3b
00000030: ceba 93bc 10a5 203c 8c07 813b 56ec 51bc
00000040: 1d84 103c 506d 71bc 1543 99bb a425 1f3c
00000050: 7b44 ad3c b3d6 983c 7107 983c 9804 2cbb
00000060: e081 873b bfbf b53c bdac 003c 92c6 983a
00000070: e8eb d93b 76ae e1bb a1de 5c3c 42b9 d2ba
00000080: db83 f2ba d477 943c 02a6 07bc 5bde 9d3c
00000090: 3295 f838 a88e bd3c a5d1 54bc 11d6 90bc
000000a0: 49ff c73c 10a5 e7b9 50c2 643c 6ccd 95bc
000000b0: 4317 fcbb bdba 62ba 0758 1b3c 9ef2 9a3c
000000c0: 39ab 593c 6c7d 273c d8a3 a9bb 204b 943c
000000d0: cba0 55bc 4b83 3cb9 29da d93b d4be 363c
000000e0: ccef 8e3c 71b4 16bc 9a3c 9d3b ba55 1ebc
000000f0: 3401 573a 8819 a5bb 5e8b 33ba 6ca8 8f3c
00000100: 0151 983c 10d9 913c 46a1 0fbc 9680 32bc
00000110: 0a44 31bc f9f2 ea3b c852 763c 602c 563c
00000120: 7bb8 a73c fbd9 9a3a cd83 51bc efa9 4abc
00000130: 266d 913b 2c64 00bc 901a 2c3c d43a 89bc
00000140: 3aa5 013c ec09 a73b 25f5 a53b ed49 903c
00000150: f86a a8ba 3647 8f3c 6f21 73bc c809 473b
00000160: cc8e ce3c feac 3a3b f0f4 723b a8c7 9a3c
00000170: fcdb 89bc ff80 a03c 3b8c b6b9 8f0d 5dbc
00000180: d8e5 10bc 9ebe 0f3c cb10 c23c d971 78bc
00000190: e34e 9c3c 9de9 78bc 5ab0 b43c 7769 ea3a
000001a0: c90f d33c 47d9 df3b 80c2 223c 5f9b 763c
000001b0: 83d9 413c c1c0 41bc 2b76 883b d577 963c
000001c0: 8152 9e3c 9132 4ebc ff8d 13bc c3ea b23c
000001d0: 9842 303c 426b f6bb e249 803c 0e8c 25bc
000001e0: 078f 863a cdb7 9f3c f866 84bc 9076 99bc
000001f0: 2dca 923c 02a4 403c eb72 5c3c d806 54bc
00000200: bb28 86ba d94e acbb a3b1 ae3a 2945 703c
00000210: 9cb6 92bc 83ed 063c d554 01bc 8cd9 6a3c
00000220: 509f 82bb 5492 a0bb 56c7 37bb 9355 ba3a
00000230: 1597 8fbb 5f8f 9a3c 1f55 fd3b bf5e 7bbc
00000240: 546b 6dbc f426 973b c0ac 8a3c c7d1 413b
00000250: 0194 6abb 0bec bc3c c1e5 213b eba6 20bc
00000260: d20b 97bb a5ae 0a38 d8a6 273c df19 c6bc
00000270: ee4c 82bc d48c 7c3c 7585 d4bb 8b49 b9ba
00000280: e5a8 f2bc bc7a 89bc 7dcf 8bbc 8f5e 34bb
00000290: 8eb6 dfbc c98e 893c 854a 2fbc 1caa eebc
000002a0: 47ef acba 6704 3cbc 5c91 beba 1dc2 7dbc
000002b0: 84c9 d7bb df8b eaba 6d69 443b ce1d 38bc
000002c0: 0cd7 9ebc af79 73bc 3d19 853c 5cd7 4e3b
000002d0: 5ac2 debc 4b32 f5bb 5334 c0bc 79b7 1d3c
000002e0: 3f74 b7bc f3e4 263b f7c4 283c 4dcd 5e3c
000002f0: 3e4d 4cbc 1a18 533c 8686 6dbc c98c 93bc
00000300: 69ae a1bc 66fa 7d3c c9b6 81bc 8321 723c
00000310: 08dd 8c3c 5975 81bc 59c6 fd3a e179 a4bc
00000320: cdf1 963b a4fb 9ebb a16c 3fbc a0e6 64bc
00000330: 3068 52bc 141e b538 017a d03b b913 9bbc
00000340: fd89 a53c 1b12 01bc b9b7 bdbb 9281 2d3c
00000350: 6253 bd3c 3788 b63c 7a67 9bbc da2b 453c
00000360: c32d 7f3a 597d ba3c cac7 273c aad9 c53c
00000370: bb55 b839 3c69 bc3c a70f 59bc 40f5 8abc
00000380: 4b06 2cbc 1025 59bc 70a4 ad3c 72ba 823c
00000390: 227f dd3a 9f56 0bbc d694 58bc 78b0 ff38
000003a0: c543 0b3b b8a0 973c 2ccd 73bc b3da 1b3c
000003b0: 4b4c 8c3c 8592 753c 2b74 6c3c 8cba 8b3c
000003c0: a18d 06bc d48f 4b3b 8387 1cbc 7d62 f4bb
000003d0: b5df 4d3c 0221 16ba d47b 26b9 bb5e 18bc
000003e0: 5d60 bd3c 57aa 8bbc 9672 c03c 4366 ab3c
000003f0: b4e9 473c 470e 0bbc 8ecc 9dbc 40fa 94bc
0.012471003 -0.0077334987 -0.0010545021 0.011804571 0.011037251 -0.0038543488 -0.006839885 0.018233376
-0.013202653 -0.01092977 0.001100864 0.0057918206 -0.018033411 0.009804979 0.0039376672 -0.012812695
0.008820561 -0.014735535 -0.0046771863 0.009713564 0.021150818 0.018657064 0.018558236 -0.0026247855
0.0041353554 0.022186158 0.007853684 0.0011655858 0.0066504367 -0.0068872524 0.013480813 -0.001607694
-0.0018502431 0.018123545 -0.008279325 0.019271066 0.00011853351 0.023139313 -0.012989436 -0.0176802
0.024413722 -0.00044182735 0.013962343 -0.01828643 -0.0076932027 -0.0008649042 0.009481437 0.018914517
0.013285452 0.010222774 -0.0051770024 0.018102229 -0.013038824 -0.00017977988 0.006648321 0.011153895
0.017448328 -0.009198294 0.004798484 -0.0096639935 0.00082017784 -0.005038444 -0.00068490754 0.017536364
0.018593313 0.017803699 -0.008766478 -0.010894915 -0.010819444 0.007170078 0.015034385 0.013072103
0.02047371 0.0011814231 -0.012787771 -0.012369617 0.0044380603 -0.007836383 0.01050438 -0.016751684
0.007912928 0.0050976183 0.005064624 0.017613376 -0.0012849262 0.01749001 -0.014839514 0.003037082
0.025214575 0.002848446 0.0037072264 0.018894032 -0.01682853 0.01959276 -0.00034818225 -0.013492002
-0.0088438615 0.008773474 0.023689648 -0.015163862 0.019080585 -0.0151924165 0.022056747 0.0017884214
0.025764363 0.0068313214 0.009934068 0.015051692 0.011831644 -0.011825741 0.0041644773 0.018367687
0.01932645 -0.012585298 -0.0090060225 0.021840459 0.010758065 -0.0075201103 0.01566023 -0.010104192
0.0010266014 0.019496823 -0.01616238 -0.018733293 0.01791867 0.0117578525 0.013455133 -0.012941085
-0.0010235527 -0.005258423 0.0013328086 0.014664927 -0.01790934 0.008235338 -0.007893761 0.014334094
-0.0039862767 -0.004900256 -0.0028042397 0.0014216177 -0.004382024 0.018867193 0.0077310945 -0.015342413
-0.014490921 0.004612798 0.016928077 0.00295745 -0.0035793784 0.023061773 0.0024703594 -0.009805421
-0.0046095634 3.3064414e-05 0.01023265 -0.024182258 -0.015905824 0.015414435 -0.006485636 -0.0014136297
-0.02962155 -0.016782157 -0.017066712 -0.0027522182 -0.027308729 0.016791718 -0.010698919 -0.029133849
-0.0013193869 -0.011475659 -0.001453917 -0.015488175 -0.006585302 -0.0017894468 0.0029970065 -0.011237575
-0.019389652 -0.014860555 0.016247386 0.003156147 -0.027192283 -0.007482802 -0.02346245 0.009626263
-0.022394298 0.0025466054 0.010300866 0.013598752 -0.012469588 0.012884164 -0.014497405 -0.018011468
-0.019736486 0.015501594 -0.015834229 0.014778498 0.01719524 -0.015803026 0.001936148 -0.020077648
0.0046064616 -0.0048517752 -0.011683614 -0.013971001 -0.012842223 8.636355e-05 0.0063622002 -0.018930303
0.0202074 -0.007877852 -0.0057897237 0.010589974 0.02311105 0.02228175 -0.01897024 0.012034381
0.0009734297 0.022764849 0.0102405045 0.024151642 0.0003515909 0.022999398 -0.013248361 -0.016962647
-0.010499547 -0.013253465 0.021196574 0.015958045 0.001689885 -0.008504539 -0.013219079 0.000121922174
0.002125011 0.018509254 -0.01488046 0.009512591 0.017126223 0.014988546 0.0144319935 0.017056726
-0.008212478 0.003106107 -0.009553793 -0.00745803 0.012565543 -0.00057269644 -0.00015877123 -0.009299929
0.023117239 -0.017048998 0.023492139 0.020922786 0.012201715 -0.008487291 -0.019262578 -0.018185735

reduce2.bias f4 [16]
00000000: 6961 713c fec2 3b3c 5fef bfbb 4abf 443c
00000010: c2d9 ccba 3b36 d33b 6e74 1d3c f119 a63c
00000020: 0129 4e3c d582 a73c a2c8 b9ba 1a93 2dbb
00000030: 9cbe 873c 0df9 4bbc 5308 eb3b 40dd 393c
0.014732697 0.011460064 -0.0058573927 0.0120084975 -0.0015628862 0.0064456738 0.0096102785 0.020276042
0.012583018 0.020448128 -0.0014174173 -0.0026485384 0.016570382 -0.012449515 0.007172623 0.011344254

nonreduce2_1.weight f4 [16, 16, 3, 3, 3]
00000000: aaaa a03b 332f 2bbc 39d2 103b d23b bb3b
00000010: 10ca 33bd 3ea6 0dbd 17b0 a7bc f48f f1bc
00000020: f517 133c de9b 3dbc 9fc1 ab3c 2d01 a8bc
00000030: dc65 1dbc f5f1 ad3c ef6e 1ebd 4f31 43bd
00000040: e15b b03c 1c08 ab3b 9540 64bc 240f f8bc
00000050: 7a1f 4cbd 5ccb e93c d495 25bd 7326 39bd
00000060: 768a f4bc 88c3 813c 4a4f cabb 7b01 243d
00000070: b9a9 d1bc 36d4 0dbd a22a 033d 0d6a 83bc
00000080: c811 86bc 0dda 49bc e805 813c 4081 ed3c
00000090: 4d98 29bd fa1e 6b3a ec4d 073d 6751 273d
000000a0: 299f 46bd f02d 123d 5fcd 3dbc 1029 2bbd
000000b0: b594 fdbb 3ee5 d93c 55d3 1e3d ae14 edbc
000000c0: c994 023d 824b 133d d2c8 e33c 955c 013d
000000d0: c068 393c 503d debc b379 983c 1ece c8bc
000000e0: 2e64 a0bc b28b 3e3c 25f2 46bd 0251 2cbd
000000f0: d42e 4fbd bf51 0fbd 4886 5ebd 20cc a23b
00000100: c755 1f3c 3eab 9c3c fa6e b83c 40ff c3bc
00000110: b89b 1e3c 485f e7bc 7f89 913c 5cab b3bc
00000120: ecf0 163d 1efa 11bd ac50 babc 2dbc 99bc
00000130: dc6a bc3b eb19 32bd cc52 2bbd c8c6 d0bc
00000140: 76d0 0d3d bc96 33bd 606f 1abd a9c7 b3bc
00000150: 1792 16bd 141e 3abd e6ad 0d3d b985 75bc
00000160: 3b36 e2bc 6d9f 2ebd 3f30 f33c 0c41 b0bc
00000170: e0c2 3d3c bf24 b5bc 77dc b3bc 34bc 3cbd
00000180: 0b0b 123d edde a43b e4a1 ad3c 1112 14bd
00000190: 910b 293c 6e83 db3b bdd1 c73c 6c7b 903a
000001a0: 5e08 1e3d b9ad 963c bb15 9bbc 2153 18bd
000001b0: b7fb ea3c aea3 233d 2d2f ec3c 3741 fbbc
000001c0: 9c78 94ba efbd 3e3c 7730 acbb 91c0 943c
000001d0: fcec aebc 4209 9f3c bd43 c0bc 9b73 c53c
000001e0: 1d47 5c3d 8b08 21bd 3155 4c3c c3e1 27bd
000001f0: e239 adbc 38e7 49bd 3719 233d 77a8 003d
00000200: 24fd 393c 50eb e33c b51d c93c 9129 1e3d
00000210: d780 973c 316f 313d abfc 113d 89f1 a9bb
00000220: 12bd d83c 439b 113d 9a19 613c f3cb 30bd
00000230: 2de8 23bd dc0d ec3c 1152 be3c c184 403d
00000240: a3c5 efbc fbc2 62bc 3bb3 313d 964e dc3c
00000250: aa90 61bc 9e07 69bb 0eef 97bc 7f66 adbc
00000260: 3cec f9bc ba53 28bb 75d4 243b 1964 86bc
00000270: 2df1 21bc 8b9a 1cbd 2e1a edbc c705 0dbd
00000280: 7914 dd3c 1ea0 f83b cc35 903c de71 c8bb
00000290: d550 1abd 8766 c53c bc47 a43c e0de 32bd
000002a0: e9fa 183a 2590 8dbc 3305 3d3d f46e 213c
000002b0: c29b 203c 0b83 713c 9a6e 953c 4fdb d6bb
000002c0: 92ee e8bc fd7a 49bd b539 1d3d 8a9c 303c
000002d0: c7aa 0f3d 0f53 9e3c 9066 e3bc b8b3 753c
000002e0: 49b4 363d b647 1e3d 7b7d a7bc 19b4 c3bc
000002f0: d1c1 763c 095c 193d 30f2 92bc 7037 3cbd
00000300: 214b a63c 9864 bb3b 7d8b 6cbc c338 efbc
00000310: 9e37 87bc 80b1 aebc f7ab d0bc 3f53 a83b
00000320: 03c1 6abc da1a d5bb 6d56 abbc 8efe 2ebd
00000330: ab9a f0bc 9090 37bc f5b3 1dbd 3e35 c03c
00000340: 2780 8c3b 12b7 1b3d 0390 cf3c decc 7c3c
00000350: 99fd 44bd dfc2 033d d5eb 053d e6ad 0f3c
00000360: 06fb 0f3d 1415 17bd 33f0 803b 186c 25bd
00000370: 7ee5 173d 0b20 3a3c b9a2 cf3c 53b2 0b3d
00000380: a3ea 003c 4f43 0cbd 5f5b df3c ee7e 48bd
00000390: 3b5e 003d 2fd7 8abc 2b41 0fbd 1afa a3ba
000003a0: 7706 ec3c a6ab 80bc 5363 a53b b462 2ebd
000003b0: 77a9 19bc 6add e13c b67b 313d ef47 85bc
000003c0: 4e9c 12bd 4c73 cebc e812 f6bc 470a 68bc
000003d0: 5b0f 243d b06a 203c 6d4b 17ba c9a4 043c
000003e0: 6fed cdbc 3d23 3a3c b0b3 d2bc 65a2 10bd
000003f0: e056 193d 9479 093c dff6 59bd 69a3 b93c
0.0049031572 -0.010448265 0.0022097959 0.0057139182 -0.043893874 -0.03458237 -0.020469708 -0.029487588
0.00897788 -0.011572806 0.02096635 -0.020508373 -0.009606805 0.021233538 -0.038680013 -0.047654446
0.021528186 0.0052194726 -0.013931413 -0.030280657 -0.049834706 0.028539352 -0.04042609 -0.045202684
-0.02985118 0.015840307 -0.006174003 0.040040474 -0.025593625 -0.03462621 0.03202308 -0.01604178
-0.0163659 -0.012320054 0.015749887 0.028992295 -0.04140501 0.00089691544 0.033033296 0.040849116
-0.04849163 0.03568834 -0.011584609 -0.041787207 -0.0077386745 0.026598569 0.03877576 -0.028940525
0.031880174 0.03596068 0.02780572 0.031582434 0.011316478 -0.027128845 0.018612718 -0.024512347
-0.01957902 0.011629986 -0.04857077 -0.042069443 -0.05058177 -0.03499007 -0.05432728 0.0049681813
0.009725041 0.019124623 0.022513855 -0.023925424 0.009680681 -0.028243676 0.017765759 -0.021932296
0.036850855 -0.03563892 -0.022743545 -0.018766487 0.0057500433 -0.04348175 -0.041827008 -0.025485411
0.034622632 -0.043844923 -0.03770387 -0.021945791 -0.036760416 -0.04543884 0.03458967 -0.014985495
-0.02761375 -0.04263251 0.029686091 -0.021515392 0.011582106 -0.022112248 -0.021955712 -0.046077922
0.035655063 0.0050314576 0.02119536 -0.036150042 0.010317699 0.0066990172 0.024392003 0.0011023111
0.0385822 0.018393384 -0.01893126 -0.037188653 0.02868448 0.03995102 0.028831089 -0.030670745
-0.0011327448 0.011641963 -0.005254801 0.018158229 -0.021353237 0.019413594 -0.0234698 0.024102977
0.053778756 -0.039314788 0.012471483 -0.040986788 -0.021145765 -0.049292773 0.03981897 0.03141066
0.011351857 0.027822167 0.024550298 0.03861386 0.018494053 0.04331893 0.035641354 -0.005186264
0.026457343 0.03554846 0.013739014 -0.04316325 -0.040016342 0.028815202 0.023232492 0.047001604
-0.029269045 -0.013840432 0.043383818 0.026892941 -0.013767401 -0.0035557519 -0.018546607 -0.021167038
-0.030508153 -0.002568467 0.0025151048 -0.016405152 -0.009884161 -0.03823332 -0.028943148 -0.034429338
0.026987301 0.007587447 0.017603777 -0.0061170897 -0.037674744 0.02409674 0.020053737 -0.04366958
0.00058357284 -0.017280648 0.046147536 0.009853113 0.009802761 0.014740716 0.018241215 -0.0065569053
-0.028434072 -0.049189556 0.03838511 0.010779509 0.035074975 0.019326715 -0.027758867 0.014996462
0.044605527 0.038642608 -0.020445576 -0.023889588 0.015060858 0.037441287 -0.01793775 -0.045951307
0.020299496 0.005718779 -0.0144375535 -0.02920187 -0.016506013 -0.021324873 -0.025472624 0.005136877
-0.014328244 -0.006503445 -0.020915234 -0.04272323 -0.029370626 -0.0112039 -0.0385017 0.023462888
0.004287738 0.038016386 0.025337225 0.0154297035 -0.048093412 0.032168265 0.03269561 0.008769488
0.035151504 -0.036885336 0.003934884 -0.04038629 0.037084095 0.011360179 0.025346147 0.03410561
0.007868442 -0.034243878 0.027265249 -0.048949175 0.031339865 -0.01694831 -0.03497426 -0.0012510449
0.028811676 -0.015706848 0.0050472408 -0.0425746 -0.0093787825 0.027571399 0.04333087 -0.016269652
-0.035793595 -0.025201462 -0.030038312 -0.014162607 0.040053707 0.009791061 -0.0005771432 0.0080959285
-0.025137631 0.0113609405 -0.025720447 -0.03531112 0.037436366 0.008390803 -0.05321395 0.022660928

nonreduce2_1.bias f4 [16]
00000000: 8067 32bc 7a88 d33a 36df 8a3c 7785 dbbb
00000010: 6d4f 3fbc 634f 2c3d ed60 96bb 80ee 1ebd
00000020: 0a3c 31bd 6929 0b3d 7e43 303d f714 16bd
00000030: b4fa bebc f35a cabb ead7 dd3c 319d e2bc
-0.010888934 0.0016138696 0.016952138 -0.00669926 -0.011676651 0.042067897 -0.004589191 -0.03880167
-0.04327015 0.03397504 0.043033116 -0.036641087 -0.023312904 -0.006175393 0.027080495 -0.027662845

nonreduce2_2.weight f4 [16, 16, 3, 3, 3]
00000000: d641 083b 198f bd3c bc65 1e3d e211 a8bb
00000010: 4149 37bd 3ee4 ecbc bb96 893c 2b2c 663c
00000020: d78c 1fbd 1ee9 21bc 8915 05bd d001 3d3c
00000030: 42b8 cc3a 1373 d0bc 314b b43c 8c7e 113d
00000040: 94ff 38bd 8183 cfbc 18cd 4a3c 0f52 3a3d
00000050: 805b 34bd 7f0b ec3c 94bc 1a3c 103f 293d
00000060: 17f2 84ba 695e 153c 7ef3 85bc 7684 87bc
00000070: a183 993c 08ec 1cbc 21a4 f33c 56f8 78bc
00000080: 31b1 1f3d ea02 433d 8022 2f3d 766b b03c
00000090: 5a3e 20bd 02b8 103c 3609 1cbd 9a96 7d3c
000000a0: 6222 fdbc 6e94 58bd 43b4 293d f0a9 063d
000000b0: dc09 11bd f20f 5dbd 0c0e 503c 94fe 32bd
000000c0: b716 4cbd c477 f1bc 329b 38bd 295b f03c
000000d0: 938d 01bb 5ab5 49bd 718e 6abd fb05 0c3d
000000e0: 6bf7 313b 5ddf b4bc cb04 2cbd 4a59 9fbc
000000f0: 1493 46bc a198 033c 67ec d1bc 761a 3cba
00000100: 9596 ff3c fbf7 3bbd 8d86 9dbc aa95 22bd
00000110: 8c45 33bd a9d3 37bb 0d6a 33bd 3fa7 aebc
00000120: c687 85bc bba3 1cbc b115 143d 1210 c2bc
00000130: 9f75 07bd 92d8 283d 5a7c c9bb 50c4 18bd
00000140: c351 4ebc f4df 40bd 2969 8d3c c2e2 363d
00000150: 8ff2 ecba 9ac6 0f3d 4654 123d c23a 393d
00000160: 693b 21bd 0907 1f3d d8bf 1fbd fd8d 84bc
00000170: 4c87 fd3c edda 23bc 02f0 e03c c966 e7b7
00000180: c15a 2f3d e7c1 b6bc a7be 613c 6460 333d
00000190: d20e ab3c adc5 e7bb 9078 90bc 456b b83c
000001a0: 1f77 913c 0ef9 873a a124 2cbd bd1f 3b3d
000001b0: b4bf 0abd 583e c13a 05c1 9cbc 0cfb 22bd
000001c0: c791 dc3b 1e1b b63c 40b9 093d 1983 063d
000001d0: f5b9 10bd 5bca 6b3c 2266 353d 1987 433d
000001e0: 9125 3abc a8b4 2ebd d264 22bc ebb4 3ebc
000001f0: 808a d73c 104d 1dbd 4d93 843c f5f3 2e3c
00000200: 9b0d 1bbc 47d3 82bc 1aa7 033c b48d 493d
00000210: b1b4 163d 087b b93c 141e ddbc 046c 3c3c
00000220: 3e58 5cbc 036d 7bbc 1f9b 1c3d 4469 4a3c
00000230: 8a6b f4bc 8e68 5cbc a848 453d 7115 3e3c
00000240: 801c 303c d195 6cbc ef0e 0fbd 8b5d a13c
00000250: 324f 50bc 96b9 39bc d04f 22bd 7c64 b33c
00000260: a717 c23c 6f83 3d3d 0e28 e5bc b431 3d3d
00000270: 5c52 293d fbe9 413d 44f1 d03c 6616 3c3d
00000280: b66c 24bc 30bf 3abd 105f e5bc b50f 14bd
00000290: be82 023d 890d 8b3d 9a80 173d 4e04 523c
000002a0: 0b3b f6bc ce72 dabb d9d0 843d 94cf 1fbd
000002b0: 05b4 0abc d998 383d aca9 c13c 1f28 343d
000002c0: b8b2 d43c 6e04 723d b01d 213d 2e83 0f3d
000002d0: 97af f63b 4cb6 a1ba 4494 27bc 2bb8 893c
000002e0: 5806 9f3c c090 a33c 27b1 87bb 8301 22bc
000002f0: 40bf 1f3d 7b04 44bc a23d 943c 19b3 e8bc
00000300: b85f c13c 39be d9bb a5bb b63c db40 20bc
00000310: 9eee 97bc abb3 47bc 603a cdbc ef47 2e3c
00000320: e160 08bd 81f8 8cbc ebc0 483d 7b9e 84bc
00000330: 2c49 eebc 7296 2c3d 8625 f63c e0f1 2dbd
00000340: 9411 b9bc 6fb1 d23c 4e63 e4bc 5fba 323d
00000350: 81c0 e3bc 684c e0bb 816e 3f3d 3af6 413d
00000360: d1d7 31bd ba01 643c aff6 25bd 69be e33c
00000370: 4870 f6bb 8ab5 34ba 6f46 3cbd 3ffa 33bd
00000380: d0b9 b53c e039 2fbd c905 723c c7fc d83c
00000390: aaa3 1fbc c03c 323d 4dce 183d 434d ff3c
000003a0: 8375 b5bc b2b3 56ba 6f6f 2f3d 4226 54bb
000003b0: 5f35 48bc c251 403d cbc3 07bd 4639 ab3c
000003c0: af41 e7bc c5cc 04bd 692a f93b b3a3 54bd
000003d0: f914 613c 8a2c a03c ce3d cfbc 0fa4 c4bc
000003e0: 4beb 94bc 5a3a 2bbc b44b 66bd 7dfd 83b9
000003f0: e428 0c3c baab 5abb 98f1 68bc 7ffc a2bc
0.0020791194 0.023139523 0.03867124 -0.005129085 -0.044747595 -0.028917428 0.016795507 0.014048616
-0.038952675 -0.00988224 -0.03249124 0.011536077 0.0015618878 -0.025445497 0.02200851 0.035521075
-0.045165613 -0.02533126 0.012378 0.045488413 -0.044032574 0.028814076 0.009444375 0.041319907
-0.0010142949 0.009116747 -0.016351458 -0.016542654 0.018739523 -0.009577759 0.029741349 -0.015195927
0.038987342 0.0476102 0.04275751 0.021535616 -0.039121963 0.008832933 -0.03809472 0.015477801
-0.030900184 -0.05287593 0.041431677 0.03287691 -0.035409793 -0.053970285 0.012698662 -0.043699816
-0.04982635 -0.029476054 -0.04506988 0.029340344 -0.0019768223 -0.049245216 -0.05726475 0.03418539
0.002715553 -0.022079164 -0.04199676 -0.019451756 -0.012120027 0.008031995 -0.02562542 -0.0007175574
0.031199733 -0.04589079 -0.019229198 -0.039693512 -0.043767497 -0.0028049743 -0.04380231 -0.021319984
-0.016300093 -0.009560521 0.0361535 -0.023689304 -0.033071157 0.041222163 -0.006148857 -0.037296593
-0.012592736 -0.04708858 0.017262058 0.044649847 -0.0018077659 0.03510151 0.0357249 0.04522205
-0.0393633 0.03882507 -0.039001316 -0.016180987 0.030948304 -0.010000926 0.027458195 -2.7585209e-05
0.04281116 -0.022309257 0.013778365 0.043793097 0.02088109 -0.0070731253 -0.017635614 0.022512088
0.017756997 0.0010373907 -0.04202712 0.045684565 -0.03387423 0.0014743311 -0.019135008 -0.0397902
0.006731245 0.022229727 0.033623934 0.03283987 -0.035333592 0.014391507 0.044286855 0.04773626
-0.011361496 -0.042652756 -0.009911733 -0.011639814 0.02631116 -0.03840357 0.01618352 0.010678281
-0.009463693 -0.015969886 0.008035446 0.049207404 0.036793415 0.022641674 -0.026991881 0.011500362
-0.013448773 -0.015345815 0.038233873 0.012354199 -0.029836435 -0.013452662 0.048164994 0.011601792
0.010748982 -0.014440016 -0.03492635 0.019697925 -0.012714194 -0.011335751 -0.039626896 0.0218985
0.023692919 0.046267923 -0.027973201 0.04618998 0.04133831 0.04734228 0.02550567 0.0459198
-0.010035684 -0.045592487 -0.02799943 -0.036147792 0.031862967 0.06789691 0.03698788 0.012818409
-0.03005745 -0.006666518 0.06485147 -0.03901632 -0.008465772 0.045067642 0.023640476 0.043983575
0.025964126 0.059086256 0.039334953 0.035037212 0.007528256 -0.0012337654 -0.01022822 0.016811451
0.019412205 0.019966483 -0.0041409913 -0.009888056 0.03900075 -0.011963959 0.018095795 -0.028405713
0.023605213 -0.0066449908 0.022306273 -0.009781088 -0.018546399 -0.012188832 -0.02505225 0.0106372675
-0.033295516 -0.01720834 0.049012106 -0.01618885 -0.029087625 0.042135663 0.03004719 -0.042466998
-0.02259139 0.025719373 -0.027879383 0.04363477 -0.027801754 -0.006845046 0.046736244 0.04735396
-0.04341871 0.013916427 -0.04051846 0.027800756 -0.007520709 -0.00068935065 -0.04596561 -0.043939825
0.022183329 -0.042779803 0.014771887 0.026487721 -0.00974361 0.043514967 0.03730612 0.031164771
-0.02215076 -0.0008190229 0.04283088 -0.0032371436 -0.012219756 0.04695297 -0.033145707 0.020901334
-0.028229563 -0.032421846 0.0076039326 -0.05191393 0.01373791 0.019552488 -0.025298025 -0.02400401
-0.018178603 -0.010450924 -0.05622454 -0.0002517513 0.008554671 -0.0033366517 -0.014217757 -0.01989579

nonreduce2_2.bias f4 [16]
00000000: 13c3 ae3c dafd 973c f5f0 abbb ec55 c23b
00000010: 6240 b53c 0cd7 31bd f1ae b33c 9d27 01bd
00000020: ba57 353d 9d25 f83c 0420 e7bc 410c 2abd
00000030: a882 773c b874 e7bc fdc8 a1bc e947 12bd
0.021333253 0.018553663 -0.00524723 0.005930653 0.022125427 -0.043417975 0.021934005 -0.03153192
0.044273116 0.030291373 -0.028213508 -0.041515592 0.0151068345 -0.028253898 -0.019749159 -0.03571311
