02_deep3D/model/model_dwig.pt (torch, 739938 bytes, 25 tensors)

reduce1.weight f4 [64, 1, 4, 4, 4]
-0.007111732 0.107459426 0.01411768 0.08679637 -0.020231478 0.040024124 -0.10964602 0.030989021
-0.11713077 -0.011249833 0.055133864 -0.079305336 -0.049841613 0.07916228 0.026081707 -0.026910327
0.021309895 -0.088692926 0.057412673 0.06404507 -0.017821785 -0.113251 0.06832389 0.042454604
0.10708261 0.0019355705 0.10809136 -0.06948182 0.103392124 0.056903508 -0.1054327 0.08975904
0.08684255 -0.106700525 -0.0075938487 -0.027007429 0.093508475 0.09596566 -0.0044607813 -0.088427775
-0.10455659 -0.03658526 0.01968805 0.07169399 0.060045242 0.054682296 -0.007843551 -0.05015745
-0.043203983 -0.048466343 -0.02844725 0.033935327 0.078599535 0.10274896 -0.10521977 -0.114154816
0.03657887 -0.11247417 0.019434053 0.015058952 -0.08438782 -0.13287885 0.08090742 -0.047193166
-0.039074432 -0.045811992 0.053802554 -0.11545137 0.03087811 0.02885207 0.0078085647 -0.09422478
0.0516689 0.11320244 -0.07019242 0.08001158 0.081988916 0.10220146 0.03843045 -0.09961375
0.0095249405 -0.07019569 0.024494259 -0.08741381 -0.10137284 0.07147564 -0.006854182 0.013482991
0.0379316 0.038920723 0.04052422 0.030831471 -0.08479665 -0.072160356 0.06600105 -0.027917063
0.082346156 -0.12377983 0.00831633 -0.07958768 -0.06534416 0.024970457 -0.102622174 -0.08792489
-0.10393288 0.028682152 -0.040703 0.116511315 0.11014531 0.085769884 0.059466712 0.027099341
0.009537006 0.011255411 -0.06623241 -0.045677237 0.111977175 -0.023733824 -0.059950765 -0.03498004
0.034477167 0.07541384 0.014157714 0.091002785 0.067661926 -0.104657106 0.097267516 -0.014918137
0.052966844 0.060240082 -0.02775891 -0.08200901 0.06722211 -0.026176985 -0.011495492 -0.026742963
0.095823295 -0.13212991 -0.07936213 0.021485442 -0.0072763124 0.03833567 -0.042765863 0.020591564
0.0070886775 0.037270226 -0.07874503 0.018595573 0.038714666 0.0916483 -0.12235289 -0.056180865
0.05326803 0.041735835 -0.040279713 -0.12705806 0.07922427 -0.0031771783 0.0027247774 0.022851232
-0.04281489 0.003299946 0.057389062 0.103286214 0.032459866 0.038703967 0.047188148 0.074751735
-0.023542855 0.029068086 0.033382952 0.05433538 0.044577558 0.07818342 -0.09696363 -0.032358475
-0.08349878 -0.09416802 -0.05776524 -0.12004272 0.092133194 0.10010855 0.10270903 -0.048587892
0.080334984 -0.015261538 -0.11080924 -0.12816925 -0.101559564 0.09020281 -0.03139729 -0.10757469
-0.045987558 -0.055353016 0.06281072 -0.0037055302 -0.005715732 -0.0011756375 -0.032978274 0.10174867
0.06268454 -0.10497434 -0.07114361 0.10914409 -0.08456799 -0.06037438 0.030651908 -0.067653924
0.018737271 0.063129954 -0.0444368 -0.043458853 0.018592019 0.03492369 -0.122926794 0.04365259
-0.109056674 -0.08794 -0.00637995 -0.0006462831 -0.06334086 -0.09859697 -0.096517496 -0.06384851
-0.037234325 -0.073922254 0.07911668 0.03399338 -0.09368697 0.079321876 0.048511364 -0.03599283
0.07646863 -0.09476533 0.0369988 0.08963609 -0.098041214 0.1060776 -0.100189 -0.09381575
0.10195815 0.09356446 -0.03911342 0.050841402 0.08921528 -0.029514475 0.0867238 -0.087962784
0.0108328415 -0.046670925 -0.030847955 -0.06136516 0.06146502 0.11523367 -0.115722105 -0.10261791
00000000: 8809 e9bb b013 dc3d d74d 673c 4cc2 b13d
00000010: 7cbc a5bc 56f0 233d 188e e0bd b0dc fd3c
00000020: 42e2 efbd 3851 38bc 0cd4 613d d66a a2bd
00000030: b826 4cbd d51f a23d 4ea9 d53c 0c73 dcbc
00000040: 1792 ae3c a3a4 b5bd 8d29 6b3d 102a 833d
00000050: fefe 91bc 24f0 e7bd 65ed 8b3d e1e4 2d3d
00000060: 214e db3d f8b2 fd3a 015f dd3d 7c4c 8ebd
00000070: 40bf d33d a713 693d 19ed d7bd 96d3 b73d
00000080: 82da b13d ce85 dabd d2d5 f8bb af3e ddbc
00000090: 5f81 bf3d a589 c43d bf2b 92bb 9f19 b5bd
000000a0: c421 d6bd 6dda 15bd d548 a13c 4cd4 923d
000000b0: 00f2 753d 8bfa 5f3d 3d82 00bc e671 4dbd
000000c0: a9f6 30bd a584 46bd 350a e9bc c5ff 0a3d
000000d0: cbf8 a03d 0c6e d23d 767d d7bd 00ca e9bd
000000e0: bad3 153d dc58 e6bd 2a34 9f3c d3b9 763c
000000f0: 85d3 acbd 6511 08be cab2 a53d 9f4d 41bd
00000100: 830c 20bd 5ba5 3bbd 1160 5c3d c571 ecbd
00000110: 17f4 fc3c 2d5b ec3c fdde ff3b ecf8 c0bd
00000120: c5a2 533d aed6 e73d 0bc1 8fbd 1cdd a33d
00000130: cee9 a73d 004f d13d 3f69 1d3d 4b02 ccbd
00000140: 7f0e 1c3c c2c2 8fbd 2fa8 c83c 0306 b3bd
00000150: 909c cfbd d261 923d 0c99 e0bb c3e7 5c3c
00000160: 2a5e 1b3d 566b 1f3d b9fc 253d 4892 fc3c
00000170: dea9 adbd cfc8 93bd 8f2b 873d 53b2 e4bc
00000180: 1aa5 a83d 4880 fdbd 3741 083c defe a2bd
00000190: 29d3 85bd d88e cc3c 932b d2bd f711 b4bd
000001a0: c3da d4bd d5f6 ea3c 30b8 26bd 7c9d ee3d
000001b0: dd93 e13d 1fa8 af3d 5e93 733d 70ff dd3c
000001c0: 1a41 1c3c 9e68 383c dca4 87bd 0e18 3bbd
000001d0: 4a54 e53d 706d c2bc ef8e 75bd 3b47 0fbd
000001e0: ee37 0d3d 9272 9a3d c2f5 673c ab5f ba3d
000001f0: 5692 8a3d 7756 d6bd 3134 c73d 346b 74bc
00000200: c3f3 583d 4ebe 763d a766 e3bc 57f4 a7bd
00000210: bfab 893d 1e71 d6bc 9757 3cbc 0f14 dbbc
00000220: 013f c43d 104d 07be 9d88 a2bd 3d02 b03c
00000230: 226e eebb dd05 1d3d 422b 2fbd a4af a83c
00000240: 2348 e83b aaa8 183d 1345 a1bd be55 983c
00000250: 4593 1e3d 1bb2 bb3d 2794 fabd e81d 66bd
00000260: 942f 5a3d 32f3 2a3d 57fc 24bd 821b 02be
00000270: 5640 a23d 3538 50bb 2e92 323b 8232 bb3c
00000280: ab5e 2fbd e843 583b cb10 6b3d b987 d33d
00000290: a3f4 043d 0d88 1e3d 5c48 413d 7017 993d
000002a0: f2dc c0bc 3220 ee3c 90bc 083d c78e 5e3d
000002b0: f596 363d a11e a03d de94 c6bd 528a 04bd
000002c0: 6901 abbd 2adb c0bd 3f9b 6cbd f5d8 f5bd
000002d0: 54b0 bc3d b605 cd3d 1d59 d23d 1904 47bd
000002e0: ab86 a43d 880b 7abc f4ef e2bd cd3e 03be
000002f0: 76fe cfbd 40bc b83d 729a 00bd 1e50 dcbd
00000300: 735d 3cbd d8b9 62bd e8a2 803d 7bd8 72bb
00000310: 094b bbbb d917 9aba 3a14 07bd 9b61 d03d
00000320: c160 803d c9fc d6bd beb3 91bd f086 df3d
00000330: fb31 adbd 204b 77bd b619 fb3c 248e 8abd
00000340: e87e 993c 474a 813d 5d03 36bd e901 32bd
00000350: 4a4e 983c 250c 0f3d 0bc1 fbbd 0fcd 323d
00000360: 1b59 dfbd e319 b4bd e60e d1bb 536b 29ba
00000370: dab8 81bd 35ed c9bd f7aa c5bd 02c3 82bd
00000380: 0583 18bd 8d64 97bd ed07 a23d a43c 0b3d
00000390: f4de bfbd 8273 a23d dab3 463d 386d 13bd
000003a0: 969b 9c3d 5314 c2bd 0e8c 173d 2093 b73d
000003b0: d5c9 c8bd 363f d93d e42f cdbd 7922 c0bd
000003c0: 6fcf d03d b99e bf3d 6535 20bd 133f 503d
000003d0: 80b6 b63d 57c8 f1bc 3f9c b13d d525 b4bd
000003e0: 3b7c 313c 032a 3fbd dab4 fcbc 095a 7bbd
000003f0: bfc2 7b3d a1ff eb3d b6ff ecbd 5729 d2bd

reduce1.bias f4 [64]
-0.06199288 0.050167598 0.019911285 -0.1151938 -0.11337972 0.093494944 0.04548008 -0.032046624
-0.046432078 -0.12166961 0.08974039 0.13066609 0.11621272 0.006286115 0.050490398 -0.09739885
0.10075376 -0.037270673 0.03534536 0.08259784 -0.079311244 0.124130264 -0.009452628 -0.10702553
-0.071171775 -0.11049068 0.056152876 -0.09278457 0.12575085 0.06355949 0.08758202 -0.08309951
-0.053201742 0.13831092 0.0023550713 0.018528247 -0.12591697 0.05258854 0.007532942 0.11062892
-0.11433232 0.024795728 0.09873114 -0.020381749 -0.11203365 0.037252497 -0.0521507 -0.09304142
0.06025005 -0.10189257 0.034201514 0.08534746 0.008182835 0.08284076 0.061357796 0.11765672
0.025465753 0.015094442 -0.028924266 0.01977691 0.04449202 0.15592045 -0.10406745 -0.10806128
00000000: 3fec 7dbd 8a7c 4d3d fe1c a33c baea ebbd
00000010: a033 e8bd 477a bf3d 5249 3a3d 5243 03bd
00000020: 902f 3ebd eb2d f9bd cfc9 b73d 55cd 053e
00000030: ef00 ee3d c1fb cd3b 05cf 4e3d 0c79 c7bd
00000040: fd57 ce3d 22a9 18bd 4cc6 103d 0e29 a93d
00000050: ef6d a2bd 0238 fe3d 32df 1abc 3330 dbbd
00000060: 82c2 91bd f048 e2bd 8f00 663d d605 bebd
00000070: d5c4 003e 7a2b 823d 345e b33d 1330 aabd
00000080: 12ea 59bd 61a1 0d3e 8a57 1a3b 8dc8 973c
00000090: 61f0 00be 1567 573d e6d6 f63b 6a91 e23d
000000a0: 1027 eabd 6920 cb3c 8d33 ca3d a0f7 a6bc
000000b0: e671 e5bd 1396 183d f99b 55bd 808c bebd
000000c0: c2c8 763d 0dad d0bd e316 0c3d a6ca ae3d
000000d0: 4c11 063c 6ba8 a93d 5052 7b3d 02f6 f03d
000000e0: 8e9d d03c ae4e 773c 95f2 ecbc 3003 a23c
000000f0: 443d 363d 9ca9 1f3e 5121 d5bd 3b4f ddbd

nonreduce1_1.weight f4 [32, 64, 3, 3, 3]
0.028463753 0.026396753 -0.009974212 0.0114807505 0.023143495 0.017159147 0.030918766 -0.0026472623
-0.00417002 -0.012757366 0.0049697016 0.028554142 -0.0010432708 0.043775745 0.0134002725 0.010046309
0.03747707 0.0331538 0.027389063 0.04341339 0.026686395 0.018563906 0.053937 0.04857796
0.0074413186 0.015730139 0.06500328 0.0038587544 0.014193172 -0.011534887 -0.00778139 0.009474722
-0.025298988 -0.023712043 0.0034199073 0.009962529 -0.017082807 -0.0030074802 0.015591058 -0.0009639087
0.010675467 0.020835051 -0.008481176 -0.0070636887 0.023141734 -0.017686179 0.010122526 0.009094446
-0.0002424039 0.0027190538 0.020854536 0.019339917 -0.016465481 0.0037413018 0.017015599 0.018129036
0.007153373 0.025286749 -0.01109016 0.008409756 0.010193378 0.020150132 0.019530606 0.017828094
0.016865265 0.002614335 0.0102510825 0.03300011 -0.0042280112 0.00454358 -0.0027900147 0.016336067
-0.005838734 0.019985868 0.000993246 0.0073489137 0.01945323 0.012877232 0.021370942 0.00059738755
-0.009716764 0.00951369 0.0016339018 -0.0061934567 -0.015140071 0.002191187 0.0027911142 0.018768532
-0.018235203 0.016734136 0.008367924 -0.011517997 0.0005369006 -0.016082311 0.016281001 -0.0067075375
-0.017710175 0.0014878015 -0.0016409984 -0.0021092573 -0.016047081 0.005667188 0.015646301 0.015069456
0.006845552 -0.016415326 0.018504774 -0.017871354 -0.013371325 -0.017096587 0.012520606 0.014187088
-0.020549763 0.00043359358 0.024149401 0.0042087976 0.001053426 -0.013546431 0.022423951 -0.014316038
0.017688414 0.016391044 0.014551602 0.0070571033 -0.004399962 0.02286198 0.0072673485 0.022841344
-0.00026637502 0.015814308 -0.015828043 -0.004142314 -0.014754961 -0.007648951 0.010839688 -0.016520694
0.0013856752 -0.011820674 0.008360246 -0.0053436756 0.018328264 -0.019638693 0.025055146 -0.0066466066
0.017249241 0.013339327 0.013730182 -0.018464634 0.010392924 0.020610867 0.0031479774 -0.0072947335
-0.0128116645 0.010201688 0.010160266 -0.00358806 0.00052841543 0.02265212 -0.008030812 0.023364848
-0.002857139 0.026012164 0.028246451 0.013642597 0.0005936728 -0.00870377 0.022044854 0.025415385
0.014482915 0.0032483249 0.026217755 0.045301892 0.015945874 0.03458062 0.038880225 0.021843601
0.0109896455 0.009479846 -0.0053750905 0.027620733 0.008900956 0.04357062 0.015494102 0.03223079
0.037286222 0.011197142 -0.013055559 0.016221974 -0.0076374267 0.0015339468 0.0020996213 0.04078893
0.019116221 0.014330093 0.012449098 0.0015595092 0.006565815 0.02171978 0.010258525 0.046571847
0.025048666 0.021761218 0.05105844 0.03363062 0.021432383 0.049375452 0.056561533 0.029555863
0.042994075 0.011001267 0.037299186 0.035002876 0.03224749 0.030303175 0.017294267 0.01684384
0.13121738 0.0655881 0.013860159 0.07652635 0.046327095 -0.0016674659 0.012890594 -0.0054586255
0.015929554 0.17694423 0.08525789 0.037746042 0.18748608 0.061417356 0.043361694 0.10356686
0.056649003 0.031633943 0.0849878 0.1547512 0.0468452 0.09570437 0.1592283 0.03833051
0.0833219 0.08893632 0.042778112 -0.0025465926 -0.004371641 0.012230887 0.013071197 -0.010190844
0.02104277 -0.012435739 0.030953048 0.010973553 0.033047218 -0.0013183409 0.0031823658 -0.009382424
00000000: d12c e93c 013e d83c e16a 23bc c219 3c3c
00000010: 6d97 bd3c 5791 8c3c 5a49 fd3c b17d 2dbb
00000020: aaa4 88bb 4504 51bc e1d8 a23b 60ea e93c
00000030: 5cbe 88ba 324e 333d d18c 5b3c 4699 243c
00000040: 8e81 193d 47cc 073d 075f e03c 3dd2 313d
00000050: 6d9d da3c 5513 983c 0bed 5c3d aff9 463d
00000060: 4ed6 f33b 7edc 803c 7120 853d 28e3 7c3b
00000070: 7a8a 683c d3fc 3cbc 08fb febb dd3b 1b3c
00000080: d33f cfbc c23f c2bc 8620 603b e039 233c
00000090: 3ef1 8bbc 2519 45bb a371 7f3c d1ae 7cba
000000a0: 27e8 2e3c 45ae aa3c a1f4 0abc 8476 e7bb
000000b0: bc93 bd3c 9be2 90bc f4d8 253c df00 153c
000000c0: cd2d 7eb9 2732 323b 22d7 aa3c bf6e 9e3c
000000d0: 9ee2 86bc a130 753b 4c64 8b3c 5883 943c
000000e0: d866 ea3b 2826 cf3c 81b3 35bc 13c9 093c
000000f0: 2002 273c e411 a53c a6fe 9f3c 390c 923c
00000100: 0629 8a3c 4355 2b3b 28f4 273c 202b 073d
00000110: 218b 8abb 50e2 943b aed8 36bb 37d3 853c
00000120: da52 bfbb 67b9 a33c ce2f 823a 28cf f03b
00000130: 615c 9f3c 07fb 523c 1d12 af3c 009a 1c3a
00000140: 1033 1fbc 4fdf 1b3c a628 d63a 7bf2 cabb
00000150: 0f0e 78bc 059a 0f3b 20eb 363b 77c0 993c
00000160: fe61 95bc 0716 893c 9e19 093c fbb5 3cbc
00000170: cabe 0c3a 0dbf 83bc bc5f 853c e7ca dbbb
00000180: ee14 91bc 5602 c33a c516 d7ba 773b 0abb
00000190: 2b75 83bc d2b3 b93b ac2c 803c e1e5 763c
000001a0: a750 e03b 6f79 86bc 5397 973c f266 92bc
000001b0: 6713 5bbc 240e 8cbc 3a23 4d3c f670 683c
000001c0: fa57 a8bc f253 e339 f7d4 c53c f4e9 893b
000001d0: 1c13 8a3a daf1 5dbc 6fb2 b73c d18d 6abc
000001e0: 4be7 903c 8346 863c d869 6e3c 463f e73b
000001f0: 8e2d 90bb 0c49 bb3c f022 ee3b c51d bb3c
00000200: 40a8 8bb9 028d 813c d0a9 81bc 40bc 87bb
00000210: cbbe 71bc 0da4 fabb f298 313c 6856 87bc
00000220: 8b9f b53a 80ab 41bc 6af9 083c 001a afbb
00000230: 2825 963c 53e1 a0bc 7340 cd3c c7cb d9bb
00000240: 484e 8d3c 318d 5a3c 8ff4 603c 2543 97bc
00000250: 1547 2a3c 1fd8 a83c 4c4e 4e3b a908 efbb
00000260: 04e8 51bc fb24 273c 3f77 263c a825 6bbb
00000270: 5c85 0a3a f090 b93c ab93 03bc a367 bf3c
00000280: d73e 3bbb 7617 d53c 1a65 e73c 3385 5f3c
00000290: b5a0 1b3a 429a 0ebc 6997 b43c ed33 d03c
000002a0: c049 6d3c d9e1 543b 9ec6 d63c 7a8e 393d
000002b0: eca0 823c 68a4 0d3d df40 1f3d 5af1 b23c
000002c0: ea0d 343c 5b51 1b3c 8721 b0bb e044 e23c
000002d0: 51d5 113c 1b77 323d f9da 7d3c 6f04 043d
000002e0: 70b9 183d 3874 373c fce6 55bc f2e3 843c
000002f0: 6143 fabb b70e c93a cd99 093b 4b12 273d
00000300: 9f99 9c3c c4c8 6a3c 4df7 4b3c 7268 cc3a
00000310: 0c26 d73b aeed b13c 5f13 283c 1fc2 3e3d
00000320: dc32 cd3c 9544 b23c a822 513d 43c0 093d
00000330: f792 af3c ea3d 4a3d 11ad 673d 231f f23c
00000340: 8e1a 303d a83e 343c 08c7 183d 2d5f 0f3d
00000350: f215 043d 5d3e f83c b5ac 8d3c 18fc 893c
00000360: d95d 063e 0e53 863d b815 633c d9b9 9c3d
00000370: 7bc1 3d3d df8e daba 1233 533c 45de b2bb
00000380: b27e 823c de30 353e b09b ae3d 989b 1a3d
00000390: 5afc 3f3e c490 7b3d 089c 313d dd1a d43d
000003a0: c908 683d 9892 013d 150e ae3d 1977 1e3e
000003b0: c1e0 3f3d a700 c43d be0c 233e 7400 1d3d
000003c0: aca4 aa3d 3f24 b63d 1a38 2f3d bce4 26bb
000003d0: fc3f 8fbb 0f64 483c 9328 563c 7ff7 26bc
000003e0: e361 ac3c 45bf 4bbc 3f91 fd3c 6bca 333c
000003f0: 855c 073d 2ecc acba 3d8f 503b bdb8 19bc

nonreduce1_1.bias f4 [32]
0.01780624 0.013424955 -0.018610228 -0.01384852 -0.01811791 -0.021450683 0.015119759 -0.0015402563
-0.0003029515 -0.019616833 -0.021313347 -0.0089455955 0.008829751 0.019732023 -0.003780101 -0.0034003241
0.007972132 0.013459508 -0.022512881 -0.02612664 -0.002576351 -0.026903497 0.023893774 -0.016141048
-0.012521128 -0.01988827 -0.015407364 -0.026487155 0.008472352 0.0059720967 -0.02314637 0.015806293
00000000: 64de 913c 58f4 5b3c 7a74 98bc e7e4 62bc
00000010: 036c 94bc 58b9 afbc deb8 773c 6de2 c9ba
00000020: 76d5 9eb9 7bb3 a0bc 5499 aebc 8c90 12bc
00000030: a9aa 103c 0da5 a13c 92bb 77bb f9d7 5ebb
00000040: 8c9d 023c 4585 5c3c ef6c b8bc 8907 d6bc
00000050: ffd7 28bb b964 dcbc e0bc c33c 3b3a 84bc
00000060: 6b25 4dbc baec a2bc 2b6f 7cbc 97fb d8bc
00000070: 9fcf 0a3c 94b1 c33b 759d bdbc 337c 813c

nonreduce1_2.weight f4 [32, 32, 3, 3, 3]
-0.012770617 0.028292917 0.013017 0.03605205 0.0069903894 -0.022415066 0.019563518 -0.0005925328
0.023792569 0.020032091 0.02990161 0.009789501 -0.014616908 -0.019660084 0.003673588 -0.024325164
0.0027036376 -0.013517082 -0.027260471 0.03351252 0.034697358 0.014130756 0.029718934 -0.009989962
-0.025859283 0.009017474 0.011959777 0.020258682 0.009339836 0.018231332 0.016279181 -0.019782808
0.012834684 -0.0036282027 -0.011753633 0.026060086 0.011205888 0.029696107 0.023459516 0.037155814
-0.0036646528 0.0035569011 0.014077219 0.023095792 -0.018586397 0.021688279 -0.0028915084 0.020041032
0.014036564 0.01633286 0.021640554 -0.012109727 0.0388942 -0.0141378585 0.012437374 0.011506813
-0.01812895 0.004098319 0.023083564 0.0011121576 0.025800081 0.03243633 0.017096374 0.036811523
-0.0064913896 0.021522498 0.012953129 0.014426136 0.036067005 0.028563045 0.053194296 -0.0067470507
-0.009562381 0.030720988 -0.00031652933 0.008190555 0.008703963 0.020902658 0.00456379 -0.0077978326
0.038508084 0.02658726 0.034166824 -0.007356995 -0.026264142 0.03674574 -0.00069246476 -0.0069206473
-0.01249533 0.020099195 0.014796454 -0.008685607 -0.018207416 -0.003224024 0.03412255 0.0019949046
0.010579353 0.006179286 0.014643747 0.029564964 -0.025058767 0.015793927 0.017903076 -0.02671478
0.000809841 -0.026882118 -0.01182347 -0.00029968386 0.00028333935 -0.0030621684 0.035572518 0.022991274
-0.02150324 0.024321273 0.017884627 -0.0076712947 0.029244063 0.027220862 0.03422882 0.0023076355
-0.022128185 0.00084966794 0.019020319 0.025251675 -0.026475305 0.0067578196 0.0219554 0.011795683
0.032548524 -0.026575988 -0.02127261 0.00561908 0.020868892 0.0285066 0.027119406 -0.010348497
-0.01025644 -0.0147004 0.003665979 0.0071028187 -0.029926432 0.016392967 -0.016964808 -0.012499038
0.032729022 0.026717639 0.010633864 0.018283173 0.022940116 0.0086561935 -0.0012462235 0.026484985
0.017600268 -0.00087753363 0.028907543 0.02547146 0.0148800155 0.012388196 -0.012949777 0.021436978
0.017006265 -0.00892802 0.033997796 0.034845702 0.0008670514 -0.010480359 0.0102184955 0.010770899
-0.016340852 0.021461882 -0.01876147 -0.0047322176 0.017528815 0.0051254267 -0.019069772 0.011851974
0.00039963392 -0.022302596 -0.008989434 -0.0028967885 -0.016792132 -0.022532623 0.013147118 0.025936728
-0.021259591 -0.0017021591 0.021661967 0.011971615 0.035854336 0.018085256 0.023565425 0.02024257
0.03229594 -0.021560492 0.031558424 -0.006860065 -0.019962821 -0.011488974 0.010241723 -0.0144252945
-0.020402284 -0.0112250475 -0.026121175 0.015509753 0.02248343 0.0085581755 -0.011991297 0.03017955
0.023660943 -0.010433241 -0.012446996 0.018017847 -0.018245522 -0.009101083 -0.033323813 -0.0049252603
0.022329614 0.009015899 -0.026450856 0.006310847 0.026246853 0.032802735 0.009976505 -0.004431811
0.00069283333 0.0039458983 0.02731974 -0.007641779 -0.00048552876 0.0129039865 -0.019620225 -0.00277201
0.038019132 0.03763115 -0.008451127 -0.0126299085 0.025009878 0.03484102 0.03883403 0.022864984
0.021430278 -0.021069488 0.032337397 -0.032153912 -0.025694478 -0.009066663 -0.017412703 0.025373949
-0.007605684 0.015066917 0.009709864 0.019154381 -0.012780973 0.011262649 0.010871882 0.018421853
00000000: da3b 51bc 8cc6 e73c 4145 553c 50ab 133d
00000010: a30f e53b cd9f b7bc ac43 a03c 3454 1bba
00000020: a2e8 c23c 571a a43c 39f4 f43c 2564 203c
00000030: c17b 6fbc 2f0e a1bc 94c0 703b 9145 c7bc
00000040: 832f 313b c076 5dbc 5a51 dfbc 6d44 093d
00000050: d11e 0e3d b084 673c 1f75 f33c f0ac 23bc
00000060: d9d6 d3bc 07be 133c f1f2 433c 89f5 a53c
00000070: 1d06 193c e059 953c eb5b 853c 8e0f a2bc
00000080: 9148 523c 24c7 6dbb 4f92 40bc f67b d53c
00000090: e798 373c 4045 f33c 2c2e c03c b230 183d
000000a0: ac2a 70bb e61a 693b 23a4 663c 6333 bd3c
000000b0: 8042 98bc 9eab b13c 767f 3dbb 172d a43c
000000c0: 9ef9 653c 7dcc 853c 8847 b13c e067 46bc
000000d0: 864f 1f3d 7aa2 67bc 21c6 4b3c 1287 3c3c
000000e0: 2a83 94bc 314b 863b be19 bd3c d1c5 913a
000000f0: b15a d33c f5db 043d b20d 8c3c aec7 163d
00000100: b9b5 d4bb f34f b03c 5c39 543c 9a5b 6c3c
00000110: ffba 133d 0cfd e93c 43e2 593d 5d16 ddbb
00000120: 88ab 1cbc 95aa fb3c d9f3 a5b9 ad31 063c
00000130: 119b 0e3c 0d3c ab3c d88b 953b f684 ffbb
00000140: a7ba 1d3d 87cd d93c 83f2 0b3d f212 f1bb
00000150: e627 d7bc b382 163d 8686 35ba 99c6 e2bb
00000160: 36b9 4cbc 11a7 a43c d46c 723c 144e 0ebc
00000170: b827 95bc 264a 53bb 16c4 0b3d f2bc 023b
00000180: 0655 2d3c 9c7b ca3b 54ec 6f3c 3932 f23c
00000190: 0b48 cdbc 4462 813c 79a9 923c f4d8 dabc
000001a0: 824b 543a e337 dcbc 3ab7 41bc e31e 9db9
000001b0: 2a8d 9439 a9ae 48bb 7db4 113d 3258 bc3c
000001c0: 9027 b0bc 683d c73c c882 923c 7c5f fbbb
000001d0: 3f91 ef3c 49fe de3c 8533 0c3d b33b 173b
000001e0: 2b46 b5bc 40bc 5e3a 80d0 9b3c 9adc ce3c
000001f0: bde2 d8bc b370 dd3b d0db b33c ae42 413c
00000200: 9a51 053d e3b5 d9bc e643 aebc 4220 b83b
00000210: 3df5 aa3c ac86 e93c 8429 de3c be8c 29bc
00000220: a10a 28bc f2d9 70bc ec40 703b c3be e83b
00000230: 4728 f5bc 8b4a 863c c8f9 8abc c4c8 4cbc
00000240: de0e 063d f3de da3c a939 2e3c 98c6 953c
00000250: e9ec bb3c b5d2 0d3c 5258 a3ba 0af7 d83c
00000260: 702e 903c 490a 66ba 83cf ec3c 86a9 d03c
00000270: 4fcb 733c dcf7 4a3c 4d2b 54bc 9a9c af3c
00000280: b950 8b3c d446 12bc 4641 0b3d 5eba 0e3d
00000290: d64a 633a d0b5 2bbc 7a6b 273c 6d78 303c
000002a0: 40dd 85bc d4d0 af3c a8b1 99bc b810 9bbb
000002b0: 9798 8f3c 32f3 a73b 3638 9cbc c82e 423c
000002c0: f585 d139 efb3 b6bc 6b48 13bc 0cd8 3dbb
000002d0: a78f 89bc 5696 b8bc 0267 573c 4379 d43c
000002e0: 9828 aebc fb1a dfba 7074 b13c 9824 443c
000002f0: ffdb 123d 8827 943c 470c c13c bfd3 a53c
00000300: bf48 043d a19f b0bc 6843 013d 65ca e0bb
00000310: 1289 a3bc 403c 3cbc e6cc 273c 1258 6cbc
00000320: b122 a7bc 43e9 37bc 13fc d5bc 9e1c 7e3c
00000330: 2c2f b83c 9737 0c3c 2577 44bc 1b3b f73c
00000340: 98d4 c13c 2ff0 2abc 7cee 4bbc 2a9a 933c
00000350: a277 95bc b51c 15bc 8d7e 08bd 1464 a1bb
00000360: 98ec b63c 6cb7 133c 77af d8bc 39cb ce3b
00000370: a403 d73c 295c 063d 7f74 233c ba38 91bb
00000380: 429f 353a 984c 813b a6cd df3c e367 fabb
00000390: 918e feb9 3e6b 533c 98ba a0bc 9caa 35bb
000003a0: f3b9 1b3d 1f23 1a3d 9976 0abc aded 4ebc
000003b0: 84e1 cc3c 75b5 0e3d 6f10 1f3d 594f bb3c
000003c0: 8d8e af3c eb99 acbc 3874 043d d2b3 03bd
000003d0: 3a7d d2bc 578c 14bc 16a5 8ebc 07dd cf3c
000003e0: 1a39 f9bb 3bdb 763c 1f16 1f3c a6e9 9c3c
000003f0: 4967 51bc f986 383c fa1f 323c 6de9 963c

nonreduce1_2.bias f4 [32]
0.009673007 0.019442717 0.0026101896 -0.02181666 -0.02446091 0.014145682 -0.03140651 -0.025726587
-0.011300095 0.008650012 7.224347e-06 -0.020099588 -0.008563891 0.024488732 -0.016439565 0.0057462575
0.021041678 0.02370887 -0.028019102 0.026382083 -0.030210963 -0.032787308 -0.012323032 -0.013456126
0.016053917 -0.0065002255 -0.035318844 0.0022401824 -0.02664153 -0.012333904 0.028315255 0.013298742
00000000: 887b 1e3c 5546 9f3c b70f 2b3b dab8 b2bc
00000010: 3f62 c8bc 4ac3 673c 1da4 00bd 90c0 d2bc
00000020: 0924 39bc c8b8 0d3c ab68 f236 e4a7 a4bc
00000030: 904f 0cbc 989c c83c 44ac 86bc 1a4b bc3b
00000040: 995f ac3c 1b39 c23c 5188 e5bc 3d1f d83c
00000050: fb7c f7bc fc4b 06bd 8be6 49bc 1577 5cbc
00000060: 8183 833c d8ff d4bb 7eaa 10bd 06d0 123b
00000070: 573f dabc 2514 4abc 65f5 e73c f7e2 593c

nonreduce1_3.weight f4 [32, 32, 3, 3, 3]
0.008682317 -0.02536618 -0.02376419 -0.004206749 0.009833247 -0.016596846 0.018742451 -0.006710658
0.00078171445 -0.021571957 0.027744498 -0.005565351 0.0025343497 0.008080101 -0.01002267 4.406677e-05
0.006189987 -0.016495448 -0.006107918 0.03366287 0.00012351901 0.03310533 -0.031786427 -0.019657642
0.029952582 0.026062777 -0.02273423 -0.028965587 0.014973982 -0.024287198 0.003815822 0.02133288
-0.018092131 -0.004626853 -0.0044073723 -0.014713473 -0.020988947 0.016865805 -0.027982717 -0.027150711
-0.012867811 0.007661718 -0.03306266 0.006483178 -0.009736886 0.025412107 -0.028042398 0.033048965
-0.00023046006 0.023611093 0.013947187 -0.004921526 -0.018737232 -0.011985921 -0.024720525 -0.029222049
-0.017310629 -0.0065236436 0.013779464 0.019960957 -0.008703912 0.00044548104 0.017916912 -0.015762676
-0.009795437 0.016054746 -0.001012728 0.01567186 -0.032091524 -0.0073238597 -0.0015760363 0.012468485
-0.020315839 -0.01177092 -0.00039416613 -0.027082402 -0.009508314 -0.0027799052 0.015713941 -0.012127771
-0.022155367 -0.011299357 0.013430238 0.008551769 0.0024016413 0.03187529 0.01710073 0.022890972
-0.01839016 -0.020995213 0.021787224 -0.0022010943 0.03018978 0.026734702 -0.0077129407 0.022605535
0.010701967 -0.027170839 0.023036972 0.027846318 -0.015605401 -0.01655632 0.027887365 0.019402895
-0.03343648 -0.008192867 -0.004814425 0.0022128904 0.009659697 -0.0057786745 -0.009611568 -0.006867285
0.0042663286 -0.018338306 0.015848765 -0.0090811355 -0.006193517 0.0021663932 -0.015634023 0.028793018
0.007596977 0.011842279 -0.00027461682 0.022351412 0.005656092 0.028962346 0.021215891 0.011119649
-0.027446598 0.0053564683 -0.028005445 -0.009607561 0.010189712 0.006037201 0.007742453 0.01648231
-0.013464977 -0.0050906083 0.02129304 -0.027493684 -0.008317941 -0.033652645 0.011304954 0.016533308
-0.0030159734 0.02546581 -0.011713732 0.010579306 0.016334513 -0.032310776 0.020549446 0.009834792
-0.008901619 -0.017625786 -0.017433548 -0.017656524 -0.03226827 0.0034807215 0.024984471 0.010366057
0.013542548 0.015216832 0.03069566 0.015084995 0.012979854 -0.018482905 0.006300789 -0.0034702818
-0.007547475 -0.02411306 0.0050612628 0.004873424 0.0026393249 -0.022991283 0.033157192 -0.029146511
0.00023746538 0.005306431 -0.019791882 0.026366888 -0.01528041 0.0258994 0.0010452793 -0.029776827
0.021233743 0.0142039275 0.018387465 -0.009449531 -0.014473962 0.011975749 0.01917195 0.014946506
-0.010652523 -0.030372886 -0.017013147 -0.0056602643 -0.016729841 -0.00262873 -0.010815336 -0.014160223
-0.013732475 0.023590265 0.01453047 0.02192782 -0.0061334334 -0.018579178 0.0037512553 -0.014846231
0.021817107 -0.032615904 -0.0034581327 -0.01948639 -0.012826503 0.0023418556 -0.026709136 -0.00852379
0.025248893 -0.014632452 0.014603435 0.011156008 -0.005331116 -0.005311706 -0.022648841 0.010858708
0.018615972 -0.025582943 0.0013973186 -0.01279544 -0.022165235 0.006448652 0.022297114 -0.00010343029
-0.02531318 -0.017793946 -0.008758651 0.030838966 0.032546323 -0.006170707 0.01982586 -0.016309123
0.0065256497 0.0027936837 0.00238653 -0.0031319715 0.008369279 -0.008155729 -0.008388528 -0.021633875
0.029136753 0.016916888 -0.033657905 -0.03236204 0.010299845 -0.024937898 -0.031435672 0.020863507
00000000: 4740 0e3c bccc cfbc 1ead c2bc c5d8 89bb
00000010: a11b 213c 1cf6 87bc c589 993c 14e5 dbbb
00000020: f8eb 4c3a acb7 b0bc 6e48 e33c 8c5d b6bb
00000030: 5517 263b 6662 043c 2036 24bc 56d4 3838
00000040: 60d5 ca3b 7621 87bc ee24 c8bb 14e2 093d
00000050: e284 0139 7499 073d 7c32 02bd 1009 a1bc
00000060: 1e5f f53c 9b81 d53c 233d babc 3d49 edbc
00000070: 6f55 753c f2f5 c6bc df12 7a3b 4bc2 ae3c
00000080: f335 94bc db9c 97bb b86b 90bb c710 71bc
00000090: 03f1 abbc 282a 8a3c 033c e5bc 2b6b debc
000000a0: 83d3 52bc 260f fb3b b66c 07bd d770 d43b
000000b0: 7687 1fbc 0d2d d03c 2cb9 e5bc 5a5e 073d
000000c0: a7a7 71b9 0d6c c13c be82 643c c144 a1bb
000000d0: d37e 99bc 9960 44bc b382 cabc 1463 efbc
000000e0: 05cf 8dbc 4ac4 d5bb 43c3 613c 2985 a33c
000000f0: da9a 0ebc 748f e939 7dc6 923c ba20 81bc
00000100: 0a7d 20bc 3e85 833c 83bd 84ba 4662 803c
00000110: 6772 03bd fdfc efbb 0193 ceba 9e48 4c3c
00000120: 676d a6bc d1da 40bc 15a8 ceb9 eadb ddbc
00000130: c2c8 1bbc 122f 36bb 86ba 803c 8fb3 46bc
00000140: 2c7f b5bc f020 39bc 800a 5c3c b81c 0c3c
00000150: db64 1d3b aa8f 023d d516 8c3c d985 bb3c
00000160: f6a6 96bc 27fe abbc 1f7b b23c 3c40 10bb
00000170: 8f50 f73c bc02 db3c d6bc fcbb 3e2f b93c
00000180: 4e57 2f3c 6195 debc 08b8 bc3c f61d e43c
00000190: ccad 7fbc 1fa1 87bc 0b74 e43c d2f2 9e3c
000001a0: b1f4 08bd 603b 06bc 53c2 9dbb 2406 113b
000001b0: b543 1e3c 095b bdbb d779 1dbc f606 e1bb
000001c0: 8fcc 8b3b 373a 96bc 45d5 813c 0bc9 14bc
000001d0: fcf2 cabb 0cfa 0d3b ec12 80bc 56df eb3c
000001e0: 10f0 f83b 1e06 423c 72fa 8fb9 4f1a b73c
000001f0: bd56 b93b 7142 ed3c f3cc ad3c 302f 363c
00000200: b0d7 e0bc 5085 af3b ad6b e5bc 0869 1dbc
00000210: c0f2 263c b6d3 c53b 67b4 fd3b e905 873c
00000220: 359c 5cbc 1ecf a6bb be6e ae3c 6f3a e1bc
00000230: f947 08bc 5bd7 09bd 6a38 393c dc70 873c
00000240: a3a7 45bb ad9d d03c f4ea 3fbc d354 2d3c
00000250: f5cf 853c 4e58 04bd 5057 a83c 1c22 213c
00000260: 19d8 11bc f463 90bc cdd0 8ebc 6aa4 90bc
00000270: bc2b 04bd d11c 643b 3cac cc3c 65d6 293c
00000280: 90e1 5d3c 0550 793c 7775 fb3c 0e27 773c
00000290: 74a9 543c 7669 97bc d976 ce3b ab6d 63bb
000002a0: cf50 f7bb c188 c5bc f3d8 a53b 3eb1 9f3b
000002b0: 86f8 2c3b 3758 bcbc d6cf 073d aac4 eebc
000002c0: 2100 7939 92e1 ad3b 9622 a2bc 5fff d73c
000002d0: af5a 7abc fa2a d43c c101 893a 88ee f3bc
000002e0: 63f2 ad3c 97b7 683c 4fa1 963c 35d2 1abc
000002f0: 3224 6dbc ef35 443c 7e0e 9d3c 31e2 743c
00000300: eb87 2ebc 8fd0 f8bc 285f 8bbc bd79 b9bb
00000310: 050d 89bc c546 2cbb cf32 31bc 4800 68bc
00000320: 2dfe 60bc 5f40 c13c 3511 6e3c f9a1 b33c
00000330: f8fa c8bb 5c33 98bc 9fd7 753b 9b3d 73bc
00000340: cab9 b23c 4198 05bd d7a1 62bb eca1 9fbc
00000350: 4126 52bc d179 193b 1ecd dabc 5ea7 0bbc
00000360: c4d6 ce3c f4bc 6fbc 3f43 6f3c b0c7 363c
00000370: a4b0 aebb d20d aebb 108a b9bc b9e8 313c
00000380: 8680 983c 5293 d1bc 3b26 b73a f7a3 51bc
00000390: de93 b5bc 374f d33b 70a8 b63c b7e8 d8b8
000003a0: 965d cfbc 9cc4 91bc 7280 0fbc 00a2 fc3c
000003b0: 4b4f 053d a433 cabb d869 a23c b69a 85bc
000003c0: 1ed5 d53b 3c16 373b 5467 1c3b c341 4dbb
000003d0: 4d1f 093c 9b9f 05bc 0970 09bc 8639 b1bc
000003e0: 33b0 ee3c 4995 8a3c dfdc 09bd 0f8e 04bd
000003f0: aec0 283c 904a ccbc b1c2 00bd f2e9 aa3c

nonreduce1_3.bias f4 [32]
-0.024290474 0.028309105 0.011525954 -0.021024479 0.012095285 0.017802108 -0.010339722 0.021862762
0.018180303 0.03519601 0.011337869 -0.037741993 -0.015628891 -0.0135314185 -0.021923995 0.01047455
0.0059463405 0.015353572 0.005988448 0.025289195 0.024592666 -0.03452875 0.019103708 -0.026986102
0.0025600006 0.033747595 -0.0044607897 0.0066577243 0.0054272986 -0.013514086 -0.00077437575 0.015713476
00000000: d1fc c6bc 7fe8 e73c 5bd7 3c3c 873b acbc
00000010: 4d2b 463c bad5 913c f067 29bc 8919 b33c
00000020: dcee 943c b129 103d 78c2 393c 5997 1abd
00000030: 2908 80bc e2b2 5dbc f399 b3bc 729d 2b3c
00000040: 85d9 c23b 8c8d 7b3c be3a c43b 492b cf3c
00000050: 8f76 c93c 056e 0dbd 617f 9c3c f511 ddbc
00000060: afc5 273b eb3a 0a3d d12b 92bb 0a29 da3b
00000070: 7bd7 b13b 2f6a 5dbc 7aff 4aba 8cb9 803c

reduce2.weight f4 [16, 32, 4, 4, 4]
0.0012199569 -0.0004813807 0.017392054 -0.004731638 0.011534272 -0.0070604114 0.016923936 -0.011313664
0.006114646 -0.008944435 -0.0064657833 -0.017118832 -0.0026719968 0.009282114 0.015176654 -0.008932232
0.01777632 -0.014670392 -0.013565102 0.009208764 0.00872805 -0.01783826 0.01793902 -0.011753538
-0.007975233 0.019928718 0.020073611 -0.0047163 0.007815278 0.002391081 0.013117612 -0.0064851074
-0.015876662 0.01113544 0.009125258 0.006226071 -0.01308981 0.008953832 0.00010450809 -0.0029253894
-0.007220243 -0.01658417 0.005022499 0.00079610845 0.01267103 -0.011034589 -0.0038328269 0.0007411457
0.0064851884 0.019010397 0.0072133457 0.013152919 0.014617781 0.011536341 0.008591692 -0.0105439825
0.013432294 0.01078356 0.013918184 -0.003369723 0.0037908545 -0.010614008 0.012407128 -0.019207178
0.0028287186 -0.019311372 0.006634075 0.018665483 -0.020016825 0.022885773 0.020766165 0.006946121
-0.0047375127 0.017751234 -0.006553669 0.01544467 0.012152231 0.024745695 -0.00045689684 -0.0077373865
-0.018545067 0.023576954 -0.00069580966 0.010681346 -0.012282042 0.022564411 0.008512764 0.0047516786
0.007640931 0.023340661 0.009060146 0.02446511 0.016754648 -0.01549311 0.0028155374 -0.011177853
-0.009593381 0.017480109 0.016248388 0.0023532757 -0.013055693 -0.007774495 0.018675141 -0.014947256
-0.018941958 -0.010034356 0.013836082 0.0109580755 0.0053498875 0.009162672 -0.0017634868 -0.006793756
0.018451843 -0.015587033 -0.0185261 -0.0101926 -0.010632664 -0.010828305 -0.01952972 -0.0065845163
0.01672037 -0.0108824065 -0.0038597633 -0.0034561409 -0.016027559 -0.011720437 -0.02524848 -0.0050511397
0.007615543 0.017333718 0.023876294 0.022808002 0.003781288 -0.015640251 0.0036655818 0.013746352
-0.0019016172 0.0059049632 -0.012049351 -0.006569095 0.01825278 0.008016593 -0.00309152 0.003654323
0.0019850228 0.016375965 -0.0041865855 -0.005730052 0.0112088565 0.01676318 0.028290303 -0.003813156
0.0072340085 0.016890638 -0.0026319178 0.015176459 -0.009518538 0.014744908 0.0112413205 -0.004890971
-0.0015967792 -0.011805386 0.00952748 0.025273697 -0.0065863472 0.018309584 0.015408775 0.014773939
0.01096898 0.028805358 -0.0048890603 0.010201369 -0.004184037 0.0024313054 -0.017741898 -0.007677239
0.0059332917 -0.018381307 0.0041116145 0.0040805014 0.019860849 -0.0045550736 -0.010859149 0.015770487
-0.0109187 0.0027555116 -0.010374817 -0.0059617907 -0.013079459 -0.017441683 -0.00062956323 -0.03195112
0.004743581 -0.021714678 0.013118914 -0.0032032025 -0.011100702 -0.016632937 -0.0057364944 0.020061335
-0.018613102 -0.006180372 -0.0033775817 0.012927024 0.0033211731 0.007048416 0.016833749 -3.0195959e-05
-0.0027447215 -0.013814875 -0.009535125 -0.010071418 -0.018255735 0.0036784005 -0.010491087 -0.015520802
0.019802658 0.012985793 0.027931934 -0.015560849 -0.011478541 -0.022011561 0.0068967226 -0.0149679305
0.011818119 0.011054718 -0.008558285 0.014155142 0.015591386 0.016472172 0.018184999 0.011621571
0.015251833 0.00076387136 0.0026599036 0.023153422 0.010717115 -0.014517195 0.015996682 0.009575958
-0.016243882 -0.0143842865 -0.01855772 -0.016807428 0.012487787 0.009170274 0.019625673 -0.0068536038
-0.0057805628 -0.019225618 -0.0106525505 -0.01064936 -0.023538524 0.0014455299 -0.0058401134 -0.021992348
00000000: f6e6 9f3a d361 fcb9 c879 8e3c db0b 9bbb
00000010: 3efa 3c3c 065b e7bb 11a4 8a3c f25c 39bc
00000020: 5e5d c83b ae8b 12bc ecde d3bb cb3c 8cbc
00000030: ab1c 2fbb 0214 183c 80a7 783c 7f58 12bc
00000040: a59f 913c 155c 70bc 2940 5ebc 5be0 163c
00000050: 1800 0f3c 8b21 92bc daf4 923c e991 40bc
00000060: 8daa 02bc 8d41 a33c 6a71 a43c 318b 9abb
00000070: a70b 003c afb3 1c3b 41eb 563c 0681 d4bb
00000080: c60f 82bc 6c71 363c 1b82 153c 1204 cc3b
00000090: a476 56bc 18b3 123c 5b2b db38 e4b7 3fbb
000000a0: ca97 ecbb 86db 87bc c693 a43b efb1 503a
000000b0: 279a 4f3c 6cca 34bc 2a30 7bbb 7249 423a
000000c0: b481 d43b b1bb 9b3c ee5d ec3b 577f 573c
000000d0: 6b7f 6f3c ec02 3d3c 2bc4 0c3c abc0 2cbc
000000e0: 2013 5c3c 87ad 303c 1809 643c 92d6 5cbb
000000f0: fc6f 783b 60e6 2dbc 4447 4b3c 5f58 9dbc
00000100: 0662 393b e232 9ebc a862 d93b 5be8 983c
00000110: 53fa a3bc f27a bb3c ce1d aa3c 499c e33b
00000120: 233d 9bbb 096b 913c 29c0 d6bb a40b 7d3c
00000130: 271a 473c 7cb7 ca3c a88b efb9 e789 fdbb
00000140: d3eb 97bc 7524 c13c ff66 36ba d000 2f3c
00000150: 9e3a 49bc 00d9 b83c 1f79 0b3c f8b3 9b3b
00000160: c660 fa3b ea34 bf3c 0271 143c 0e6b c83c
00000170: 0b41 893c d0d6 7dbc e184 383b 5023 37bc
00000180: 8e2d 1dbc 7232 8f3c 571b 853c 6a39 1a3b
00000190: 8ce7 55bc 31c1 febb 9cfc 983c 56e5 74bc
000001a0: 2a2c 9bbc 2467 24bc bcb0 623c 8089 333c
000001b0: 1c4e af3b 081f 163c cc24 e7ba 289e debb
000001c0: 5228 973c c160 7fbc 0cc4 97bc ddfe 26bc
000001d0: a034 2ebc 3469 31bc cbfc 9fbc edc2 d7bb
000001e0: 28f9 883c 1f4c 32bc 15f4 7cbb 6c80 62bb
000001f0: 3a4c 83bc 1307 40bc e6d5 cebc 0884 a5bb
00000200: ce8b f93b 71ff 8d3c 3898 c33c d9d7 ba3c
00000210: 7ccf 773b fc1f 80bc 423a 703b 6138 613c
00000220: af3f f9ba 6c7e c13b a46a 45bc 9041 d7bb
00000230: db86 953c 0758 033c 199b 4abb 5e7d 6f3b
00000240: 2817 023b e326 863c a02f 89bb 29c3 bbbb
00000250: 5aa5 373c f052 893c 11c1 e73c 24e6 79bb
00000260: 430b ed3b 3c5e 8a3c 417c 2cbb afa6 783c
00000270: a4f3 1bbc a094 713c 842d 383c 7044 a0bb
00000280: 054b d1ba 616b 41bc 2619 1c3c c90a cf3c
00000290: 49d2 d7bb fbfd 953c 1675 7c3c 640e 723c
000002a0: 3db7 333c 37f9 eb3c 6934 a0bb a523 273c
000002b0: 3f1a 89bb 8956 1f3b 7557 91bc 5991 fbbb
000002c0: 0f6c c23b 6594 96bc b9ba 863b bab5 853b
000002d0: 38b3 a23c ba42 95bb 92ea 31bc 1c31 813c
000002e0: 59e4 32bc d095 343b 23fb 29bc 205b c3bb
000002f0: 3a4b 56bc dce1 8ebc 4609 25ba 2ddf 02bd
00000300: 0b70 9b3b fbe2 b1bc b7f0 563c d2ec 51bb
00000310: b8df 35bc cc41 88bc 34f9 bbbb ab57 a43c
00000320: 817a 98bc b884 cabb 6b5a 5dbb decb 533c
00000330: 0aa8 593b 66f6 e63b eee6 893c 544d fdb7
00000340: c9e0 33bb c957 62bc 3739 1cbc 9702 25bc
00000350: 0d8d 95bc 5211 713b cfe2 2bbc f64a 7ebc
00000360: 2f39 a23c 5dc2 543c 83d1 e43c eef2 7ebc
00000370: 7e10 3cbc 9751 b4bc e7fd e13b 0d3c 75bc
00000380: c9a0 413c d91e 353c 0d38 0cbc f8ea 673c
00000390: 0373 7f3c a6f0 863c b5f8 943c 6768 3e3c
000003a0: d3e2 793c 8a3e 483a c751 2e3b 3fac bd3c
000003b0: d796 2f3c 87d9 6dbc 790b 833c 7be4 1c3c
000003c0: e411 85bc 12ac 6bbc 5c06 98bc bbaf 89bc
000003d0: 9399 4c3c eb3e 163c 05c6 a03c 3294 e0bb
000003e0: e06a bdbb 0b7f 9dbc 0988 2ebc a77a 2ebc
000003f0: ddd3 c0bc ef77 bd3a 6c5e bfbb 4c29 b4bc

reduce2.bias f4 [16]
0.0006599351 0.014293724 -0.013200058 0.01587348 0.025619252 -0.014620377 -0.007552099 -0.0188658
0.0044288733 -0.018064586 0.0042923936 -0.004778271 0.0077400953 -0.013643002 0.013717676 0.019238627
00000000: 7fff 2c3a 3930 6a3c 0e45 58bc 1a09 823c
00000010: 77df d13c 4e8a 6fbc 9977 f7bb 738c 9abc
00000020: 1520 913b 2ffc 93bc 35a7 8c3b 0b93 9cbb
00000030: a0a0 fd3b e686 5fbc 1ac0 603c 539a 9d3c

nonreduce2_1.weight f4 [16, 16, 3, 3, 3]
-0.029214967 0.004324307 0.015449109 -0.028734677 -0.032831665 0.02703268 0.050324768 0.036916092
0.030179722 -0.027015626 -0.010372167 -0.018580005 0.02944992 -0.017644065 -0.035509385 -0.028452035
-0.012306146 0.008001312 -0.042202853 -0.036119487 -0.026982395 -0.031895112 0.010984247 -0.011399803
0.045240056 -0.011463526 0.03710712 -0.031082923 0.0277865 -0.042235 -0.00790078 -0.0006911908
-0.0042768037 0.046316378 0.00278235 0.019785395 0.041352794 -0.016978003 0.005582097 -0.019396488
0.032456934 -0.037323438 -0.00213414 -0.049802247 -0.050158914 0.049544934 0.025228903 0.04761744
0.058964536 -0.013282059 0.016370552 -0.008203056 -0.0049946774 -0.029311007 0.0052739056 0.029415242
-0.0027781199 0.0018740698 -0.038324326 0.012026178 -0.043058224 -0.0046857954 -0.027248794 0.039095525
0.016923023 0.027032888 -0.011177472 0.032315318 0.04304837 0.044048984 0.007953053 0.03235125
0.027817674 -0.025852915 -0.013022815 0.01637681 -0.039071698 -0.035065234 0.01944145 -0.0041205334
0.017206255 0.010040975 -0.057275448 -0.049027942 0.045406207 0.031209547 -0.024007771 -0.029334819
0.016569378 -0.07066888 0.056616664 0.048797786 0.016197044 0.017607829 0.016064323 0.049639817
0.02423097 0.048514336 0.011772203 -0.025116503 0.030113691 0.055742573 0.010073489 0.08428429
0.044530742 0.0066000996 0.044133477 -0.000781879 -0.006883539 0.039877944 -0.0045126216 0.042810716
0.031107008 0.029548915 -0.0076740794 -0.0054176147 -0.038485803 0.015327203 -0.02716339 -0.0037900843
-0.017312817 0.037272297 -0.03643911 -0.0048388243 0.035128076 0.0005221151 -0.037121397 -0.0066427183
-0.009590793 -0.0086223865 0.013885016 0.002195268 -0.0016502689 0.016378358 -0.027392672 -0.04116553
0.01888354 -0.045105856 -0.023625499 -0.028534701 0.0146018285 0.010436391 -0.023200504 0.04352219
0.04714631 -0.012326449 0.010108838 -0.03252615 -0.010736205 -0.04121149 0.047111567 0.0124219125
0.0021630372 0.03870272 -0.04617286 0.01198145 0.03949742 0.04196763 0.018399816 -0.032042537
-0.01788936 -0.037377506 -0.041594904 -0.04475528 -0.026617775 0.020310625 -0.035095155 -0.05274359
-0.0341366 -0.027009914 -0.035469476 0.03051939 -0.02315006 -0.013047385 0.016596094 -0.031904668
-0.015758542 -0.039091144 0.014296964 -0.039107036 0.02332079 0.043422487 0.00048630877 0.043461453
0.02906 0.020736681 -0.038192578 0.027398027 0.04558545 -0.03926406 -0.019109232 -0.029744616
0.008984702 -0.03749948 -0.013210202 0.040018074 -0.018997148 -0.04441127 0.042354442 0.020680368
-0.050098307 0.03156918 0.049397934 0.025383677 0.01397613 -0.017352499 0.016376456 0.044942092
-0.024475854 -0.02240508 0.039393563 0.037587047 0.03332455 0.016403401 0.015607324 -0.012869107
0.022558406 0.0228249 0.006665634 0.0027666 0.006768688 -0.02262628 -0.0026663006 0.004860657
-0.025593547 0.0380279 0.00079883204 0.031279292 -0.045198362 -0.034509104 0.031201338 0.010669689
0.041094087 -0.0021099937 -0.027415127 0.040673077 -0.04560071 0.011594565 -0.047601014 0.026343165
0.03922447 0.0025093972 -0.0058841314 -0.027212368 0.014844372 0.046177227 -0.053288158 -0.021128668
-0.023373332 -0.047702763 -0.014413365 0.025795741 0.0011472282 0.019735822 -0.019972848 -0.0033461067
00000000: 3a54 efbc ebb2 8d3b 421e 7d3c fc64 ebbc
00000010: 7f7a 06bd a473 dd3c 5821 4e3d 5435 173d
00000020: 773b f73c e04f ddbc 06f0 29bc 1835 98bc
00000030: f540 f13c 498a 90bc 4a72 11bd 3e14 e9bc
00000040: b89f 49bc ef17 033c e6dc 2cbd 07f2 13bd
00000050: 2f0a ddbc 73a4 02bd 45f7 333c 3dc6 3abc
00000060: a34d 393d 83d1 3bbc a3fd 173d 9da1 febc
00000070: 84a0 e33c 9bfe 2cbd 4672 01bc 0831 35ba
00000080: 6e24 8cbb 3eb6 3d3d 1658 363b fb14 a23c
00000090: 8c61 293d 7415 8bbc 06ea b63b 62e5 9ebc
000000a0: 90f1 043d 76e0 18bd eedc 0bbb 71fd 4bbd
000000b0: 6f73 4dbd a1ef 4a3d d8ac ce3c 810a 433d
000000c0: cc84 713d fe9c 59bc 891b 863c 1c66 06bc
000000d0: 64aa a3bb a31d f0bc bad0 ac3b 3cf8 f03c
000000e0: 1e11 36bb 59a3 f53a f8f9 1cbd 7209 453c
000000f0: d25d 30bd 4d8b 99bb dd38 dfbc a122 203d
00000100: 27a2 8a3c 1374 dd3c b721 37bc 115d 043d
00000110: 7d53 303d b56c 343d 864d 023c bf82 043d
00000120: e4e1 e33c 7ec9 d3bc a55d 55bc a928 863c
00000130: a509 20bd 90a0 0fbd ad43 9f3c 8a05 87bb
00000140: 22f4 8c3c e782 243c a999 6abd 86d1 48bd
00000150: dcfb 393d 2aab ff3c f2ab c4bc 934f f0bc
00000160: 81bc 873c d9ba 90bd e0e6 673d 30e0 473d
00000170: aaaf 843c 4b3e 903c 5499 833c 1f53 4b3d
00000180: 0780 c63c f8b6 463d 33e0 403c 20c1 cdbc
00000190: fdb0 f63c 5352 643d 460b 253c 3e9d ac3d
000001a0: de65 363d a645 d83b 4ec5 343d 03f7 4cba
000001b0: 4f8f e1bb 0e57 233d 9dde 93bb 4a5a 2f3d
000001c0: 20d4 fe3c 9110 f23c d876 fbbb 3f86 b1bb
000001d0: 4aa3 1dbd f31e 7b3c c285 debc 1063 78bb
000001e0: 9cd3 8dbc d6aa 183d 2d41 15bd 008f 9ebb
000001f0: 75e2 0f3d 8dde 083a 9b0c 18bd 29ab d9bb
00000200: b422 1dbc e944 0dbc fa7d 633c 7cde 0f3b
00000210: d64d d8ba e82b 863c 9966 e0bc 309d 28bd
00000220: a7b1 9a3c ebc0 38bd 438a c1bc 9bc1 e9bc
00000230: 823c 6f3c 66fd 2a3c fc0e bebc 5344 323d
00000240: 7d1c 413d e0f4 49bc 8a9f 253c 243a 05bd
00000250: e8e6 2fbc 61cd 28bd 0ff8 403d 4785 4b3c
00000260: bec1 0d3b be86 1e3d c11f 3dbd d84d 443c
00000270: 0cc8 213d 40e6 2b3d 36bb 963c 093f 03bd
00000280: b58c 92bc 2819 19bd 6b5f 2abd 5051 37bd
00000290: 850d dabc 7862 a63c f0bf 0fbd aa09 58bd
000002a0: d2d2 0bbd e543 ddbc 7148 11bd cd03 fa3c
000002b0: 32a5 bdbc b3c4 55bc 88f4 873c 78ae 02bd
000002c0: 0f18 81bc 091e 20bd d03d 6a3c b32e 20bd
000002d0: 3e0b bf3c c7db 313d 42f7 fe39 a304 323d
000002e0: 3d0f ee3c f9df a93c d26f 1cbd d471 e03c
000002f0: cfb7 3a3d 5ad3 20bd f78a 9cbc fbaa f3bc
00000300: 9234 133c 0e99 19bd 9a6f 58bc fee9 233d
00000310: e89f 9bbc 98e8 35bd da7b 2d3d e069 a93c
00000320: e233 4dbd af4e 013d 7d55 4a3d 6ef1 cf3c
00000330: 23fc 643c d426 8ebc eb27 863c 3315 383d
00000340: 9681 c8bc dc8a b7bc 255b 213d e0f4 193d
00000350: 537f 083d 6d60 863c ddb5 7f3c f2d8 52bc
00000360: 68cc b83c 49fb ba3c 646b da3b d94f 353b
00000370: dfcb dd3b c05a b9bc 1abd 2ebb 2546 9f3b
00000380: 8fa9 d1bc 25c3 1b3d b668 513a b71e 003d
00000390: eb21 39bd 6b59 0dbd f399 ff3c ebcf 2e3c
000003a0: 4652 283d d247 0abb b095 e0bc d098 263d
000003b0: cfc7 3abd 21f7 3d3c 48f9 42bd 9fcd d73c
000003c0: d6a9 203d b374 243b accf c0bb 79ec debc
000003d0: cf35 733c 5524 3d3d af44 5abd 0716 adbc
000003e0: 6e79 bfbc f963 43bd 0926 6cbc 9751 d33c
000003f0: 975e 963a 05ad a13c 199e a3bc 5b4a 5bbb

nonreduce2_1.bias f4 [16]
0.033403225 -0.021684002 0.0182176 0.0010380427 0.034029838 0.04957728 0.022582615 -0.0025265345
0.031123731 0.020399963 -0.0014764178 0.027025735 -0.032726858 -0.027434641 -0.026135912 0.02882396
00000000: d2d1 083d a6a2 b1bc 143d 953c ef0e 883a
00000010: df62 0b3d 8c11 4b3d 2dff b83c 3794 25bb
00000020: 32f7 fe3c d31d a73c 5c84 c1ba 1365 dd3c
00000030: 990c 06bd 9dbe e0bc fb1a d6bc 3a20 ec3c

nonreduce2_2.weight f4 [16, 16, 3, 3, 3]
-0.00025065523 0.044430614 0.060254894 0.010242931 -0.026361596 0.025252469 -0.05905329 -0.022324404
0.0312515 0.028530534 -0.02176564 0.048495267 0.03791281 0.009302486 0.061880596 -0.044818703
-0.023079753 0.00841029 0.024154603 -0.009607995 0.03394763 0.055823956 -0.00439858 0.066794686
-0.025930513 0.02650378 0.036323216 0.016305268 -0.033633415 -0.008717779 -0.04002349 -0.046709076
0.012609606 0.023299333 0.036352 0.045495212 0.046884403 -0.0073272125 -0.009998401 -0.029578319
-0.030632919 -0.019368261 0.024938403 0.014394543 -0.038345754 -0.019165212 0.013766047 -0.00036106576
-0.0050915238 -0.045701 0.018417163 -0.034654886 -0.021664618 0.0063739936 -0.036618806 0.0354235
-0.037783477 0.0068383426 0.037559923 -0.020330064 0.018002706 -0.038228102 -0.008200537 -0.02594336
-0.018412642 -0.042832986 -0.0011347348 0.047773972 0.016142754 0.039903734 0.026665522 0.002160626
0.009725369 -0.023639029 -0.038997486 -0.0068247113 0.025737602 0.046022292 -0.0053829206 -0.043050528
0.038211796 -0.041206222 -0.008208982 -0.029897321 -0.01995579 0.024795339 -0.02745726 -0.018866204
0.031301495 0.01946395 -0.030799424 0.00051007676 0.041493725 0.0037855266 -0.019578613 -0.01250889
0.016435841 0.0053720344 0.032958753 -0.03835897 0.022132434 -0.00079958426 0.0057862266 -0.019088179
0.0262831 -0.03363407 -0.003807381 0.006555714 -0.012646281 0.037519056 0.028852668 0.0045465664
0.034527965 0.029722117 -0.041929234 -0.043877896 -0.022997096 0.0014739218 -0.0067099333 0.04047931
-0.004455975 0.04626003 0.022912236 0.01490236 0.020907769 0.03693523 0.037151124 0.010499185
-0.025038896 0.0008916975 0.04997886 0.04080651 0.046155564 0.033800256 -0.034038406 0.05118208
-0.026095936 0.024276884 0.012201235 0.015280054 0.036907967 -0.015057298 -0.0005398695 -0.0012904183
-0.027492944 -0.039692182 0.049991783 0.024934934 -0.034896057 0.022167582 -0.049644273 0.03392056
-0.041235823 -0.021208264 0.015126689 0.021816636 0.016769996 -0.02596471 -0.00036071584 0.034963146
-0.032642495 0.015105304 0.046819247 -0.021260146 -0.050037198 0.04091529 0.109684214 0.077376604
0.08511858 0.027445761 0.009523831 0.06378045 0.006455006 -0.036590636 0.015957505 0.07969535
0.0058163195 0.025867417 0.069684334 0.02220328 0.029395305 0.05515738 0.03904627 0.044591203
0.06836899 0.02957617 0.028002838 0.054645114 0.016331948 0.060438376 -0.008312668 0.014498943
0.06217056 -0.0043663834 0.06088831 -0.0018226082 0.04280779 0.018723229 0.06568836 0.022410259
0.015446786 -0.013889628 -0.00556715 0.036636304 -0.033177007 0.060078748 0.02312025 0.03753336
-0.0066489056 -0.01804767 0.01668901 -0.014494014 0.024553098 0.031007193 0.032935657 0.034969307
0.059595436 0.02744709 0.019732049 0.05096138 -0.009510756 -0.010645947 0.023801122 -0.029126776
-0.014856852 -0.0109289745 -0.015356238 0.0019513568 0.0067979903 -0.027292715 -0.042162366 0.035787962
0.007943648 -0.013398903 0.029611176 -0.027723964 0.030649582 0.009530285 0.026435293 -0.020699566
-0.03465606 -0.040910263 0.0075361333 -0.038780086 0.02989657 -0.006570571 -0.008684029 0.019653236
-0.005280243 0.011522587 0.039409187 -0.012584975 0.033888116 0.008166533 -0.03419468 0.015723808
00000000: 606a 83b9 e0fc 353d d6cd 763d f7d1 273c
00000010: 46f4 d7bc 44de ce3c dde1 71bd abe1 b6bc
00000020: 9301 003d deb8 e93c db4d b2bc f9a2 463d
00000030: 764a 1b3d 7469 183c 8276 7d3d d193 37bd
00000040: c011 bdbc 50cb 093c e0df c53c da6a 1dbc
00000050: ac0c 0b3d a9a7 643d f721 90bb a7cb 883d
00000060: 3a6c d4bc 751e d93c a7c7 143d a092 853c
00000070: 31c3 09bd 04d5 0ebc acef 23bd 0452 3fbd
00000080: 8598 4e3c 3ede be3c d6e5 143d 3059 3a3d
00000090: dc09 403d 1d19 f0bb 55d0 23bc 3b4e f2bc
000000a0: e3f1 fabc 30aa 9ebc 9f4b cc3c 17d7 6b3c
000000b0: 7010 1dbd 5d00 9dbc fc8a 613c 6d4d bdb9
000000c0: ccd6 a6bb f930 3bbd 97df 963c 48f2 0dbd
000000d0: ff79 b1bc efdc d03b 9afd 15bd 3b18 113d
000000e0: d9c2 1abd 2d14 e03b 6fd8 193d 3c8b a6bc
000000f0: 697a 933c 1295 1cbd 8c5b 06bc 2b87 d4bc
00000100: 1cd6 96bc a471 2fbd 62bb 94ba a4ae 433d
00000110: cf3d 843c 1972 233d a771 da3c 4a99 0d3b
00000120: 2757 1f3c a3a6 c1bc d4bb 1fbd d4a1 dfbb
00000130: aad7 d23c df81 3c3d 3663 b0bb c055 30bd
00000140: f983 1c3d dbc7 28bd f77e 06bc 3aeb f4bc
00000150: 537a a3bc 981f cb3c 0cee e0bc 4c8d 9abc
00000160: ff35 003d dd72 9f3c 134f fcbc acb6 053a
00000170: 53f5 293d 9916 783b 5463 a0bc 16f2 4cbc
00000180: 75a4 863c e407 b03b c2ff 063d 4c1e 1dbd
00000190: 144f b53c 319b 51ba 639a bd3b d05e 9cbc
000001a0: a84f d73c e1c3 09bd 4185 79bb 51d1 d63b
000001b0: 5932 4fbc 95ad 193d 6e5c ec3c 5dfb 943b
000001c0: 326d 0d3d cc7b f33c fdbd 2bbd 4fb9 33bd
000001d0: 6864 bcbc 9c30 c13a 00df dbbb a2cd 253d
000001e0: 6d03 92bb 287b 3d3d 71b2 bb3c 0729 743c
000001f0: c546 ab3c 6549 173d c72b 183d c604 2c3c
00000200: 5f1e cdbc cec0 693a a2b6 4c3d ba24 273d
00000210: 9e0d 3d3d 2372 0a3d db6b 0bbd 4da4 513d
00000220: 25c7 d5bc 51e0 c63c b0e7 473c 3159 7a3c
00000230: cf2c 173d e3b2 76bc 0786 0dba 4123 a9ba
00000240: e238 e1bc 4594 22bd 2fc4 4c3d 5944 cc3c
00000250: 2bef 0ebd ca98 b53c cb57 4bbd 49f0 0a3d
00000260: e5e6 28bd f4bc adbc efd5 773c cdb8 b23c
00000270: 3b61 893c f2b3 d4bc 761e bdb9 8435 0f3d
00000280: 23b4 05bd 3d7c 773c 8ac5 3f3d c229 aebc
00000290: cef3 4cbd cb96 273d 1ea2 e03d a077 9e3d
000002a0: a652 ae3d efd5 e03c d809 1c3c 539f 823d
000002b0: 8484 d33b 10e0 15bd 50b9 823c 5137 a33d
000002c0: d396 be3b e8e7 d33c a9b6 8e3d a7e3 b53c
000002d0: 6cce f03c b4ec 613d fbee 1f3d 44a5 363d
000002e0: 0b05 8c3d b949 f23c 3566 e53c 8ed3 5f3d
000002f0: 94ca 853c 3b8e 773d db31 08bc fa8c 6d3c
00000300: 8fa6 7e3d e113 8fbb 0566 793d 95e4 eeba
00000310: 3957 2f3d 7561 993c 9e87 863d b895 b73c
00000320: 8414 7d3c 5391 63bc a46c b6bb f30f 163d
00000330: 9de4 07bd 2215 763d ae66 bd3c 95bc 193d
00000340: 10df d9bb b5d8 93bc 64b7 883c 4d78 6dbc
00000350: 9423 c93c cc02 fe3c 8ae7 063d fa3b 0f3d
00000360: 581a 743d b8d8 e03c 1ba5 a13c e1bc 503d
00000370: 00d3 1bbc 576c 2ebc 92fa c23c 479b eebc
00000380: 276a 73bc 710f 33bc bb98 7bbc abc4 ff3a
00000390: adc1 de3b f994 dfbc 72b2 2cbd 6696 123d
000003a0: 1326 023c 1387 5bbc 2393 f23c 5e1d e3bc
000003b0: d514 fb3c ea24 1c3c d48e d83c 2392 a9bc
000003c0: 83f3 0dbd 8591 27bd abf1 f63b ded7 1ebd
000003d0: a7e9 f43c f24d d7bb 7547 0ebc d3ff a03c
000003e0: e305 adbb 3cc9 3c3c 876b 213d 3631 4ebc
000003f0: 44ce 0a3d eccc 053c b90f 0cbd 37cf 803c

nonreduce2_2.bias f4 [16]
0.021098936 -0.012590993 -0.028197613 0.00046415368 0.05102556 0.030406993 0.0049519707 -0.0336352
0.019813715 0.017993031 0.027106103 0.007416014 -0.027320668 -0.009446126 0.040791243 -0.016547557
00000000: add7 ac3c 744a 4ebc aefe e6bc a759 f339
00000010: 2d00 513d 1618 f93c 2444 a23b 10c5 09bd
00000020: 5f50 a23c 1f66 933c 9e0d de3c 0902 f33b
00000030: 98cf dfbc edc3 1abc b814 273d be8e 87bc
