02_deep3D/model/model_iw.pt (torch, 750886 bytes, 25 tensors)

reduce1.weight f4 [64, 1, 4, 4, 4]
000000 0a b0 d0 bd a2 a9 7c bd b8 9e e8 bd a7 1a d4 bd
       -0.10189827 -0.061685212 -0.11358398 -0.10356646
000010 15 43 1e be e9 5c 4f 3c 6d dc aa bd 01 ed d8 3d
       -0.15455277 0.012656429 -0.08342824 0.1059208
000020 5a ad 92 bd 37 ed de bd de 68 ac bd a5 1a ae 3b
       -0.071619704 -0.10885089 -0.08418439 0.005313235
000030 7e 8e 13 bd 76 24 b0 bd 8d 76 33 bd 71 4f a1 3d
       -0.036024563 -0.08600704 -0.04381423 0.0787648
000040 23 44 28 3d fc cb e0 bc 52 72 a7 bd 30 89 68 bc
       0.041080605 -0.027441017 -0.08176102 -0.014192864
000050 cf 55 b8 bd 7c 68 03 3d 39 52 f4 3d 80 56 cf 3c
       -0.09000742 0.032082066 0.11929745 0.025309801
000060 7d d4 a0 bd 2c f2 9a 3d d4 66 fe 3d f6 ac eb bd
       -0.07853029 0.07565722 0.12421957 -0.11507599
000070 33 42 e6 bd fd fb 57 3d 0c 62 a0 3d 24 a3 e6 bd
       -0.11243095 0.05273055 0.07831201 -0.11261585
000080 e5 b6 b0 bd 47 61 42 3d 65 64 3a 3d ac db f1 bd
       -0.08628634 0.047456052 0.0455059 -0.11809477
000090 59 69 f0 3b b4 0a d5 3d 31 49 b4 3c 06 47 05 3d
       0.007336777 0.10402432 0.022007557 0.032538436
0000a0 e7 8a 91 bd d9 4e a9 bd 80 83 83 bc 01 5a b2 3d
       -0.07106572 -0.08266992 -0.016053915 0.08708573
0000b0 f9 be 2d bd d6 0a ae bd 7b 5e 87 bd 0d e6 4b bd
       -0.042418454 -0.084981605 -0.066098176 -0.04977994
0000c0 9f 64 0b 3d 5c eb 69 bd 7a 76 80 bd 54 f9 13 bd
       0.034031507 -0.05710922 -0.062725976 -0.03612645
0000d0 25 c4 8a bd 31 18 93 bd d2 4b 27 3d 25 03 92 3d
       -0.06775693 -0.071823485 0.040843792 0.07129506
0000e0 39 2c 86 3d ed fe 47 3d 0c 9a cd 3d 21 48 92 3c
       0.065514036 0.0488271 0.10039148 0.01785666
0000f0 55 f8 72 bd 64 ee 7c 3c 52 a4 f0 3d fa d8 ca 3c
       -0.05931886 0.015437696 0.117500916 0.024761666
000100 f9 3b 29 3c d6 ec ef 3b 79 29 3a 3d 60 60 f2 bd
       0.01032924 0.007321934 0.045449708 -0.11834788
000110 b5 22 93 bb 0c 99 f0 3d 57 56 43 bb a4 1e dd 3d
       -0.0044902214 0.117479414 -0.0029806101 0.1079686
000120 7c d4 85 ba 59 44 ab bd a4 d4 93 bd 2d f0 99 bd
       -0.001021042 -0.08362646 -0.07218292 -0.07516513
000130 ef 8f cc 3d 45 d8 90 bd 7e a5 bd 3d 86 c3 cb bd
       0.09988391 -0.070725 0.09260081 -0.099494025
000140 e5 c8 61 bd 64 f2 5f 3d e3 75 38 3c 75 08 c7 3d
       -0.05512323 0.05467452 0.011258575 0.0971841
000150 9b 1e 6d 3d 8a 84 80 bc 9a f6 83 bd 2e e2 8c 3d
       0.057890516 -0.0156882 -0.0644352 0.06879078
000160 30 28 dc 3d 20 8a 9a ba 18 da 41 bc 0b 5d f4 bd
       0.10749853 -0.0011790432 -0.011831783 -0.11931809
000170 63 7f bc bd 80 7b f3 bd 4d b0 ec 3d 18 fd 16 3c
       -0.092039846 -0.1188879 0.11557064 0.009215616
000180 ba 6b 77 bd b1 ea 3c bc d3 81 fd 3d a2 85 3a bd
       -0.06040547 -0.011530564 0.12378278 -0.0455376
000190 d4 83 86 3d 4f b3 ce bd a8 59 88 bd a0 fe 89 3d
       0.06568113 -0.10092794 -0.066577256 0.06738019
0001a0 d9 18 c5 3d 03 ae e4 3d 75 53 12 3d 41 6a 3a 3d
       0.0962388 0.111660026 0.035724122 0.045511488
0001b0 df 2b c2 3d 29 81 8b bc ab 28 6a bd 69 1f 4b 3d
       0.09481024 -0.017029362 -0.05716769 0.049590502
0001c0 92 6b 37 bd 30 a4 b5 3c c4 57 aa bd e4 fa 7f 3d
       -0.04478032 0.022173017 -0.08317521 0.062495127
0001d0 de 74 92 bd 9e 8e d7 bd b4 e4 20 bd 29 78 2a bd
       -0.07151197 -0.10525249 -0.03928061 -0.0416185
0001e0 7c e4 ac 3d e8 16 a0 3d 0c a8 c4 bc ab 79 9d bd
       0.084420174 0.07816869 -0.024005912 -0.07689222
0001f0 4b 47 9d bd 99 8c 73 bc 53 12 bc 3d bb 08 f9 bd
       -0.07679614 -0.014865064 0.091831826 -0.12159868
000200 44 c1 0d bd 9f c1 81 3d f9 4e 9c 3d 4c 8d d1 bd
       -0.03460814 0.063357584 0.0763225 -0.10232028
000210 c5 39 d8 3c c7 e9 1f bd 3f 3a b0 bd 2a 31 50 3d
       0.026394734 -0.039041307 -0.086048596 0.050828137
000220 b9 de 90 3d a2 da e1 bd 14 13 92 3d 41 ba 9d 3d
       0.07073731 -0.11028029 0.07132545 0.07701541
000230 fe 53 78 3d ae 53 e7 bd ae 76 6d bd c6 9c 8e bd
       0.060626976 -0.112952575 -0.05797451 -0.06963496
000240 2b 2e bd bc 44 87 9f bc 09 87 95 bd 8e 9a 9e 3c
       -0.023093304 -0.01947368 -0.073011465 0.019360807
000250 85 4f d7 bd 6d 22 2d bd c6 f4 92 bd 38 15 27 3c
       -0.10513214 -0.04226916 -0.07175593 0.01019793
000260 25 23 f4 3a d9 85 da 3d 58 9d ad 3c ba 85 8c 3d
       0.0018626197 0.10670061 0.021193191 0.06861444
000270 fa d5 ed bd 58 ce 8d bd 6e dd 5b bd 1a 97 d1 bd
       -0.116130784 -0.069241226 -0.05367797 -0.102338985
000280 cf 70 d4 3d 83 ff aa bd b6 95 6d 3c c0 72 f3 3d
       0.10373079 -0.08349516 0.014501026 0.11887121
000290 ae 54 9d 3d 61 90 dc bb 3a 93 38 bc 2f 53 49 3d
       0.07682167 -0.0067310785 -0.01126557 0.049151596
0002a0 06 5a 68 bd 2a 59 5b bd c5 54 cc bd 41 ce e1 bd
       -0.056726478 -0.05355183 -0.09977106 -0.11025668
0002b0 9f 7b 88 bd 16 43 22 bc f9 2a 99 bd 0a 9a 09 bd
       -0.06664204 -0.00990369 -0.074788995 -0.03359417
0002c0 10 bf cf bc be 01 8d 3d c8 92 d8 3d d9 92 af 3d
       -0.02535966 0.06885098 0.10574871 0.08572931
0002d0 b9 6a 29 bd bb a7 d7 ba 77 c4 d6 bc dc b1 f8 ba
       -0.041361544 -0.0016453186 -0.026216729 -0.0018973905
0002e0 d9 b8 e0 3d ff ce 87 bd 0d a0 10 bc 98 b4 08 3d
       0.10972757 -0.06631278 -0.008827222 0.033375353
0002f0 8b 28 8c 3c 94 d3 c2 bd 62 51 3f 3c 4d ac b6 bd
       0.017109176 -0.095130116 0.011677118 -0.089195825
000300 4e 9e 45 bd 47 92 85 3d 45 4a 42 3d e2 c6 bc bc
       -0.048246674 0.06522041 0.04743411 -0.023044053
000310 cf 6c 9f 3d 4a a7 bd bd 6c e3 ab bd 0a 49 59 ba
       0.077844255 -0.092604235 -0.08392987 -0.0008288777
000320 14 45 a8 bc d5 96 fd 3d a4 75 da 3d f0 6c 29 3c
       -0.020540752 0.123822846 0.106669694 0.010340914
000330 8f ea ae bd 29 ee ea 3c 4d c5 f6 3d 6e 52 dc 3c
       -0.08540832 0.028678017 0.12049351 0.026894774
000340 2e df 63 bb 78 9b e6 bd bc 4d 03 bd 18 b7 b5 3d
       -0.0034770477 -0.11260122 -0.032056555 0.08872813
000350 af b4 e1 3d 6e 61 fc bc 21 90 95 3d 3e e3 6e 3d
       0.11020791 -0.030808177 0.07302881 0.058322184
000360 2a 1e c7 3d 5b 5e 3e 3d 1c 95 c5 bd 3f a9 da 3d
       0.0972255 0.046476703 -0.09647581 0.106768124
000370 2e 50 ac 3c 30 c6 c5 bd e9 f5 31 bc 21 8f 7f 3c
       0.021034326 -0.09656942 -0.010861852 0.015598089
000380 c2 4a 47 3d b5 5a d5 39 a9 7b f3 bd 9e 43 f1 bd
       0.04865528 0.00040694108 -0.11888821 -0.11780475
000390 cc f0 07 3e a6 8b 36 3d b0 10 f0 bd 03 bd 8e bd
       0.1327545 0.044566773 -0.11721933 -0.06969645
0003a0 d3 a6 09 3d e4 aa d2 bd bc c2 c2 bc a9 57 7f 3d
       0.03360636 -0.10286501 -0.023774497 0.06233946
0003b0 60 2d d6 bd de ba 4d bd 01 ab e8 bc 8d 72 3a 3d
       -0.10457873 -0.05022704 -0.028401854 0.0455194
0003c0 26 d6 23 bc c8 94 71 3b 40 8a d8 3d 8c 2e c2 bb
       -0.009999787 0.0036862362 0.10573244 -0.005925959
0003d0 67 6c 03 3d eb 11 c0 bd 8b 03 74 bd 76 ee 63 3d
       0.032085802 -0.093784176 -0.05957369 0.055647336
0003e0 9d 8b 4b 3b de 74 a6 bd 89 22 ff bd bc 4d 64 bd
       0.0031058558 -0.081277594 -0.12457759 -0.055738196
0003f0 98 ce e5 bc b5 75 d8 3c b7 98 2a 3d 78 a9 87 bb
       -0.028052613 0.026423315 0.041649546 -0.0041400753

reduce1.bias f4 [64]
000000 62 9d 56 bd 6a ba a7 bd 43 6e c0 3d 11 d7 73 bc
       -0.052396186 -0.081898525 0.09396031 -0.014882819
000010 df 9e 3b 3d d1 29 11 bd a3 1f e5 bd c1 57 f9 bc
       0.04580581 -0.03544027 -0.11187675 -0.030437352
000020 1a 43 9a 3d 0b 8f fa bd de c9 81 b9 bd 52 c4 bd
       0.0753233 -0.122343145 -0.000247552 -0.095860936
000030 aa 27 29 3d cf 5b f1 bd a3 7b 94 bd af d6 7a 3d
       0.041297592 -0.11785089 -0.07250144 0.061239894
000040 af 9b 2d bd 0d c1 f8 3d a1 fc 10 3d 51 2c 92 bd
       -0.0423848 0.121461965 0.035397176 -0.07137359
000050 06 af c3 bc 53 ba 8d bc 60 09 b0 3d f3 36 21 bd
       -0.023887169 -0.01730076 0.08595538 -0.039359044
000060 e7 4c 1d bd a9 36 c7 3d cc 5a 7a bd 2c bb fb 3d
       -0.038403418 0.097272225 -0.061121747 0.122915596
000070 a6 d3 a5 3c 06 fa 20 3d 14 38 0e 3d 31 90 b9 b9
       0.020242523 0.03930094 0.03472145 -0.0003539338
000080 f5 f2 c2 bd 29 33 1d 3d ef 11 0a bd b1 a7 8d bd
       -0.095189966 0.03837887 -0.03370851 -0.0691675
000090 9d 07 d2 bd 57 0d e0 3d de 92 ed 3d a1 03 08 bd
       -0.10255358 0.109400444 0.11600278 -0.033206586
0000a0 b9 1a d0 bc 5f 3c ea 3d 51 7d ef 3d a0 3d e0 3d
       -0.025403367 0.11437296 0.11693824 0.10949254
0000b0 e9 75 b2 3d 6b 2e d2 3c 72 04 3f 3b f6 66 bd 3d
       0.08713896 0.0256569 0.0029146937 0.09248154
0000c0 e5 be d4 3c d7 32 a9 bc 50 27 5b bd e6 3c 69 b9
       0.025969932 -0.020654125 -0.05350429 -0.00022243298
0000d0 f1 2d 60 3d a9 03 a2 bd a6 21 90 3d 90 d0 dc 3d
       0.054731313 -0.07910854 0.07037668 0.10781968
0000e0 c5 46 f1 3d 08 57 36 3d 25 4c 35 bb 38 48 8b 3d
       0.11781076 0.044516593 -0.0027663794 0.06800884
0000f0 f5 96 92 bd 19 7b 0a 3d 05 97 0b 3d 23 48 71 3c
       -0.07157699 0.0338088 0.03407957 0.014726671

nonreduce1_1.weight f4 [32, 64, 3, 3, 3]
000000 ee c2 34 3b 87 e7 33 3c a8 3b 25 bc 77 94 41 3c
       0.0027582007 0.010980493 -0.010085024 0.011815182
000010 13 95 8a bb 6d 9b 96 bc f0 62 de bb ff 0f 56 3c
       -0.004229197 -0.01838466 -0.0067866966 0.013065337
000020 e0 f0 5f bc d8 be 43 bc 91 19 42 3c c5 20 7e 3c
       -0.013668269 -0.011947356 0.011846916 0.015510743
000030 24 c9 14 3b a7 98 79 bc 0f 71 70 bc 68 58 99 3b
       0.0022702897 -0.015234149 -0.014675393 0.0046797283
000040 8a d9 87 3b 2d 0a c5 3a be 4c 53 bc ed b8 99 3c
       0.0041458057 0.001503294 -0.012896715 0.018764937
000050 20 a2 a8 bc 6e f2 b8 bc 6b 9b 5b bc dd 6f 43 3c
       -0.02058512 -0.022576537 -0.013403754 0.011928526
000060 59 36 ac 3c 39 c4 22 bb 13 07 b9 bc ee 39 f0 bb
       0.021022009 -0.0024836196 -0.022586381 -0.0073311245
000070 3f a0 b6 3c e1 cd 3f bc f4 62 41 bc eb a9 3d bb
       0.022293208 -0.0117068 -0.011803377 -0.002894039
000080 19 0d c6 3b b9 dc 85 3b 45 8f 9e 3c c1 e0 eb 3b
       0.006044042 0.00408515 0.019355426 0.0071984236
000090 71 e8 af bc 99 97 68 bc 75 cd 92 bc 19 d7 1c 3c
       -0.021473141 -0.0141963 -0.017920235 0.009572768
0000a0 c3 e8 e6 3b d5 6a c7 3a dc 68 58 3c a0 d2 1f 3c
       0.0070467903 0.0015214334 0.013208594 0.009754807
0000b0 70 16 9e bc 22 77 35 3b 21 dd 65 3c bc 0b 9d 3c
       -0.019297808 0.0027689417 0.014029772 0.019170634
0000c0 bd 1c 9b bc 92 2e 0c 3c fb 6f be bb ed 09 45 bc
       -0.018934602 0.008556025 -0.005811689 -0.012026292
0000d0 90 48 a7 3c a1 15 3d bc 0f fa 85 3c 4c a3 77 bb
       0.020420343 -0.011540801 0.016354589 -0.0037786542
0000e0 de 72 40 ba de 14 27 3c 1d c1 1d bc 8a 65 a8 bc
       -0.00073413353 0.010197846 -0.009628561 -0.02055623
0000f0 73 1e 0e 3c a2 fd c2 bc 29 b0 83 3c 60 eb b0 bc
       0.008674252 -0.023802582 0.01607521 -0.02159661
000100 52 8d e0 bb 24 fc 20 3c 74 38 59 3c e0 9c 57 3a
       -0.006852784 0.00982574 0.013258088 0.00082249753
000110 14 38 44 bc b6 b1 d0 bc 06 b2 d3 bb 10 42 92 bc
       -0.011976261 -0.025475364 -0.006460431 -0.017853767
000120 85 e3 43 bc ea 27 6c bc 79 d1 28 bc c1 ff 88 bc
       -0.0119561 -0.014413813 -0.010303848 -0.016723515
000130 91 f2 6a 3b a8 e0 ae 3b b9 c8 c2 bc 27 f0 3a b9
       0.0035850147 0.0053368397 -0.023777353 -0.00017827806
000140 d4 0d 98 bc 3b cd 44 3c 0b 22 9f bc db ae 57 ba
       -0.018561281 0.012011821 -0.019425413 -0.00082276546
000150 00 e8 9d bc f8 0f 06 bc ae 90 e4 3b 07 ba ff bb
       -0.019275665 -0.008182518 0.006975255 -0.0078041586
000160 26 83 45 3c 09 92 2a bb 0a e2 b1 3c b9 af 7d bc
       0.012055194 -0.0026026985 0.02171423 -0.01548379
000170 16 3f e2 bb ee c6 2b b8 de df 85 bc ee f8 67 bc
       -0.006904493 -4.0954845e-05 -0.0163421 -0.014158471
000180 4c ba 24 3c f2 02 42 bb c9 16 df bb e0 f8 2e 3c
       0.010054182 -0.0029603806 -0.006808136 0.010679454
000190 5b 1f 58 bc 5a d3 8a 3c 4d 17 6c bc 54 cd 7a bc
       -0.0131910695 0.016946483 -0.014409852 -0.015307743
0001a0 82 a7 43 39 4f 95 b8 bc f7 69 1f ba c0 44 9d 3c
       0.0001865905 -0.022532133 -0.00060811586 0.019197822
0001b0 86 ad 60 3b 58 56 66 bc 0d 08 4a bc a5 8c 1b bc
       0.0034283116 -0.014058672 -0.012331021 -0.0094939815
0001c0 0e 2a 16 3c ee e4 17 3b 40 33 ef 3b 97 b2 9f 3c
       0.0091653 0.0023177224 0.0072998106 0.019494338
0001d0 0b 94 bf bb d2 28 cd 3c 7a 18 c9 bc 13 18 a2 bc
       -0.0058465055 0.025043879 -0.024547804 -0.01978687
0001e0 71 ec d1 ba 3b 0c 01 bc e4 af 1d 3b 9f a5 1a 3a
       -0.00160159 -0.007876451 0.0024061138 0.0005899313
0001f0 7e 92 56 bc d8 fd b3 bc 8e fd b3 3c 7c 02 1e bc
       -0.01309645 -0.021971628 0.02197149 -0.009644147
000200 b1 21 97 bc 19 6d 43 bc 6e d2 19 3c 86 aa 19 3c
       -0.018448683 -0.011927866 0.009388549 0.009379035
000210 df 0e fa 3b ee 20 8d bb 0e 24 72 3c cd 46 b8 bc
       0.0076311673 -0.004306904 0.014779104 -0.022494698
000220 c9 b6 a6 3b 1f 5d ae bc 16 b0 5b 3c 87 d7 10 bc
       0.0050877077 -0.021284638 0.013408681 -0.008840448
000230 b8 16 18 3b 4a 21 29 3c b1 85 23 bc fd 73 8e bc
       0.00232069 0.010322878 -0.009980605 -0.017389292
000240 47 1e 3d 3c 92 ac 8c bc fb a7 95 bb 98 19 95 bc
       0.011542863 -0.017172132 -0.004567144 -0.01820068
000250 f0 36 44 bc 6f a8 6c 3b 6c d7 56 bc 89 60 ad bb
       -0.011975989 0.0036111136 -0.013112884 -0.005291049
000260 3b c0 21 bc 1c f8 45 bc 2c 67 25 3c bc a2 96 39
       -0.0098724915 -0.01208308 0.010095399 0.00028731476
000270 b7 89 57 bc 40 9a 83 bc c1 85 0a 3b e4 75 81 bc
       -0.013155392 -0.016064763 0.0021136852 -0.015803285
000280 ea af 98 3b 26 71 57 ba 5a 93 16 3c ae 8c 49 bc
       0.0046596425 -0.00082184596 0.009190405 -0.012301607
000290 79 f1 c1 3c 2f 73 51 bc 41 65 aa 3c 8f 66 4c bc
       0.023674713 -0.01278381 0.020800235 -0.012475624
0002a0 bd 9a a4 3c 3f c8 91 bc 49 f9 93 bc 3d 6e 88 3c
       0.020093316 -0.01779568 -0.018063204 0.016654128
0002b0 f6 c2 c1 bc ee d8 d0 bb 74 e5 ad bc ee e5 7d 3c
       -0.023652535 -0.0063735163 -0.021227576 0.015496714
0002c0 d5 16 c6 ba 3d f8 1b 3c 83 b2 0e bc bd 20 aa b9
       -0.0015113006 0.009519634 -0.008709553 -0.0003244932
0002d0 b7 92 0e bc b8 fc 93 3b a5 ef ae bc b9 ec a7 3b
       -0.008701972 0.0045162104 -0.021354506 0.005124655
0002e0 5f 63 83 bc 65 63 f3 3a 1b 6c c0 3c 37 c4 93 bb
       -0.016038595 0.0018569051 0.023489049 -0.0045094746
0002f0 1a f6 2c bc 45 bb e0 3b 82 7a c6 bb e4 37 4d 3b
       -0.010556722 0.006858262 -0.0060570845 0.003131383
000300 7f ba ba bc 8f a8 82 3c 11 a7 42 3b b4 7c 9b 3c
       -0.022794006 0.015949516 0.002970163 0.018980362
000310 db 5b c7 bb cc c2 6d 3c 33 c5 ed bb 4b 10 a4 3c
       -0.006083948 0.014511775 -0.007256174 0.0200273
000320 21 56 51 bc 21 5e 43 3c 81 9a fc bb 30 2b a3 3b
       -0.012776882 0.011924298 -0.007708848 0.0049795136
000330 e9 25 a0 3c e9 98 85 bc 31 13 61 3b 7d cb af bb
       0.019549327 -0.016308265 0.0034343714 -0.005364834
000340 ef 34 e7 3b 8d eb c7 3b e2 2c 10 3b 4b b3 8a 3c
       0.0070558707 0.006101078 0.0021999408 0.016931197
000350 54 86 a4 3c 64 1e 0f ba 26 84 93 bb c9 1a 89 39
       0.020083584 -0.00054595456 -0.0045018373 0.00026150633
000360 ec 48 e8 3b 10 fe 20 bc d6 cc 80 3c b5 96 d4 bc
       0.007088771 -0.009826198 0.015722673 -0.025950769
000370 6b b0 b6 3b 3d 8c 68 bc 46 6b af 3c d9 47 c2 bc
       0.00557523 -0.014193592 0.021413457 -0.0237159
000380 fc dc d0 ba 7b 77 41 bc a7 c3 0b 3c 8f ac 57 3c
       -0.0015934999 -0.0118082715 0.008530534 0.0131637
000390 63 3b aa 3b f0 5c b2 b8 e9 58 8d bc 70 ee fc 3b
       0.0051950677 -8.5050124e-05 -0.01725431 0.0077188537
0003a0 7b 06 3a 3c c0 51 4c 3b 70 1a d0 bc 4e 73 a0 bc
       0.011354084 0.0031176656 -0.025403231 -0.019586232
0003b0 20 0e 68 bb 2a 1d 9c 3c 48 f3 83 3c 3f 4c 85 3a
       -0.003540881 0.019056875 0.016107216 0.0010169818
0003c0 0c 6e dc bb 48 70 90 3c 33 c1 56 3c 32 5c 91 bc
       -0.006726986 0.017631665 0.013107586 -0.017744157
0003d0 5c 6f 5d 3c 13 b2 23 bc 34 0b 9f bb ee f1 ad bc
       0.01351532 -0.009991187 -0.0048536304 -0.021233525
0003e0 30 65 79 bc 85 71 0d 3c ae e2 75 3a 05 b2 d4 3b
       -0.015221879 0.008633022 0.0009379786 0.006490948
0003f0 f3 9f 84 3b b7 0a 9e 3b 2e 48 a9 bc 55 84 70 bc
       0.0040473877 0.0048230547 -0.0206643 -0.014679988

nonreduce1_1.bias f4 [32]
000000 95 95 08 bc ec 4e a2 bc 15 01 89 3c 5d 6b 05 3c
       -0.008336444 -0.019813024 0.016724149 0.008143273
000010 24 73 f8 3b 7a 83 0f 3c 74 d1 88 3a 03 66 aa bc
       0.007582085 0.008759374 0.0010438398 -0.020800596
000020 a3 bc ae 3c 99 52 0e 3c f8 56 80 3c 18 92 e3 bb
       0.021330183 0.008686685 0.01566647 -0.006944906
000030 0b d1 9a 3c 1d ae 9d 3c 95 4a d7 3c 5c 1e 08 3c
       0.018898508 0.019248063 0.02628068 0.0083080195
000040 76 ff 4f bc dd 6a 6e bc e8 db 43 3c 03 34 cc 3b
       -0.012695184 -0.014551845 0.011954285 0.006231786
000050 59 1b 83 bb 76 cb 34 bc 5a 5b 7d 3c 23 79 e6 bb
       -0.004001063 -0.011034837 0.015463674 -0.0070334836
000060 d5 d7 a9 bc 40 fe 06 3a b2 e1 00 3b df 18 4a 3c
       -0.0207328 0.00051495805 0.0019665775 0.012335031
000070 6f cd 4e bc 7e 65 97 3c 9b 74 6b bc 29 85 cb bb
       -0.012622221 0.018481012 -0.014371063 -0.0062109423

nonreduce1_2.weight f4 [32, 32, 3, 3, 3]
000000 ef 3d da bc 7e c5 a1 3c b3 ee 9a bc 27 57 63 3c
       -0.02664086 0.019747492 -0.018912649 0.013875759
000010 7b 36 ce bc b1 86 48 3c 00 a7 f9 bc 4f fa 36 3c
       -0.025172463 0.012239144 -0.03047514 0.011168077
000020 e6 14 0f 3d 89 49 c1 bb f2 15 b9 3c bf d4 f8 ba
       0.03493204 -0.0058986587 0.022593472 -0.0018984302
000030 37 fe 04 3d dd 0b 09 bc 07 aa e5 bc 71 93 44 3c
       0.032469 -0.008364645 -0.028035177 0.011998043
000040 54 ad a6 3c a7 24 bd 3c b6 4b be 3c 07 8a 98 bc
       0.020346321 0.023088766 0.023229461 -0.018620504
000050 3a c0 4c bc d1 10 2e bc 4d 31 03 3b 88 fc 90 bc
       -0.012497002 -0.0106241265 0.00200184 -0.017698541
000060 7b a2 86 3c 86 d6 46 3c c5 ee ba bc 18 56 ca bc
       0.016434899 0.012136107 -0.022818932 -0.024699256
000070 4d 3c f5 bc d8 21 99 3c 2c 53 20 3c a3 1a d7 bb
       -0.02993598 0.018692896 0.009785455 -0.0065644546
000080 9a c4 40 bc 92 66 8d bc dd ac b7 bc ac c4 c7 bb
       -0.011765623 -0.017260823 -0.022421295 -0.006096443
000090 1a 4c 84 bc d9 77 30 bc 11 76 ad 3c c6 09 b9 3c
       -0.01614957 -0.010770761 0.021174463 0.022587668
0000a0 42 d1 8a 3c 94 12 91 bc 7a 99 f4 bc f5 11 b6 3c
       0.016945485 -0.017709054 -0.02985834 0.02222536
0000b0 db a0 db 3b cf ea 04 bc 07 1a 34 bc 67 4f 99 bc
       0.006702525 -0.008112623 -0.0109925335 -0.01871462
0000c0 f6 4f f5 bc 2c fc 9b bb bc b2 7f bc 97 06 b0 bc
       -0.029945355 -0.004760286 -0.015606578 -0.021487517
0000d0 66 ce dc bc 07 39 ff bc 0d 97 61 3c 1c d6 6b bc
       -0.026953887 -0.031155122 0.0137689235 -0.014394309
0000e0 39 91 f4 3c d2 30 05 3d 2d c9 fd 3c b2 e9 c8 3c
       0.029854404 0.03251726 0.030979717 0.024525497
0000f0 ea 6d cf bc 1b f8 ed bb 36 c1 9d bc a8 86 0a 3d
       -0.025320966 -0.0072622425 -0.01925717 0.033819824
000100 28 01 f6 bc 8a b9 90 bc bc 80 0e bb f9 4a 9a 3c
       -0.030029848 -0.017666597 -0.0021744212 0.018834578
000110 d7 ac 31 bc c6 45 39 bb 38 07 d2 3a b2 33 f4 3c
       -0.010844431 -0.0028270348 0.001602388 0.029809806
000120 31 31 f3 3c ac b5 74 3c f6 6a aa 3b 8a d9 e3 bc
       0.029686542 0.014935892 0.005200739 -0.027813692
000130 79 cd dc 3c ce 21 72 3c 95 43 4d bc ad 64 32 bc
       0.026953446 0.0147785675 -0.01252832 -0.010888261
000140 66 a8 73 3b af 91 cb 3b f0 bc 2d bc 42 79 b8 3a
       0.003717923 0.006212435 -0.010604128 0.0014074224
000150 d2 35 5b 3c 2d fe e8 3c 18 fe 0a 3d 54 1b d3 ba
       0.013379531 0.028441513 0.03393373 -0.0016106167
000160 44 db c0 3c 9e 46 a2 bb 90 f7 f4 3c 38 c0 0a bd
       0.023542054 -0.004952266 0.029903203 -0.03387472
000170 bd 87 80 bc d7 c9 1d bc f7 e4 f8 3c 09 a3 69 3c
       -0.015689725 -0.009630642 0.030382616 0.014260062
000180 b3 ea c0 3c f3 f4 f7 bc 64 72 c5 3c 0e 67 a2 bc
       0.023549413 -0.030268168 0.024102397 -0.01982453
000190 65 ee 51 bc 5a c7 2e 3c 2b c3 fa 3c c4 cf a1 bc
       -0.012813185 0.010667646 0.030610641 -0.01975239
0001a0 c6 3b d0 3c fb 2e 89 bc 27 bb 87 3c da 07 06 3d
       0.025419127 -0.016746035 0.016568733 0.03272233
0001b0 2f fc 01 3d 87 d4 57 3b b8 97 8c 3c 58 39 87 3c
       0.03173464 0.0032933073 0.017162189 0.016506836
0001c0 fb ab d7 bc cc 51 0b 3d 25 b1 40 3b b5 ce d4 bc
       -0.026327124 0.034013554 0.0029402461 -0.025977472
0001d0 6d 60 d0 bc da 13 c6 3c 2c d2 24 3c e1 75 d5 3c
       -0.025436604 0.024179388 0.0100598745 0.026057186
0001e0 d0 ed 9e bc 33 3f 7d 3c 04 16 3c 3c c6 ee c8 3c
       -0.019400507 0.015456962 0.011479858 0.024527919
0001f0 de 50 7f 3c 86 c9 cd bc 71 a6 77 3b 1f 29 0d bd
       0.015583245 -0.025120508 0.0037788416 -0.034463044
000200 05 c6 ea bc cc 3b df bb a0 0f e9 3c ce 6a 00 bd
       -0.028658876 -0.0068125483 0.028449833 -0.031351857
000210 92 2a 12 bc 0f 06 69 bc aa 29 e9 3c 81 a3 84 3c
       -0.008921282 -0.014222636 0.02846225 0.016191246
000220 53 52 ef bb 7b cd dc bc 5d 19 2f bc 5a 64 cb bc
       -0.007303515 -0.02695345 -0.010687199 -0.024828125
000230 05 44 90 bc aa 4e 21 3c 65 d8 36 bc b8 b1 93 3a
       -0.01761056 0.009845415 -0.011159991 0.0011268174
000240 fc 38 8a 3c 55 f4 a4 bc a8 bf 64 bc d8 15 56 3c
       0.016872875 -0.020136038 -0.01396171 0.013066731
000250 22 e2 cc ba 0b 23 7d bc 7d 77 9b 3c 6d db 96 bc
       -0.0015631358 -0.015450249 0.018977875 -0.018415177
000260 86 e1 aa bc 46 7d 23 bb 59 b0 a1 ba be 9c 80 bb
       -0.020859491 -0.0024946495 -0.0012335881 -0.003924935
000270 c3 18 db 3c 71 70 0d bd 89 a8 06 3d f1 96 6a 3c
       0.026745206 -0.03453106 0.03287557 0.014318214
000280 d5 fe e2 3c 08 28 9f bc 41 ba ae 3c 0e ab f1 bb
       0.027709404 -0.019428268 0.021329047 -0.0073751276
000290 6e 0e 91 3a d9 03 9e 3c d1 66 d2 3c ee 39 84 bc
       0.0011066922 0.019288944 0.025683792 -0.016140904
0002a0 9c 93 f1 3c 20 ef c5 3c 4c 50 1b 3b 65 dd ec bc
       0.029489331 0.024161875 0.0023698984 -0.028914163
0002b0 da 06 04 bd 6c f9 f7 bc 5b 0e 88 3c 95 18 db 3c
       -0.032233097 -0.0302703 0.016608408 0.02674512
0002c0 b0 b4 59 bc 2a 91 39 3c ec df e4 bc fd ce 6a 3c
       -0.013287708 0.011326114 -0.027938806 0.014331576
0002d0 7b ea b2 bc 4c 3e 03 bc d9 13 57 3c 50 7b c8 3c
       -0.021840325 -0.008010458 0.013127291 0.024472862
0002e0 d2 f8 0e 3d 53 f3 54 bb 29 02 42 bc 27 28 b8 3c
       0.034905262 -0.0032493665 -0.011841335 0.022480084
0002f0 fb 3f eb bc db 08 f8 bc 89 36 d3 3c ef 40 bb bb
       -0.028717032 -0.03027766 0.02578284 -0.005714528
000300 b1 d2 0c 3b 96 6d 05 bd 3f 94 8a bc 96 86 8e bc
       0.0021487887 -0.032575212 -0.016916392 -0.01739816
000310 fe 51 7f bb dc 10 01 3d 3f dc 87 bc 26 f6 f9 3c
       -0.0038958783 0.03151022 -0.016584514 0.03051288
000320 e9 88 7e 3c c9 e7 d8 bc e0 13 0f bc b0 a9 f6 3c
       0.015535572 -0.026477711 -0.008732766 0.03011021
000330 00 32 33 bb ff c6 05 bd 9e 41 a2 3c 00 be 4d 3c
       -0.0027343035 -0.03266048 0.01980668 0.012557507
000340 1c 60 57 3c 09 f1 0d bd a0 f1 04 3d 17 7f fe 3c
       0.013145473 -0.034653697 0.032456994 0.03106646
000350 0f 0c 38 bb 11 90 8d 3b aa 1b 50 3c c2 65 88 3c
       -0.002808336 0.0043201526 0.012701908 0.016650084
000360 35 4a c6 3c 42 57 36 bb f1 87 a8 3c ae 4e d8 bc
       0.024205307 -0.0027823006 0.020572634 -0.026404705
000370 f0 31 1b 3c 6e 58 e1 3c be 19 8e 3b 15 4b 04 bd
       0.009472355 0.027507987 0.004336565 -0.032298166
000380 71 85 f2 3c fc ae 8b 3c db a1 2d bc a9 70 cd 3c
       0.029604645 0.017051212 -0.010597671 0.025078135
000390 16 aa f3 bc 65 a3 f8 3b 7c ba e6 bb 03 da 3f bc
       -0.02974419 0.0075878375 -0.0070412736 -0.011709693
0003a0 de da f6 3c 96 90 03 bd 71 17 00 3d 85 1d af 3b
       0.03013366 -0.03212031 0.031272355 0.005344095
0003b0 3a 00 38 bc 2c fc d5 bc 06 c9 a0 bc 27 ee c3 bc
       -0.011230523 -0.026121221 -0.019627105 -0.02391727
0003c0 ea 61 08 bc 73 40 3e 3b 91 12 07 bd 9f b9 d9 39
       -0.008324126 0.0029030114 -0.03297669 0.00041527764
0003d0 eb 03 83 bc a4 1f 3a 3c c0 91 d2 3c a6 52 6d bc
       -0.01599308 0.011360083 0.025704265 -0.014485037
0003e0 47 c6 71 bc db c2 9d bb 07 7f 38 bc 16 7c d0 bc
       -0.014756746 -0.0048144883 -0.011260754 -0.025449794
0003f0 58 ae c0 bc 37 e1 8b bc 06 78 cc bc e9 2b b5 3c
       -0.023520634 -0.017075164 -0.024959575 0.022115665

nonreduce1_2.bias f4 [32]
000000 94 ad 99 bb 75 1c 06 3d 59 94 54 3b df d6 71 3c
       -0.0046898816 0.032741982 0.0032437055 0.014760702
000010 78 21 9b bc 17 bf 53 bb f4 7b 4e 3b f1 71 11 3c
       -0.018936858 -0.0032309943 0.0031506987 0.008877263
000020 12 93 a4 3a 8c 44 e8 3b dd 0d 02 3d 22 cf 7c 3c
       0.0012556037 0.0070882495 0.031751502 0.015430244
000030 d3 d7 af bb a1 72 6d bc f3 07 98 bb 90 de d1 bc
       -0.0053663044 -0.014492662 -0.0046396195 -0.025618821
000040 bd 68 08 3d d9 f6 91 3c 2e ed 18 3c b5 57 1a bb
       0.03330301 0.017817901 0.009333892 -0.0023550813
000050 53 e5 b1 bc f5 f2 f7 bc 95 e9 3d bb e3 4f b0 bc
       -0.021715796 -0.030267218 -0.0028978337 -0.021522468
000060 ca 26 8b bc 4f 80 19 3c 8f b1 b7 bc 83 1d e9 3c
       -0.01698627 0.00936897 -0.022423534 0.028456455
000070 14 ac a3 bc ad cb f7 3c a8 99 38 3c 42 e3 07 bc
       -0.019979514 0.030248487 0.011267103 -0.008293929

nonreduce1_3.weight f4 [32, 32, 3, 3, 3]
000000 9f 29 ad 3c 9a e6 03 3d 86 bd e7 3c cf f5 10 3b
       0.02113801 0.03220234 0.028288614 0.002211917
000010 38 76 8e 3c 58 97 c3 bc 42 ba 95 bb 28 6d c0 bc
       0.017390355 -0.023875877 -0.004569323 -0.02348955
000020 40 0b 0d 3d 62 8b c7 bc f5 78 96 3c bf 04 12 3c
       0.034434557 -0.024358455 0.018368224 0.008912264
000030 c9 1a 0f bd ba 77 9d bb 18 af aa 3c 9e 8a a1 3c
       -0.034937654 -0.0048055323 0.020835444 0.019719418
000040 a5 45 06 3c 26 cc c8 3c bc 43 2d 3a ad b5 ad 3b
       0.0081953155 0.024511408 0.00066095195 0.0053011985
000050 8d 05 dd 3c 3e f2 80 3b 6d d0 c2 3c 72 b4 5d 3c
       0.026980186 0.0039351275 0.023781026 0.013531791
000060 20 af d1 3c 4e e4 9d bc 08 cb 1c ba 86 fc dd b9
       0.025596201 -0.019273903 -0.0005981182 -0.0004234055
000070 df 32 eb 3b 9b 7a 18 3d 08 d2 9c bb ce 8e 1b bc
       0.007177695 0.0372263 -0.00478578 -0.0094944965
000080 80 b1 2f 3c 5c 29 33 3d 61 ae 8f bb 8b de 65 bc
       0.010723472 0.043740615 -0.0043848013 -0.014030109
000090 33 b2 2a 3d 3f 97 be 3c 47 c2 dc 3c 65 f8 0b bc
       0.04167385 0.02326548 0.026948107 -0.008543109
0000a0 60 8b cd 3c 0a e8 18 bd 48 c7 3e 3d 90 13 56 bc
       0.025090873 -0.037330665 0.04657677 -0.0130661875
0000b0 d8 ab de b9 06 f7 d0 3c 15 3e a1 3a 17 44 26 bc
       -0.00042471173 0.025508415 0.0012301827 -0.01014807
0000c0 05 1e ca 38 8d 46 56 bc cb b4 d9 bc ca 22 a9 3c
       9.637702e-05 -0.013078344 -0.026575467 0.020646472
0000d0 84 e4 0b 3d 80 cb b1 3c 26 67 63 3c 5d 09 77 3c
       0.034153476 0.021703482 0.013879573 0.015077916
0000e0 8b f3 df ba 01 97 f4 bb 47 13 6c 3c 93 80 7c 3c
       -0.0017086131 -0.00746429 0.014408893 0.015411514
0000f0 c7 16 33 bb 76 56 f3 bc 2f ab be 3c 16 04 f6 bc
       -0.0027326809 -0.029704314 0.023274986 -0.030031245
000100 41 73 86 bc 6c 0e 95 bc f5 6d 2e 3c 0b 22 bb 3c
       -0.01641238 -0.018195353 0.010646333 0.022843381
000110 70 4c 29 bd c7 8f af bc b0 88 39 ba 7c 68 11 bd
       -0.041332662 -0.021430863 -0.0007077558 -0.035500035
000120 b9 63 b5 bc 1f 9a 83 bc eb 78 88 3b f5 f5 02 bd
       -0.022142278 -0.016064702 0.004164805 -0.031972844
000130 c3 93 b3 bc cd 24 f4 bc a4 25 0a bd 9e 6e 58 3b
       -0.021921044 -0.029802704 -0.033727303 0.0033024917
000140 4d 42 ed 3c 7f 96 c8 bc 7a f7 f8 bc 0f 06 a5 3c
       0.028962279 -0.024485825 -0.030391444 0.02014449
000150 98 97 d4 bb f9 9c 59 3c a6 ba 07 3d b3 9c 03 bb
       -0.006487798 0.013282054 0.033136986 -0.0020082414
000160 56 94 a6 3c c8 1b c7 3c 76 53 17 bc 9b 49 da 3c
       0.020334404 0.02430524 -0.009236207 0.026646426
000170 63 2e a4 bc dd 0a 8e bb 4b 06 0a 3c bd ef 80 bc
       -0.02004165 -0.004334791 0.008424352 -0.015739316
000180 86 e7 c1 bc 99 4f 07 3d a7 5e 91 bb eb b6 bb bb
       -0.02366997 0.033034895 -0.0044363323 -0.0057285926
000190 96 16 0f 3d 66 c3 87 bc fa ed 66 bc fe 39 72 3c
       0.03493365 -0.016572665 -0.014094824 0.014784334
0001a0 95 81 b4 bb 8a a5 5d bc d1 6b 47 bc f9 8e 12 3d
       -0.0055086114 -0.013528237 -0.0121717015 0.03578088
0001b0 d2 17 01 3d 89 3b f2 bb ec 5d 33 3c e5 56 81 3c
       0.031516857 -0.007392351 0.010947686 0.015788505
0001c0 8c 1e 84 bc f5 d2 b7 bc d3 71 7b 3c 82 67 0a bd
       -0.016127847 -0.02243946 0.015346962 -0.03379012
0001d0 f3 f5 12 ba 52 bf 12 3c 4a 47 12 bb b4 40 e6 3b
       -0.00056061073 0.008956747 -0.0022320324 0.007026756
0001e0 e4 d8 b8 3c 9e 0a 8a 3b 60 2b dc bc c8 6e 95 bc
       0.022564359 0.0042126914 -0.026876152 -0.018241301
0001f0 2c 05 f2 bc 02 66 b0 bb c1 b3 82 3c aa 7e d9 3c
       -0.029543482 -0.005383254 0.015954854 0.026549656
000200 36 98 1c bc 73 e0 05 3d e7 52 95 bc 49 b9 d4 bc
       -0.009557774 0.032684755 -0.018228007 -0.025967257
000210 fc 79 b6 3b 13 00 0b 3d 5a f8 b2 3c 73 fe 8f bc
       0.005568741 0.033935618 0.021846939 -0.017577386
000220 b2 e1 ce bc 84 b8 f3 b9 3e c9 bc 39 b8 43 3a bc
       -0.025254104 -0.00046486047 0.0003600809 -0.0113686845
000230 23 26 dc bc 30 e3 16 3a 6c ac 0c bc 26 53 d1 3c
       -0.026873654 0.00057558995 -0.00858603 0.025552344
000240 04 35 ac bc 29 3d ca 3c e6 40 58 bb b2 a7 b2 bb
       -0.021021374 0.024687367 -0.0032997667 -0.0054521197
000250 a7 7d b3 bc 20 1d 02 3d 77 b1 8f bc 16 b4 1c 3b
       -0.021910502 0.031766057 -0.017540677 0.002391105
000260 00 5d cc 3a 33 56 d8 bb e8 06 e0 3b b9 36 d1 bb
       0.0015591681 -0.0066020726 0.006836761 -0.0063846973
000270 3c 51 1a bc ba 6f e8 bc 59 c3 ca bb 57 65 f1 bc
       -0.009418782 -0.028373588 -0.006187838 -0.029467268
000280 c6 2b 06 3d 4b 36 10 3d 6e cf 6a bc bc 09 23 bb
       0.03275659 0.035208028 -0.014331682 -0.0024877628
000290 d5 3e 21 bc 34 65 77 3b 8e db 44 bc a5 04 ba bc
       -0.0098416405 0.003774953 -0.012015237 -0.022707293
0002a0 38 7e 4f 3b 86 ac c7 bc 85 f0 20 ba 31 bb 2d 3c
       0.0031660926 -0.024374258 -0.0006139356 0.010603712
0002b0 8b 15 66 3c 76 7a a0 bc 42 08 85 3c d1 81 de bb
       0.014043222 -0.019589644 0.01623929 -0.0067903777
0002c0 f3 72 18 3c 74 63 c7 3c fd fa 6b bb 9c 8c 38 bc
       0.00930475 0.024339415 -0.0036007755 -0.011263993
0002d0 51 70 a9 bc 30 3f d2 3c ee 0b cf bc 34 4b ec bb
       -0.02068344 0.025664896 -0.025274243 -0.0072111133
0002e0 02 03 e0 3c 90 72 3d bc af b5 b7 bc 71 92 00 bc
       0.027345184 -0.011562958 -0.0224255 -0.007847414
0002f0 86 cd af bb e3 64 da 3c 38 b1 dc 3c 21 38 c2 bc
       -0.0053650765 0.026659435 0.026939973 -0.023708405
000300 39 45 bf 3c b7 6e ff bb fe 5b 95 3c ba 5d 86 bc
       0.023348438 -0.0077951807 0.018232342 -0.016402114
000310 e2 8a 0a 3d 8f 52 de bc 46 e9 c8 bc 8f 99 89 3c
       0.033823855 -0.027138976 -0.024525296 0.016796855
000320 27 26 d7 3c c1 3b 9f bc c6 a6 d7 bc 6b 1a c2 3c
       0.02626331 -0.019437673 -0.026324641 0.023694238
000330 54 3c f9 bc bd b3 6b 3c c8 cd eb 3c a5 09 61 bc
       -0.030424275 0.014386115 0.028784648 -0.01373521
000340 ae 54 83 3c 51 47 f4 bc 5e 3b 52 bb f5 a1 2a bb
       0.01603159 -0.029819163 -0.0032078843 -0.0026036475
000350 97 e1 d9 bc bf 7b f8 3b 27 60 c8 3b 78 d9 f4 3c
       -0.026596827 0.007583111 0.006114978 0.029888853
000360 c3 37 4f bc a6 48 0a bd 8b 67 51 bc 2a a9 d3 bb
       -0.012647572 -0.03376069 -0.012781034 -0.006459375
000370 3f 94 dc bc 54 6b 86 bc 25 3f a0 bc 65 17 62 ba
       -0.026926158 -0.0164086 -0.01956136 -0.0008624702
000380 8b c5 bb bc d8 2b bb bc cd 6a 13 bc d7 da da bc
       -0.022921344 -0.022848055 -0.008997631 -0.02671568
000390 97 b7 e4 3c 07 9a e6 3b aa fd cd bc c1 43 09 bd
       0.027919574 0.0070374045 -0.02514537 -0.03351188
0003a0 6c 2a de bc 9f 19 68 3c ce c8 c5 bc 32 1a c7 3c
       -0.027119838 0.014166265 -0.024143603 0.024304483
0003b0 82 fa 1f bc 41 02 cd bc dd ed 90 bc 4b 04 e9 bc
       -0.009764316 -0.025025489 -0.017691547 -0.02844443
0003c0 4f 4c ed bb 57 b0 97 3a 70 22 1a 3d 1e 95 5e 3c
       -0.0072417627 0.0011572939 0.0376305 0.013585357
0003d0 99 60 2d bc 45 a3 fa 3c eb 3a 56 ba 57 44 56 bc
       -0.010582113 0.030595431 -0.00081722316 -0.013077817
0003e0 20 2b 82 3c 9a 97 51 3c e2 01 05 bc bc 50 25 bc
       0.015889704 0.012792492 -0.008118125 -0.010090049
0003f0 fe 73 dc 3c 58 b1 1f 3b cd f7 da 3c eb 98 bc 3c
       0.026910778 0.002436718 0.026729489 0.023022136

nonreduce1_3.bias f4 [32]
000000 5c b9 0a 3d 73 74 91 bb 89 62 4c bc fb 98 c2 bb
       0.03386818 -0.0044389307 -0.0124746645 -0.005938647
000010 9b eb aa bc 8a 95 f3 3c a0 01 f6 bc 1e ac 8f 3c
       -0.020864299 0.029734392 -0.030030072 0.017538127
000020 d6 d8 8d 3c ba bc 8e bc 30 1b 4f 3c d4 04 09 bd
       0.01731531 -0.017423976 0.012640759 -0.03345187
000030 c2 76 3e 3c 3c 85 15 3d 4f d2 4f 3c be a1 a2 bb
       0.011624994 0.036504015 0.012684419 -0.004963129
000040 50 e6 d1 bb f1 75 81 bc 7e c9 dd 3c c4 ea 70 3c
       -0.006405629 -0.01580331 0.027073618 0.01470441
000050 0f d7 7a 3c d9 be 10 39 53 ca 7a 3c 93 67 31 bc
       0.015310063 0.00013804006 0.015307027 -0.010827917
000060 58 6d 42 bc 46 88 ad 3c 97 34 a6 3c 80 e7 de ba
       -0.01186689 0.021183144 0.020288749 -0.0017006248
000070 4b 3a 94 bc 9a d4 fc 3c 22 61 1c 3c ad b7 c8 bc
       -0.018094203 0.030863095 0.009544643 -0.024501646

reduce2.weight f4 [16, 32, 4, 4, 4]
000000 57 4f a2 bc 7e 28 20 bc 1b 8a 40 bc d0 70 91 bb
       -0.019813223 -0.009775279 -0.011751677 -0.004438497
000010 4a 55 43 3c 12 6f 41 bc bb 9a c1 bc a4 a8 21 bc
       0.01192219 -0.011806266 -0.023633352 -0.009866867
000020 04 c5 a7 bc 3b d2 67 b9 7a 89 1c ba c7 83 40 3c
       -0.020479687 -0.00022108194 -0.00059714133 0.011750168
000030 12 41 d9 bb 2c 5d 7e 3c d0 f7 a2 bc bf 02 93 3c
       -0.0066300714 0.015525144 -0.019893557 0.017945645
000040 e9 b6 11 3c 4f c9 75 bc 1f 11 ec bc bf 3c e9 3a
       0.008893707 -0.015001609 -0.028816758 0.0017794593
000050 64 4b e8 bc db 98 a2 3b 96 f7 00 bd e1 b9 51 3c
       -0.028356262 0.0049620694 -0.031486116 0.012800665
000060 9b f1 7f 3c 55 49 5e 3c 6f f3 bc bb 1a a9 3e 3c
       0.015621568 0.013567288 -0.0057663242 0.011636997
000070 2b 57 9b 3a b5 01 86 bc 96 29 c3 bc 7c 80 02 bc
       0.001185154 -0.016358236 -0.02382354 -0.007965203
000080 70 d9 75 bb ff 39 27 3c f7 bf 1f 3c 5c 10 fc bc
       -0.0037513636 0.010206698 0.009750358 -0.03076952
000090 98 a3 2e bd 90 c0 8f bc b0 1f f5 bc 65 62 d5 bc
       -0.042636484 -0.017547876 -0.029922336 -0.026047895
0000a0 d8 f8 70 bc 3d a6 fc 3a 39 b5 7d bc 57 b9 23 3c
       -0.0147077665 0.0019275617 -0.015485101 0.009992919
0000b0 f5 42 f1 bb 42 67 c5 bc b8 21 a3 bc 63 98 af bc
       -0.007362718 -0.024097089 -0.01991354 -0.021434968
0000c0 42 21 01 bd 3e 29 95 bc 3d 3d 87 3b 0c 08 af bb
       -0.031525858 -0.018208142 0.004127173 -0.0053415354
0000d0 9a c5 16 bd 8b 4f aa 3b fb b5 7e bc 2e ba c9 bc
       -0.03680954 0.0051974705 -0.015546317 -0.02462491
0000e0 ca 6c 59 bc fc 45 24 3c d3 4f bc 3b f3 29 96 bc
       -0.013270566 0.010026451 0.0057468205 -0.01833055
0000f0 61 d9 b0 bb 9e 44 98 bc c0 56 a8 bc 34 dd 3e 3c
       -0.0053970073 -0.018587407 -0.020549178 0.011649419
000100 2f 29 3b 3c 67 a4 21 3c a6 20 94 bc 50 6d 88 3c
       0.011423393 0.009865857 -0.018081974 0.016653687
000110 4a 53 94 3b b2 48 89 3c 57 5e ac 3c e8 31 71 3c
       0.0045265304 0.016758297 0.021041078 0.014721371
000120 84 76 c1 3c 18 81 44 3c 98 a7 81 3c ac f0 73 3c
       0.023616083 0.011993669 0.015826985 0.014888924
000130 ec a9 43 bc 05 e2 a7 3c 55 a0 10 ba 58 31 9f bc
       -0.011942368 0.020493517 -0.00055170554 -0.019432709
000140 14 25 6f bb fc f2 16 3b e7 58 60 3c 83 b6 46 3c
       -0.0036490606 0.0023033014 0.013693071 0.012128475
000150 67 d0 97 3c df c3 d5 ba 92 56 f4 ba 86 ab 62 bc
       0.018531991 -0.0016308984 -0.0018641523 -0.01383484
000160 0b 77 52 3c 6e b9 a9 bc 44 45 d5 b9 fc 5f a4 bc
       0.012845765 -0.020718303 -0.00040678133 -0.0200653
000170 53 74 b7 ba cb 61 fd 3b 87 2d ab 3b 4d 3f 41 3c
       -0.0013996459 0.007732605 0.005223933 0.011794877
000180 d2 7a 42 bc e1 ca 76 bc 0f 5a 8f 3b dd ed 2f 3c
       -0.011870103 -0.015063019 0.0043747495 0.010737863
000190 bc e4 69 3c 06 2b b7 bb 2a 8f b2 3c ba 07 9f bc
       0.014275726 -0.0055898456 0.021796782 -0.019412864
0001a0 c1 eb 2b bc 4b 4f 80 3c 57 38 b6 3c 60 3a f4 39
       -0.01049322 0.01566281 0.022243662 0.000465828
0001b0 4d 47 9d 3c 35 5e 9c 3c 76 44 d9 bb fb 1e 93 3a
       0.019199038 0.01908789 -0.0066304756 0.0011224443
0001c0 68 7d 9c 3b 95 d2 9e bc 06 27 57 bc 26 0f b3 3c
       0.004775692 -0.019387523 -0.0131318625 0.02185781
0001d0 28 55 15 bb a2 af f4 bb 81 c7 81 bc 60 6b 50 3c
       -0.0022786353 -0.007467226 -0.015842201 0.012720913
0001e0 3e 52 31 3c b2 3f 75 3c ab e2 a0 bc be 8c ef 3a
       0.010822831 0.014968799 -0.019639334 0.0018276197
0001f0 a3 b9 2d 3b 27 a2 78 3c 2b 57 82 3c 0f 19 61 3b
       0.0026508353 0.015175379 0.015910706 0.0034347211
000200 79 6b 41 3c 1b b4 6e bc d4 19 85 3c 19 fc 7e 3b
       0.011805409 -0.014569308 0.016247667 0.0038907586
000210 8c 60 86 bc c5 ef 64 bb 65 91 83 bc bf bf 93 3c
       -0.016403459 -0.0034932953 -0.01606054 0.018035768
000220 a3 d1 cd bb f2 25 c4 3c a0 2e c0 3c 5f d0 bd 3c
       -0.006281094 0.023943875 0.023459733 0.023170648
000230 69 33 35 3b 17 56 7a bc 46 c4 e4 39 2a e7 4e bc
       0.002764905 -0.0152793145 0.00043633784 -0.012628356
000240 bd f7 26 bc 65 a4 a5 3b d6 ee 74 ba a6 24 17 3c
       -0.010190901 0.0050549977 -0.00093434507 0.009225046
000250 73 19 44 3a 5a 95 3b bc 09 e6 a3 3c df ec bb ba
       0.0007480599 -0.011449182 0.02000715 -0.0014337561
000260 9c 8a 26 bc e1 8a 94 bb 41 e1 66 ba 06 46 b7 38
       -0.010164883 -0.004533157 -0.0008807369 8.739163e-05
000270 56 86 61 bc bd e1 80 3b 03 ec e7 3a d7 4e b8 3c
       -0.013764938 0.00393316 0.0017694238 0.022498531
000280 08 49 75 3c 64 89 59 bc 18 8e 9f bb af 4a a3 bb
       0.014971025 -0.013277385 -0.004869234 -0.004983268
000290 88 b2 b6 3b a1 e4 b1 3b 07 1e e0 bb a6 12 aa 3c
       0.005575482 0.005428866 -0.006839517 0.020760845
0002a0 24 b1 b1 3c 9e a2 92 bc b5 9a 9d 3c 04 c9 8a 3c
       0.021690913 -0.017899808 0.01923881 0.016941555
0002b0 fc b7 69 bc 91 69 94 3c dc 2f 81 bc f0 fe a6 bc
       -0.014265057 0.018116744 -0.015769891 -0.020385236
0002c0 6c 9c f0 bb 0d d9 67 bc a1 3c f6 bb 9d 20 8f 3c
       -0.0073428657 -0.01415087 -0.0075145517 0.017471606
0002d0 be 67 80 bc e4 56 93 3a d4 58 6a bc a9 c3 a0 3c
       -0.015674468 0.0011241105 -0.014303405 0.019624548
0002e0 d8 5f b1 3c a1 a2 1d bc 2c ec e3 3b 7b 1c 20 3b
       0.021652147 -0.009621293 0.006955644 0.0024431038
0002f0 be 33 ff ba de 10 89 bc 23 b5 43 bc ed 6f 9c 3c
       -0.0019470376 -0.016731676 -0.011945042 0.01909634
000300 31 2d 64 3b 1e e5 8b bb 41 d7 2f bc 3e 99 8a bc
       0.0034816975 -0.0042692563 -0.010732473 -0.016918775
000310 98 d7 98 3c 1a 61 df ba 03 9b b3 3c 45 53 4a 3c
       0.01865749 -0.0017042488 0.021924501 0.012348955
000320 d0 2b e1 b9 e0 ef 06 3c 5d 9e 97 bc 9b 42 fc bb
       -0.00042947987 0.008235902 -0.01850813 -0.0076983697
000330 63 ca 6b 3c 9b aa a1 3b 70 99 b2 3c 2f 1f c1 3c
       0.0143915145 0.004933668 0.02180168 0.02357444
000340 40 84 40 bc 83 d2 1b bc 28 56 24 3c a1 d6 84 3c
       -0.011750281 -0.009510639 0.010030307 0.016215624
000350 c5 6c b8 bb 11 70 96 3c 10 95 5c bb 12 62 0f ba
       -0.0056282007 0.018363984 -0.0033658184 -0.00054696307
000360 b6 2d 3f bc 4e 65 28 bc 2d 9c 66 3c bd 73 ff bb
       -0.011668613 -0.010278059 0.014075321 -0.0077957795
000370 98 19 51 bc 62 4b 79 bb 7a cb b6 3b f0 5e 3e 3b
       -0.01276245 -0.0038039316 0.0055784555 0.0029048286
000380 fa fa 47 3c b4 08 90 bc 62 ee f9 3b 5e 7a ac 3c
       0.012205834 -0.017582275 0.0076272944 0.021054443
000390 2d 94 9d 3c 19 e3 79 bc a5 be a7 bc 39 34 e4 3a
       0.019235695 -0.015251898 -0.020476649 0.0017410583
0003a0 83 d8 c8 ba a1 d3 00 3c 8b 70 a8 bc 1e 08 64 3c
       -0.0015323315 0.007862956 -0.020561477 0.013917951
0003b0 55 27 d2 bb 6e a5 a3 bc 7a 91 a5 bc 7e fb 51 3b
       -0.00641338 -0.019976344 -0.02021097 0.003204077
0003c0 e5 8c b8 3b c6 ee 73 3c c8 c5 ff 3a d3 17 85 3c
       0.0056320303 0.014888471 0.00195139 0.016246712
0003d0 ef db 4c 3c 19 4d ed bb 66 54 bb bc 25 64 83 bc
       0.012503608 -0.007241857 -0.022867393 -0.016038964
0003e0 75 2f e3 b9 5b 72 84 b8 d9 c5 4a 3c 49 62 11 bc
       -0.00043332172 -6.315551e-05 0.012376272 -0.008873531
0003f0 82 28 cd bc 04 11 e4 3b 93 9a b2 bc ad 2b a2 bc
       -0.02504373 0.0069600362 -0.021802222 -0.019796217

reduce2.bias f4 [16]
000000 7b 79 b1 3c 4f 8e 2d 3b 21 d5 a0 bc ad 28 62 bb
       0.021664372 0.0026482528 -0.019632878 -0.0034509108
000010 3f d5 a9 bb 28 0d 51 3c a4 b2 a9 3c 0d b1 28 3b
       -0.0051828916 0.012759484 0.020715065 0.0025740296
000020 d3 61 c3 3c 23 54 a3 3c bd 67 74 bb 4b 59 bc bc
       0.023850357 0.01993758 -0.0037293278 -0.022991797
000030 b0 a9 f8 3b 12 10 8a 3c c8 44 9b 3c 5d a2 9b bc
       0.0075885877 0.016853366 0.018953696 -0.01899832

nonreduce2_1.weight f4 [16, 16, 3, 3, 3]
000000 db e6 b7 3b 24 b6 23 3d 66 eb 5b bc 5f 2b 18 bd
       0.005612237 0.039968625 -0.013422823 -0.037150737
000010 44 ec 31 bd 76 8b 4a bd f0 02 0d 3d d4 b3 ec bc
       -0.04343821 -0.049449407 0.03442663 -0.028894342
000020 90 e1 3c bc 45 79 2c 3d db 47 22 39 6d 61 27 bd
       -0.011528388 0.04210784 0.00015476292 -0.040864397
000030 b8 09 22 bd 47 22 bd 3c 39 43 d7 3c a7 f6 7c 3c
       -0.03956005 0.023087634 0.026277171 0.015439666
000040 75 12 d4 3c 66 32 87 bc 53 e8 f8 bc 7b 1f f6 3c
       0.025887707 -0.016503524 -0.030384218 0.030044308
000050 b9 68 bd 3c 97 08 b8 bc 96 45 2b bd d2 0b 33 3d
       0.023121225 -0.022465033 -0.04181441 0.043712445
000060 03 b0 7e bc cb 72 df 3c 23 bc 83 3c f4 ea 21 3d
       -0.015544894 0.027276417 0.016080922 0.03953071
000070 44 a0 0d bd 80 21 cb 3c 6f aa 3d bd 86 35 e9 3c
       -0.03457667 0.024796247 -0.046305116 0.028467905
000080 62 d8 2a bd 7b 4c 92 bc 94 e6 cf bc 24 2f 18 bc
       -0.041710265 -0.017858734 -0.025378503 -0.009288583
000090 54 c6 cd bc f0 36 f7 3b c9 17 be bb 1d 9f 2f 3c
       -0.025118984 0.007544391 -0.0058011753 0.010719088
0000a0 71 0f 69 bc d3 6c a6 bc 38 ca b2 bc b9 de 85 bc
       -0.014224873 -0.020315563 -0.021824941 -0.016341554
0000b0 f8 c8 2d bd c4 ca 4f 3d 4a 18 b5 3c c4 6d 2f 3d
       -0.042427987 0.05073048 0.022106308 0.04282929
0000c0 be 1e 9a 3c fb 3c ae bc c3 ad b8 3c 6a 14 b1 3c
       0.018813487 -0.021269312 0.022543794 0.02161618
0000d0 b8 36 98 bc 7f 2c 14 3d b4 53 a9 38 37 5c 5e 3c
       -0.01858078 0.036175247 8.074139e-05 0.01357179
0000e0 31 bb 0f 3d c5 ea 3f bd 01 e2 06 3d 30 1d 1c 3b
       0.03509063 -0.046854753 0.032930378 0.0023821108
0000f0 86 16 50 bd 13 47 03 bd 8d 90 37 bd 89 61 80 bc
       -0.05080273 -0.032050204 -0.04481559 -0.015671508
000100 b3 4d 40 3d a8 f6 09 3d 54 b9 bb bc f6 7a 95 bc
       0.0469491 0.033682495 -0.02291552 -0.018247109
000110 78 ff a8 3c 17 26 0a bd 3f 03 10 bd 99 a4 e8 bc
       0.02062963 -0.03372773 -0.035159346 -0.028398799
000120 f4 82 33 3d 3b 2c 2a 3b 7a cf 12 bd 50 b9 21 bd
       0.04382606 0.0025966305 -0.035842396 -0.03948337
000130 4c 18 fa ba e3 29 e5 ba b8 bb 02 3d cb 4f 19 3c
       -0.0019080727 -0.0017483797 0.031917304 0.009357403
000140 a7 67 08 bd 39 5e 89 bc f6 b3 0a bd dc 8d f1 3c
       -0.033301976 -0.016768562 -0.03386303 0.02948659
000150 0b b9 a9 bc 24 2b 1f bd fe 77 08 bd 85 5d 0f bd
       -0.020718118 -0.0388595 -0.03331756 -0.035001297
000160 18 bf a4 bc 52 9e 1c 3d 3c 45 25 3d 15 3c 0c 3d
       -0.020110652 0.038236924 0.04034923 0.034236986
000170 c5 6f b8 3c 27 d2 e4 3c 17 6d c8 3c f0 72 af bc
       0.022514233 0.02793224 0.02446608 -0.021417111
000180 bc 29 47 bc d0 bb 21 3d 5c 4a a5 bb f6 3e e7 3b
       -0.012155946 0.039485753 -0.0050442647 0.007057066
000190 7f 98 06 3d de a2 97 bb 15 d3 0a bd db 5f f6 3c
       0.032860275 -0.0046275696 -0.03389271 0.030075004
0001a0 35 87 44 bc 1b c1 ff 3c c1 f0 35 bc 17 b8 2d bd
       -0.0119951265 0.03122001 -0.0111047635 -0.04241189
0001b0 87 e7 05 bd 25 e8 a1 bb e9 40 d2 bc c1 92 47 3d
       -0.032691505 -0.004941004 -0.025665717 0.04872394
0001c0 9b 17 e8 3a 02 0e 2d 3d 64 5c 37 bd 00 e7 3b bd
       0.001770723 0.042249687 -0.044765845 -0.045874596
0001d0 22 f9 3d 3d 63 19 cd bc e0 26 b8 3c 29 d5 bf 3c
       0.04638017 -0.02503652 0.022479475 0.023417072
0001e0 d9 4f ca 3b 0a 0b 1f bd 5a 80 06 bd e8 52 f4 bc
       0.0061740694 -0.038828887 -0.03283725 -0.029824689
0001f0 01 67 1d bd e7 37 32 3d 46 03 19 bc 95 26 db bc
       -0.03842831 0.043510344 -0.009339159 -0.026751796
000200 f0 47 2e bd 7e 28 01 bd 50 41 e9 3c 46 b3 ec 3c
       -0.042549074 -0.031532757 0.028473526 0.028894078
000210 33 02 36 3c 46 84 26 bd 67 f3 48 3d 27 2e f0 bc
       0.011108923 -0.04065349 0.04906025 -0.029318882
000220 e4 06 8c bc 66 21 70 bb ef 0f 6c bc 32 bd 30 bd
       -0.01709313 -0.0036641 -0.014408096 -0.04314918
000230 51 98 f5 bc 6a 61 cd 3b b6 92 e8 3c dd b9 11 3d
       -0.029979857 0.006267716 0.02839027 0.035577644
000240 2c a8 37 3d 01 1b 01 3c c5 9b 19 bd 6d 21 f4 bc
       0.044838116 0.007879973 -0.03750207 -0.029801095
000250 79 44 e2 3b f2 bc b7 bc 30 c0 41 3d af c8 00 3d
       0.0069051352 -0.022428963 0.047302425 0.031441387
000260 82 b0 2b bd ac 87 08 3c 7a 8e 83 bc 7c d8 2f 3d
       -0.041916378 0.008333128 -0.016059149 0.042931065
000270 ae 23 d0 bc d7 3c 3b 3d 57 ec 7b bc ec 12 3a 3d
       -0.025407638 0.04571232 -0.015376172 0.0454282
000280 46 5c df 3c 19 55 3b 3d 0c e8 01 bd 0a 38 15 3b
       0.02726568 0.045735452 -0.031715438 0.0022768998
000290 46 6a e0 bb 33 e7 08 3d 01 e2 2d 3c 2c 40 a5 ba
       -0.0068486063 0.033423614 0.010612966 -0.0012607626
0002a0 da 5e 39 3d b2 64 58 3c 85 27 cb 3b a8 27 83 3c
       0.045256473 0.013207601 0.0061997795 0.01601012
0002b0 b0 0b 38 3d 54 30 00 3c 1c e1 e0 3c d1 da a0 3c
       0.04493302 0.007824022 0.02745109 0.01963559
0002c0 61 05 e4 bb c6 64 f3 3c 15 f0 14 3d 34 49 c8 bc
       -0.006958649 0.029711138 0.036361773 -0.024448968
0002d0 5a 0a ce 3b af b8 02 bb 3d 0f f6 3c 0b 68 0c bc
       0.006287855 -0.0019946506 0.030036563 -0.008569728
0002e0 c2 06 24 3c 00 43 42 bd 3e 1f 46 bd b9 55 26 bc
       0.010011377 -0.047427177 -0.04836964 -0.010152274
0002f0 32 41 5b 3c 4b 16 00 bd 74 0a f5 3c b2 4b 7b 3a
       0.013382243 -0.03127126 0.029912211 0.00095861696
000300 fc 45 22 bd f6 cc 55 3d c4 f1 f0 3b 22 8e e6 b9
       -0.039617524 0.05219742 0.0073530395 -0.00043974916
000310 b3 5e 91 bc b5 48 5d 3c 70 ae 0b 3d e0 22 76 bb
       -0.017745351 0.013506104 0.034101903 -0.0037557408
000320 0f e5 ca 3c 94 3d 41 bd db 34 12 bd b3 fe e1 3c
       0.024767427 -0.047177866 -0.03569494 0.02758727
000330 64 e5 29 3c c5 4d 22 3d f7 30 c7 bc cb 39 fe 3c
       0.010369632 0.039624948 -0.02431534 0.031033417
000340 e0 98 6d ba f6 f0 f4 bc 14 b0 b1 bc 2a d0 06 3c
       -0.00090636127 -0.029900055 -0.021690406 0.008228341
000350 7b 85 f2 ba f5 dd 21 bd 36 6f 23 bc 88 50 cc bc
       -0.0018502915 -0.039518315 -0.009975245 -0.024940744
000360 65 1e 19 bd bf 8c da 3b 2e 8b 26 3d 33 af 8f 3b
       -0.037382502 0.0066696103 0.040660076 0.004384899
000370 a2 d3 b4 bc a7 f5 20 3d 0a f8 df b9 17 bb 35 3d
       -0.02207357 0.039296772 -0.00042718678 0.044367876
000380 76 92 c6 3c b2 7d ea bc d1 2d 92 bb 8b bb 40 3c
       0.02423976 -0.02862439 -0.004461028 0.011763464
000390 c5 33 c2 3c d1 0a e5 bc 56 ae 4e bc a0 cc d7 bc
       0.023706326 -0.02795926 -0.012614807 -0.02634269
0003a0 74 9d cc bc 9c e2 74 bd 75 78 01 3d 9f ae 72 38
       -0.024977423 -0.059786424 0.031609017 5.7859925e-05
0003b0 9e 75 4f 3d f7 8c 81 bc 35 c0 28 3d fd f8 05 3d
       0.050649278 -0.015814288 0.041198928 0.032708157
0003c0 49 0c 0b 3d 96 8c ed bc 46 7d 5c 3d e7 5a 3f 3d
       0.033947263 -0.0289977 0.053830408 0.04671755
0003d0 4b 01 00 bd 5d 48 03 bc 13 b2 2c 3d eb 55 b4 ba
       -0.031251233 -0.008012858 0.042162012 -0.0013758516
0003e0 87 0a 5e 3c 1b ba 44 bd ab 74 f2 3b 2b 66 dd bc
       0.013552315 -0.048029047 0.007399162 -0.027026257
0003f0 df 93 fd bc 40 9c 40 bd 72 50 f5 bc 21 0f 97 3c
       -0.0309543 -0.04702401 -0.029945586 0.018439831

nonreduce2_1.bias f4 [16]
000000 c7 04 2c bd b1 61 20 bc 45 1e 26 3d 63 2d e4 bc
       -0.041996744 -0.009788916 0.04055621 -0.027853673
000010 d9 07 36 3d 55 e7 1a bd a3 d2 63 bc e0 12 9b 3c
       0.044441078 -0.03781827 -0.0139052 0.018929899
000020 b3 45 5d 3d b5 76 03 bd e6 f9 cb ba 0c 5f 8d 3c
       0.05402155 -0.03209563 -0.0015562146 0.017257236
000030 91 f1 2d bd 6d 8b 2f 3d ba 2c e4 bc 6d e5 0c bd
       -0.042466704 0.042857576 -0.027853359 -0.034398485
