02_deep3D/model/model_sho.pt (torch, 739908 bytes, 25 tensors)

reduce1.weight f4 [64, 1, 4, 4, 4]
000000 8f 40 82 3d 7d f4 c6 3d 21 fe 80 bd 27 09 49 bd
       0.0635997 0.09714601 -0.06298471 -0.049080994
000010 1b 90 68 3c e1 e3 97 bd 4e 90 86 3c 6a 69 16 3d
       0.014194514 -0.07416511 0.016426232 0.036721624
000020 84 96 af 3d d4 d3 db bb 6b c1 b5 bd 26 0e dd 3c
       0.085736305 -0.0067086015 -0.08874782 0.026984286
000030 2a 00 0f bd 6b 36 d7 bd b7 12 e6 3c c2 02 47 3d
       -0.034912266 -0.10508426 0.028085096 0.048586614
000040 71 e2 b2 3d 1f cb 4b 3d 46 50 a6 bd a9 0a 40 bd
       0.087345965 0.04975426 -0.0812078 -0.046885166
000050 20 19 e6 b9 a8 43 90 bd 51 1f d2 3d f8 01 d0 bd
       -0.00043887738 -0.070441544 0.102598794 -0.101566255
000060 18 7c d6 3d cc 17 b4 3d 58 ad cc bd 00 98 3b bd
       0.10472888 0.087936014 -0.09994 -0.045799255
000070 99 05 8a 3d e1 ed e0 3d ba cd 81 3d 35 b3 db 3d
       0.06739349 0.10982872 0.06338067 0.107275404
000080 62 60 ac 3d d4 ad f6 bd 78 50 2e bd d3 98 ad bc
       0.08416821 -0.12044874 -0.04255721 -0.021191036
000090 80 19 11 bc e8 d4 57 3d 0e 0e 42 bd bb 31 42 bd
       -0.008856177 0.052693278 -0.047376685 -0.047410708
0000a0 f0 fa d1 3d 3b 33 55 3c f1 4b df 3d 43 d7 70 bd
       0.10252941 0.013012703 0.109031565 -0.05879904
0000b0 2c 3f c9 bd 1d af ff bd a4 92 17 3d 89 1c 19 3b
       -0.09826502 -0.12484572 0.03700508 0.0023362956
0000c0 6a c6 4e 3d 34 d6 86 3d d0 c3 a3 bd cc 94 38 bd
       0.05048219 0.06583825 -0.07996333 -0.04506378
0000d0 1d c1 57 3b ee f3 d7 bd 01 0b b6 bd f4 23 4e bd
       0.00329215 -0.10544573 -0.088888176 -0.050327256
0000e0 79 98 e9 bd 85 f9 e6 3d 95 61 83 bd dd bb ac bd
       -0.11406035 0.11278061 -0.06415097 -0.084342696
0000f0 45 38 45 3d 5c b6 af 3d 67 57 cd bd 6f 7f 24 3d
       0.048149366 0.08579704 -0.10026436 0.040160593
000100 0b 85 df 3d 08 28 39 3d 07 6b 8d 3d 04 9a f8 3d
       0.10914048 0.045204192 0.069051795 0.12138751
000110 aa 85 88 bd 07 48 98 3d b7 01 9e bc 1b 47 ce bd
       -0.066661194 0.07435613 -0.019287927 -0.10072156
000120 a0 a5 e0 bd dd 29 d2 bc e1 f0 90 bc e3 7b e0 bd
       -0.109690905 -0.025654728 -0.017692985 -0.109611295
000130 aa 21 04 bd 36 08 64 3c 8e 01 b8 bb 6b ef a6 bc
       -0.032258667 0.013917973 -0.0056154197 -0.020377835
000140 1b 6a b7 3d de 5e fa 3d 61 f4 c9 bc 10 c7 93 3d
       0.08955785 0.12225126 -0.024652662 0.072157025
000150 65 43 d7 3c cc 18 9d bd 76 63 e3 3d 71 76 8d 3d
       0.026277253 -0.07670745 0.11102955 0.069073565
000160 0b 25 c1 3d 3c fc 6d 3d 23 e0 4b 3d a2 b7 40 bc
       0.094308935 0.058101878 0.0497743 -0.0117625315
000170 fb d3 2d 3c 83 72 35 bc 42 7c f7 bd c3 80 b0 3c
       0.010609622 -0.011074665 -0.12084247 0.021545773
000180 61 d0 38 3d 64 43 a9 3c 63 16 f3 bc 8c d4 e8 bd
       0.0451206 0.020662017 -0.02967376 -0.11368665
000190 4a 41 56 bd e9 8c 30 bd 36 dc b7 3d b9 24 c6 bc
       -0.05230836 -0.043103132 0.08977549 -0.024187433
0001a0 d4 f3 a4 bd 82 84 cc 3d 66 fb 7f 3b 7b db dd bd
       -0.08054319 0.09986211 0.0039059757 -0.10832878
0001b0 2a d9 d6 bd 9e 0b a0 bd 0d 84 00 3e b5 c6 e0 3c
       -0.104906395 -0.07814716 0.12550373 0.0274385
0001c0 eb 98 b6 3d 3d 47 4a bd b7 0c 1f 3d a7 ad 01 3c
       0.089158855 -0.049384344 0.038830485 0.007914937
0001d0 13 01 09 3d 3d 33 66 bd 8f d2 3a 3d 2d 27 30 3d
       0.03344829 -0.05620121 0.04561096 0.04300611
0001e0 4a d6 1b 3d 56 6a ca 3d 0f 65 eb 3c 6b 01 f5 3d
       0.03804616 0.09883563 0.028734712 0.11963161
0001f0 d6 53 ca bd f4 6a 9d 3d 0b d9 00 3c bb bd 91 3d
       -0.09879272 0.07686415 0.007864247 0.07116266
000200 8c 78 9c 3d 3f 03 1d bd 10 a9 c7 bc 04 a8 5a 3c
       0.0764018 -0.038333174 -0.024372607 0.013345722
000210 16 ea 01 3d 79 1a 2b 3a 29 0b d5 3d c2 4a df 3b
       0.031717382 0.0006527077 0.10402519 0.0068143317
000220 e8 7e 16 3d 2e 5b 0a 3d dd 76 b0 3d 0b 7d a0 bd
       0.03674212 0.033778362 0.08616421 -0.0783635
000230 89 91 b6 bb 40 45 08 3d 15 0b b0 3c 2d 3e 77 bd
       -0.0055715484 0.033269167 0.02148966 -0.06036203
000240 82 b9 a6 3d d9 60 44 bd e7 9f 1f 3d 3d 0d 2c 3d
       0.081408516 -0.047943924 0.038970854 0.042004813
000250 12 be 89 bd c8 03 f7 3c e5 d5 6a b9 0d 67 d1 3d
       -0.06725706 0.03015317 -0.00022395661 0.102247335
000260 65 1f 83 3b 15 4a 09 bd f4 7f c5 bd 2e 09 8c bd
       0.0040015453 -0.033517916 -0.09643546 -0.068376884
000270 b4 de 67 3d 68 ca ba 3d f6 9d c4 bd 42 b9 e1 bc
       0.05660887 0.09120637 -0.09600441 -0.027554158
000280 72 21 3c bd 79 21 b9 ba 6c e7 b2 3d 90 0b 1a bd
       -0.045930333 -0.0014124356 0.087355465 -0.037608683
000290 64 41 d8 3d 63 73 85 3d 72 40 e8 bc 58 8a 3b 3d
       0.10559347 0.06516149 -0.028351042 0.04578623
0002a0 e6 a0 4f bb de c5 e2 bc 29 85 de bc 96 32 ad bd
       -0.0031681596 -0.027682241 -0.027163105 -0.08456914
0002b0 af 60 da 3d 4e 40 71 bd 2e fb b5 3d 8c 1a 9d 3c
       0.10662972 -0.058899216 0.08885799 0.019177698
0002c0 0b 42 c4 3d d2 f1 9c bd 62 61 00 3b 65 93 b3 bd
       0.09582909 -0.07663311 0.0019589295 -0.08768348
0002d0 e1 4e ad bd 3e 82 23 3d 99 03 bf bd 45 c2 e4 bd
       -0.084623106 0.03991913 -0.09326858 -0.111698665
0002e0 95 71 a7 bd f8 97 92 bd 9b 7e c0 bd 1f 7d dd 3d
       -0.08175961 -0.07157892 -0.09399148 0.108148806
0002f0 c1 73 c2 bd 62 8e c5 3d aa 2e c6 3d e7 35 40 bd
       -0.094947346 0.09646298 0.09676869 -0.046926405
000300 b6 e0 84 3d cb db ab 3d 75 7e b4 bc 44 68 9f bd
       0.06488173 0.083915316 -0.022032956 -0.07783559
000310 fd ee 71 3d 11 d0 dd 3d d4 0a ea bc 34 8c 21 bd
       0.059065808 0.10830701 -0.028569616 -0.03944035
000320 e1 3a 9c 3d bc a0 c1 3d a3 67 ac bd e8 f6 f9 bd
       0.07628418 0.09454486 -0.08418205 -0.12205297
000330 61 c6 0c bd d7 ef 8d 3d 6a 1f d0 bd de 59 36 3d
       -0.034368876 0.069305114 -0.10162242 0.044519298
000340 8c 29 dc bd 78 64 22 ba 68 34 dc 3c 2c f3 27 3d
       -0.10750112 -0.00061947806 0.026880458 0.04100339
000350 7d d3 b9 bd a0 9c 57 3d 34 d3 ee 3c 41 ea 45 bd
       -0.09073541 0.052639604 0.029153444 -0.048319105
000360 22 88 56 3d 14 07 c8 3d d7 09 c4 bc 54 74 5a 3b
       0.05237592 0.09766975 -0.023930473 0.0033333497
000370 2a 26 b6 bd 11 6b a4 3d 95 ad 18 bd cb cf 75 bd
       -0.08893998 0.08028234 -0.037274916 -0.06001262
000380 1a c4 18 3d ff 0e f7 bd db 4f 51 3d 14 9c 36 bd
       0.037296392 -0.12063407 0.051101547 -0.04458244
000390 34 d8 b5 bd 35 e6 6a 3d de 39 9f 3d d4 22 65 bd
       -0.08879128 0.05734845 0.07774709 -0.055941418
0003a0 bf a2 1e 3d 74 2e a4 bd 6a 83 c5 3d cc 2a 4c bc
       0.038729426 -0.08016673 0.09644206 -0.012461375
0003b0 3d c6 09 bd 23 a3 5c bd 6f 0c af bd ad 4a e5 3c
       -0.03363632 -0.053866517 -0.085472934 0.02798971
0003c0 12 4e 45 3d 31 59 ab bd ba 31 9c bd b5 aa 85 3c
       0.048170157 -0.08366621 -0.07626672 0.016316751
0003d0 72 41 c4 3d 50 06 88 bd 1d 20 3c bd 70 31 ad 3d
       0.09582795 -0.06641829 -0.045929063 0.08456695
0003e0 6f 59 d1 3d 48 ab b8 bd 9d 93 fd 3c b1 36 f7 bc
       0.10222136 -0.09017044 0.030954177 -0.030177446
0003f0 dc c9 bb 3d 97 c9 e3 3d 96 a9 10 bd f1 42 6f 3c
       0.09169361 0.111224346 -0.03531798 0.014603362

reduce1.bias f4 [64]
000000 80 df 09 3b 6e fc 2c bc fc 47 1c bd 29 6e 73 3d
       0.0021037757 -0.010558231 -0.038154587 0.05943123
000010 aa 0e 10 3e 99 43 cb 3d 2d be 7a bd 69 a5 a2 3d
       0.14068094 0.099250026 -0.061216522 0.07941706
000020 aa 53 30 bc 91 22 0f 3e 3d c9 9b 3d b6 f1 02 bc
       -0.010762135 0.1397803 0.076067425 -0.007992199
000030 e7 9d ba 3b bc e9 de bd bb c2 d1 3c 35 c2 cd bd
       0.005695093 -0.10884425 0.02560555 -0.10046808
000040 41 33 98 3d 62 59 22 3d b0 46 03 bd 6a 4a 10 3d
       0.07431651 0.039636023 -0.032049835 0.035227217
000050 e1 38 0d 3e a4 fc 6d 3d 79 0e 46 3d ff aa 9d bd
       0.13791229 0.058102265 0.048353646 -0.076986305
000060 50 5d 5b bc e0 03 15 3d 84 c1 29 bd ba 4f a8 3c
       -0.013388947 0.03638065 -0.041444317 0.02054583
000070 e3 fa b8 3d 60 68 ca 3d b7 20 b0 3d 64 c5 72 3c
       0.09032228 0.09883189 0.0859999 0.014817569
000080 bd cd 91 bd c3 48 2e 3d 4c c1 d3 3d e8 dc 9d 3d
       -0.071193196 0.04254986 0.10339603 0.0770815
000090 9e d7 8d 3d 8f 8e 36 3e c7 c2 45 3d 33 56 d0 bd
       0.06925891 0.1782782 0.048281457 -0.10172691
0000a0 4b e7 ff 3b ab 27 2e bd 45 ca 9a 3d 8d 1a c4 3d
       0.0078095547 -0.0425183 0.07558111 0.09575377
0000b0 b4 56 fc 3d a2 38 91 3d b6 5f 19 3e ab 42 b9 bd
       0.12321225 0.0709088 0.14977917 -0.09045919
0000c0 1c ab f5 3c 8a ba f5 bb b8 0a da bd 88 bf 8d bd
       0.029988818 -0.007499044 -0.10646576 -0.06921297
0000d0 16 24 19 3d 68 e9 65 bd 6b a6 8e 3d f9 6c a2 bc
       0.03738793 -0.056130797 0.069653355 -0.019827353
0000e0 aa df dd 3d 48 88 ac bd a5 d7 9c bd c0 a1 b3 3d
       0.10833676 -0.08424431 -0.076583184 0.08771086
0000f0 b8 0c 02 3e f5 80 a8 bd 34 53 cc bd 4d 73 25 3e
       0.12700164 -0.082277216 -0.09976807 0.16157265

nonreduce1_1.weight f4 [32, 64, 3, 3, 3]
000000 68 14 44 bc cc 59 dc 3a 7a 48 75 3c 90 2e 43 bb
       -0.011967756 0.001681143 0.014970893 -0.0029782392
000010 45 29 17 3b 38 ed 95 3c 20 03 be 3c c4 87 e0 3b
       0.002306537 0.018301591 0.02319485 0.006852122
000020 5b 1b bc bc 46 70 cf 3a 48 d3 b2 3c 85 cc 54 bb
       -0.022962263 0.0015826307 0.021829262 -0.0032470536
000030 fd 56 86 3b c2 7a b3 bc b8 35 be bc 2f 2e 72 bc
       0.0040997253 -0.021909121 -0.023218974 -0.014781519
000040 5a bf 3d 3b 95 b1 d3 bb 2b 76 44 3c 95 40 1e 3c
       0.0028953166 -0.0064603784 0.011991064 0.009658952
000050 c4 55 8e 3c 33 bf db 3b 58 c5 c4 3c ae 0e 85 3c
       0.01737488 0.0067061423 0.024019882 0.016242351
000060 79 27 c4 3b 15 0b 73 3c 21 5c 59 3b 28 39 4b 3c
       0.005986151 0.014834185 0.0033166485 0.012403764
000070 b1 8c f4 3b 76 2d 18 3b 8b 8d f8 3b 30 77 08 bc
       0.007463061 0.0023220456 0.0075852326 -0.008329198
000080 44 7d 1d bc b8 5c 82 bc e6 30 f2 3b 6b d6 45 ba
       -0.009612385 -0.015913352 0.007391083 -0.00075469044
000090 69 f5 dc 3b 4d f7 c1 bc a5 50 b1 3c 94 87 b7 3b
       0.0067431224 -0.023677493 0.0216449 0.005600879
0000a0 ec 7f aa bc 34 5e ed 3b b6 75 c4 bb ad 7a b4 bc
       -0.020812951 0.007243896 -0.0059954775 -0.022031153
0000b0 4f 40 16 bc 90 6f 1c 3c 44 dc 4e 3c 2c f9 91 3c
       -0.009170606 0.009548083 0.012625758 0.01781901
0000c0 03 d5 ad 3c 84 b4 40 bc e4 29 62 3b df 9b 96 bc
       0.021219736 -0.011761788 0.0034509832 -0.018384872
0000d0 4a f2 ca bc 81 7e 33 39 83 a2 f1 ba 7a 44 78 3a
       -0.024773736 0.00017117897 -0.0018435273 0.0009470653
0000e0 0e 5c 40 bb 0b 75 59 bb 58 22 58 3b f4 da a9 bc
       -0.0029351744 -0.0033181335 0.0032979455 -0.020734288
0000f0 61 aa 0f 3c a0 64 5d 3c 04 31 5d 3c 11 a3 ff 3b
       0.008768649 0.01351276 0.013500456 0.0078014215
000100 cd 0d 8c bc 2d 70 62 3c e9 e3 9e bc 1f e1 87 bc
       -0.017096424 0.01382069 -0.019395785 -0.016586838
000110 aa 7d 94 3c 5f aa 87 3c b7 2d 02 bb 7b dd 9a 3c
       0.018126328 0.016560731 -0.0019863674 0.018904438
000120 1c 01 7b 3c fc 35 2b ba e9 c4 5c bb c3 43 f2 3b
       0.015320089 -0.00065311766 -0.0033686704 0.0073933317
000130 22 e0 b6 3c fc f8 b7 bc f8 9f 9d bc 59 8e 56 3c
       0.022323672 -0.022457592 -0.019241318 0.013095462
000140 ce 73 bb bc 1f a7 94 bc fd 6e ee ba 0c 4f ae 3c
       -0.022882368 -0.018146096 -0.0018191036 0.021277927
000150 c8 54 38 bb 68 02 d1 ba 1c d3 bc 3c 5b 51 bc 3c
       -0.0028126705 -0.0015946152 0.023049884 0.022988012
000160 11 18 f0 3b 99 7b bd bb 3a 46 a7 3c 59 c1 11 bc
       0.0073270877 -0.0057825563 0.020419229 -0.008896195
000170 57 2f 5a bc 0e 83 aa 3b d9 a7 a9 3a e0 43 0b bc
       -0.013316951 0.005203611 0.0012943699 -0.008500069
000180 13 a3 1d 3c 6f 46 61 3c 4a ec 67 bc 93 72 54 3c
       0.009621399 0.013749703 -0.014155457 0.01296677
000190 56 9a ac 3b b5 b1 cf bc 7e 0c e3 3b 3b 85 91 3c
       0.0052674217 -0.025353292 0.0069289794 0.017763725
0001a0 e7 b9 9b bc bb ac 69 ba 9e ad 09 3b 5c 9e 89 3c
       -0.019009544 -0.00089139835 0.0021008025 0.016799144
0001b0 68 01 54 bb 18 9f 36 bc 7b a8 be bc 60 aa 85 ba
       -0.003234947 -0.011146329 -0.023273697 -0.001019787
0001c0 a6 22 0f 3c 3c 9d 8d bc fc 61 62 3c f7 37 a1 3c
       0.008736288 -0.01728689 0.013817307 0.019680006
0001d0 e2 9f b5 3b 75 cc e9 3b 8e 95 80 b9 af 43 aa 3c
       0.005542741 0.007134969 -0.0002452549 0.020784227
0001e0 ae a5 11 3c 2d bb 86 3c da 48 60 bc 55 11 05 3c
       0.008889599 0.016446674 -0.013689244 0.008121808
0001f0 69 e4 22 bc 30 68 89 bb d8 8b 95 3b 63 f7 a1 bc
       -0.009942153 -0.0041933283 0.00456379 -0.019771283
000200 85 1c 21 bc ca 64 84 3c 49 34 ba bc 54 19 23 3c
       -0.00983346 0.016161341 -0.02273001 0.009954769
000210 bf 44 05 3b a2 f1 88 3c 9d b9 78 3c f9 47 2c bc
       0.0020335165 0.016716782 0.015180972 -0.0105152065
000220 60 a3 dc bb ed 81 b9 3b 6b c6 37 bb 6b f0 8b bc
       -0.006733343 0.0056612403 -0.002804185 -0.017082414
000230 95 9e c1 bc 1b bc 58 3c 24 e1 4a 3c 99 ca 5e 3c
       -0.023635188 0.013228442 0.012382779 0.013598108
000240 f9 12 4c bc fb 12 a8 3c d3 05 b8 bc f3 da 3b bc
       -0.012455695 0.020516863 -0.022463715 -0.011465776
000250 7a 36 a0 bc 68 04 7b 3b 6e 26 32 3b 38 c9 29 bc
       -0.019557226 0.0038302187 0.002718355 -0.010362916
000260 ef 6b 29 39 46 c4 0a 3b cc 8c d0 3c b4 6d 8b bc
       0.00016157304 0.0021174117 0.025457762 -0.017020084
000270 47 30 46 3c f3 0c 72 bc ae a7 11 bc f7 23 2d bc
       0.012096471 -0.014773595 -0.008890076 -0.010567657
000280 df 49 3d bb e6 82 ba bb ee d8 75 3c 7e 27 26 3c
       -0.0028883142 -0.005691874 0.015005333 0.010141252
000290 0a 95 6e 3c ac cd 93 ba b4 06 4b 3c 22 3b 8c bc
       0.014561901 -0.0011276505 0.012391735 -0.01711804
0002a0 3b 5b c2 3c 7d bb bc bc 82 43 be 3c 7b 4b b6 3b
       0.023725143 -0.02303862 0.02322555 0.005563197
0002b0 59 59 f5 b9 61 67 a9 3c dd 55 97 bc cd e2 8e ba
       -0.0004679661 0.020679178 -0.01847356 -0.0010901332
0002c0 35 14 87 3c 8c c1 1e bc 95 4e 83 bc c6 1e b8 bc
       0.016489128 -0.0096897 -0.016028682 -0.022475611
0002d0 55 ca 11 3c 9d 19 7c bc e9 e0 25 bc 07 d8 41 bb
       0.008898337 -0.015386966 -0.010124424 -0.0029578225
0002e0 bd d4 39 3c fb 28 48 bc 87 dd cc bc a2 5d 68 bc
       0.011342225 -0.012216802 -0.025007976 -0.01418248
0002f0 d8 ca d9 3a 8c 87 71 3c c2 2a 12 3c 73 36 d6 3a
       0.0016616238 0.01474179 0.008921327 0.0016343131
000300 f0 8e ad 3b e2 97 5a bc 9d 8b cf bc 13 d6 92 39
       0.0052965805 -0.013341876 -0.025335127 0.00028006788
000310 72 b4 b0 3c 62 e0 b8 bc f3 78 98 bc fa 92 72 bc
       0.021570418 -0.022567932 -0.01861236 -0.01480555
000320 32 89 a9 3c e5 d5 13 bb 05 29 6a 3c 88 5a 80 3b
       0.020695303 -0.002255791 0.014292006 0.003917042
000330 2b 71 fc bb 59 29 ae bc 00 88 33 3c bb 56 b6 bc
       -0.0077039204 -0.02125995 0.010957718 -0.022258153
000340 9e 99 c0 bb 79 cf 92 3c 31 c5 60 bc 04 c1 a3 3c
       -0.0058776876 0.017921196 -0.013718889 0.019989498
000350 39 1a 78 bc b7 bd 0d 3c 79 2e 39 b9 b1 05 b3 bb
       -0.015142971 0.008651189 -0.00017660287 -0.005463325
000360 7c 5c 90 bb e4 0d ca bc 52 46 99 bc bd b0 c9 3b
       -0.0044055562 -0.024664827 -0.01871029 0.006155102
000370 57 a3 0e 3b 90 34 8c 3c 23 b5 9d 3c 32 f6 33 ba
       0.0021764839 0.017114908 0.019251412 -0.0006864994
000380 b3 01 05 bb f4 e3 ad 3c 82 69 c9 bb c8 30 25 bc
       -0.0020295202 0.02122686 -0.0061466107 -0.010082431
000390 59 e4 aa 3b fc b4 a2 3c cd 77 8d bc b9 d0 9e b9
       0.0052152094 0.01986169 -0.01726904 -0.0003029162
0003a0 92 b8 16 3b f5 ed 2e bb 53 31 c3 3b 2a 45 c9 bb
       0.0022998196 -0.0026692126 0.0059568076 -0.006142278
0003b0 1f 2e fc bb c2 bc 36 bb 5a 77 cb bb 3a b2 9e 3c
       -0.0076959278 -0.0027883505 -0.006209296 0.019372094
0003c0 81 11 0c 3c 35 f6 89 bb 97 3b 66 bc 78 86 a4 bc
       0.008549095 -0.0042102584 -0.014052293 -0.020083651
0003d0 14 d1 98 3c dd 79 74 bb 0e 79 8f 3c ed 6a 8f 3b
       0.018654384 -0.0037304081 0.017513778 0.00437676
0003e0 f9 22 51 bc f2 5c c4 bc d4 f3 97 3c b7 0b b6 ba
       -0.012764686 -0.023970101 0.018548883 -0.0013888989
0003f0 7e ba 89 3c 4b 21 a2 bc 1a 00 ba 3c 0a 5e 9d 3b
       0.01681256 -0.019791266 0.022705127 0.00480247

nonreduce1_1.bias f4 [32]
000000 e7 59 81 3c f2 41 94 3c 88 6c 6c 3c b7 af ec 3c
       0.01578994 0.018097851 0.014430173 0.028892381
000010 b5 4b ad 3c 9e fe 20 3c 4a 24 8f ba f9 1d 87 bb
       0.021154264 0.0098263305 -0.0010920849 -0.004123446
000020 6c e9 da 3c 7a 19 12 bc 3c f9 b4 3c 7b 89 f4 3b
       0.026722632 -0.008917207 0.0220915 0.007462678
000030 19 3c 2a bc db 9f bb 3c 51 37 1e 3d 25 1a 1c 3d
       -0.010390305 0.022903373 0.038626973 0.03811087
000040 a6 49 d4 3c 1d bd 5e 3d d1 9f 65 bb 5f 90 b5 bb
       0.025914025 0.05437957 -0.0035037885 -0.005540892
000050 07 a9 73 3c 06 c9 fd bb dc 01 b5 ba 6b ea ef 3b
       0.014871842 -0.007744911 -0.0013809758 0.007321646
000060 6a 74 20 39 27 58 99 3c 55 aa 0b 3c a4 2d 27 3c
       0.00015302157 0.018718792 0.008524497 0.010203753
000070 75 0a 35 3c 24 e9 d5 3c 57 d8 03 3d 1c c5 36 3c
       0.011049856 0.026112147 0.03218874 0.011155393

nonreduce1_2.weight f4 [32, 32, 3, 3, 3]
000000 9f c0 24 bc 7d d1 9f bb b7 ec df bc 74 11 f4 bc
       -0.01005569 -0.004877268 -0.027334554 -0.029793479
000010 a4 8e 7c 38 2d ff 1f bc db 19 78 bc 8f 1d 01 bd
       6.0214326e-05 -0.0097654285 -0.015142883 -0.03152233
000020 81 a7 8a 3b 2c ed ad 3b 2f 45 30 ba 55 4d 9e 3c
       0.004231394 0.005307814 -0.00067241763 0.019323984
000030 5f 3e 75 3c 9b 48 06 bb a0 10 01 bc f4 27 af 3c
       0.014968484 -0.0020490054 -0.007877499 0.021381356
000040 ce 67 da 3c 11 cc e9 3c 3f ad 0b 3b 37 5d e2 3b
       0.026660826 0.02853969 0.002131298 0.0069080847
000050 65 22 01 bd b8 2c 65 bc 63 75 93 3c 81 63 18 3b
       -0.03152694 -0.013987713 0.01800031 0.0023252668
000060 c6 49 9e 3a ef be 55 3c 34 21 a5 bc 09 9e e0 3b
       0.001207643 0.01304601 -0.020157434 0.0068547768
000070 16 8c d6 bc a5 db 6b bc ee b5 e0 3b 8c e6 d7 bc
       -0.026189845 -0.014395629 0.006857625 -0.02635505
000080 bb 74 5b bc 48 6a 0a 3d a8 76 bf bc 0d 1f 30 3b
       -0.01339453 0.033792764 -0.02337201 0.0026873976
000090 df 73 fb bb a4 4e 83 bb 9b e6 1c bc 52 f0 3b 3c
       -0.007673725 -0.0040071774 -0.009576465 0.011470871
0000a0 be 87 14 bc b8 2a 25 3c 2e 55 a2 bc d6 02 fe 3c
       -0.009065567 0.010080986 -0.019816007 0.031007212
0000b0 57 8c 0e 3d aa 39 81 bc a2 d5 80 3c f8 c5 b2 3c
       0.034801807 -0.015774567 0.015726868 0.021822914
0000c0 c3 83 bf bc 95 7b 32 bc 0c 82 aa 3c b5 a9 65 3c
       -0.023378259 -0.010893722 0.020813964 0.014017512
0000d0 9a 4a 0b 3d 24 31 db 3b 62 49 60 3c 3b 84 88 bc
       0.034006692 0.0066892076 0.013689371 -0.016664615
0000e0 8f 9c ba bc 8d 8c ee bb 3f 12 05 3d c6 17 2a 3c
       -0.022779731 -0.0072799386 0.032488104 0.010381645
0000f0 df 61 85 3c 11 dc 15 3c 9d 0a 1a 3d 49 c4 51 bc
       0.01628202 0.009146706 0.037607778 -0.012803146
000100 df 1a 04 3d 75 b0 11 3c 96 13 8f bc 8f 37 1a 3d
       0.03225219 0.008892168 -0.017465394 0.03765064
000110 91 18 9b bc 75 e4 14 3d fc 33 39 bc e1 55 03 3d
       -0.018932613 0.036350686 -0.011303898 0.032064322
000120 6a 91 b8 bc f2 08 be bc 45 70 8a 38 b1 c6 8a bc
       -0.022530276 -0.023197625 6.6012646e-05 -0.016940447
000130 04 dd 0b 3d a6 41 16 3d ac bc cb bc 87 a9 28 3d
       0.034146324 0.0366837 -0.02487024 0.0411773
000140 3b 00 91 bc 08 c7 0d ba 5c 8c 2c 3d 82 a0 69 bb
       -0.017700305 -0.0005408381 0.042126045 -0.0035648649
000150 81 54 1c ba 99 b0 23 3d ee 4f 9c bc 8c f5 b4 3a
       -0.000596352 0.03996334 -0.019081082 0.0013806089
000160 fa c9 12 3d 9c 0c 9f bc 3e 49 16 3d 15 95 9e bb
       0.03583715 -0.019415192 0.036690943 -0.0048395493
000170 d6 fe b6 bc 46 59 66 3c 4a e6 e5 bb f8 76 a2 3c
       -0.022338312 0.01405937 -0.007015978 0.01983212
000180 26 f4 64 3b 9f 37 e2 3c a7 4a 9b 3b 1b 0b cf bc
       0.0034935563 0.027614413 0.004739124 -0.02527385
000190 71 c2 ee bc e1 c8 f7 3c 8b 34 a7 3c 7d d4 da bc
       -0.029145451 0.030247154 0.020410797 -0.02671265
0001a0 80 49 01 3d 19 a8 1d bc 63 6e f0 3c 25 03 01 3c
       0.031564236 -0.009622597 0.029349511 0.007874285
0001b0 a3 8c 48 3c aa bf 5c 3b 1e d1 a5 bc 73 a2 05 bd
       0.012240562 0.0033683577 -0.020241316 -0.032625627
0001c0 b5 92 cd 3c 2a 58 b0 bc ae e4 86 3c 77 ed 95 3c
       0.02509437 -0.021526415 0.016466465 0.018301709
0001d0 16 f8 12 bc c4 f1 11 3c 36 c3 f5 3b a3 52 3c bc
       -0.008970281 0.008907739 0.0075000776 -0.0114943115
0001e0 dd 90 66 3b 2b 98 8d bb 36 ee 0e 3d 33 1a 7a 3c
       0.003518156 -0.0043211184 0.034895144 0.015265035
0001f0 50 97 9a ba 12 e0 0a bb 5b 1c e5 3c d9 7a ec 3b
       -0.0011794362 -0.0021190685 0.027967623 0.007216793
000200 e0 26 81 3c d2 4c c8 3b 68 8b 56 3c 7a 62 84 3c
       0.015765607 0.0061126733 0.0130947605 0.016160239
000210 91 aa 8c bc 17 50 20 3c ac 8d 82 3c 1f 8d ca 3c
       -0.017171176 0.00978472 0.015936695 0.024725495
000220 b3 4c 05 bd 9b 15 00 3d 28 61 50 bc b9 88 c9 bc
       -0.03254385 0.031270605 -0.012718476 -0.024601327
000230 5c 92 f5 bc a9 36 28 ba c3 63 c3 3c 94 d4 b6 bc
       -0.029977016 -0.00064168364 0.023851281 -0.022318162
000240 e8 23 69 bc 2a b6 9c bc 47 29 be 3c 6c ad 08 3c
       -0.014229752 -0.019129831 0.023213042 0.008342128
000250 75 40 b4 3c e9 af c6 bc f2 23 80 bc 0f 88 c2 3b
       0.022003392 -0.024253802 -0.01564214 0.0059366296
000260 79 b7 c6 bc d6 1a 43 b9 2b a5 d2 3c 32 91 f7 3c
       -0.024257408 -0.00018606646 0.025713524 0.030220602
000270 ad f5 04 bd c8 e5 e0 bc 39 cf 07 3d a2 78 07 3d
       -0.032460857 -0.027453318 0.033156607 0.03307403
000280 3b d6 54 bb e8 bf 86 bc 07 8f 81 3c b8 7f af 3c
       -0.0032476324 -0.01644893 0.015815271 0.021423206
000290 1d 05 15 3c 4e cc ce 3c 9b b2 0f 3d 97 6d 77 bb
       0.009095457 0.025243904 0.03508244 -0.003775453
0002a0 96 0a 70 bc f3 3d d0 3c d8 8f 92 3c a2 3d 2c 3c
       -0.014650961 0.025420165 0.017890856 0.010512741
0002b0 df 6a f5 3c 18 2f 1b 3c 98 82 87 bc 93 9e 74 3c
       0.029958187 0.009471677 -0.016541764 0.014930385
0002c0 3e 98 3e bc 4e 30 06 3d 7c f1 dd ba ae bb 23 bc
       -0.011632977 0.03276091 -0.001693293 -0.009993477
0002d0 6f c9 ab 3c 30 4c 7c 3c e8 04 83 3c 0d cd b8 b8
       0.020970074 0.015399024 0.01599355 -8.8119974e-05
0002e0 76 43 fc bc 66 f8 97 3b f5 ea 91 3c c6 62 9e bc
       -0.030793887 0.0046377657 0.017812232 -0.019334208
0002f0 ed 62 8a bc 00 e4 a9 bc 4f e7 c4 bc 62 76 9c bc
       -0.016892875 -0.020738602 -0.024036078 -0.019099418
000300 0a 74 81 ba 56 eb 3a bc 19 f4 9e 3c c9 cd 8b bc
       -0.0009876501 -0.0114086475 0.019403504 -0.0170659
000310 73 57 0b 3d e9 b2 aa bc 8b 58 92 3c 09 f7 32 3c
       0.034018945 -0.020837264 0.017864486 0.010923156
000320 71 84 2f 39 b2 1a b5 bb 8e 76 a6 bc c8 e3 25 bb
       0.00016738639 -0.005526864 -0.020320203 -0.002531277
000330 59 5b d6 bc 26 54 cd bc 77 e0 02 3d 84 90 0b bd
       -0.026166605 -0.02506454 0.031952348 -0.034073368
000340 ae 14 c4 bc 2a 65 d2 bb be 48 0f 3b 4b 95 31 3c
       -0.023935642 -0.006420751 0.0021863426 0.010838817
000350 42 2d 52 3c 62 92 65 3c a8 8f be bc 5a 9f ed bc
       0.012828173 0.014011951 -0.02326186 -0.029006649
000360 c5 64 99 bc aa b7 bc bc 12 c2 fb bb 1a f7 a3 3c
       -0.018724808 -0.023036797 -0.007683047 0.020015288
000370 3d 4d 75 3c d0 0e 20 3d 6d 67 09 bc 90 18 46 bc
       0.014972028 0.039076626 -0.008386475 -0.012090817
000380 63 de bf 3b 08 2e 10 3d 4e 58 8a 3c d3 f2 cc bc
       0.005855368 0.03520015 0.01688781 -0.025018131
000390 92 3d 82 3c 6c ec 09 bd 71 79 39 bc 66 40 fa 3c
       0.0158985 -0.033672735 -0.011320458 0.030548286
0003a0 a3 cc e5 bc 1b 4d b3 bc 66 29 9d ba 8d 07 21 3c
       -0.02805168 -0.021887353 -0.0011990487 0.00982846
0003b0 36 44 48 bc 2f 46 f6 bc 5e cd 74 bc 9c 5a dc bc
       -0.012223294 -0.030062763 -0.0149415415 -0.026898675
0003c0 a1 5d 90 bc 27 ff 34 bc 2b 73 8b 3c 17 25 60 3c
       -0.01762277 -0.011047161 0.01702269 0.013680718
0003d0 02 72 11 bc 10 19 2c 3c fd bf cb 3c 02 9b 30 3c
       -0.008877279 0.010504022 0.02487182 0.010779144
0003e0 46 0b ca b8 9d 53 82 bb 57 69 73 bc 68 f1 f7 3c
       -9.6342104e-05 -0.0039772526 -0.014856658 0.030266479
0003f0 47 0c 31 3b c4 c5 a2 3b 96 49 d1 3b 08 c6 b1 3a
       0.0027015375 0.004967423 0.006386946 0.0013563046

nonreduce1_2.bias f4 [32]
000000 5b f5 5e 3d 0d bd 9d 3c 19 f0 07 3d 21 c3 27 3d
       0.054433208 0.019255185 0.03318796 0.040957574
000010 22 15 a8 3c d9 a4 71 3c a9 9c 7d bc 9c 18 2c 3d
       0.02051789 0.014748775 -0.015479245 0.042015657
000020 71 03 8d 3c 38 23 01 3d 3b ed 22 3d 41 e1 8f bc
       0.017213555 0.031527728 0.03977702 -0.017563464
000030 98 e2 28 3c 62 79 82 3c 48 99 14 3d 7f b7 81 bc
       0.01030793 0.01592702 0.036278993 -0.015834568
000040 d6 b2 02 3d f1 da 25 3c 59 41 b4 bc 01 1e 7a 3c
       0.031908832 0.0101230005 -0.022003816 0.015265943
000050 d8 f2 c3 b9 1a d1 03 3d 5e 28 dd 3c 6a bd f6 bc
       -0.0003737423 0.032181837 0.026996788 -0.030119617
000060 6e 36 eb bc 46 58 28 3d d8 e2 26 3d 14 12 66 39
       -0.028712478 0.04109981 0.04074368 0.00021941244
000070 75 cc 45 3d 8b b9 e6 3c d9 43 eb 3a f3 f7 ea bc
       0.04829069 0.028164646 0.0017949297 -0.028682685

nonreduce1_3.weight f4 [32, 32, 3, 3, 3]
000000 7c 7b a5 3c 3a f1 17 bb 28 91 05 3d 90 d3 b8 bb
       0.020200484 -0.0023184554 0.032609135 -0.0056404546
000010 42 07 47 3d 3b a3 2e bb 4e a8 0f 3c 47 8e 2d 3d
       0.048590906 -0.0026647586 0.008768154 0.042372014
000020 d9 ee a3 3c 7a 1e 64 3c 0e 57 15 3d 9a f7 25 3a
       0.020011352 0.013923282 0.036459975 0.0006331146
000030 3d 30 0d 3d 0a 89 66 bb 54 97 f9 bb fe d5 32 3c
       0.03446983 -0.0035176896 -0.0076169167 0.0109152775
000040 5a b1 1c 3d d6 2a 04 3d 99 30 b4 3a 8b ee 7a 3b
       0.038255073 0.032267414 0.0013747393 0.0038289155
000050 1d ab b0 3b 7c 95 8f 3c e6 6f 3a 3d 49 18 8b 39
       0.005391492 0.017527334 0.04551687 0.0002653024
000060 12 ce a9 bb 5c 0f 34 bc 8d 1d 30 3d be 9d ba bc
       -0.005182036 -0.01098999 0.04299693 -0.022780295
000070 5d 5b 8f bc 4d 6f 98 b7 bb e7 89 3a 58 64 04 3c
       -0.01749962 -1.817164e-05 0.0010521332 0.008080564
000080 f4 28 92 3c 5f 73 62 3c df 77 0a bd 82 0b cc 3c
       0.017841794 0.013821452 -0.033805724 0.024907831
000090 04 75 0b 3c 53 4a c1 3c 7e a8 99 3b f3 0b 88 ba
       0.008511785 0.02359501 0.0046892753 -0.0010379538
0000a0 f4 a5 e2 bc 9c 62 ed 3a 66 94 5d bc fc 9d 1f ba
       -0.027667023 0.0018111053 -0.0135241505 -0.000608891
0000b0 4d de fd 3c 11 ea 71 3c 52 4a d4 bc 37 f4 bb bc
       0.03098979 0.014765278 -0.025914345 -0.0229436
0000c0 09 4b 38 3b 9e 63 cc 3c b8 71 05 bd 9f d2 15 bb
       0.0028120896 0.024949845 -0.032579154 -0.0022861136
0000d0 84 59 28 bb 45 f0 e3 bb 66 fb e2 3c e0 02 5b 3b
       -0.002568812 -0.0069561326 0.027707767 0.0033418462
0000e0 97 ea b0 3c 11 d1 a7 bc af ef c1 bc 76 ea 62 bc
       0.021596236 -0.020485433 -0.02367386 -0.013849845
0000f0 9f d6 e8 bc fd 60 8a 3a 97 39 56 bb ec 47 7d bc
       -0.028422652 0.0010557469 -0.0032688135 -0.015459042
000100 36 04 81 ba 94 c2 72 3c b5 27 56 3b 10 40 93 3a
       -0.0009843174 0.014816899 0.0032677476 0.0011234302
000110 6a 0c 57 3b df 66 c5 bb d4 2f bf 3c 32 67 c7 3b
       0.0032813796 -0.006024226 0.023338236 0.0060853
000120 f9 ca 80 bc 46 b4 f7 3c 98 91 97 3c 21 95 85 3c
       -0.015721785 0.030237328 0.018502042 0.016306462
000130 b8 8d c7 bb 71 0b 6f bc 0a 5d 5f 3b 5b 9d 82 3b
       -0.0060898922 -0.01459013 0.0034082555 0.0039860434
000140 a8 37 ad bc da cb a2 3c b1 84 b8 bc 63 4b 8b b9
       -0.021144703 0.019872595 -0.02252421 -0.00026568313
000150 38 9a 10 bc f8 b9 b8 bc 85 e9 d1 bb c8 45 a2 3c
       -0.008825831 -0.022549614 -0.0064060115 0.019808665
000160 17 db 8a bb 51 f5 ec bc c2 2f 08 bc 06 8d b0 bb
       -0.0042375433 -0.02892557 -0.008312168 -0.005387905
000170 a4 a7 d3 3c 1c e3 56 3c 2a ea ee 3b 8f ee 57 3b
       0.025836773 0.0131156705 0.007291098 0.0032948588
000180 65 01 88 3c 6f 8f 2b 3b 0d a7 b4 bc 6c 36 c4 bc
       0.016602227 0.0026178022 -0.022052312 -0.023951732
000190 a8 e1 d0 bb df 44 a5 bc 54 ca 00 bc 18 35 e2 3c
       -0.0063745566 -0.020174442 -0.007860739 0.027613208
0001a0 01 1a d8 3c a7 79 2e 3d 36 ee 52 bc 56 ce 11 3d
       0.026379587 0.042596485 -0.012874177 0.035597168
0001b0 b7 da 3a bc c5 59 17 3c c0 fb c5 3c 35 79 fa bc
       -0.011404685 0.009237711 0.024167895 -0.030575374
0001c0 71 13 6b bc 4b cc 40 38 2d 1b d6 3c 50 b1 83 bc
       -0.014347897 4.596663e-05 0.026136005 -0.01607576
0001d0 2a 0a f7 3c 56 d2 d1 bc b5 2a ee 3b 8f f2 10 bc
       0.030156214 -0.025612991 0.0072682747 -0.008846893
0001e0 38 20 97 3c 56 1f 91 3b 4c d7 94 3c 38 d1 88 bc
       0.01844798 0.0044287844 0.018169068 -0.016701326
0001f0 69 39 29 3c 5a 88 0e 3c ba 78 f5 bc 6d 94 a8 3b
       0.010328629 0.008699501 -0.029964793 0.005144647
000200 32 2f b3 bc e6 dc 00 3d 19 1f 04 3d d1 ef 58 3c
       -0.02187309 0.031460665 0.03225622 0.01324077
000210 41 96 6b 3c 51 a9 a6 bc 95 c5 11 3b 3e d9 df bc
       0.014379085 -0.020344408 0.0022243012 -0.027325269
000220 8d 0f 4a 3b 66 a0 bb bb 5a 13 dd 3c 55 a8 8e bc
       0.0030832023 -0.005725908 0.026986767 -0.017414251
000230 e1 8d 60 3b d9 4d 9d bc 2a dc c9 bc ab 27 ff bb
       0.0034264254 -0.01920216 -0.024641115 -0.007786711
000240 1b a6 5f bc c9 bc ba bb 06 fd 51 bc 39 37 37 3b
       -0.0136504425 -0.0056987745 -0.012816673 0.00279565
000250 46 18 82 3c 0d 09 a4 bc 71 6c 92 3c 60 06 db bc
       0.015880715 -0.020023847 0.017873975 -0.026736438
000260 14 ae 82 bc 83 e9 ec 3c 4c d3 c3 3c 31 d2 f1 3c
       -0.015952148 0.02891994 0.023904465 0.029519172
000270 b2 8b 90 bb d2 95 70 3c 5a 02 16 ba 83 a7 f3 bc
       -0.004411184 0.014684157 -0.00057223963 -0.029742962
000280 b7 ba 76 bb 2c a0 be bc b9 c1 58 bc 59 df ab bb
       -0.0037647912 -0.023269735 -0.013229781 -0.005245131
000290 2b 62 e5 bc 49 02 6e bc ff d2 0e bc 55 d5 e8 3c
       -0.028000912 -0.014526912 -0.008717298 0.028422037
0002a0 92 8c cc 3c 4d a5 f8 3c b2 cf c6 bc 3c 37 09 bc
       0.024969373 0.030352259 -0.024268959 -0.008374985
0002b0 2d f3 d9 3c 17 b6 84 3c b8 1c 01 bd c3 f9 82 3b
       0.026605213 0.016200108 -0.03152153 0.003997059
0002c0 9a a1 01 3d 8b 48 ae bc 28 a2 28 bc 06 82 82 3c
       0.031648256 -0.021274826 -0.010292567 0.01593114
0002d0 a9 39 dc 3c be 3c 12 3b 72 1c a0 3c 44 a1 08 bc
       0.026882963 0.0022314037 0.019544814 -0.00833923
0002e0 44 2c ac 3c c0 11 a2 bb 2a 54 2f bc c5 0d f8 3c
       0.021017201 -0.0049459636 -0.010701219 0.030280003
0002f0 03 d2 fc bb 71 13 f8 bc 92 c4 db 3c 41 a6 28 3c
       -0.007715465 -0.030282708 0.02682713 0.010293544
000300 4e 04 3e 3b 97 b9 0d 3d 65 c8 00 3d bb ac 03 3d
       0.0028994265 0.03460082 0.03144111 0.03214715
000310 35 f0 ae bb 77 ac 72 bc 19 a9 14 3b 0b 81 b4 3c
       -0.0053386935 -0.014811627 0.0022683798 0.022034189
000320 14 97 5e bc 43 7a c8 3c c2 56 7a 3c c8 37 ed 3c
       -0.0135858245 0.024472361 0.015279474 0.028957263
000330 42 e4 52 bc cb a3 b0 3c b4 35 ac bb 51 b1 5d 3c
       -0.012871804 0.021562478 -0.0052554253 0.013531045
000340 d7 a0 04 3d 6f 47 f4 3b 7b dd b3 bc 13 38 87 3c
       0.03237995 0.0074548046 -0.021956196 0.01650623
000350 e9 70 a3 3c af 08 9d 3c d0 ae 89 bc 7d c9 c1 bc
       0.0199513 0.01916918 -0.01680699 -0.023655647
000360 c1 cd c4 3c b6 3b bf ba 23 1d a6 3b 57 d7 3c bc
       0.024023892 -0.0014589939 0.0050693913 -0.01152595
000370 85 cb ab 3c f6 4e 7b bc 4a 44 47 3d cd d1 08 3d
       0.02097107 -0.01533865 0.04864911 0.033403207
000380 7e 3a 20 3d fb a9 11 3d 6e 52 85 3c 87 36 e5 3c
       0.039118282 0.035562497 0.016274657 0.027980102
000390 03 38 d6 3c a5 69 92 3c 4d 5c db bb dd 21 c7 3c
       0.026149755 0.01787264 -0.0066943527 0.02430814
0003a0 7c 9e a1 39 96 4e 15 bc e0 8b c9 b8 e0 90 bd bb
       0.00030826393 -0.009112975 -9.6104806e-05 -0.0057850927
0003b0 53 0e c7 3a c0 66 01 3d d8 ca 01 3d 60 d7 6f bc
       0.0015186764 0.03159213 0.031687587 -0.014638752
0003c0 04 7e 3d 3d 2e 7f f4 bb 76 fb 46 3b f5 46 10 3d
       0.046262756 -0.00746145 0.0030362285 0.03522392
0003d0 3a d1 ad bc a1 02 c8 bc bb 54 ab 3b a1 ae d1 bb
       -0.021217931 -0.024415316 0.0052286065 -0.006398991
0003e0 48 16 e7 3c d7 bc ce 3c 4a c1 50 bc c7 05 e5 bc
       0.028208867 0.02523653 -0.012741396 -0.027956856
0003f0 bf ac e9 3b 70 50 a5 3b b2 3c b7 bc 4c 71 5b 3c
       0.0071311886 0.0050449893 -0.022367809 0.013393711

nonreduce1_3.bias f4 [32]
000000 08 4d 81 3d de 47 fb 3c 37 8c e1 3c e6 f0 48 bb
       0.06313521 0.030673917 0.02753268 -0.0030661165
000010 d9 1d 83 3c 73 b6 37 bc 29 36 b9 ba b2 df e7 3c
       0.016005443 -0.011212933 -0.0014130521 0.028304908
000020 6d 4d 0c 3d 31 47 10 3b 93 a4 36 38 8c cf db bc
       0.034253526 0.002201509 4.3545453e-05 -0.026832364
000030 08 ca 72 3d 56 da 35 bc b7 a5 df 3c e2 d4 23 3c
       0.059274703 -0.011099419 0.027300699 0.009999486
000040 3a 69 04 bb 57 69 25 3d 8b fb af bc a1 78 8d bb
       -0.0020204321 0.040383663 -0.02148225 -0.0043173586
000050 34 75 04 3d 9c 79 4d 3c ff 68 6b bc 3e 2a 6f 3d
       0.032338336 0.012541201 -0.014368295 0.058389895
000060 f6 07 fc bb 2b 89 82 3c 80 55 c1 bb 36 c5 59 bc
       -0.0076913787 0.015934547 -0.005900085 -0.013291648
000070 30 a5 29 3d d6 62 22 bc a4 6e 7d 3b c3 eb c4 3a
       0.0414173 -0.00991126 0.0038670683 0.0015023876

reduce2.weight f4 [16, 32, 4, 4, 4]
000000 d3 d5 82 bc e7 e4 85 3c 6b 64 3f bc 70 cc 81 3c
       -0.0159711 0.0163445 -0.011681656 0.015844554
000010 5a 2f 6b 3c 0f f5 b2 ba 99 43 26 bc 2e 5b 2f 3c
       0.014354551 -0.0013653355 -0.0101479525 0.010702891
000020 6e 7f c9 3b 96 f3 6b bc 4f af dc 3b 3c 09 45 bc
       0.006149224 -0.014401337 0.0067347656 -0.012026127
000030 65 d0 69 3c a1 48 9e 3c 7f b6 89 3c ad ff 5e bc
       0.0142708765 0.019321742 0.016810654 -0.013610763
000040 d9 3e cf bc ac a9 7d 3c 97 77 6b bc df c9 5e bc
       -0.025298523 0.015482347 -0.014371774 -0.0135979345
000050 89 63 75 bc 06 0c 53 bc 45 75 6a ba 52 a2 1c 3c
       -0.014977344 -0.012881285 -0.0008943866 0.009560185
000060 9e ac ac bc e7 aa a0 3c 30 33 7c bc 3c 29 a0 3a
       -0.021078404 0.019612743 -0.015393063 0.001221932
000070 18 3f 63 bc 5b 18 18 bc 28 04 51 3c 5f 10 b8 bc
       -0.013870023 -0.009283151 0.012757339 -0.022468744
000080 16 7c 3d bc 57 6c 97 bc 0b 19 68 3c d6 f0 91 3b
       -0.011565229 -0.018484278 0.014166127 0.0044537587
000090 83 09 07 bb b1 37 0a bc 6b a6 5a ba 3c db 86 3b
       -0.0020605035 -0.008436129 -0.0008340838 0.0041154902
0000a0 c5 07 ca bb 99 19 0d bc 4f 0d 9c bc c5 b6 8b 3b
       -0.006165477 -0.00861206 -0.019049315 0.004263731
0000b0 6e 41 a5 bc bb c9 aa bc 2e cd 41 3a 7e e6 06 3c
       -0.0201728 -0.020848146 0.000739294 0.008233665
0000c0 8c 9a a4 bc 25 81 a0 3c d9 1d 73 3c c8 f4 3a 3b
       -0.020093225 0.01959283 0.014838659 0.0028527249
0000d0 54 fa 15 bc 8c ef 15 3b 6b 92 ad bc f5 13 be bb
       -0.009153921 0.0022878377 -0.021187982 -0.005800719
0000e0 4f 35 87 bc 42 26 02 3b 5d bf b2 bc c4 53 b1 bc
       -0.016504912 0.001985923 -0.021819765 -0.021646388
0000f0 e1 b1 2a 39 73 3c 9c 3c 39 6b fb bb 2f 60 2d 3c
       0.00016278728 0.019071793 -0.007672694 0.010582014
000100 14 75 04 3c 65 3f 98 3b 17 3d 90 bb a4 75 86 bc
       0.008084554 0.004646229 -0.0044018137 -0.016413517
000110 0a 95 8d bc 76 31 d2 39 36 c8 dd ba cd 73 b6 bb
       -0.017282981 0.00040091173 -0.001692063 -0.0055680037
000120 27 c4 b5 3c 66 3a 58 3c 51 a5 b7 3c ed 8e 38 bc
       0.02218826 0.013197517 0.022417696 -0.011264545
000130 a1 08 b9 3b 0f 51 48 3c e9 1f 8b bc 78 9a 46 bb
       0.0056467806 0.012226357 -0.01698299 -0.0030304473
000140 b5 73 91 bc 51 24 60 3c 53 8d 0f 3c 93 55 a4 bb
       -0.017755369 0.0136805335 0.008761722 -0.005015084
000150 fd bf 4b bc 20 a3 a5 3c 73 3b 93 3c fb d1 8f bc
       -0.01243591 0.020219386 0.017972684 -0.017556181
000160 68 10 2f 3c 39 27 3b 3c 8a 4f c2 3c 48 76 37 bc
       0.010685064 0.011422926 0.023719568 -0.011197634
000170 75 ca a7 bb 36 d0 c3 3b 67 96 14 bb b5 4c 36 bb
       -0.0051205703 0.0059757484 -0.0022672655 -0.0027816717
000180 50 dd 2d 3c 51 7b a8 bb b6 47 45 bc 97 bd 51 bb
       0.010611847 -0.0051416536 -0.012041023 -0.0032003873
000190 8f 49 be 3c 05 69 7d bc 23 5e d6 bb 51 68 79 bb
       0.023228435 -0.015466933 -0.0065419837 -0.0038056562
0001a0 c0 9a 5e 3c c1 68 a3 3a 71 9f b7 3c b2 4d 52 bc
       0.0135867 0.0012467132 0.022414895 -0.012835907
0001b0 40 64 ac 3c d3 48 60 3a 03 bd 9e 3c fa 41 9b bc
       0.021043897 0.00085557735 0.019377237 -0.018952359
0001c0 fa a6 b1 3c 95 c4 82 bc d0 2a c1 bb 52 50 0d bc
       0.021686066 -0.015962878 -0.005894996 -0.008625107
0001d0 22 20 0a 3c 65 99 77 3c e3 58 52 bc 98 19 2d 3c
       0.008430513 0.015112256 -0.012838575 0.010565184
0001e0 74 8b b6 bb 02 40 f6 3b c2 07 a5 bb 9d c2 5f bc
       -0.0055708233 0.0075149545 -0.005036325 -0.013657239
0001f0 71 ab 4e bc e9 42 84 bb 0d fd 4a bc 00 03 90 bc
       -0.012614117 -0.0040362966 -0.012389434 -0.017579556
000200 3c 42 36 bc 98 ca b2 3c 87 7c 9c 3c 5f 1c b4 3b
       -0.01112419 0.02182512 0.019102348 0.005496546
000210 0b f3 9d bb 5b c3 33 bb f3 53 35 bc d0 da 3e bb
       -0.0048202327 -0.0027429673 -0.011067378 -0.0029122122
000220 11 e5 88 bc eb 1f fe bb c8 79 ad 3c 41 3b 68 bc
       -0.01671079 -0.0077552698 0.021176234 -0.0141742835
000230 54 4e 8e bb c8 48 c7 39 56 55 99 3c a0 87 13 bc
       -0.0043428335 0.00038010464 0.01871745 -0.0090045035
000240 20 8e 52 3b 10 93 19 bb c9 e0 d7 b9 0a 6f fc ba
       0.003212817 -0.0023433603 -0.00041175474 -0.0019259166
000250 0a 50 60 bc 6b 1d 35 3c 72 b4 23 3b 76 c8 a6 bc
       -0.013690958 0.011054377 0.002497938 -0.02035926
000260 64 58 1d 3c 1e 80 e8 bb 67 f0 b9 3c c7 09 76 3c
       0.0096035935 -0.007095351 0.02269764 0.01501698
000270 b8 e9 ee 3b 4f 6e 2c 3c 44 81 19 3c 09 0e d7 bb
       0.007291045 0.0105243465 0.009369198 -0.0065629524
000280 7a 8f 4f bc 63 78 85 bc 39 4c 90 3b 53 b2 54 bc
       -0.012668485 -0.016292756 0.0044036177 -0.012981969
000290 90 5d 69 bc b7 a5 be 39 c3 8c 64 3c 24 f0 04 bc
       -0.014243498 0.0003636309 0.013949576 -0.008113895
0002a0 5f 7e f9 3b bb 7a 6a bc a9 ae 37 bb 75 fc f4 bb
       0.0076139416 -0.014311488 -0.002802769 -0.0074763843
0002b0 95 92 69 bb 1b 5e a2 bc a8 c5 17 ba d8 71 80 3c
       -0.0035640348 -0.019820264 -0.0005789646 0.015679285
0002c0 10 75 52 3b 4d f6 9d 3c 2b 14 b6 bc 2a 29 59 3c
       0.0032113232 0.019282484 -0.022226414 0.013254443
0002d0 c9 de 0e bc 04 c1 4a bc d3 53 97 bc 5d 8a 4f 3c
       -0.008720108 -0.01237512 -0.018472588 0.012667266
0002e0 e4 20 f5 bb 0d d6 84 3c a8 8a 1a 3c eb 01 74 3c
       -0.0074807275 0.016215349 0.009432472 0.014893035
0002f0 49 ac 88 bc 8b 02 79 bc ab 7d fe bb be de 58 3c
       -0.016683714 -0.01519836 -0.0077664456 0.0132367
000300 22 44 5a bc a4 52 83 3c 98 29 54 3c 8e 24 2c 3a
       -0.013321908 0.016030617 0.01294937 0.00065667264
000310 d4 80 55 bb 8d 25 40 bc 35 78 dc bb 4d 3a fa 39
       -0.0032578008 -0.011727703 -0.006728197 0.00047727153
000320 e4 98 9d 3c 2f 61 89 bc 6f 9a 68 bb da 2a b9 3c
       0.019237943 -0.016769974 -0.003549244 0.022603441
000330 72 47 9e 3c e7 7b 86 3c 61 5d 9b bc 55 b7 86 3c
       0.019321177 0.016416503 -0.018965425 0.016444841
000340 08 aa 8a 3b a8 09 87 bc f9 57 c4 ba 18 e8 bd 3a
       0.004231695 -0.016484097 -0.0014979831 0.0014488725
000350 b0 89 a2 ba 4f 66 e7 3b 5d 25 8e 3b b0 ca 10 bc
       -0.0012400653 0.0070617567 0.00433795 -0.008837387
000360 03 54 e6 bb cf ed 27 3b 62 4f e0 bb f5 11 dd bb
       -0.007029058 0.0025623923 -0.0068454007 -0.0067465254
000370 d9 c8 2a 3c 75 cf 7e 3c 7b ac 54 3c ca 5b 5c 3c
       0.010423862 0.015552391 0.012980576 0.013449619
000380 fb 56 5f bc 59 79 85 bc a4 c1 2b bb 47 c7 af 3b
       -0.013631578 -0.016293215 -0.0026207948 0.005364332
000390 f3 10 89 bc 95 c6 86 3c 83 16 05 3b 6b d3 1d 3c
       -0.016731715 0.016452113 0.0020307607 0.0096329255
0003a0 8f ba 90 3c f1 20 dc bb b9 46 4c bc c3 8a 86 bc
       0.017667083 -0.006717794 -0.0124680335 -0.016423589
0003b0 7d 7c 72 3c 2a 04 a8 bc db a8 43 3a ff 4c 4c 3c
       0.014800188 -0.020509798 0.0007463821 0.012469529
0003c0 b1 af 82 3c c4 2a 78 39 d0 a3 89 bc 9b 13 95 3c
       0.015952917 0.00023667054 -0.016801745 0.018197825
0003d0 3f 53 19 3c b5 54 cc 38 18 b5 9f bb af 9f 30 3a
       0.009358226 9.743256e-05 -0.004873883 0.0006737662
0003e0 7a cf 20 bc cc d2 eb b9 6b e4 5d bc f3 bb bd 3c
       -0.009815091 -0.0004497975 -0.013543229 0.02316091
0003f0 06 b8 74 3c 20 57 8a 3c b5 85 16 3c 41 c9 4f 3c
       0.014936453 0.016887248 0.009187152 0.01268226

reduce2.bias f4 [16]
000000 13 65 10 3c 6c c7 8b 3b 38 28 c1 3c 30 1d e9 3c
       0.0088131605 0.0042657163 0.023578748 0.0284563
000010 d8 e2 e6 3c b7 c9 00 3d 11 13 b7 3b 1d e9 4d 3d
       0.02818434 0.03144237 0.0055869897 0.050271142
000020 a8 33 90 3c 18 0a b3 3c 5e 5e 28 3d bb 1f b2 bb
       0.017602757 0.021855399 0.04110562 -0.0054359115
000030 3f 5e 42 3b 5d ad b8 3c 6a 90 12 3b a8 ba be 3b
       0.0029658226 0.022543604 0.002236391 0.005820591

nonreduce2_1.weight f4 [16, 16, 3, 3, 3]
000000 01 ba 3d 3d e7 f8 70 bc 99 4c c5 3c 30 39 b5 bc
       0.046319965 -0.01470778 0.024084376 -0.022121996
000010 2f 75 06 3d c6 23 22 bc 71 01 9a 3c 35 cb d7 bc
       0.0328266 -0.009896224 0.018799515 -0.026342014
000020 07 e9 fa 3c b5 eb 37 3d 11 4e fd 3c 5f 5b 4d b9
       0.030628694 0.044902522 0.030921014 -0.00019584362
000030 b3 fa 20 3d a6 03 dc 3b cf 89 78 bb 33 69 15 3d
       0.039301585 0.006714302 -0.0037923937 0.03647728
000040 8a a1 30 3d 9e 07 32 ba 0a 71 d8 3c 44 b2 1b 3c
       0.043122806 -0.0006791296 0.026421089 0.009502951
000050 a0 c2 c5 bb ee ce 89 3c ca 19 e3 bc 7f 74 09 bd
       -0.006035164 0.016822305 -0.027722258 -0.033558365
000060 ab bf b9 39 9c d7 9b ba aa 0f bd 3c d7 ba 81 3b
       0.00035428753 -0.0011889818 0.023078758 0.0039590406
000070 38 06 21 3d 78 60 38 bd 3b 0e 26 bd 19 29 1d 3c
       0.03931257 -0.045013875 -0.040540915 0.009592318
000080 e0 53 48 3d b4 28 91 bc 14 c1 88 bb b8 3e c6 bc
       0.048908114 -0.017719604 -0.0041734073 -0.024199829
000090 ee a8 0a bc 1d d1 f7 3c d9 6e 21 bd f8 46 d2 3c
       -0.008463128 0.03025108 -0.039412353 0.025668606
0000a0 2e ce 6b 3c 96 e5 46 3d 4f 48 93 bc 6f 8d 7c 39
       0.014392419 0.048558794 -0.017978815 0.00024085281
0000b0 fd 71 a8 3c bf 40 c0 bc 46 ae ae bc a4 b1 df 3b
       0.020562166 -0.023468373 -0.021323334 0.0068265963
0000c0 ea 78 01 3d ea fd 3b 3d 33 01 62 3c 80 12 04 bd
       0.031609453 0.04589645 0.013794231 -0.032244205
0000d0 8c 6f 2c 3d 68 c9 e0 bc 12 72 28 3d bd ac 0b 3c
       0.042098567 -0.027439788 0.04112441 0.008525071
0000e0 41 31 97 3c 3a c0 c5 bc b0 00 e6 3c 84 b1 11 3d
       0.018456103 -0.024139512 0.0280765 0.035569683
0000f0 7d 44 35 bd 83 6d ed 3c a5 01 e3 ba 78 5b 2f bd
       -0.04425477 0.028982883 -0.0017319216 -0.04281184
000100 a9 fb 4a bd 92 2b 59 bc b3 46 c7 bc 17 22 a5 3c
       -0.049556408 -0.013255017 -0.024325704 0.020157857
000110 3a 09 f4 bc e1 9d 1d 3d c3 a7 27 ba ba 68 0c bd
       -0.029789556 0.038480643 -0.0006395543 -0.034279563
000120 ef 03 43 bd 12 3b fc bc 66 29 0b 3c 41 3b 16 bd
       -0.047611173 -0.030789886 0.008493757 -0.036677603
000130 35 cb 72 3b ac d9 81 3c bf 3c 44 3c c5 1a 13 3d
       0.003704739 0.015850864 0.011977374 0.0359142
000140 f7 99 11 bd 62 93 5a bd f0 33 81 3c 25 38 38 3d
       -0.035547223 -0.05336321 0.015771836 0.04497542
000150 8a 46 b3 bb 28 c9 07 3c 0f 3f 08 bd 0b 4d e8 bb
       -0.0054710554 0.0082877055 -0.033263262 -0.0070892624
000160 2a b9 2f bd cd 17 d9 3c b2 f4 80 bd 32 d1 54 3c
       -0.042901196 0.026500607 -0.06296672 0.012989329
000170 46 81 32 bc d2 a5 73 bd b8 de fd bc 03 1f 7c 3c
       -0.010895079 -0.05948431 -0.03098999 0.015388253
000180 ce b2 b6 3c 99 e5 10 bd 86 a1 a8 3c 47 f9 5c bd
       0.022302058 -0.03537521 0.020584833 -0.053948667
000190 fd 6b e0 b8 34 6c 9b 3c e4 df aa 3b ca 89 d2 bc
       -0.00010701267 0.018972494 0.005214678 -0.025700469
0001a0 d3 2d 28 3d a4 b5 96 bc 16 c0 1a bc b9 36 25 bd
       0.041059326 -0.01839716 -0.009445211 -0.04033539
0001b0 1c de 73 bb 64 8d ad 3c 78 59 c3 bb dd 57 19 bd
       -0.0037211245 0.021185584 -0.0059615932 -0.03743731
0001c0 80 6d 09 3d 3c 15 1b 3d b1 ee e7 bc 07 13 16 bd
       0.033551693 0.037862048 -0.02831206 -0.03663924
0001d0 b0 8c 24 bd 70 d6 6b 3c e7 28 b0 bc a4 e5 b9 bc
       -0.040173233 0.014394388 -0.021503879 -0.022692509
0001e0 53 e8 81 bc aa c7 e6 3c 0e 0c 44 bd 1d da ff bb
       -0.015857851 0.02817138 -0.04786306 -0.0078079836
0001f0 80 67 90 3c 0d 98 81 ba 35 bb 52 bd 46 08 5f bb
       0.017627478 -0.0009887234 -0.051448066 -0.003403203
000200 9a 68 0d bd bc 6b 0b 3c b8 37 df 3c de 0f 6f bd
       -0.034523584 0.008509573 0.027248248 -0.05836474
000210 f9 ef 17 3d 99 3c 1e bd ee e0 12 bd 7b 65 d1 3b
       0.03709409 -0.03863201 -0.03585904 0.0063902712
000220 95 7e b4 3c 1c 44 ce 3c 25 58 7f 3c d5 d0 85 3c
       0.022033015 0.025178961 0.01558498 0.01633493
000230 4f d6 54 bd 2d 9d 20 3d dc 01 73 3c 40 89 17 3d
       -0.051962193 0.039212395 0.014831986 0.036996126
000240 39 a0 22 3d ef 05 62 bc b9 87 1e bd b2 72 50 3c
       0.03970358 -0.01379536 -0.038703654 0.012722658
000250 87 fe f5 3c 4a d5 5d ba 91 96 12 bd 28 ff b3 bc
       0.030028595 -0.00084622635 -0.035788123 -0.021972254
000260 b2 46 2e 3d f4 66 24 bd b8 a9 2f bd b9 bf b5 bb
       0.04254789 -0.040137246 -0.042886466 -0.0055465368
000270 40 a0 ac 3c 51 50 27 bd 51 ee fe bb 73 08 b9 3b
       0.021072507 -0.04084808 -0.0077798744 0.005646759
000280 a4 9b 2b 3d 42 3d 2d 3d 1c 4f 7b bb 22 23 f5 3b
       0.041896477 0.042294748 -0.0038346713 0.007480995
000290 58 e7 f7 bc 81 c1 0a bd 54 ef 9b bc ac 16 f8 bc
       -0.03026168 -0.033875946 -0.019035019 -0.030284248
0002a0 52 15 8e bd c9 d8 71 bd 67 48 3d 3b 6d 48 0a 3d
       -0.0693766 -0.059044633 0.0028882266 0.033760477
0002b0 76 2d 97 bc db 34 4c bc 0e cd 0f ba 99 db 85 bd
       -0.018454295 -0.012463774 -0.00054855726 -0.065360256
0002c0 73 aa 49 bd 19 66 35 bc 0d 0e 9c bd bf d0 f4 bb
       -0.04923482 -0.011071705 -0.076198675 -0.0074711735
0002d0 9d 92 22 bd 7e 4c 3d 3c f1 d7 ae bc 44 dd cd bc
       -0.039690603 0.011553882 -0.021343203 -0.025129922
0002e0 d4 fd b5 bd e0 80 a3 bd 36 53 10 3c cf 88 ea bc
       -0.088863045 -0.07983565 0.0088089015 -0.028629689
0002f0 4e 25 68 bc ee 84 2e bc 1c 9d 0a bd 6d cf a8 3c
       -0.01416905 -0.01065181 -0.033841237 0.02060672
000300 02 03 f2 3c 8e 0a 9f 3b 8d aa 79 3c d2 55 d8 bb
       0.02954245 0.004853553 0.015238416 -0.0066020275
000310 d5 aa c7 3c a3 b6 08 bd 2f e8 bd bb 95 98 15 bc
       0.024373451 -0.0333773 -0.0057955007 -0.009130617
000320 b2 f6 1a bc ea 61 f7 3c 7e f8 3c bd 91 96 e0 bc
       -0.009458231 0.030198056 -0.046135418 -0.027415546
000330 d7 6b b8 bb f4 79 62 bc cf 4d 66 bd cf 16 41 3d
       -0.00562809 -0.013823021 -0.056226548 0.047140893
000340 dd 07 36 bd 9d 3f 2e bd 30 33 49 bd 40 e6 8e bd
       -0.044441093 -0.042541135 -0.04912108 -0.069775105
000350 5b 7e 8b bc 09 6d 63 bc 67 34 30 bd f8 7d 14 bc
       -0.017028024 -0.0138809765 -0.043018725 -0.009063236
000360 0c 9b 91 3c e4 16 46 bd 30 58 26 3a da 65 ca bb
       0.017774127 -0.048361674 0.00063455384 -0.0061766924
000370 87 1f f7 3c 30 f1 68 bc b7 4d 26 bd 22 b9 48 bc
       0.0301664 -0.01421766 -0.04060146 -0.01225117
000380 40 9b 16 3d ec 82 2d 3c 33 10 cb 3c 3f 7c f1 bb
       0.03676915 0.010590296 0.024787998 -0.0073695476
000390 28 a0 87 bc aa 15 13 3c 63 c1 98 bc bb 51 9b 3c
       -0.01655586 0.008977333 -0.018646901 0.01895987
0003a0 ee f1 fc 3b 38 d0 f7 3c 20 4d 18 bd 03 04 24 3d
       0.00771927 0.030250654 -0.037182927 0.04004289
0003b0 cf d4 dc 3b e7 fa 01 3d 48 19 f7 3c 1e 8a 05 bd
       0.006739236 0.03173342 0.030163422 -0.032602422
0003c0 de 16 04 3d 35 8d e1 3b d4 2e cb 3c 5b af 06 bd
       0.03224837 0.0068832883 0.024802603 -0.032882076
0003d0 7d d1 36 bd 00 39 24 bd a9 e6 d1 bb 14 9e b1 3c
       -0.044633377 -0.040093422 -0.0064056707 0.021681823
0003e0 02 21 08 3d 04 c7 3b bd b8 48 2a bd 5b bb 13 bd
       0.033234604 -0.045844093 -0.041573256 -0.036067348
0003f0 22 72 de 3c 31 ee 23 3d c5 1a fc bc 54 bc 82 bc
       0.027154032 0.04002208 -0.030774483 -0.015958942

nonreduce2_1.bias f4 [16]
000000 89 12 ba bc 85 2c 8e bc 1e 4b 9f bb 32 04 e6 bc
       -0.022713916 -0.017355213 -0.0048612496 -0.028078172
000010 e4 0e 56 3d 27 a3 64 3c d0 3f c9 3b a0 5f 2f bd
       0.052260295 0.013954914 0.0061416402 -0.042815804
000020 d3 a5 68 bc 42 36 84 3b ab 94 f4 bc da 31 4e bc
       -0.014199692 0.0040347883 -0.029856047 -0.012585128
000030 48 54 0b 3d 0f 21 50 bc 50 b8 41 3d bd 98 22 bd
       0.034015924 -0.012703194 0.047294915 -0.039696444
