02_deep3D/model/model_dwig.pt (torch, 739938 bytes, 25 tensors)

reduce1.weight f4 [64, 1, 4, 4, 4]
-0.12231201 -0.016582124 0.08977248 -0.030585136 -0.050478645 -0.04911461 -0.10061353 -0.03583296
-0.11479998 0.026882587 0.12496456 -0.0007040582 -0.06809451 0.061034013 -0.026698265 -0.0491199
-0.073619016 0.07676371 0.107952416 -0.107654005 -0.007859032 0.06702189 0.07181675 0.10026088
0.089035235 -0.049305964 0.034115948 0.07645477 -0.12081163 -0.004320565 0.12096078 -0.0323384
0.015426203 0.06312687 0.09473356 0.10819283 0.026544984 -0.11106211 0.022935865 -0.009053094
0.03377398 -0.06606865 0.0540254 -0.10239151 0.007218603 -0.06510619 -0.0075628078 -0.030149372
-0.094174646 -0.09433411 0.022121197 0.07940859 -0.054263353 -0.0013177247 -0.006089731 0.04392497
0.1031367 0.021293968 0.051308207 0.07276582 -0.036768824 -0.08633963 0.105793685 0.003763691
0.027909726 -0.11974543 -0.09429171 0.08843924 -0.101171225 -0.11273347 0.038736865 0.021559706
0.015582341 0.05784809 0.11011354 -0.018634293 -0.11771872 -0.06409418 0.12927127 0.11908782
0.010676576 -0.000998344 -0.096695945 0.013470441 -0.085931405 -0.030277837 -0.07742251 -0.00097028824
0.049802884 0.08698462 -0.058754385 -0.07031893 0.12915733 0.08672327 0.10594609 0.0043766513
-0.044848345 0.033572275 -0.10358365 -0.08440159 0.020295063 0.10137762 0.076093964 -0.03533046
-0.008554645 -0.120936364 -0.09464347 -0.040357523 0.047731847 0.003959058 -0.10026125 0.1107001
0.0060206787 0.10785519 -0.0721414 0.028460212 0.009272395 0.07144293 0.08198254 -0.074611895
0.017353745 -0.073909074 0.09085729 -0.072071105 0.09548124 -0.1206885 0.13134913 0.00802366
-0.101718865 -0.031264246 -0.09583002 0.080702595 0.0033508094 0.054332305 0.107189834 -0.0020200314
-0.09335233 -0.044027798 0.100637525 0.086578034 -0.08470976 0.03714676 -0.053482004 -0.050137658
-0.099145636 -0.07560438 -0.06319754 0.09333865 -0.037035223 0.08810953 0.05766544 -0.027065437
-0.121655025 0.019128766 0.012960288 -0.0004965598 -0.051983837 -0.015262191 -0.11281304 0.1248203
0.058857467 0.031036405 -0.0452771 0.0020399042 -0.041721515 0.0031245127 0.07655826 0.035142437
-0.07961337 0.0063229254 -0.022908174 0.12316885 0.07451125 -0.01767174 0.11438321 -0.095382474
-0.07156457 -0.04017541 -0.12343385 0.019954316 -0.07725874 0.07696903 0.06616859 0.0017553519
0.071833424 0.08492887 0.10712136 -0.062003948 -0.07917042 -0.08535349 0.06872221 0.048225895
0.06417123 0.021002049 -0.06061006 0.07205611 -0.0549187 0.077872336 -0.09148684 0.045152165
0.08910114 0.09108732 -0.047343653 -0.10523657 -0.07624643 0.0015370606 -0.022861093 0.025969712
0.12441315 0.032460537 -0.0859526 -0.122981675 -0.008341769 0.07672193 0.104394935 -0.028588878
0.03167172 -0.082065985 0.068924636 0.0138586275 -0.1138393 0.09904896 -0.08180403 -0.09392047
-0.08349201 0.108811624 -0.050426587 0.00013148328 -0.037265245 -0.019545382 0.079381675 -0.11182433
0.034654032 -0.06604151 0.07727745 0.02622678 0.04617718 0.077677906 -0.114204966 -0.085015334
0.05639301 -0.010542655 0.03038004 -0.067066535 -0.091143556 0.039629277 0.08731859 0.08564129
0.12815224 -0.097225375 -0.010588757 -0.0996456 0.11542705 0.038148656 0.033467934 -0.033459898
00000000: b87e fabd 3cd7 87bc a2da b73d ae8d fabc
00000010: b2c2 4ebd 672c 49bd 770e cebd 95c5 12bd
00000020: 401c ebbd df38 dc3c 6bed ff3d 8c90 38ba
00000030: 2275 8bbd cdfe 793d 52b6 dabc f331 49bd
00000040: 91c5 96bd 4b36 9d3d 2816 dd3d b479 dcbd
00000050: 2bc3 00bc c642 893d a914 933d 9455 cd3d
00000060: 1b58 b63d 0df5 49bd 2abd 0b3d 5294 9c3d
00000070: 166c f7bd 8793 8dbb 49ba f73d 4575 04bd
00000080: 2fbe 7c3c a948 813d ab03 c23d 3494 dd3d
00000090: de74 d93c 8874 e3bd ffe3 bb3c 6e53 14bc
000000a0: 9656 0a3d 004f 87bd bd49 5d3d a4b2 d1bd
000000b0: 088a ec3b 6556 85bd 6ed1 f7bb d1fb f6bc
000000c0: a3de c0bd 3e32 c1bd 8337 b53c f9a0 a23d
000000d0: 4043 5ebd 81b7 acba 5e8c c7bb abea 333d
000000e0: 5639 d33d b070 ae3c 8e28 523d 3f06 953d
000000f0: e89a 16bd d5d2 b0bd 5caa d83d 42a8 763b
00000100: f0a2 e43c 183d f5bd 031c c1bd a21f b53d
00000110: dc32 cfbd cee0 e6bd 8caa 1e3d fb9d b03c
00000120: 134d 7f3c 1ef2 6c3d 3583 e13d f2a6 98bc
00000130: 8316 f1bd cf43 83bd b05f 043e 51e4 f33d
00000140: ceec 2e3c deda 82ba 8608 c6bd 20b3 5c3c
00000150: cefc afbd 3a09 f8bc b18f 9ebd f15a 7eba
00000160: 1cfe 4b3d fe24 b23d 70a8 70bd 5f03 90bd
00000170: d241 043e f89b b13d 43fa d83d 036a 8f3b
00000180: e6b2 37bd 1583 093d aa23 d4bd beda acbd
00000190: d541 a63c 129f cf3d 27d7 9b3d acb6 10bd
000001a0: c828 0cbc 7cad f7bd 70d4 c1bd ee4d 25bd
000001b0: 7882 433d fcba 813b c555 cdbd bcb6 e23d
000001c0: 1d49 c53b 2fe3 dc3d dfbe 93bd 6425 e93c
000001d0: 3eeb 173c ac50 923d 76e6 a73d 1fce 98bd
000001e0: 7129 8e3c a45d 97bd 6313 ba3d 049a 93bd
000001f0: ab8b c33d 882b f7bd 6380 063e ab75 033c
00000200: fb51 d0bd f00e 00bd 8842 c4bd 6747 a53d
00000210: 4199 5b3b 8d8b 5e3d 5886 db3d 8162 04bb
00000220: 822f bfbd 7e56 34bd 0c1b ce3d d34f b13d
00000230: 507c adbd 3327 183d f20f 5bbd 255d 4dbd
00000240: de0c cbbd 78d6 9abd b66d 81bd 5628 bf3d
00000250: 3fb2 17bd c572 b43d 9932 6c3d 56b8 ddbc
00000260: 4526 f9bd eeb3 9c3c 6357 543c 902b 02ba
00000270: 01ed 54bd 450e 7abc 860a e7bd c9a1 ff3d
00000280: 8714 713d 0f40 fe3c 7b74 39bd eaaf 053b
00000290: 2ee4 2abd a0c4 4c3b 94ca 9c3d 84f1 0f3d
000002a0: 560c a3bd 8b30 cf3b eca9 bbbc f33f fc3d
000002b0: 5b99 983d 53c4 90bc bf41 ea3d e357 c3bd
000002c0: 7290 92bd f98e 24bd e3ca fcbd 3c77 a33c
000002d0: d539 9ebd f0a1 9d3d 6683 873d d613 e63a
000002e0: 671d 933d 30ef ad3d 7262 db3d daf7 7dbd
000002f0: 1a24 a2bd d0cd aebd 3bbe 8c3d 8488 453d
00000300: 356c 833d 7d0c ac3c 4142 78bd 2792 933d
00000310: 6ef2 60bd 887b 9f3d 745d bbbd 7af1 383d
00000320: a97a b63d fd8b ba3d 6beb 41bd 4586 d7bd
00000330: 1727 9cbd 3277 c93a 3047 bbbc 6fbe d43c
00000340: 52cc fe3d 57f5 043d eb07 b0bd d1dd fbbd
00000350: eaab 08bc 6320 9d3d 03cd d53d 3933 eabc
00000360: 35ba 013d 3612 a8bd 5c28 8d3d 4c0f 633c
00000370: 9424 e9bd 2eda ca3d df88 a7bd 6059 c0bd
00000380: dcfd aabd a1d8 de3d 1c8c 4ebd c6de 0939
00000390: 71a3 18bd a31d a0bc dc92 a23d 2804 e5bd
000003a0: 63f1 0d3d c540 87bd a443 9e3d 8bd9 d63c
000003b0: 4824 3d3d 9815 9f3d 4be4 e9bd 851c aebd
000003c0: 5bfc 663d 1abb 2cbc 90df f83c 2e5a 89bd
000003d0: 79a9 babd 4f52 223d 17d4 b23d b364 af3d
000003e0: 573a 033e 191e c7bd 777c 2dbc fe12 ccbd
000003f0: 0465 ec3d c441 1c3d ac15 093d 3f0d 09bd

reduce1.bias f4 [64]
0.10206829 0.0039684265 -0.10104114 0.07923926 0.08734006 -0.07541822 -0.030952197 0.07594834
-0.013853754 -0.06401669 0.09492083 -0.046018053 -0.13391908 -0.03026141 -0.12229436 -0.11734218
-0.08819854 -0.12045744 -0.10660597 0.12164975 0.049934637 -0.085951485 0.0185325 -0.1318122
-0.07306424 -0.10658215 0.12964557 -0.13029857 -0.06725279 -0.03521295 -0.077261545 -0.04085302
-0.021248322 0.047112036 -0.074599594 -0.072516546 -0.11577367 0.09475526 -0.1247403 0.1125782
0.03384691 0.03803491 -0.035721973 -0.12417864 -0.13270281 0.042344335 -0.08819349 -0.12477186
-0.09463181 0.12594545 0.07922317 0.12159997 0.009557738 0.05657078 -0.036336627 -0.08881463
-0.05665671 0.06916703 0.10123984 -0.035285775 -0.0609908 -0.043259483 -0.08056761 0.013809849
00000000: 2e09 d13d 9309 823b a8ee cebd 3148 a23d
00000010: 58df b23d de74 9abd 768f fdbc ce8a 9b3d
00000020: dbfa 62bc 2f1b 83bd da65 c23d 6d7d 3cbd
00000030: 1522 09be c7e6 f7bc 7775 fabd 1951 f0bd
00000040: 70a1 b4bd 64b2 f6bd 3b54 dabd 8123 f93d
00000050: 4388 4c3d 5507 b0bd 78d1 973c c7f9 06be
00000060: b4a2 95bd be47 dabd cfc1 043e fd6c 05be
00000070: d5bb 89bd 743b 10bd 4d3b 9ebd 7f55 27bd
00000080: f610 aebc 8df8 403d acc7 98bd 8e83 94bd
00000090: bf1a edbd 0c0f c23d d877 ffbd 668f e63d
000000a0: 0fa3 0a3d 7eca 1b3d 3451 12bd 5f51 febd
000000b0: 3fe3 07be 4171 2d3d ca9e b4bd 6488 ffbd
000000c0: 53ce c1bd d8f7 003e c23f a23d 6809 f93d
000000d0: 0f98 1c3c c3b6 673d b7d5 14bd 72e4 b5bd
000000e0: de10 68bd 72a7 8d3d d556 cf3d d187 10bd
000000f0: 7dd1 79bd db30 31bd a200 a5bd b442 623c

nonreduce1_1.weight f4 [32, 64, 3, 3, 3]
-0.0020245158 0.01268795 -0.004102911 0.016723849 0.01742224 0.02018149 0.0017788354 0.011948231
-0.015380488 0.004131369 0.02402335 -0.018554732 -0.01313016 0.0036151 0.01923224 0.014017761
0.0074540637 0.0055557983 0.0051774257 -0.0039014218 0.013068909 -0.012596721 -0.016334964 -0.0023363251
-0.016257893 0.019571906 0.014457514 0.027693266 -0.013977132 0.018957796 -0.006540079 -0.0019095591
0.015120625 -0.021687608 0.0066448487 -0.022807004 -0.002390742 0.026034506 0.019792702 0.01507911
0.0044210483 0.014691997 0.007805558 -0.010128631 0.0067309127 0.016218593 0.0073533547 -0.0015731028
0.0067644874 -0.0006135436 -0.012208274 -0.0071934205 -0.012470882 0.0052853622 -0.0042653875 -0.012629617
0.017672015 0.006932444 -0.002734885 0.005218917 -0.003018115 0.006801118 0.024477152 0.024716428
0.008707439 -0.0077645825 0.0017065126 0.017472897 0.033796344 0.017054474 -0.0137324305 0.003119443
0.02646416 0.008503211 -0.006959214 0.022879234 0.009926861 -0.006842543 -0.010171348 0.01201681
-0.0052229455 0.004049153 0.0021972358 -0.0059644943 0.015406951 0.007862593 0.0009945218 -0.016874237
0.0013567143 0.004389818 -0.011230877 0.011918134 -0.01855759 -0.014731566 0.019507095 -0.011957956
0.016792124 0.009797658 -0.001106361 0.0100270705 0.010155745 -0.010506783 0.0064398134 0.0046331976
0.022007857 -0.0011635626 -0.008528013 -0.011118613 -0.0145864645 0.013610421 0.016165484 -0.0026236575
0.016869752 0.019697841 0.0033664184 0.019140694 0.009301273 -0.005199077 0.0024679622 0.006933219
0.0137145985 0.019077837 0.011554445 0.00975971 -0.0019039188 0.0152126895 0.0084991045 -0.017491516
0.023380278 -0.013296244 -0.008757829 -0.013024834 0.009442158 0.004448387 -0.022687284 0.026859436
0.007147317 0.024953876 0.0023178668 0.029423472 0.0052739345 -0.012602457 0.0089744115 0.02298315
0.007295738 0.0030125417 -0.017099673 0.026821557 0.01977424 0.009053559 -0.019517384 -0.019954985
-0.013107622 0.008601701 0.017506545 0.001663202 0.018055355 0.028333059 -0.003649136 -0.00748475
-0.019604934 -0.009626604 0.032915395 -0.013306214 0.013235985 0.0026461002 -0.0035928139 0.010606372
-0.0046403958 -0.0041681505 0.00897289 -0.012302572 0.028499255 -0.0110348975 0.023365092 0.0023536384
0.0051347907 0.017135924 -0.0069914935 0.016159523 0.032470204 0.032624826 0.024991259 0.009199235
0.031660408 0.033089682 -0.023934849 -0.012554808 0.02104842 -0.012087167 0.016834823 0.006013939
0.0021502203 -0.00159736 0.020562818 -0.021075964 0.015368191 0.0034116257 -0.002104863 0.010460818
-0.01149007 -0.0011808105 -0.020377068 0.0019014028 0.020265426 -0.005083773 0.0013403716 0.008306233
0.009361147 0.014455956 0.023326773 0.00877975 0.00461426 -0.010987641 -0.0051693246 0.017718036
0.0044641094 -0.0023833637 0.01761788 -0.026062097 0.012208167 0.007713955 0.007891797 -0.0026569904
-0.0006999266 0.0026664843 0.019965122 0.0008651935 -0.010941614 0.0047552614 0.012897253 -0.0038903346
-0.0271832 -0.010046431 0.0070304302 0.031758223 -0.017351184 -0.014343991 -0.0013085173 0.024661452
0.012287272 -0.009768578 -0.020825429 -0.0018985114 -0.024005668 0.001429502 0.016520778 0.019960703
-0.012132293 -0.021437105 0.010580679 -0.020605916 -0.015492391 -0.022720713 0.005296966 0.016116444
00000000: bdad 04bb 1fe1 4f3c b671 86bb 7400 893c
00000010: 16b9 8e3c a753 a53c d027 e93a 83c2 433c
00000020: 71fe 7bbc 6f60 873b 9ecc c43c 1800 98bc
00000030: e21f 57bc 50eb 6c3b ee8c 9d3c c0aa 653c
00000040: 3841 f43b 6a0d b63b 65a7 a93b ffae 7fbb
00000050: fa1e 563c 7a62 4ebc e7d0 85bc 081d 19bb
00000060: 462f 85bc 4355 a03c 35df 6c3c fddc e23c
00000070: 5700 65bc 614d 9b3c 294e d6bb 2c4a faba
00000080: 7fbc 773c 36aa b1bc 08bd d93b c1d5 babc
00000090: ffad 1cbb 5146 d53c 4e24 a23c 5f0e 773c
000000a0: 71de 903b b4b6 703c c4c5 ff3b 8ff2 25bc
000000b0: fd8e dc3b dbdc 843c 69f4 f03b 9230 ceba
000000c0: a2a8 dd3b 37d6 20ba 3605 48bc c9b6 ebbb
000000d0: ac52 4cbc d530 ad3b aac4 8bbb 74ec 4ebc
000000e0: e7c4 903c 8e29 e33b c23b 33bb 7303 ab3b
000000f0: 91cb 45bb eadb de3b 4f84 c83c 1b7a ca3c
00000100: a5a9 0e3c 0a6e febb 10ad df3a 5223 8f3c
00000110: 096e 0a3d d3b5 8b3c fdfd 60bc 926f 4c3b
00000120: 5ecb d83c 0d51 0b3c 1e0a e4bb 3b6d bb3c
00000130: 46a4 223c 6937 e0bb baa5 26bc 27e2 443c
00000140: 3e25 abbb c2ae 843b 80ff 0f3b ce71 c3bb
00000150: 706d 7c3c 1bd2 003c 9d5a 823a d73b 8abc
00000160: c7d3 b13a 76d8 8f3b b601 38bc 4744 433c
00000170: 1606 98bc ab5c 71bc 58cd 9f3c 4deb 43bc
00000180: a38f 893c 5b86 203c 5103 91ba 9548 243c
00000190: 4864 263c a424 2cbc 1205 d33b 14d2 973b
000001a0: d249 b43c af82 98ba 14b9 0bbc d82a 36bc
000001b0: 11fc 6ebc 3efe 5e3c 7a6d 843c abf1 2bbb
000001c0: 6f32 8a3c 5e5d a13c 219f 5c3b f2cc 9c3c
000001d0: 5e64 183c 055d aabb 89bd 213b 0e30 e33b
000001e0: 32b3 603c 2049 9c3c db4e 3d3c 31e7 1f3c
000001f0: ea8c f9ba a53e 793c d43f 0b3c 5e4a 8fbc
00000200: ff87 bf3c 7dd8 59bc ff7c 0fbc 1d66 55bc
00000210: 48b3 1a3c c6c3 913b afda b9bc 5208 dc3c
00000220: 0a34 ea3b 126c cc3c 5ae7 173b 7e09 f13c
00000230: f8d0 ac3b 897a 4ebc 6909 133c 2947 bc3c
00000240: 1611 ef3b 106e 453b 9d14 8cbc e2b8 db3c
00000250: 96fd a13c 6155 143c ece2 9fbc a378 a3bc
00000260: 5ac1 56bc 26ee 0c3c e369 8f3c ccff d93a
00000270: d3e8 933c bb1a e83c 5826 6fbb a242 f5bb
00000280: 879a a0bc e7b8 1dbc 4bd2 063d 4e02 5abc
00000290: bfdb 583c 326a 2d3b 6a75 6bbb 59c6 2d3c
000002a0: 760e 98bb fb94 88bb 0703 133c ba90 49bc
000002b0: 4577 e93c b7cb 34bc 2668 bf3c 803f 1a3b
000002c0: bf41 a83b a360 8c3c e618 e5bb fa60 843c
000002d0: 7aff 043d 9ca1 053d 78ba cc3c 63b8 163c
000002e0: 58ae 013d 0c89 073d 0413 c4bc aeb2 4dbc
000002f0: bc6d ac3c 4109 46bc 2fe9 893c 9410 c53b
00000300: b6ea 0c3b 825e d1ba 5b73 a83c 80a7 acbc
00000310: ddca 7b3c 9595 5f3b bef1 09bb da63 2b3c
00000320: d940 3cbc 6dc5 9aba cfed a6bc 7e38 f93a
00000330: ae03 a63c c795 a6bb 68af af3a de16 083c
00000340: 7f5f 193c add8 6c3c ca17 bf3c f1d8 0f3c
00000350: 3833 973b 8205 34bc 7063 a9bb 6a25 913c
00000360: aa47 923b 3532 1cbb 5f53 903c 2e80 d5bc
00000370: c404 483c 58c5 fc3b 994c 013c e720 2ebb
00000380: 477b 37ba 2fc0 2e3b e58d a33c 27ce 623a
00000390: 7544 33bc 06d2 9b3b 004f 533c fcf4 7ebb
000003a0: 4daf debc c999 24bc 865f e63b e914 023d
000003b0: 1224 8ebc 0f03 6bbc 8e82 abba d006 ca3c
000003c0: 8e50 493c 630c 20bc 179a aabc 79d7 f8ba
000003d0: 89a7 c4bc 215e bb3a 9556 873c a184 a33c
000003e0: 86c6 46bc de9c afbc 965a 2d3c bdcd a8bc
000003f0: ccd3 7dbc ca20 babc 2c92 ad3b a206 843c

nonreduce1_1.bias f4 [32]
-0.0071660327 -0.031324767 -0.0074626897 0.013583322 0.014893505 0.014202943 -0.008779978 -0.014962509
0.016498825 -0.0007211123 0.01631856 -0.019108525 -0.0291537 -0.0046482515 0.007498489 0.0026503159
0.020109627 0.0005639917 0.021941662 -0.010152566 -0.0041300235 -0.003313845 0.0027386243 0.027507968
0.020738328 -0.015916232 0.013152829 0.00044761982 0.013772536 -0.0062747467 -0.02043409 0.005501253
00000000: 0ad1 eabb 664e 00bd 9489 f4bb 958c 5e3c
00000010: e303 743c 76b3 683c e6d9 0fbc 5025 75bc
00000020: 8b28 873c 0709 3dba 80ae 853c 7b89 9cbc
00000030: bed3 eebc 5c50 98bb e3b5 f53b ecb0 2d3b
00000040: f2bc a43c d8d8 133a 00bf b33c f356 26bc
00000050: 2655 87bb 182d 59bb 7e7a 333b 6458 e13c
00000060: 6de3 a93c c262 82bc f77e 573c 84ae ea39
00000070: 34a6 613c 649c cdbb 6565 a7bc db43 b43b

nonreduce1_2.weight f4 [32, 32, 3, 3, 3]
-0.01769066 -0.0258828 0.010491362 -0.019042589 0.0046245856 -0.002535259 0.025591623 -0.0065339524
-0.0026569278 -0.009403189 0.0023991691 0.018718794 0.0318432 -0.018779682 -0.02252343 -0.03175438
0.03309121 -0.013566736 0.033343423 0.0028572099 0.011938271 -0.029383961 0.004057033 0.028819636
-0.00074100064 0.03475369 -0.028315336 0.0064466293 -0.0025490227 0.00035321733 0.030948045 0.028516456
-0.0048508025 -0.020846177 0.011486511 0.028946172 -0.021811252 -0.0007506413 0.02547918 0.009309483
0.046391685 0.028880656 0.03212761 -0.01401391 0.009146962 -0.003383369 -0.0029499757 0.031764235
-0.0027090176 -0.010105357 0.013330217 0.00058039924 0.023176985 -0.0030905271 0.028682038 0.0267864
0.027612932 0.0036993278 -0.023176895 -0.008810625 -0.024561364 -0.0069497903 -0.012761998 -0.0015219871
-0.027197346 0.016916936 -0.026397407 -0.02377143 -0.00037773853 0.016162295 -0.029237572 0.0039671785
0.018333996 -0.0013672413 -0.028367048 0.03221338 -0.0159617 0.02891278 0.0041202325 0.009463306
0.022296648 0.012191384 -0.026268637 -0.0043201745 0.009018995 0.014626988 0.011863469 -0.035893694
-0.02937892 -0.014961162 0.036570933 0.006337189 -0.0156059805 0.002472204 -0.01844968 0.03255894
-0.027660487 0.011595646 0.013201276 -0.0006002619 -0.027718952 -0.03259664 -0.016268756 -0.021916708
0.0253919 0.0007826227 -0.034475554 0.009805094 0.0027337421 0.03150446 0.012733343 -0.017903913
0.0010920527 0.025696488 -0.035148256 0.022693727 0.007875983 0.024844332 0.0020090775 -0.030044226
0.0008494712 -0.011064954 0.023594819 -0.0012283004 0.022823175 0.005899537 0.023925133 0.025163189
-0.0034566913 0.00012115417 -0.014462409 0.021909581 0.009566194 0.0042938497 -0.022407888 -0.02658942
0.024233306 -0.033150606 -0.0033976159 -0.016616706 0.0270974 -0.031211482 0.014349154 0.019384727
-0.025608804 -0.011963982 -0.012340961 -0.026015326 -0.023328489 -0.025988266 0.030836182 -0.029914761
-0.029596124 0.0018331109 0.02876573 0.0035799935 0.022040112 0.013785008 0.021721372 -0.01261004
-0.0150809325 -0.029441943 0.0035515288 -0.027372578 -0.0015648665 -0.030054145 -0.023924686 -0.027802674
-0.005517474 0.02019971 -0.016792048 -0.021201251 -0.015395077 0.0085487785 -0.025858175 -0.025169784
-0.0071668546 -0.0305709 0.008365574 -0.018197395 -0.019296598 0.029710758 -0.0362199 0.0032399895
-0.0009542067 -0.024634719 -0.030685749 -0.014181354 -0.013120946 0.02621374 0.024246646 -0.026870128
0.028759453 -0.02392645 0.023513366 -0.030552365 0.026158376 0.03345731 0.017680284 -0.020492796
0.018918756 -0.022390598 -0.0047894353 0.02581141 -0.003057944 0.0010641603 0.029950596 -0.013916071
-0.01517771 0.014926549 0.022838136 0.021386726 0.047949348 -0.0049012746 0.02979736 0.037409995
-0.010077215 0.018021213 -0.033682905 -0.028081596 0.027868694 -0.020359742 0.010601702 0.0054773767
-0.035113126 -0.011250095 0.0053642513 -0.009361405 -0.004794819 0.016528608 -0.0027821101 0.018516924
-0.025231058 -0.020935275 0.03354846 -0.030492786 0.016665407 0.0093907295 -0.021039838 -0.0061629317
-0.028950548 0.03210753 -0.013796312 0.017121494 0.033436004 0.013007465 0.0129505545 -0.007796857
-0.01118955 0.0062129768 -0.034720637 0.016757073 0.022413297 0.023561833 -0.029834537 0.035068728
00000000: 01ec 90bc 2a08 d4bc f6e3 2b3c 34ff 9bbc
00000010: d689 973b 9626 26bb 86a5 d13c c41a d6bb
00000020: da1f 2ebb d50f 1abc 613b 1d3b 2858 993c
00000030: 046e 023d d9d7 99bc 0e83 b8bc e110 02bd
00000040: a68a 073d 0447 5ebc 1d93 083d 0740 3b3b
00000050: bd98 433c a2b6 f0bc dcf0 843b 2817 ec3c
00000060: b63f 42ba e359 0e3d 90f5 e7bc 3f3e d33b
00000070: 810d 27bb 0730 b939 c186 fd3c 589b e93c
00000080: 7bf3 9ebb 9ac5 aabc eb31 3c3c 8620 ed3c
00000090: 83ad b2bc afc6 44ba b7b9 d03c cd86 183c
000000a0: 3505 3e3d 2097 ec3c 3e98 033d 999a 65bc
000000b0: 24dd 153c 83bb 5dbb 6154 41bb 371b 023d
000000c0: c689 31bb f090 25bc fc66 5a3c ef25 183a
000000d0: a9dd bd3c 718a 4abb 98f6 ea3c 276f db3c
000000e0: 8434 e23c 6c70 723b 79dd bdbc 715a 10bc
000000f0: ea34 c9bc 11bb e3bb b317 51bc 6a7d c7ba
00000100: f8cc debc 6395 8a3c 603f d8bc 4dbc c2bc
00000110: 350b c6b9 ca66 843c a283 efbc 1bff 813b
00000120: 2d31 963c 0135 b3ba 0362 e8bc 2df2 033d
00000130: 1cc2 82bc 7fda ec3c 0403 873b fb0b 1b3c
00000140: 76a7 b63c 5fbe 473c 5331 d7bc 4090 8dbb
00000150: 68c4 133c 09a6 6f3c ff5e 423c 4405 13bd
00000160: 10ac f0bc a91f 75bc 67cb 153d 32a8 cf3b
00000170: 3ab0 7fbc b304 223b c923 97bc 865c 053d
00000180: 3f98 e2bc aafb 3d3c 2a4a 583c e55a 1dba
00000190: db12 e3bc 0e84 05bd 0e46 85bc ab8a b3bc
000001a0: ad02 d03c ec28 4d3a 3d36 0dbd 8ca5 203c
000001b0: 9528 333b d20a 013d 839f 503c 3aab 92bc
000001c0: 3523 8f3a 7181 d23c 9ef7 0fbd 32e8 b93c
000001d0: 440a 013c 5786 cb3c baaa 033b 4f1f f6bc
000001e0: 0caf 5e3a c849 35bc ec49 c13c ecfe a0ba
000001f0: abf7 ba3c e750 c13b a4fe c33c 0823 ce3c
00000200: a889 62bb 2614 fe38 bdf3 6cbc b97b b33c
00000210: 87bb 1c3c 6cb3 8c3b bf90 b7bc 0ed2 d9bc
00000220: ed84 c63c eec8 07bd 89aa 5ebb c21f 88bc
00000230: 5efb dd3c 39af ffbc b718 6b3c b8cc 9e3c
00000240: 8ec9 d1bc 9404 44bc be31 4abc 181e d5bc
00000250: 631b bfbc 58e5 d4bc 299c fc3c cd0f f5bc
00000260: 9273 f2bc ff44 f03a 1ca6 eb3c 539e 6a3b
00000270: 778d b43c 84da 613c 05f1 b13c 579a 4ebc
00000280: 0416 77bc 3b30 f1bc c4c0 683b 753c e0bc
00000290: 351c cdba 1c34 f6bc b4fd c3bc 6fc2 e3bc
000002a0: edcb b4bb dd79 a53c 7a8f 89bc 3fae adbc
000002b0: a23b 7cbc 2d10 0c3c 86d4 d3bc dd30 cebc
000002c0: efd7 eabb d36f fabc c30f 093c b412 95bc
000002d0: e613 9ebc fa63 f33c 515b 14bd 0156 543b
000002e0: ba23 7aba c0ce c9bc ae60 fbbc e958 68bc
000002f0: 3cf9 56bc 33be d63c e7a0 c63c be1e dcbc
00000300: f298 eb3c 6701 c4bc 1a9f c03c f448 fabc
00000310: 174a d63c 880a 093d 3ed6 903c 82e0 a7bc
00000320: 82fb 9a3c 7d6c b7bc b2f0 9cbb 7372 d33c
00000330: c967 48bb 4b7b 8b3a f45a f53c 3b00 64bc
00000340: eeab 78bc 7c8e 743c 0b17 bb3c 3733 af3c
00000350: 8966 443d df9a a0bb 9819 f43c 393b 193d
00000360: e71a 25bc 39a1 933c 16f7 09bd 600b e6bc
00000370: e34c e43c 79c9 a6bc c3b2 2d3c 917b b33b
00000380: c8d2 0fbd 5252 38bc 9ac6 af3b 9460 19bc
00000390: db1d 9dbb 0167 873c 1054 36bb ceb0 973c
000003a0: 5db1 cebc 7480 abbc 1c6a 093d 02cc f9bc
000003b0: e485 883c 93db 193c bd5b acbc 6bf2 c9bb
000003c0: b329 edbc 2f83 033d ed09 62bc 6042 8c3c
000003d0: 31f4 083d 431d 553c 902e 543c c77c ffbb
000003e0: 6054 37bc 3a96 cb3b 3a37 0ebd 2146 893c
000003f0: 179c b73c bf04 c13c 8f67 f4bc 3aa4 0f3d

nonreduce1_2.bias f4 [32]
-0.036337923 -0.03392141 -0.030113423 0.02736989 0.02301397 0.008907839 0.01869223 0.007848611
-0.014224498 0.003256569 -0.025743753 -0.025402235 0.010866676 0.028744211 0.03278052 -0.011748799
0.00789734 0.0046228305 -0.016859313 0.010994657 -0.028316926 -0.01667128 -0.028458148 0.020238552
-0.028805953 -0.013526133 -0.020347115 0.028545815 -0.014488007 -0.0036149567 -0.028632801 -0.034556452
00000000: 13d7 14bd 2df1 0abd 6db0 f6bc d236 e03c
00000010: cb87 bc3c 2ff2 113c 7320 993c 7697 003c
00000020: de0d 69bc 296c 553b 90e4 d2bc 5918 d0bc
00000030: 250a 323c fb78 eb3c de44 063d 097e 40bc
00000040: d863 013c 1d7b 973b 8b1c 8abc ef22 343c
00000050: e6f8 e7bc 3592 88bc 1021 e9bc 52cb a53c
00000060: 76fa ebbc b79c 5dbc feae a6bc ead8 e93c
00000070: 1b5f 6dbc e9e8 6cbb 568f eabc 118b 0dbd

nonreduce1_3.weight f4 [32, 32, 3, 3, 3]
-0.012736885 0.014246123 -0.007636765 0.0027931554 -0.0051030675 -0.011078861 0.022353677 0.013089369
0.02719479 0.0029014694 -0.015472144 0.027176114 -0.02630322 0.00028914318 0.03122993 -0.02083436
0.023160253 0.023272729 0.010661038 0.033426523 0.013322748 -0.02702711 -0.006984711 0.034365762
-0.024490397 0.026336722 -0.010741843 0.008143916 0.010050257 0.00885058 -0.019002229 -0.03325263
-0.0032232665 0.014161071 -0.01995387 -0.026820103 -0.0042911754 0.01986482 -0.032559376 0.022307925
0.02328277 0.02419855 -0.022228519 0.010700645 -0.018462481 -0.02802529 -0.0016058491 -0.0047131493
0.012268392 -0.011046752 -0.0074766492 -0.02394869 -0.030189224 -0.010624659 -0.008523623 -0.02317925
0.009388092 0.01415002 0.032728642 0.025334774 0.017499171 0.006022888 -0.0170561 -0.029991323
-0.018827014 0.009929452 -0.029805142 0.031983525 -0.0020498468 -0.01184837 0.018551756 0.025856018
-0.019985367 -0.0065145823 0.0100089945 -0.009712805 -0.032633353 -0.004520612 0.024647428 -0.029556664
-0.004544216 0.03415193 -0.0325487 0.026160823 0.032644644 0.023076382 0.012328847 0.0032347285
0.01562334 -0.006159294 -0.0044581415 0.03256243 -0.0020844236 -0.021558173 -0.0071014375 -0.023640769
0.015774315 -0.029682908 -0.00844214 0.034736194 -0.008894686 -0.002332444 0.026656996 -0.0007010357
0.0077997795 -0.0028940297 0.01600571 0.021372216 -0.023896286 0.01214583 -0.014771107 0.020434638
0.01913334 -0.0010870531 0.012373193 0.02615564 0.024645915 0.035768434 0.016193433 0.011231253
0.029768143 -0.004917923 -0.012703168 0.008481892 8.250508e-05 -0.03683925 -0.005731578 -0.0024652032
-0.027089732 -0.007203108 0.009614666 -0.018050399 0.012445864 -0.026560573 -0.01752457 0.00055752305
0.056224547 0.0033792553 0.0019173508 0.0017983416 0.044705767 -0.01639614 -0.017548455 0.016060812
0.0031513446 0.00039529384 0.005856423 0.00887434 -0.007093017 0.01919383 -0.003472495 -0.008005594
0.0056523755 0.031274743 0.04368282 0.016473804 -0.009831072 -0.019063488 -0.0019197543 0.028415764
0.03938577 0.042392395 -0.03133154 -0.019549938 -0.016016465 -0.027575754 -0.015283635 0.008796925
0.023333648 0.01470631 0.0063711894 0.005730356 0.0241699 0.020130834 0.015866477 0.011746161
0.016345436 0.0028574644 -0.021746537 0.012466015 -0.0093576815 -0.004652997 -0.002831015 0.03157909
-0.00418984 0.021997143 0.0117588425 0.030614637 0.008273265 -0.020733524 0.0031215183 -0.0063193277
0.022181276 -0.02413492 -0.029390566 -0.012655384 -0.006639756 0.028652934 -0.0154596465 0.007696524
0.011055872 0.03129427 -0.030892886 0.03220662 0.0029222548 0.004470357 0.013541663 -0.017129399
0.00029788126 -0.003717293 0.030657804 0.0034985617 0.006402911 0.015828053 0.0088336095 -0.033254564
0.0128716 0.015637748 0.021688767 0.010565725 0.017521108 0.008541579 -0.012667605 0.011229944
-0.015255368 0.012831575 -0.0089307 0.028669495 -0.014011611 0.032787167 -0.022646781 0.035473805
-0.008489689 0.023746317 0.003590283 0.023689486 0.0101676695 -0.0056934725 0.0147588365 0.03341671
-0.0013406379 0.0059362534 0.03402062 0.013161669 0.0013597955 0.023197535 -0.013057542 -0.015034033
-0.017999634 0.0030633167 -0.026033739 0.0071628904 -0.026018215 0.0088317245 0.021501267 0.03656971
00000000: 5eae 50bc 9268 693c d43d fabb 5f0d 373b
00000010: a237 a7bb 1c84 35bc 0f1f b73c cb74 563c
00000020: 9cc7 de3c 9426 3e3b e07e 7dbc 71a0 de3c
00000030: da79 d7bc 2498 9739 e9d5 ff3c d2ac aabc
00000040: 92ba bd3c 73a6 be3c a2ab 2e3c 40ea 083d
00000050: a847 5a3c f567 ddbc 01e0 e4bb 1dc3 0c3d
00000060: 16a0 c8bc 1cc0 d73c 8efe 2fbc 0f6e 053c
00000070: d5a9 243c 0602 113c 90aa 9bbc e933 08bd
00000080: 703d 53bb d603 683c 4c76 a3bc d5b5 dbbc
00000090: fd9c 8cbb 8cbb a23c fb5c 05bd 1cbf b63c
000000a0: 82bb be3c 0a3c c63c 9518 b6bc c251 2f3c
000000b0: a13e 97bc 4b95 e5bc 5b7b d2ba c370 9abb
000000c0: 5e01 493c 70fd 34bc aefe f4bb 0b30 c4bc
000000d0: 644f f7bc 0d13 2ebc aba6 0bbc 69e2 bdbc
000000e0: 83d0 193c 7cd5 673c 780e 063d df8a cf3c
000000f0: 6c5a 8f3c a55b c53b 3cb9 8bbc 5db0 f5bc
00000100: 1c3b 9abc 24af 223c ea29 f4bc 2801 033d
00000110: b956 06bb aa1f 42bc daf9 973c 00d0 d33c
00000120: 5ab8 a3bc 4778 d5bb c4fc 233c 7522 1fbc
00000130: 8daa 05bd a421 94bb 67e9 c93c d120 f2bc
00000140: a6e7 94bb e5e2 0b3d c951 05bd 394f d63c
00000150: 64b6 053d ae0a bd3c effe 493c bdfd 533b
00000160: 0af9 7f3c e7d3 c9bb 9a15 92bb 2f60 053d
00000170: d39a 08bb c49a b0bc 2db3 e8bb 49aa c1bc
00000180: 2339 813c 9229 f3bc e750 0abc 8a47 0e3d
00000190: 04bb 11bc ebdb 18bb c65f da3c b6c5 37ba
000001a0: 4b95 ff3b c3a9 3dbb 681e 833c c914 af3c
000001b0: 25c2 c3bc 4eff 463c 8302 72bc 8b66 a73c
000001c0: 86bd 9c3c 737b 8eba efb8 4a3c 5a44 d63c
000001d0: 3be6 c93c ec81 123d 17a8 843c 4a03 383c
000001e0: 52dc f33c 8726 a1bb f320 50bc a2f7 0a3c
000001f0: 9406 ad38 c1e4 16bd f6cf bbbb 3f8f 21bb
00000200: 49eb ddbc 0d08 ecbb d586 1d3c 6ede 93bc
00000210: bde9 4b3c 8f95 d9bc b08f 8fbc bd26 123a
00000220: b64b 663d 7f76 5d3b 9e4f fb3a 55b6 eb3a
00000230: 651d 373d 3351 86bc c7c1 8fbc f791 833c
00000240: ca86 4e3b 713f cf39 3de7 bf3b ae65 113c
00000250: 8a6c e8bb 613c 9d3c cc92 63bb e529 03bc
00000260: 9037 b93b f219 003d c2ec 323d 12f4 863c
00000270: 8112 21bc 082b 9cbc 44a0 fbba 2dc8 e83c
00000280: f952 213d a6a3 2d3d 8055 00bd 3127 a0bc
00000290: f634 83bc 8ce6 e1bc 3668 7abc fa20 103c
000002a0: 3526 bf3c bcf2 703c 69c5 d03b b6c5 bb3b
000002b0: f4ff c53c 6be9 a43c 6afa 813c f872 403c
000002c0: dde6 853c 4c44 3b3b cb25 b2bc 423e 4c3c
000002d0: f650 19bc 2b78 98bb 8d88 39bb 1359 013d
000002e0: ed4a 89bb 5a33 b43c 29a8 403c 8ccb fa3c
000002f0: 978c 073c 5ad9 a9bc 6392 4c3b 5d12 cfbb
00000300: 82b5 b53c 99b6 c5bc 7cc4 f0bc 8758 4fbc
00000310: 4f92 d9bb 8fb9 ea3c 754a 7dbc 1f33 fc3b
00000320: b023 353c 6c2e 003d 1413 fdbc 17eb 033d
00000330: 4d83 3f3b 137c 923b dadd 5d3c f452 8cbc
00000340: f22c 9c39 d49d 73bb 1326 fb3c 2048 653b
00000350: 83cf d13b d5a9 813c d8ba 103c f035 08bd
00000360: 67e3 523c bc1a 803c a4ac b13c dd1b 2d3c
00000370: 6d88 8f3c fbf1 0b3c c98b 4fbc cdfd 373c
00000380: a7f1 79bc 873b 523c 1252 12bc 4adc ea3c
00000390: f590 65bc d64b 063d be85 b9bc fb4c 113d
000003a0: 5618 0bbc a387 c23c f44a 6b3b 7410 c23c
000003b0: 4c96 263c 4f90 babb 0ccf 713c f6df 083d
000003c0: 58b8 afba e784 c23b 3559 0b3d 0aa4 573c
000003d0: 2a3b b23a c208 be3c 4def 55bc 4e51 76bc
000003e0: f873 93bc edc1 483b b544 d5bc aeb6 ea3b
000003f0: 2724 d5bc f0b2 103c 6d23 b03c 1fca 153d

nonreduce1_3.bias f4 [32]
-0.051550474 -0.023785558 -0.029422028 -0.004603168 0.023053301 -0.0025817826 0.03350724 0.015828216
0.018280083 0.01860893 0.024246009 -0.019977808 0.022030655 0.021996612 -0.006998775 0.023817567
-0.014932047 -0.03318404 0.017815255 -0.0007141053 0.02916074 0.000119665296 -0.012576344 0.021156542
-0.02894975 -0.012512251 -0.001815099 -0.021397734 -0.018131536 0.0056080916 -0.017731488 0.02379077
00000000: 9726 53bd eed9 c2bc 7706 f1bc 2cd6 96bb
00000010: 47da bc3c 2033 29bb e33e 093d 2daa 813c
00000020: 1dc0 953c c171 983c 919f c63c 80a8 a3bc
00000030: a279 b43c 3d32 b43c fb55 e5bb 0f1d c33c
00000040: 8ba5 74bc fdeb 07bd 4cf1 913c cc32 3bba
00000050: 81e2 ee3c d1f4 fa38 030d 4ebc 7c50 ad3c
00000060: 0728 edbc 2f00 4dbc 9ee8 edba 4d4a afbc
00000070: 9688 94bc 15c4 b73b a041 91bc dce4 c23c

reduce2.weight f4 [16, 32, 4, 4, 4]
-0.010145154 -0.013252467 -0.0122891 -0.025734078 -0.004762809 -0.013742405 -0.01432268 -0.000121717545
0.0011393324 0.02608547 -0.017831951 0.01999971 0.021412214 0.01457087 0.012852715 0.00048899744
0.005164117 0.019252969 -0.008334818 0.0075255646 0.0019502138 -0.0034250144 0.019737117 -0.016047865
-0.00036010216 -0.013237264 -0.0014114884 0.014333978 4.6807316e-05 -0.012760397 0.02112991 -0.018743183
0.009651823 -0.0013191804 -0.0020853153 0.0028382835 0.021920033 -0.010763606 -0.00839905 0.01504942
0.014825109 0.008153009 0.0007013523 -0.008748533 0.011623453 0.014495003 -0.010204814 0.009715529
-0.0044117407 0.0151750455 -0.012432726 0.0021750918 0.024073286 0.016543712 0.021571515 0.0069200275
0.012043071 0.0065592392 0.018120745 -0.008911219 0.021313509 -0.0038238862 -0.0132169 0.0012849189
0.0135182 -0.0074296715 0.0058957255 -0.015817603 0.0153500745 -0.0037203778 -0.01947162 -0.016872529
0.00764564 0.024564719 0.0005386098 -0.0043689315 -0.017638715 0.011845587 0.021390153 -0.016914496
-0.00025554714 0.0030952687 0.018704548 0.015322277 -0.008954187 -0.009964098 -0.010752491 0.012212092
0.020554498 0.020047111 0.009786436 -0.0189098 0.021495182 0.02617914 -0.006207964 0.00032611872
0.004268639 0.02447504 -0.014715326 0.0071826302 -0.0034499462 -0.00453732 -0.0036713849 0.018764619
0.012393548 0.015121794 -0.0057758116 -0.01479258 -0.016291464 -0.005316263 0.011275643 -0.0057946173
-0.015910974 -0.017415978 0.00012624044 0.0048723724 0.00046203952 -0.0011189348 0.005707368 -0.0027274813
0.021072216 -0.0077924766 0.025524214 0.01332214 -0.011991748 0.0051757754 -0.016353918 0.0024741823
0.0016064254 0.01238405 -0.015281312 -0.032557566 0.016436523 -0.013989862 0.020271018 -0.018994715
0.023248639 0.02366447 -0.0029588277 0.011420903 -0.01863417 0.020373575 -0.008543568 -0.016737223
0.016145468 0.014761457 -0.013255997 0.013556799 -0.0040768557 -0.0045955875 -0.01031286 0.015790295
0.004911975 -0.0030614452 -0.004492612 -0.013657977 0.009889657 -0.007406076 0.0038622243 -0.015749222
-0.002578129 -0.011940994 0.012065593 0.011154122 0.005335333 0.02614032 -0.014273641 -0.005689761
0.010843551 0.025309674 0.0072117457 0.019352013 -0.0041555064 -0.0038118628 -0.0024363552 -0.0134170335
0.01118495 -0.009794902 -0.016538978 0.010375038 0.022327127 0.016333465 0.012309399 -0.002637739
0.012368257 -0.008088176 0.014255789 0.0046041613 -0.0021321562 0.022183074 0.0018566254 0.016173525
0.023654215 -0.0014849902 0.00024473376 -0.01945214 0.025461875 0.05041244 0.0231872 0.006407635
0.0532471 0.06579452 0.0365191 0.0017320027 0.07023789 0.07858007 0.031593114 -0.0067984266
0.03871399 0.023449104 0.0067392807 0.0018971164 0.06508236 0.05180613 0.053273752 0.032586005
0.072978444 0.060954012 0.031835057 0.0058762436 0.02920072 0.037155382 0.04487497 0.016346809
0.022342782 0.003894493 0.038703445 -0.009415585 0.037205167 0.02372964 0.028445378 -0.0019657284
0.050274648 0.020542946 0.03353318 0.018034091 0.017383752 0.009264413 0.03124396 0.008371504
0.02404966 0.028659856 0.02445305 0.0045663663 0.0059824516 0.02741779 0.020227447 0.01025691
0.030401366 0.031567436 0.030738832 0.00299798 0.012045123 0.022797164 -0.0015142148 -0.0002780533
00000000: dc37 26bc e020 59bc 3958 49bc 46d0 d2bc
00000010: 5611 9cbb d327 61bc ada9 6abc 9c42 ffb8
00000020: a755 953a 32b1 d53c 5014 92bc 6fd6 a33c
00000030: ab68 af3c a9ba 6e3c 3294 523c 1030 003a
00000040: c137 a93b 67b8 9d3c c38e 08bc 0399 f63b
00000050: 519e ff3a 3576 60bb bcaf a13c d076 83bc
00000060: 18cc bcb9 1ce1 58bc b101 b9ba 10d9 6a3c
00000070: f952 4438 fc10 51bc a218 ad3c 4e8b 99bc
00000080: ae22 1e3c 59e8 acba c9a9 08bb 7f02 3a3b
00000090: a491 b33c d659 30bc 2b9c 09bc d891 763c
000000a0: 04e5 723c 3394 053c f5da 373a 0256 0fbc
000000b0: 4c70 3e3c 737c 6d3c 1832 27bc e22d 1f3c
000000c0: 5d90 90bb c1a0 783c a2b2 4bbc fc8b 0e3b
000000d0: 5735 c53c ae86 873c bfb6 b03c 66c1 e23b
000000e0: 4d50 453c e3ee d63b f571 943c 5d00 12bc
000000f0: ab99 ae3c 2a9a 7abb b28b 58bc b96a a83a
00000100: 717b 5d3c 9a74 f3bb ee30 c13b eb93 81bc
00000110: e17e 7b3c 95d1 73bb f282 9fbc 4238 8abc
00000120: 4788 fa3b f33b c93c 7e31 0d3a 4129 8fbb
00000130: 117f 90bc fe13 423c 673a af3c 4590 8abc
00000140: f5fa 85b9 fed9 4a3b 483a 993c 4a0a 7b3c
00000150: 95b4 12bc 7540 23bc 372b 30bc 3a15 483c
00000160: e861 a83c d739 a43c 4a57 203c bae8 9abc
00000170: aa16 b03c a375 d63c 2d6c cbbb eafa aa39
00000180: f0df 8b3b e17f c83c 8d18 71bc 455c eb3b
00000190: 7e18 62bb cdad 94bb 9e9b 70bb 42b8 993c
000001a0: 4f0e 4b3c 67c1 773c 0543 bdbb 945c 72bc
000001b0: ad75 85bc 0c34 aebb 79bd 383c c6e0 bdbb
000001c0: bb57 82bc f4ab 8ebc 695f 0439 6ca8 9f3b
000001d0: e53d f239 39a9 92ba df04 bb3b 8bbf 32bb
000001e0: a49f ac3c 0858 ffbb 2818 d13c 1b45 5a3c
000001f0: 0979 44bc 8d99 a93b a7f8 85bc e425 223b
00000200: b18e d23a 78e6 4a3c 785e 7abc 155b 05bd
00000210: e3a5 863c bc35 65bc 680f a63c ce9a 9bbc
00000220: ee73 be3c fedb c13c e4e8 41bb bd1e 3b3c
00000230: b0a6 98bc 7ce6 a63c 52fa 0bbc 801c 89bc
00000240: 8043 843c 0ada 713c ae2f 59bc 561d 5e3c
00000250: 2597 85bb 9596 96bb 45f7 28bc a65a 813c
00000260: a2f4 a03b 87a2 48bb c336 93bb b5c5 5fbc
00000270: 3a08 223c abae f2bb 5f1d 7d3b 8304 81bc
00000280: d4f5 28bb 29a4 43bc c4ae 453c c7bf 363c
00000290: 04d4 ae3b 3924 d63c fddb 69bc 2d71 babb
000002a0: 26a9 313c 3c56 cf3c 8250 ec3b 1d88 9e3c
000002b0: ea2a 88bb 72d0 79bb 42ab 1fbb 1ed3 5bbc
000002c0: 1541 373c cc7a 20bc c07c 87bc 10fc 293c
000002d0: 61e7 b63c c2cd 853c 5dad 493c ebdd 2cbb
000002e0: 3ba4 4a3c 4584 04bc 1d91 693c 81de 963b
000002f0: a5bb 0bbb 47b9 b53c 035a f33a 577e 843c
00000300: 7cc6 c13c 01a4 c2ba 9c4f 8039 185a 9fbc
00000310: 6c95 d03c 467d 4e3d 15f3 bd3c 23f7 d13b
00000320: a219 5a3d 47bf 863d 0d95 153d 5e04 e33a
00000330: e2d8 8f3d 96ee a03d c867 013d 56c5 debb
00000340: 9092 1e3d 5618 c03c 2fd5 dc3b aaa8 f83a
00000350: e649 853d aa32 543d 9435 5a3d e778 053d
00000360: b975 953d eaaa 793d 7a65 023d 818d c03b
00000370: 5936 ef3c 3e30 183d d1ce 373d bee9 853c
00000380: 3608 b73c c03a 7f3b 8187 1e3d d343 1abc
00000390: 7264 183d a964 c23c 4806 e93c 73d3 00bb
000003a0: caec 4d3d ae49 a83c 165a 093d 3bbc 933c
000003b0: 5f68 8e3c c4c9 173c 55f3 ff3c a228 093c
000003c0: cb03 c53c 13c8 ea3c c351 c83c 75a1 953b
000003d0: 7108 c43b 469b e03c 08b4 a53c 990c 283c
000003e0: 490c f93c db4c 013d 01d0 fb3c c279 443b
000003f0: e858 453c 1ec1 ba3c 9e78 c6ba afc7 91b9

reduce2.bias f4 [16]
-0.0016477896 0.003423774 -0.01523696 0.018304393 0.00030854702 0.0141814295 -0.013841534 0.016362546
0.03070774 0.025700292 -0.015677229 -0.004848427 -0.0029372973 0.01542983 0.017799854 -0.022628423
00000000: a5fa d7ba 6561 603b 71a4 79bc 18f3 953c
00000010: 7bc4 a139 3a59 683c 9ac7 62bc bf0a 863c
00000020: cc8e fb3c 6b89 d23c 886d 80bc 8edf 9ebb
00000030: ac7f 40bb 66cd 7c3c 00d1 913c 3e5f b9bc

nonreduce2_1.weight f4 [16, 16, 3, 3, 3]
0.013225652 0.023250392 0.046062622 -0.04319623 0.046419974 -0.01693823 -0.03610091 -0.03759051
-0.00076797453 0.039530296 -0.041927505 -0.0015703636 -0.027213583 -0.012369099 -0.0007877385 -0.040046
-0.015620514 0.006567969 0.013630131 0.0266185 -0.04717893 0.0022013087 -0.011171147 -0.0059988424
-0.018954111 0.04233374 -0.03213348 0.006461786 -0.006632832 0.05245606 0.01894022 -0.008248491
0.026253216 -0.025076587 -0.039568882 0.045818005 3.179894e-05 0.019492019 0.03326499 -0.021225594
-0.020723866 0.049786374 0.0064068357 0.03779129 0.02521627 0.007840345 -0.027646577 -0.03811675
-0.0068010604 -0.049511153 -0.028945353 0.035265714 0.003034689 -0.041230574 -0.020205759 0.025811303
0.0124002015 -0.014748253 0.035771016 -0.004894822 -0.022218438 -0.02393466 0.05599393 -0.013896217
0.002016119 -0.00050579966 -0.015466747 0.039500453 -0.009510739 0.023999054 -0.0068796026 -0.003585386
-0.03478481 0.006528319 0.008971172 -0.08126651 -0.010573261 0.005923129 -0.033846255 -0.030232294
-0.014094116 -0.01603229 -0.02214199 -0.022781739 0.008471191 -0.0053694495 0.042744413 -0.0137848705
-0.04032676 -0.046910048 0.021220788 -0.011034405 -0.039850835 -0.04776479 -0.0044879024 -0.038758814
-0.031935755 -0.039949756 0.038663823 0.007683236 -0.013097863 0.037642952 -0.009408138 -0.045126554
0.035111353 0.036503267 -0.038772736 0.022137959 -0.03600524 -0.030660437 0.047093812 -0.0031919933
0.008247089 0.017349588 -0.048904475 -0.030567218 0.024720829 -0.023117255 -0.021930965 0.051136814
0.04120093 -0.0044438923 0.00996966 0.016231716 0.036010876 0.04265914 -0.021679113 0.03149701
-0.03444613 -0.032205943 0.010499966 0.022783108 0.03156463 -0.047973353 -0.045672756 0.028395832
0.011793915 0.031144045 0.031038411 0.03501244 -0.040522628 -0.012187807 0.0013554748 -0.03692673
-0.012621158 0.017419055 0.025302622 -0.00019678679 0.019338293 0.024174348 -0.04732052 0.039038703
0.03716318 -0.030466147 -0.028953144 0.0075948457 -0.04118697 0.0029272293 -0.016302042 0.030218149
0.01577345 -0.015257689 0.020176385 -0.0041532265 -0.042437978 0.0045690793 -0.041878343 0.016967904
-0.008994724 -0.030300992 -0.024104048 -0.023645278 -0.018518524 -0.015059686 0.039073113 0.015642105
0.0004866008 0.028756246 -0.0043088817 -0.021497617 -0.01944742 -0.028484724 -0.024131743 0.036561303
0.024000274 0.026880037 0.0054895277 0.011906229 -0.003725313 -0.034786414 0.0041861073 0.020499015
0.033983134 -0.021357017 0.011079335 -0.019797636 -0.033526696 -0.010546345 -0.044294715 -0.03954093
-0.016013222 -0.019165592 0.011423569 0.049559467 -0.015291855 -0.013249404 -0.032337382 0.029844133
0.012161261 -0.005083904 0.019659828 0.007756853 -0.0020526017 -0.014254404 -0.010596467 -0.0014975686
-0.050265856 -0.023359027 0.019791113 -0.0075921966 -0.0265311 0.0087419 -0.015272141 -0.006234478
-0.00808525 -0.00052120566 -0.01948563 0.008350055 0.030885352 0.043138593 0.0017142518 -0.029049162
0.03611469 -0.021150311 0.022594567 -0.015879504 0.0066340696 -0.008542769 -0.0131611405 0.033239003
-0.026737858 -0.00044280806 0.024227265 0.0018103289 -0.045916717 0.040247843 0.04107476 0.018025275
0.039474297 0.012396321 0.01648362 -0.025335308 -0.023409897 0.0007554299 -0.037999216 0.029958231
00000000: 68b0 583c 9b77 be3c 29ac 3c3d 88ee 30bd
00000010: df22 3e3d 0bc2 8abc 8cde 13bd 82f8 19bd
00000020: e651 49ba 85ea 213d 2dbc 2bbd a9d4 cdba
00000030: 05ef debc c3a7 4abc 3c80 4eba 4607 24bd
00000040: 2fed 7fbc 1e38 d73b ea50 5f3c 0a0f da3c
00000050: b23e 41bd d543 103b 3007 37bc f091 c4bb
00000060: a745 9bbc 2566 2d3d 659e 03bd 64bd d33b
00000070: 3a58 d9bb 2adc 563d 8528 9b3c ae24 07bc
00000080: fc10 d73c 6a6d cdbc fb12 22bd a9ab 3b3d
00000090: da5f 0538 baad 9f3c df40 083d 4ce1 adbc
000000a0: 19c5 a9bc ccec 4b3d 6ff0 d13b 0acb 1a3d
000000b0: 5a92 ce3c ca74 003c 137b e2bc 4f20 1cbd
000000c0: 6edb debb 35cc 4abd ce1e edbc c872 103d
000000d0: a2e1 463b 64e1 28bd 8c86 a5bc 3a72 d33c
000000e0: 372a 4b3c a8a2 71bc a184 123d be64 a0bb
000000f0: 7103 b6bc 9f12 c4bc e459 653d f5ac 63bc
00000100: dd20 043b a497 04ba 3d68 7dbc 3acb 213d
00000110: eed2 1bbc aa99 c43c 4a6e e1bb ccf8 6abb
00000120: 847a 0ebd 82eb d53b d3fb 123c 0e6f a6bd
00000130: 793b 2dbc cf16 c23b 5fa2 0abd b7a9 f7bc
00000140: 02eb 66bc 2656 83bc 1e63 b5bc c5a0 babc
00000150: c0ca 0a3c 35f2 afbb c414 2f3d f0d9 61bc
00000160: ac2d 25bd c024 40bd 38d7 ad3c a6c9 34bc
00000170: a13a 23bd 03a5 43bd 410f 93bb 90c1 1ebd
00000180: 11cf 02bd 5ba2 23bd f55d 1e3d a8c3 fb3b
00000190: 6b98 56bc 7f2f 1a3d 9724 1abc 9fd6 38bd
000001a0: ecd0 0f3d 7384 153d 29d0 1ebd aa5a b53c
000001b0: 3b7a 13bd 992b fbbc 71e5 403d c330 51bb
000001c0: cc1e 073c b920 8e3c 0f50 48bd 1a68 fabc
000001d0: 5683 ca3c 6660 bdbc 91a8 b3bc d674 513d
000001e0: 4ec2 283d 129e 91bb c957 233c 60f8 843c
000001f0: 2480 133d 5abb 2e3d 6598 b1bc 0203 013d
00000200: 6317 0dbd 61ea 03bd 0d08 2c3c a4a3 ba3c
00000210: ea49 013d b57f 44bd 5b13 3bbd 609e e83c
00000220: 443b 413c cc21 ff3c 4444 fe3c 3469 0f3d
00000230: 0efb 25bd 5eaf 47bc 30aa b13a 7c40 17bd
00000240: f9c8 4ebc 68b2 8e3c 7247 cf3c 8d58 4eb9
00000250: 576b 9e3c 4809 c63c 29d3 41bd 0ce7 1f3d
00000260: 6b38 183d 2494 f9bc 252f edbc 2fde f83b
00000270: abb3 28bd c2d6 3f3b dc8b 85bc 0d8c f73c
00000280: 5237 813c 63fb 79bc f248 a53c ca17 88bb
00000290: 72d3 2dbd 37b8 953b a088 2bbd 4600 8b3c
000002a0: 9b5e 13bc c939 f8bc da75 c5bc beb3 c1bc
000002b0: 29b4 97bc e7bc 76bc 210b 203d df23 803c
000002c0: 741e ff39 3892 eb3c 8531 8dbb c51b b0bc
000002d0: 3250 9fbc cc58 e9bc efaf c5bc 4ec1 153d
000002e0: 399c c43c 8633 dc3c 7fe1 b33b 5812 433c
000002f0: 6224 74bb 337c 0ebd 9d2b 893b 8ded a73c
00000300: e631 0b3d e9f4 aebc 1986 353c a72e a2bc
00000310: 4a53 09bd 94ca 2cbc 606e 35bd acf5 21bd
00000320: 292e 83bc 2901 9dbc ec29 3b3c defe 4a3d
00000330: b08a 7abc 0714 59bc 3474 04bd af7b f43c
00000340: 0740 473c e196 a6bb a60d a13c 332d fe3b
00000350: f184 06bb 4e8b 69bc ce9c 2dbc 104a c4ba
00000360: 92e3 4dbd 6e5b bfbc f920 a23c f6c7 f8bb
00000370: c057 d9bc 303a 0f3c 0138 7abc 984a ccbb
00000380: ff77 04bc 85a1 08ba 54a0 9fbc abce 083c
00000390: 4703 fd3c 18b2 303d bfb0 e03a 82f8 edbc
000003a0: ffec 133d 6b43 adbc 3e18 b93c bc15 82bc
000003b0: 9c62 d93b f8f6 0bbc d3a1 57bc 9f25 083d
000003c0: 5a09 dbbc b128 e8b9 4278 c63c 8f48 ed3a
000003d0: 2b13 3cbd ecda 243d 023e 283d bea9 933c
000003e0: cdaf 213d f019 4b3c a808 873c fe8b cfbc
000003f0: 1dc6 bfbc 0b08 463a 11a5 1bbd f76a f53c

nonreduce2_1.bias f4 [16]
-0.03703916 -0.0074039213 0.008564736 -0.014565661 -0.011514171 0.0462185 -0.0037458858 -0.047587913
0.03763289 -0.008046021 0.024936346 0.03240096 -0.0082725 0.030200431 -0.00091110816 0.025596133
00000000: 60b6 17bd 989c f2bb 1b53 0c3c cfa4 6ebc
00000010: efa5 3cbc 9c4f 3d3d 897d 75bb 8beb 42bd
00000020: f224 1a3d 75d3 03bc 4f47 cc3c deb6 043d
00000030: 6189 07bc e566 f73c 6fd7 6eba fbae d13c

nonreduce2_2.weight f4 [16, 16, 3, 3, 3]
0.025085589 -0.036364414 -0.030816678 -0.036803357 -0.012763602 -0.037489057 -0.012154997 -0.022116976
-0.014589651 -0.011706208 -0.019761842 0.005574932 0.01297644 0.033179987 -0.056066643 0.047041122
0.03781353 0.045082185 -0.025539529 -0.038470883 -0.07069769 0.03822324 -0.011017726 0.0017700796
0.038034245 -0.00043916007 -0.019748531 -0.02371698 0.04331077 -0.04618751 -0.027782371 0.010489011
-0.0092273615 0.052944884 -0.027533175 0.039220657 -0.008732264 0.035667565 0.0060773636 -0.0016947418
0.031506237 -0.043375816 0.021535197 0.029602667 0.025475632 0.015832271 -0.010922363 0.02951028
0.053527884 0.0084242895 0.0031448847 -0.008007744 0.0039500277 -0.024565525 0.029235942 -0.0050950507
-0.016403504 0.0039786194 0.009439113 -0.03226531 0.03963352 -0.03386177 0.012509311 0.020813275
-0.017248124 0.0028190357 0.034561373 0.0023670741 -0.032906543 -0.049538665 0.04143714 0.030801354
-0.01863666 0.0018390522 0.01311925 -0.021189615 0.020162947 0.04813075 0.05608614 0.024190148
-0.014467173 -0.02328104 0.024136478 -0.03798059 -0.043694783 0.03986422 -0.0012760083 0.017362166
-0.02136096 0.019547377 -0.043394014 -0.029673532 -0.028796203 -0.038880706 0.03566513 -0.01553526
0.014872967 0.046260867 0.04218061 -0.010624534 0.032770075 0.021946969 0.040610407 -0.02730653
-0.04009937 0.00621525 0.034105994 -0.010481141 -0.016358938 -0.06257372 0.024488004 0.005617294
0.015917037 -0.05134002 0.0037234942 0.03465908 -0.017510535 -0.047288284 -0.0830508 -0.07847493
0.044073038 -0.045416422 -0.05580883 0.028602349 -0.007515591 0.049030695 -0.009426855 -0.047977358
-0.056842472 0.018296037 -0.0071447613 -0.04127002 0.06502045 -0.011031714 -0.004797109 0.0055050505
-0.023551302 -0.036129434 -0.009796869 -0.040223923 -0.042080406 0.028440401 0.033832204 0.025571954
0.012878935 0.042937264 -0.003684454 0.034929827 -0.04101006 0.04708818 -0.0031056574 -0.03664067
-0.036241483 -0.027291775 -0.022282 -0.011294391 0.03715987 -0.0005715493 0.03375107 0.032147866
-0.04517141 0.008212854 -0.005391786 -0.0006707569 0.043111194 -0.03966015 -0.03951716 -0.029443325
0.03792266 0.03765142 -0.028918114 -0.009789456 -0.019890826 0.040098213 -0.00628477 0.017462075
0.030217648 -0.02095078 0.031351186 0.03099982 0.03719197 -0.041442085 0.0183051 -0.0026269467
0.017723521 -0.04288389 0.03799296 0.01886291 0.017531771 0.04199954 -0.04137296 0.017149203
-0.0403527 -0.04204636 0.010545526 0.007966585 -0.022821715 0.010156899 0.015647884 -0.03642607
0.011389561 1.9462741e-05 0.014913177 -0.014307949 0.04975231 -0.02600359 -0.040890377 -0.0074802404
-0.028470535 0.015764002 -0.034845028 -0.005254628 -0.030412367 0.056875646 0.027153522 -0.02744585
-0.029244123 0.005755657 -0.043243345 -0.026936641 0.02581207 0.025906418 0.03358372 0.034065057
-0.029942686 -0.028283026 -0.05254126 -0.04623341 0.020899223 -0.0395641 0.003706849 0.04718326
0.038492005 0.019963332 -0.03689278 -0.056245875 -0.04890096 0.03559422 0.02057194 0.028160058
0.05390732 0.0003123279 -0.021036336 0.021170065 -0.025000146 -0.006180489 -0.017688816 6.971742e-05
0.01410431 0.011607368 -0.041714277 0.00843712 0.008169996 0.014425268 0.01934474 -0.00723457
00000000: 4b80 cd3c daf2 14bd 4273 fcbc 1ebf 16bd
00000010: 6d1e 51bc 208e 19bd c125 47bc a92e b5bc
00000020: 6e09 6fbc 65cb 3fbc 96e3 a1bc ebad b63b
00000030: 229b 543c bde7 073d 23a6 65bd 31ae 403d
00000040: 5ce2 1a3d 19a8 383d 4638 d1bc a593 1dbd
00000050: f3c9 90bd f98f 1c3d b183 34bc 0402 e83a
00000060: ccc9 1b3d 113f e6b9 acc7 a1bc 1d4a c2bc
00000070: a266 313d 1d2f 3dbd db97 e3bc 1ada 2b3c
00000080: 5c2e 17bc bcdc 583d 418d e1bc d7a5 203d
00000090: c511 0fbc 2718 123d 9f24 c73b 1922 deba
000000a0: af0c 013d d7aa 31bd 956a b03c 4b81 f23c
000000b0: 46b2 d03c aeb2 813c b6f3 32bc 8bbf f13c
000000c0: 0e40 5b3d 0806 0a3c 691a 4e3b ea32 03bc
000000d0: 3c6f 813b a43d c9bc 3780 ef3c 62f4 a6bb
000000e0: a460 86bc 145f 823b 82a6 1a3c a128 04bd
000000f0: c256 223d a4b2 0abd daf3 4c3c 9a80 aa3c
00000100: f04b 8dbc 92bf 383b 3a90 0d3d ea20 1b3b
00000110: 03c9 06bd 0ee9 4abd feb9 293d 1f53 fc3c
00000120: e9ab 98bc 5a0c f13a 1ff2 563c d895 adbc
00000130: c42c a53c c024 453d 95ba 653d 6b2a c63c
00000140: b907 6dbc e1b7 bebc ddb9 c53c 8991 1bbd
00000150: 4df9 32bd aa48 233d bc3f a7ba 1a3b 8e3c
00000160: 2efd aebc d221 a03c ecbd 31bd e815 f3bc
00000170: 04e6 ebbc 6041 1fbd 9915 123d 9a87 7ebc
00000180: bfad 733c 097c 3d3d 93c5 2c3d 8712 2ebc
00000190: ea39 063d 21ca b33c 1957 263d f2b1 dfbc
000001a0: 3d3f 24bd 4ca9 cb3b bab2 0b3d 17b9 2bbc
000001b0: 2e03 86bc a726 80bd 119b c83c 4711 b83b
000001c0: 7264 823c ea49 52bd de05 743b aef6 0d3d
000001d0: 4172 8fbc 5cb1 41bd 8a16 aabd 77b7 a0bd
000001e0: ee85 343d 9206 3abd cd97 64bd 794f ea3c
000001f0: 5945 f6bb 69d4 483d 1873 1abc e883 44bd
00000200: a7d3 68bd 92e1 953c 9a1e eabb c10a 29bd
00000210: 7129 853d 5dbe 34bc 1131 9dbb b663 b43b
00000220: a9ee c0bc 75fc 13bd 0c83 20bc d7c1 24bd
00000230: 815c 2cbd d8fb e83c a393 0a3d 467c d13c
00000240: 2b02 533c fcde 2f3d e176 71bb 9412 0f3d
00000250: 2afa 27bd 89df 403d 4988 4bbb 8714 16bd
00000260: f371 14bd 0093 dfbc be88 b6bc 1c0c 39bc
00000270: f334 183d 06d4 15ba 903e 0a3d 7bad 033d
00000280: a805 39bd 358f 063c 94ad b0bb bcd5 2fba
00000290: 5d95 303d ae72 22bd bfdc 21bd 2133 f1bc
000002a0: cb54 1b3d 6038 1a3d aee5 ecbc f463 20bc
000002b0: 16f2 a2bc 063e 243d 79f0 cdbb a00c 8f3c
000002c0: 008b f73c f8a0 abbc 1a6a 003d 56f3 fd3c
000002d0: 9b56 183d 2dbf 29bd 94f4 953c da28 2cbb
000002e0: eb30 913c 05a7 2fbd 829e 1b3d 6486 9a3c
000002f0: ca9e 8f3c b607 2c3d b176 29bd 7c7c 8c3c
00000300: df48 25bd ce38 2cbd 24c7 2c3c 4886 023c
00000310: 9bf4 babc 1f69 263c fe2f 803c 8133 15bd
00000320: 489b 3a3c eb43 a337 6656 743c e36b 6abc
00000330: 14c9 4b3d 7b05 d5bc ab7c 27bd ce1c f5bb
00000340: 0a3b e9bc 8223 813c a9b9 0ebd 042f acbb
00000350: 5b23 f9bc 70f6 683d 1071 de3c 1fd6 e0bc
00000360: 5f91 efbc f399 bc3b ef1f 31bd 3baa dcbc
00000370: d673 d33c b239 d43c 158f 093d cd87 0b3d
00000380: 5d4a f5bc ceb1 e7bc 8135 57bd 3e5f 3dbd
00000390: d934 ab3c f70d 22bd 9bee 723b 3c43 413d
000003a0: cba9 1d3d 248a a33c e21c 17bd 1362 66bd
000003b0: 5f4c 48bd 3fcb 113d 7c86 a83c ecaf e63c
000003c0: eccd 5c3d f1bf a339 6554 acbc d86c ad3c
000003d0: 1bcd ccbc b385 cabb 23e8 90bc 4135 9238
000003e0: c415 673c d42c 3e3c 97dc 2abd d93b 0a3c
000003f0: 72db 053c f657 6c3c dc78 9e3c f90f edbb

nonreduce2_2.bias f4 [16]
0.017940383 -0.031486157 0.026618093 0.043210786 0.009432624 0.051967185 0.045081902 -0.024024533
-0.028809171 0.029419502 0.030587044 0.040522832 -0.010113887 0.055253133 -0.010044411 -0.029372245
00000000: b6f7 923c a1f7 00bd 300e da3c cbfd 303d
00000010: 4b8b 1a3c 8bdb 543d cda7 383d 19cf c4bc
00000020: 3601 ecbc 2b01 f13c ae91 fa3c 45fb 253d
00000030: b7b4 25bc 1c51 623d 5091 24bc 109e f0bc
