02_deep3D/model/model_sho.pt (torch, 739908 bytes, 25 tensors)

reduce1.weight f4 [64, 1, 4, 4, 4]
0	0xbbc8f444	-0.0061326344
1	0xbd426afe	-0.047465317
2	0x3d98510a	0.07437332
3	0xbc2361dc	-0.009972062
4	0x3caf8b6d	0.021428788
5	0x3dbdd5cd	0.09269295
6	0xbdeb9e10	-0.115047574
7	0xbdfc716e	-0.123263225
8	0x3def7546	0.1169229
9	0xbd8923f8	-0.066963136
10	0x3dba3104	0.0909138
11	0xbd04ea84	-0.032450214
12	0x3df4a7ab	0.119460426
13	0xbd7b73e2	-0.06138981
14	0x3bebcafc	0.0071958285
15	0xbd23988a	-0.039940394
16	0xbce9e23c	-0.02855026
17	0xbdd3844e	-0.103279695
18	0x3dbf7f30	0.09350431
19	0x3d471d09	0.048611674
20	0xbcfcba41	-0.030850532
21	0xbca1561b	-0.019694379
22	0xbd7c2fab	-0.061568897
23	0x3dd631dc	0.10458729
24	0x3c4c7617	0.012479327
25	0xbcd4c96d	-0.025974954
26	0xbdb831c2	-0.089938655
27	0x3db8666a	0.09003909
28	0xbde89942	-0.113573566
29	0xbddae9ab	-0.106891
30	0x3abe81b1	0.0014534501
31	0x3d952f79	0.07284445
32	0xbd893870	-0.06700218
33	0xbd1b4325	-0.03790583
34	0x3d6dbc3f	0.058040854
35	0xbd9f4a50	-0.07777846
36	0xbda3f27c	-0.080052346
37	0xbd1f934f	-0.038958844
38	0xbd13acc2	-0.036053427
39	0x3d6e2a3d	0.05814575
40	0x3d970763	0.07374456
41	0x3dad8107	0.08471876
42	0x3bec275d	0.007206841
43	0x3dc4ce68	0.09609681
44	0xbdbc7a96	-0.09203069
45	0xbd3ea531	-0.046544258
46	0xbd2730c5	-0.040817995
47	0xbd03f735	-0.032218177
48	0xbdac3a66	-0.08409576
49	0xbd9341d7	-0.07190292
50	0xbb6feff8	-0.0036611538
51	0xbcfa6c38	-0.03056918
52	0x3d8b3aa5	0.06798295
53	0x3d43b1ea	0.047777094
54	0x3deae74f	0.114699
55	0xbda34307	-0.07971769
56	0xbcac2cf3	-0.021017527
57	0x3c6b8aa1	0.014376313
58	0xbbdcf171	-0.0067426492
59	0x3d79f36b	0.061023157
60	0xbc28f68b	-0.010312687
61	0x3cecfad8	0.028928205
62	0x3d58c237	0.052919593
63	0xbd906ba6	-0.07051782
64	0xbd43f39b	-0.047839742
65	0xbdad9144	-0.08474973
66	0x3d809a08	0.06279379
67	0xbde5720f	-0.112033956
68	0x3dc7a7ba	0.09748788
69	0xbd9e89eb	-0.077411495
70	0xbd76aadc	-0.060221538
71	0xbcbd26b6	-0.023089748
72	0xbd233eeb	-0.039854925
73	0x3d554384	0.05206634
74	0xbdc4169a	-0.095746234
75	0xbd06321e	-0.03276264
76	0xbc44bbb5	-0.0120076435
77	0xbccddfd7	-0.02513115
78	0x3ba3523a	0.0049841674
79	0xbd9e1652	-0.07719101
80	0x3d580666	0.052740477
81	0x3d8f05d7	0.06983536
82	0x3d2b9d49	0.041898046
83	0xbd8e353f	-0.0694375
84	0xbd1e6308	-0.038668662
85	0xbddb7719	-0.107160755
86	0x3ddca556	0.10773723
87	0xbce914af	-0.028452246
88	0xbda10c85	-0.07863716
89	0x3d70dfae	0.058807068
90	0x3cf9a0e0	0.030472219
91	0xbdb7b2de	-0.08969663
92	0xbdc7312e	-0.09726177
93	0x3d4ea2e5	0.050448317
94	0x3d6493a5	0.055804867
95	0x3c8ace51	0.016944082
96	0xbca292a7	-0.01984532
97	0x3deb5605	0.11491016
98	0xbdc51e08	-0.09624869
99	0xbd704740	-0.0586617
100	0x3d3320f7	0.04373261
101	0x3d60726d	0.054796625
102	0xbdd9293b	-0.10603567
103	0xbdabb56b	-0.08384212
104	0xbdf4fca9	-0.119622536
105	0xbd1be1b2	-0.038057037
106	0xbdf50952	-0.11964668
107	0xbd0af41f	-0.03392422
108	0xbdabddb8	-0.08391899
109	0x3de5407b	0.11193939
110	0x3d9f08e6	0.07765369
111	0x3dc28027	0.09497099
112	0xbd88b068	-0.06674272
113	0x3da2245e	0.07917093
114	0x3d3c6c00	0.046001434
115	0x38f958c2	0.00011889778
116	0xbdf88df9	-0.12136454
117	0x3dd2154e	0.1025797
118	0x3d72702e	0.059189014
119	0xbde2db21	-0.11076952
120	0xbc9266c8	-0.017871276
121	0x3d653ccc	0.055966184
122	0x3dde4b19	0.108541675
123	0x3d792b3e	0.060832255
124	0xbda8047a	-0.08203979
125	0xbd80aec8	-0.06283337
126	0x3dd12358	0.102118194
127	0xbd93b4e2	-0.07212235
128	0x3d271e26	0.040800236
129	0xbded3c21	-0.11583734
130	0xbd02b18e	-0.03190761
131	0x3dbe1fde	0.09283422
132	0xbddd6b81	-0.1081152
133	0x3c5f22c7	0.013619131
134	0xbdb4ce12	-0.08828367
135	0x3dfa5142	0.1222253
136	0x3dd89478	0.10575193
137	0xbde43021	-0.11141992
138	0x3dbd7d75	0.09252445
139	0xbdc7aaaa	-0.097493485
140	0x3d9dc264	0.07703093
141	0xbd32f9aa	-0.04369513
142	0x3e00c704	0.12575918
143	0x3de60a80	0.112324715
144	0xbdc94c3e	-0.09828995
145	0xbdbe745a	-0.09299536
146	0xbcd8cb48	-0.02646412
147	0x3de4754b	0.11155184
148	0x3df6d385	0.12052063
149	0xbdb6d053	-0.089264534
150	0xbce4eb4d	-0.027944231
151	0xbd6ee072	-0.058319516
152	0xbdca7b2e	-0.09886776
153	0x3ddeec73	0.10884943
154	0xbd11df5e	-0.03561341
155	0xbca7e03b	-0.020492664
156	0xbc1a43e2	-0.009415599
157	0xbdccb915	-0.09996239
158	0x3de75357	0.11295193
159	0x3c40dd74	0.011771549
160	0xbd14e8a8	-0.03635469
161	0x3d98db4b	0.07463702
162	0x3de10567	0.109873585
163	0xbdc763c5	-0.097358264
164	0x3d08842f	0.033329185
165	0x3db81ea6	0.08990221
166	0x3d6e54a3	0.058186185
167	0x3dd0c22f	0.101932876
168	0xbdd414f2	-0.103555575
169	0x3d06ff6d	0.032958437
170	0xbd101309	-0.035174403
171	0xbd926707	-0.07148557
172	0x3d388304	0.04504682
173	0xbd915bcc	-0.07097587
174	0xbdfab143	-0.12240841
175	0xbde85321	-0.113439806
176	0x3de05450	0.10953581
177	0xbd51e0a2	-0.051239617
178	0xbb4700e5	-0.0030365523
179	0xbdf2784d	-0.11839352
180	0x3db12e60	0.086514235
181	0x3d7d5d4b	0.06185655
182	0x3dbfa24c	0.093571275
183	0xbd567878	-0.05236098
184	0xbdcf2ae8	-0.101156056
185	0x3e00ae34	0.12566453
186	0xbd2ed1aa	-0.04268042
187	0xbcd3a561	-0.025835695
188	0x3c2fa2a1	0.010719926
189	0xbdec47f3	-0.11537161
190	0x3c3ec704	0.011644129
191	0x3d4982e1	0.04919708
192	0xbc82f1b3	-0.015984392
193	0x3cdf4854	0.027256168
194	0xbd960401	-0.073249824
195	0x3dbdfe1a	0.09276982
196	0xbcecde11	-0.028914483
197	0xbd63ac16	-0.055584036
198	0x3dbe45f2	0.09290685
199	0x3d741ecd	0.059599686
200	0x3daa7123	0.0832236
201	0xbd9eae53	-0.077480935
202	0xbd2b0a01	-0.041757587
203	0x3d0e0057	0.034668293
204	0xbd7c3d0a	-0.06158165
205	0xbdb71729	-0.08939964
206	0xbdf8a22e	-0.12140308
207	0x3dbb4953	0.09144845
208	0xbd3dd1bd	-0.0463426
209	0x3d46b6db	0.04851423
210	0xbdb62cf5	-0.088952936
211	0xbd5da6ba	-0.05411408
212	0xbcf5da06	-0.030011188
213	0x3c6d352d	0.01447801
214	0xbdaacb2f	-0.083395354
215	0xbc5c6bd5	-0.013453444
216	0x3d3fcd53	0.04682667
217	0xbd28540a	-0.04109577
218	0xbd07f9ac	-0.03319709
219	0xbdc97819	-0.0983736
220	0xbcf15d43	-0.029463416
221	0x3c008107	0.0078432625
222	0x3d7ffd9b	0.062497716
223	0xbdf38ef0	-0.118924975
224	0xbd8b3fae	-0.06799255
225	0x3e0a0119	0.13476981
226	0xbd8bfaa3	-0.068349145
227	0xbd710b44	-0.058848634
228	0x3ccc58b0	0.024944633
229	0x3bbcc73d	0.0057610557
230	0xbdb845cb	-0.08997687
231	0x3c840c11	0.016119035
232	0x3cb23f50	0.021758705
233	0xbcd219d7	-0.025647087
234	0x3cf0f48e	0.029413488
235	0xbcd38204	-0.025818832
236	0xbd1219a3	-0.03566898
237	0x3daff37c	0.08591363
238	0x3d0b03d4	0.033939198
239	0x3cf057b7	0.0293387
240	0x3d6abff1	0.057311956
241	0x3c9765d0	0.018481165
242	0xbd030d33	-0.03199501
243	0xbdb63006	-0.088958785
244	0xbc98ab2d	-0.01863631
245	0x3dc13dce	0.094356164
246	0x3d9a09a3	0.07521369
247	0x3de0415d	0.10949967
248	0x3da1f832	0.079086676
249	0xbd85f55f	-0.065409414
250	0x3da3bafd	0.079946496
251	0xbddacf8e	-0.10684119
252	0xbd617698	-0.05504474
253	0x3cb6d3b3	0.022317743
254	0x3dda6974	0.10664645
255	0x3d95670a	0.07295044

reduce1.bias f4 [64]
0	0xbccc1b2a	-0.024915297
1	0x3e031b17	0.12803303
2	0x3dae5eb6	0.085141584
3	0x3cdf69f8	0.02727221
4	0x3de963a3	0.11395957
5	0x3e15b1da	0.14618626
6	0x3e35c773	0.17751865
7	0xbd86ff2a	-0.065916374
8	0xbdb21061	-0.0869453
9	0x3d8b6265	0.06805877
10	0xbc135e03	-0.008994582
11	0x3d00a1ee	0.03140443
12	0x3d80424d	0.06262646
13	0xbdb1536f	-0.08658492
14	0x3d73bdb8	0.0595071
15	0x3d31538d	0.04329257
16	0xbd05e8e2	-0.032692797
17	0x3db52c7c	0.08846375
18	0x3def2628	0.116771996
19	0x3dbda0f9	0.09259219
20	0x3e070a72	0.13187578
21	0x3de14f4b	0.11001452
22	0xbd934c13	-0.071922444
23	0xbbbc3200	-0.005743265
24	0xbc71ad64	-0.014750812
25	0x3ddcbf39	0.1077866
26	0xbd91a94d	-0.0711237
27	0xbd4c6109	-0.049897227
28	0xbd524af5	-0.051341016
29	0xbdc3fca3	-0.09569671
30	0xbddf8d0d	-0.10915575
31	0x3d93e312	0.072210446
32	0x3dd6149a	0.10453148
33	0x3d8e5c60	0.06951213
34	0x3ca46b74	0.020070769
35	0x3deddce5	0.11614398
36	0x3da335c4	0.07969239
37	0xbcdccc02	-0.026952747
38	0xbe00351e	-0.12520263
39	0xbdddc6c2	-0.10828926
40	0x3e32c77f	0.17458914
41	0xbb8b729e	-0.004255607
42	0xbdb6a157	-0.08917492
43	0xbde61e68	-0.11236268
44	0xbd4f4b51	-0.050608937
45	0x3d8629ec	0.06550965
46	0xbc98434d	-0.018586779
47	0x3d87d9c8	0.06633335
48	0x3e3f1b7d	0.1866283
49	0xbd4faa46	-0.050699495
50	0x3e020281	0.12696268
51	0xbddd02e8	-0.1079157
52	0xbb1091ee	-0.0022059637
53	0x3d92c8fc	0.07167241
54	0xbc295ab3	-0.010336566
55	0x3dc56199	0.09637756
56	0x3d8827bb	0.06648203
57	0x3dbc04dc	0.09180614
58	0x3d35ec0c	0.044414565
59	0x3dd53653	0.10410752
60	0xbd9163e3	-0.0709913
61	0xbdc2a49a	-0.095040515
62	0xbd41e769	-0.04733983
63	0x3d000a1c	0.03125964

nonreduce1_1.weight f4 [32, 64, 3, 3, 3]
0	0x3b8d6e70	0.0043161437
1	0xbb2eb751	-0.0026659558
2	0xbc286d8f	-0.010280027
3	0x3b19cec6	0.0023469194
4	0xbcc5b03c	-0.024131887
5	0xbc8bb7d9	-0.017055439
6	0xbca0ac1a	-0.019613314
7	0x3c2a7272	0.010403262
8	0x3c0dcc30	0.008654639
9	0x3c1782fc	0.009247538
10	0x3c82f913	0.015987908
11	0x3cca9603	0.024729734
12	0xbc18fcc1	-0.009337605
13	0xbb17b6a7	-0.002314964
14	0x3c18ec81	0.009333731
15	0xbbe63d09	-0.007026319
16	0xbbcc27f6	-0.0062303497
17	0xbc0fe91b	-0.008783604
18	0xbbac0132	-0.005249166
19	0x3ba3ae1b	0.00499512
20	0xbba438dd	-0.0050116614
21	0x3cb3e49c	0.021959595
22	0x3c75d923	0.015005383
23	0xba8962fb	-0.0010481769
24	0xbca23240	-0.019799352
25	0x3ca7a61c	0.02046495
26	0x3b4f50ef	0.0031633934
27	0x3c674bd4	0.0141172
28	0xbc8df85a	-0.017330337
29	0xbbf9da9b	-0.0076249368
30	0x3b8a22ae	0.00421556
31	0x3cabe824	0.020984717
32	0xbc0eec3b	-0.008723314
33	0xbad9aaf6	-0.0016606736
34	0x3c74d1f1	0.014942632
35	0xbbdae876	-0.0066805435
36	0xbb0ccc9e	-0.0021484266
37	0x3ca5e344	0.02024997
38	0xbc2d3b38	-0.010573201
39	0x3c92e8ad	0.017933214
40	0x3c90f282	0.017693762
41	0xbc9c856d	-0.019106591
42	0xbbbaae54	-0.005697051
43	0xb8da4b12	-0.00010409033
44	0x3bfb4645	0.007668289
45	0xbbba3441	-0.0056824987
46	0x3c803212	0.015648875
47	0x3cdb1779	0.026744591
48	0x3ca28aa5	0.019841501
49	0xbc57e440	-0.013176978
50	0x3bd2eaa3	0.0064366623
51	0x3c8d2f8f	0.017234592
52	0x3c2e56db	0.010640825
53	0x3ccc8cc7	0.024969472
54	0x3cac0689	0.02099921
55	0x3ce21dad	0.027602041
56	0x3c4bcd3f	0.012439071
57	0x3c4b7e79	0.01242029
58	0x3b7b1ab4	0.0038315477
59	0xbc89c55b	-0.01681774
60	0x3ce3aa0f	0.027791051
61	0x3c994b4a	0.018712658
62	0x3d01517b	0.031571846
63	0xbc523839	-0.012830787
64	0x39cf55b1	0.00039545962
65	0x3c017b49	0.007902929
66	0x3c984e31	0.018591972
67	0x3c6e4df2	0.014544951
68	0xbba520b5	-0.0050392994
69	0x3c8075f8	0.015681252
70	0x3ce933e4	0.028467126
71	0x3d14ffde	0.036376826
72	0xbc364365	-0.011124467
73	0x3c1dfe01	0.009643079
74	0x3cb25ea9	0.021773653
75	0x3a84cabc	0.001013122
76	0x3c1bb5b7	0.009503773
77	0xbb869867	-0.0041075232
78	0x3da2cbe5	0.07949046
79	0x3d2c6460	0.042087913
80	0x3d946a05	0.07246784
81	0xba3159fd	-0.00067654235
82	0x3cd5107b	0.026008835
83	0x3b97f434	0.0046372656
84	0xbc4de1d0	-0.012566045
85	0x3c675a47	0.014120645
86	0xbc435937	-0.011923126
87	0x3d6b3554	0.057423905
88	0x3c316616	0.010827562
89	0x3d2538dc	0.04033743
90	0xbbb056b5	-0.00538143
91	0x3cc90038	0.024536237
92	0x3ccdbffb	0.025115957
93	0xbba15c1b	-0.00492431
94	0xbc237a6d	-0.009977919
95	0x3c96e730	0.018420786
96	0x3d662624	0.056188717
97	0x3c83fcfd	0.016111845
98	0x38e4943a	0.000108994966
99	0x3b0fd3fc	0.002194642
100	0x3cfa5425	0.030557701
101	0x3c326800	0.010889053
102	0x3d22e3fb	0.0397682
103	0x3cd696b4	0.026194908
104	0x3c93bc2a	0.01803406
105	0x3d807b06	0.06273465
106	0x3cf94670	0.030429095
107	0x3d0b4e9c	0.034010515
108	0x3d1c22d7	0.038119163
109	0x3d30371a	0.0430213
110	0x3cb75e4b	0.02238383
111	0xb9b5aad8	-0.000346503
112	0x3c846736	0.016162496
113	0x3d1b11eb	0.037858885
114	0xb9894abd	-0.0002618636
115	0xbb4d930f	-0.0031368171
116	0x3bf87abc	0.0075829905
117	0x3d34eb7d	0.04416989
118	0x3d378cbd	0.044811953
119	0x3d3a1cb8	0.045437545
120	0xbc6ed3fc	-0.014576908
121	0xbc3a90c2	-0.011387052
122	0x3c221805	0.009893422
123	0x3c127ad6	0.008940419
124	0x3a343eca	0.00068758114
125	0x3c86dbb5	0.016462186
126	0x3d17d53b	0.037068587
127	0x3ca3173d	0.019908542
128	0x3d269b07	0.04067519
129	0x3b8377ea	0.0040120976
130	0x3ca95f7e	0.020675417
131	0x3b36a6cc	0.0027870415
132	0x3b676972	0.0035310653
133	0xbc92263c	-0.017840497
134	0x3d09ab65	0.03361072
135	0x3cd99395	0.02655963
136	0x3d56c603	0.052434932
137	0x3db81a98	0.08989447
138	0x3d0a0a26	0.033701085
139	0x3db38a51	0.08766616
140	0x3d9ee207	0.07757955
141	0x3d2fd571	0.042928163
142	0x3d781d5f	0.060574885
143	0x3d8977ef	0.06712329
144	0x3cedd7e7	0.029033614
145	0x3d5be7cb	0.053687852
146	0x3cd4f2c5	0.025994668
147	0x3d5dfcdf	0.054196235
148	0x3d2e0107	0.04248145
149	0x3d76fda0	0.06030047
150	0x3c89704a	0.016777176
151	0x3d89eede	0.067350134
152	0x3d383ef7	0.044981923
153	0x3d54b938	0.05193445
154	0x3d6b56d4	0.057455853
155	0x3d83ea31	0.06441153
156	0x3d4d48c4	0.050118223
157	0x3dc4209a	0.09576531
158	0x3da5f924	0.081041604
159	0x3da77c3d	0.081779934
160	0x3db0fb1d	0.08641646
161	0x3da377ba	0.079818204
162	0x3d89f86b	0.06736835
163	0x3d4ea1a2	0.050447114
164	0x3dacffe5	0.084472455
165	0x3d851f8a	0.06500156
166	0x3d8cb854	0.06871095
167	0x3d84a5a6	0.064769074
168	0x3d9fbdea	0.07799895
169	0x3db871a8	0.09006053
170	0x3d873c48	0.066032946
171	0x3d8a0cf4	0.06740752
172	0x3d9e1c53	0.07720246
173	0x3d5e7e79	0.054319832
174	0x3d46b019	0.048507784
175	0x3dbd1780	0.09232998
176	0x3dada3c3	0.08478501
177	0x3dc8f7d4	0.098128945
178	0x3dd4d06a	0.10391314
179	0x3d9018e1	0.07035995
180	0x3d1062b7	0.03525039
181	0x3d8bf2dc	0.06833431
182	0x3d8aa3e2	0.067695394
183	0x3d054aea	0.032542147
184	0x3d9a3a2e	0.07530628
185	0x3d96a892	0.07356371
186	0x3dbd9300	0.09256554
187	0x3dbd6d91	0.09249414
188	0x3daa6168	0.0831936
189	0x3c041cee	0.008063538
190	0x3b74c212	0.003734712
191	0x3d011304	0.031512275
192	0x3cddb483	0.027063614
193	0x3c1dbf93	0.009628194
194	0xbbb33d2f	-0.00546994
195	0x3cd9bbe6	0.026578855
196	0x3d2562b2	0.040377326
197	0x3d289cbc	0.0411651
198	0x3cbb32de	0.022851404
199	0xbbe92a5c	-0.0071156453
200	0xbb10012b	-0.0021973352
201	0xbabb7a55	-0.0014303426
202	0x3ce8bca6	0.028410267
203	0x3bc3f763	0.0059804185
204	0x3d0937cd	0.03350048
205	0x3cd2f74a	0.025752682
206	0x3cfca525	0.030840466
207	0x3b846b71	0.0040411283
208	0x3c882c17	0.016622586
209	0x3cc5d1db	0.024147918
210	0xbbad2a47	-0.005284581
211	0xbc33fb7e	-0.010985253
212	0x3b066681	0.0020507874
213	0x3d728e4c	0.059217736
214	0x3d0a47d9	0.033759926
215	0x3c52f75f	0.012876361
216	0x3c9fe802	0.01951981
217	0x3c4e150f	0.012578263
218	0x3d6fd5fb	0.058553677
219	0x3c2537e8	0.01008413
220	0x3c5d76a3	0.013517055
221	0x3d087fd1	0.03332502
222	0xbcad996d	-0.021191323
223	0x3c0c7f32	0.008575248
224	0x3d3fe817	0.046852197
225	0x3b8b154f	0.0042444835
226	0xbc67fed5	-0.014159878
227	0x3d852546	0.0650125
228	0x3bfb1fc1	0.0076636975
229	0x3c451be7	0.012030578
230	0x3cdd9334	0.027047731
231	0xbca684c0	-0.020326972
232	0xbbe5ab41	-0.0070089404
233	0x3c8e8df4	0.017401673
234	0xbcaf44ad	-0.021395052
235	0x3cb134e2	0.021631662
236	0x3cabb5d7	0.020960731
237	0x3c1bd3a7	0.009510911
238	0x3ca71e6a	0.020400245
239	0x3c4c0cca	0.012454221
240	0x3b794131	0.0038033242
241	0x3c8e448a	0.017366666
242	0x3c033653	0.008008557
243	0x3c9db589	0.019251602
244	0xbc442b5e	-0.01197323
245	0x3bbe52c5	0.0058082067
246	0x3b5ee324	0.0034009898
247	0xbbf9ccc5	-0.0076232874
248	0x3b853034	0.004064584
249	0x3c9d9e93	0.019240653
250	0xbca886af	-0.020572035
251	0xbc9483cf	-0.018129257
252	0x3b1290db	0.0022364173
253	0xbc9eb38d	-0.019372726
254	0x3c876d6a	0.016531665
255	0xb9db6250	-0.00041844184

nonreduce1_1.bias f4 [32]
0	0x3d405d14	0.046963766
1	0xbbba07ba	-0.0056771906
2	0x3c99f263	0.018792337
3	0x3b6feb94	0.0036608921
4	0x3cdafa9b	0.026730826
5	0xbb4d614d	-0.0031338513
6	0x3be5d12c	0.0070134606
7	0x3c5bb5a1	0.013410003
8	0x3bce29e9	0.006291617
9	0x3a529c44	0.00080341497
10	0xbbeceef0	-0.007230632
11	0x3c6eaa5d	0.014566985
12	0x3c10f94d	0.0088485
13	0x3c53e610	0.012933269
14	0x3c853c6e	0.016264167
15	0xbbbacb38	-0.005700495
16	0x3abfc0fa	0.0014629655
17	0xbc19c5a9	-0.009385505
18	0x3c4118f4	0.011785734
19	0x3c87dd7e	0.016585108
20	0xbba4e487	-0.0050321254
21	0x3c7db6ed	0.015485507
22	0x3cfdbfca	0.030975241
23	0x3d18fea0	0.037352204
24	0x3d0a8b2c	0.03382413
25	0x3c646b9e	0.013941674
26	0x3c74ffcb	0.014953564
27	0x3cf13a04	0.02944661
28	0xba125619	-0.00055822876
29	0xbaa5ccb8	-0.0012649512
30	0x3bae253b	0.005314497
31	0x3cc81b86	0.024427187

nonreduce1_2.weight f4 [32, 32, 3, 3, 3]
0	0x3d369b82	0.044581898
1	0x3d5d10bb	0.053971034
2	0x3d266f16	0.040633284
3	0x3bb3dee7	0.0054892185
4	0x3d348669	0.044073496
5	0x3cee619c	0.029099278
6	0x3d7f7f37	0.06237718
7	0x3d2e82c9	0.042605195
8	0x3bc4e001	0.0060081487
9	0x3ce47856	0.027889412
10	0x3c88dae8	0.016705945
11	0x3c95b669	0.018275457
12	0x3d31925d	0.043352474
13	0x3d1e7cad	0.03869312
14	0x3ce1f029	0.027580338
15	0x3d40ebc5	0.047099847
16	0x3cb5a6b2	0.022174213
17	0x3d3d0251	0.046144787
18	0x3d8f5137	0.069979124
19	0x3c174dec	0.009234887
20	0x3ce3fb87	0.027829899
21	0x3cdf2b87	0.027242435
22	0xbbb5d6be	-0.005549281
23	0x3c991909	0.018688696
24	0xbc004d45	-0.0078309225
25	0x3d203b09	0.0391188
26	0x3d4fab27	0.050700333
27	0x3c1bc386	0.009507066
28	0xbcb4bc73	-0.022062516
29	0xb9e8bbe6	-0.00044390484
30	0x3c283317	0.010266087
31	0x3c1aedaf	0.009456082
32	0x3d021431	0.031757537
33	0x3b526cf3	0.0032108396
34	0x3c551b67	0.0130070215
35	0xbc8081c9	-0.015686886
36	0x3c898756	0.016788166
37	0x3c975bb6	0.018476348
38	0xbbfba2c1	-0.007679314
39	0x3d010554	0.031499222
40	0x3c9ef678	0.019404635
41	0xbc2a55bf	-0.01039642
42	0xbcf1db3e	-0.029523488
43	0xbcf77428	-0.030206755
44	0xbcc0c2fb	-0.023530474
45	0x3ce86279	0.028367268
46	0xbc584dc8	-0.013202138
47	0xbb9fccfd	-0.0048767314
48	0x3c93c0a8	0.018036202
49	0x3cec70f0	0.028862447
50	0xbc3201fb	-0.01086473
51	0x3c05d420	0.00816825
52	0xbb85b26f	-0.004080109
53	0xbab82492	-0.0014048985
54	0x3cd09a86	0.025464308
55	0xbbdbe9c9	-0.006711219
56	0xbc244345	-0.010025804
57	0x3bd9c864	0.006646203
58	0x3d06e357	0.032931652
59	0x3caad0ad	0.020851457
60	0xbcf13f23	-0.029449051
61	0x3c65212e	0.013984961
62	0xbb3dd072	-0.0028963354
63	0x3ce8f4f2	0.028437112
64	0xba247dff	-0.00062748784
65	0x3bbbab74	0.005727226
66	0x3bf4195e	0.007449313
67	0xbcf75f2a	-0.030196745
68	0xbc2e5778	-0.010640971
69	0x3c7381d0	0.014862493
70	0xbd07abc7	-0.033122804
71	0xbcd6da99	-0.026227282
72	0x3a8a8e1d	0.0010570918
73	0x3cb581b0	0.022156566
74	0x3cc5bbee	0.024137463
75	0x3c28bfae	0.010299606
76	0xbc5ac395	-0.013352294
77	0xbb58268a	-0.0032981955
78	0x3b901467	0.0043969634
79	0xbca6701c	-0.02031713
80	0x3c228a6f	0.0099207
81	0x3cf0e4c1	0.029405953
82	0x3ce5ae0f	0.0280371
83	0x3bd14c82	0.0063872943
84	0xbc9a95ce	-0.01887026
85	0xbc8ff4fc	-0.017572872
86	0xbd00d829	-0.031456146
87	0x3cec62f7	0.028855784
88	0x3caccf54	0.021094956
89	0xbcaed120	-0.021339953
90	0xbcd53cb5	-0.026029924
91	0xbc2bba14	-0.010481376
92	0xbcfc0232	-0.030762766
93	0xbccee4e8	-0.025255635
94	0x3c5bcfdd	0.013416258
95	0xbd01d504	-0.03169729
96	0x3ca6da08	0.020367637
97	0x3c800e4d	0.01563182
98	0x3a948ed9	0.0011334076
99	0x3cebcb1e	0.028783377
100	0x3c552dac	0.013011377
101	0xba63403a	-0.00086689333
102	0x3cef9b3b	0.029248824
103	0xbce646e9	-0.028109984
104	0x3c0eb8c0	0.00871104
105	0xbbe510cb	-0.0069905273
106	0x3cf15533	0.029459571
107	0xbce60d7a	-0.028082598
108	0x3ce84fa0	0.02835828
109	0xbce8b6ae	-0.028407421
110	0xbc2aa005	-0.010414128
111	0xbbae823d	-0.005325584
112	0x3c02d15a	0.007984484
113	0xbcbac4aa	-0.022798855
114	0x3c8d6a0f	0.017262487
115	0x3b324174	0.0027199658
116	0x3cd3b99e	0.025845345
117	0x3ba8a18d	0.0051462115
118	0xbc2235b9	-0.009900504
119	0xbba8e4be	-0.0051542213
120	0xbd136d23	-0.035992753
121	0xbc958528	-0.01825197
122	0x3c2f1c9a	0.0106879715
123	0xbcf00be8	-0.029302552
124	0x3cb445d5	0.022005955
125	0x3c8d85ba	0.01727568
126	0xbc386eca	-0.011256883
127	0xbc83ccd9	-0.01608889
128	0x3c028e3a	0.00796848
129	0x3c80caf8	0.015721783
130	0xbc7d2864	-0.015451524
131	0x3d053b13	0.03252704
132	0xbcdba27a	-0.026810873
133	0xbbd5d0ba	-0.0065251263
134	0xbbe8c350	-0.007103361
135	0xbb52907f	-0.0032129583
136	0x3cd14cc2	0.025549296
137	0xbd0f8cb5	-0.035046298
138	0xbcb4a74e	-0.022052433
139	0xbbd524e4	-0.006504642
140	0xbd065bf0	-0.032802522
141	0xbca86af5	-0.020558814
142	0x3cea0fd8	0.028572008
143	0x3bbfa7f9	0.0058488813
144	0xbab3ce63	-0.0013718124
145	0xbaa5268e	-0.0012599991
146	0x3a2156df	0.00061546074
147	0xbd0cac85	-0.034344215
148	0x3c0289c1	0.007967413
149	0x3c7654c4	0.015034858
150	0x3cbb2610	0.022845298
151	0xbb916e40	-0.0044381917
152	0xbc771947	-0.01508171
153	0x3cc6b03d	0.024253959
154	0xbb1794bb	-0.0023129422
155	0xbc8b89a3	-0.017033404
156	0xbd05d65d	-0.032675136
157	0xbb200509	-0.0024417064
158	0xbd0cd72f	-0.034384903
159	0xbce9fbc1	-0.028562428
160	0xbce97e01	-0.028502466
161	0x3c50eadc	0.012751307
162	0x3babb266	0.0052397726
163	0x3ce01b52	0.027356777
164	0xbbe21594	-0.006899545
165	0x3b92798f	0.0044700573
166	0x3ba620b5	0.005069817
167	0xbca9a280	-0.020707369
168	0x3d3832b1	0.044970218
169	0x3cc4512c	0.023964487
170	0x3c53d3c6	0.012928909
171	0x3c43d3b3	0.0119523285
172	0x3c9f9195	0.019478599
173	0xbcec6c0c	-0.028860115
174	0xbce44857	-0.027866526
175	0x3c872a04	0.016499527
176	0x3cdcc7cb	0.026950737
177	0x3c870bad	0.01648506
178	0x3ce1dc30	0.027570814
179	0xbc46fae7	-0.012144781
180	0x3c5a876b	0.01333795
181	0x3c944460	0.01809901
182	0xbcddc376	-0.027070742
183	0x3ce984bc	0.028505675
184	0x3d0c2d7c	0.034223065
185	0xbccc26aa	-0.02492078
186	0x3d0556ed	0.032553602
187	0x3cac3d97	0.021025462
188	0xbb8d96b7	-0.004320945
189	0xbba3f88a	-0.0050039934
190	0x3b8f5c00	0.004374981
191	0xbcb2f599	-0.021845626
192	0xbc443f01	-0.011977912
193	0x3c248784	0.010042075
194	0xbd046070	-0.032318532
195	0x3ca6b4c9	0.020349877
196	0x3c1dced6	0.009631833
197	0x3c2eff89	0.0106810415
198	0xbbe4d89b	-0.006983829
199	0x3cde7533	0.027155494
200	0xbb722368	-0.0036947373
201	0xbcda1067	-0.02661915
202	0xbcbfe47a	-0.023424376
203	0xbce9b84b	-0.02853026
204	0xbc4963ee	-0.0122918915
205	0xbcaf34ac	-0.02138742
206	0xbcb109e0	-0.021611154
207	0xbcaef227	-0.021355702
208	0x3cfa1514	0.030527629
209	0xbd027fc6	-0.031860135
210	0x3b706b29	0.0036684966
211	0xbaa7e121	-0.0012808183
212	0x3c823d21	0.01589829
213	0xbc801d42	-0.015638951
214	0x3d0b2c90	0.033978045
215	0xbc6545d2	-0.013993697
216	0x3c3b9ff9	0.011451715
217	0x3d1025ac	0.035192177
218	0xbb83fb82	-0.004027785
219	0x3b5fc2d0	0.0034143217
220	0xbc65fcc0	-0.014037311
221	0x3d2624d4	0.040562466
222	0x3d35a4e3	0.0443467
223	0x3c910ad5	0.01770536
224	0x3d1480f5	0.036255796
225	0xbc6e4f71	-0.0145453075
226	0xbc9438d2	-0.0180935
227	0xbbe96cc0	-0.0071235597
228	0x3b888fd5	0.0041675367
229	0xbc185b13	-0.009299058
230	0xbc835963	-0.016033834
231	0x3d20fc15	0.039302904
232	0x3ceb60ef	0.028732745
233	0x3d25d0bc	0.040482268
234	0xbba27453	-0.0049577146
235	0x3d35dd4a	0.04440049
236	0xbc8dbddd	-0.017302448
237	0x3caf852a	0.021425802
238	0xbc955cfa	-0.018232811
239	0xbc9ba14f	-0.018997816
240	0x3d1e1811	0.03859717
241	0x3cc034d3	0.023462689
242	0x3cd68ed9	0.026191162
243	0xbaeceddb	-0.0018076258
244	0xbcc59e36	-0.024123292
245	0x3c4ab664	0.012372587
246	0xbce990d7	-0.028511448
247	0xbc10367a	-0.008802051
248	0x3cd7b41d	0.026331002
249	0xbd0eb469	-0.03484002
250	0x3b541b71	0.003236499
251	0xbb8c2359	-0.0042766747
252	0xbcc22a18	-0.023701712
253	0x3c9285cb	0.017886063
254	0xbbefc44c	-0.0073171016
255	0xbc76422d	-0.015030426

nonreduce1_2.bias f4 [32]
0	0x3d52548a	0.051350154
1	0xbc1cb273	-0.00956403
2	0xbc6a3a63	-0.014296147
3	0xbb32ec23	-0.0027301393
4	0x3b521768	0.0032057408
5	0xbc5023f7	-0.012703887
6	0xbcb2461b	-0.021761945
7	0xbb808e92	-0.0039232457
8	0xbcda6107	-0.026657594
9	0x3d2ab0d5	0.041672546
10	0xbc1ad64c	-0.009450506
11	0xbc8af37c	-0.016961806
12	0xbc7ba747	-0.015359706
13	0x3bd2d97a	0.0064346166
14	0xbad75336	-0.0016427997
15	0x3a6c6c26	0.0009018801
16	0x3d0d3ba1	0.034480695
17	0x3b21cd90	0.0024689175
18	0x3d794286	0.060854457
19	0x3d0c3bc4	0.034236684
20	0x3c8b96f3	0.017039752
21	0x3d24e009	0.04025272
22	0xbbd8fecb	-0.0066221706
23	0xbc160603	-0.009156707
24	0x3c8335c5	0.01601685
25	0x3cf25ce2	0.029585306
26	0x3bea9cc4	0.007159801
27	0x3d532147	0.051545408
28	0x3ce49b18	0.027905986
29	0xbc161642	-0.00916058
30	0xbbfe01cb	-0.0077516786
31	0x3d5d55be	0.05403685

nonreduce1_3.weight f4 [32, 32, 3, 3, 3]
0	0xbb5ac47c	-0.0033381274
1	0xbca21394	-0.019784726
2	0x3d009a0c	0.03139691
3	0x3cb518e3	0.022106593
4	0xbc15503a	-0.009113366
5	0x3b943ab0	0.0045235977
6	0xbc9ca694	-0.0191224
7	0xbcbe7501	-0.023249151
8	0x3c26d3b4	0.01018231
9	0xbc828e5b	-0.015937021
10	0xbc3e8aa6	-0.011629736
11	0x3cd7b081	0.02632928
12	0x3cad0226	0.021119189
13	0xbb989ae1	-0.004657135
14	0x3cb15fd1	0.021652134
15	0xbbf80343	-0.007568748
16	0x3b0988ae	0.0020986008
17	0xbcaef94a	-0.021359105
18	0xbc5aee23	-0.01336244
19	0x3b45be0c	0.0030173091
20	0xbcb9f08e	-0.022697713
21	0x3adea2b1	0.0016985742
22	0xbce8cbc9	-0.028417485
23	0xbc1a7c73	-0.009429085
24	0xbc8239eb	-0.015896758
25	0x3b08d206	0.0020877137
26	0xbc085eba	-0.008323366
27	0xbc1772f2	-0.009243714
28	0x3ba60fb4	0.00506779
29	0xbd080fcb	-0.033218186
30	0x3a4e91c6	0.00078799983
31	0xbb1a0357	-0.0023500526
32	0xbc666592	-0.014062302
33	0xbd0b22f8	-0.033968896
34	0xbc3802c3	-0.011231127
35	0xb9ff560b	-0.00048701497
36	0xbd09acea	-0.03361217
37	0xbcadf12f	-0.02123317
38	0x3ccaca13	0.02475456
39	0xb9b7fb5d	-0.0003509176
40	0xbbf52ef6	-0.007482405
41	0x3c903e31	0.01760778
42	0x3c7c7e1b	0.015410925
43	0x3c22a9bd	0.009928164
44	0x3c2c93b5	0.010533263
45	0xbc41c840	-0.0118275285
46	0xbc8e2200	-0.017350197
47	0x3b64a681	0.0034889283
48	0xbc810771	-0.015750619
49	0x3ca449a9	0.020054655
50	0xbbf84cea	-0.0075775282
51	0xbc1424ca	-0.009041974
52	0xbcb8d9b4	-0.022564746
53	0x3c3084a5	0.010773812
54	0xbcf54a8a	-0.02994277
55	0x3cb5180f	0.022106199
56	0xbc45e876	-0.012079349
57	0x3c5fa826	0.01365093
58	0xbcc51dbc	-0.02406203
59	0x3bab5473	0.005228573
60	0xbc8670a5	-0.016411135
61	0x3c18184e	0.009283138
62	0xbc3d04bc	-0.011536773
63	0x3be64909	0.0070277494
64	0xbcd88ec7	-0.026435269
65	0xbc4862dd	-0.012230602
66	0x38c769a0	9.508734e-05
67	0x3ce8210c	0.02833607
68	0xbccc875e	-0.024966892
69	0x3bdd9e6b	0.0067632697
70	0x3c8f0c4d	0.01746192
71	0x3cbeb3ae	0.023279037
72	0xbc5d2688	-0.013497956
73	0x3c7fad57	0.015605292
74	0xba0fc350	-0.0005484121
75	0xbc48139f	-0.012211709
76	0xbcbb68ce	-0.022877123
77	0x3c6e7a22	0.014555486
78	0xbc9cdb96	-0.019147675
79	0xbd073eeb	-0.033018988
80	0xbc5f2725	-0.013620173
81	0xbc8e1eaf	-0.017348615
82	0x3ce91ea4	0.028456993
83	0x3b4fad05	0.003168882
84	0x3c422125	0.011848723
85	0x3cf8f1fa	0.03038882
86	0xbd06453d	-0.032780875
87	0x3bc432c9	0.0059874994
88	0xbc331882	-0.010931136
89	0xbc8cee24	-0.017203398
90	0x3cd96c25	0.026540825
91	0x3d01c455	0.031681377
92	0xbca47704	-0.020076282
93	0xbcdc6e14	-0.026907958
94	0xbc935218	-0.017983481
95	0xbcdf4bfe	-0.027257916
96	0x3cd29716	0.025706809
97	0x3c773d49	0.015090295
98	0x3bb42338	0.0054973625
99	0xbcdffa20	-0.027340949
100	0xbafff4fb	-0.0019527966
101	0xbcf87ae9	-0.030332046
102	0x3add7977	0.0016897161
103	0x3c4a6529	0.01235322
104	0x3d0b899b	0.034066778
105	0xbca4d9c1	-0.020123364
106	0x3b3034fb	0.0026887048
107	0x3c812bc3	0.015767938
108	0x3bbaa3b6	0.0056957854
109	0xbbe6a935	-0.007039214
110	0x3a11c1aa	0.0005560169
111	0xbc54a2f8	-0.012978308
112	0xbc2c9162	-0.010532709
113	0xbc4c9b69	-0.012488225
114	0xbce6a914	-0.028156795
115	0x3cc4e8d5	0.024036804
116	0xbcb81f6c	-0.02247592
117	0xbc209f36	-0.009803584
118	0xbcaff7bc	-0.021480434
119	0xbce04c24	-0.027380057
120	0x3cc20c7e	0.023687597
121	0xbc7eae93	-0.015544551
122	0x3ce2b106	0.027672302
123	0x3b906971	0.004407101
124	0xbc9db099	-0.019249247
125	0x3c5f095f	0.013613074
126	0x3c28e4fb	0.010308499
127	0xbcd873bb	-0.026422372
128	0x3c2d399c	0.010572817
129	0x3c7a4035	0.015274097
130	0x39bb87af	0.00035768512
131	0xbbf29a7a	-0.007403669
132	0x39be791c	0.00036329858
133	0xba02fb6a	-0.000499657
134	0xbd01657a	-0.031590916
135	0x3c0ef335	0.008724977
136	0xbd00d36b	-0.031451624
137	0xbc93b653	-0.018031275
138	0xbcacddf6	-0.021101933
139	0xbcecc0cc	-0.028900526
140	0x3bd7e82e	0.0065889573
141	0xbc941d80	-0.018080473
142	0x3c390e2c	0.011294883
143	0xbc93b1d8	-0.018029138
144	0xbcbe5405	-0.023233423
145	0x3b87ffaa	0.0041503506
146	0xbc10cc0c	-0.008837711
147	0xbcd75258	-0.026284382
148	0x3c4dde63	0.012565228
149	0x3ca2a284	0.019852884
150	0x3cb69cb5	0.02229152
151	0x3ca37c30	0.019956678
152	0xbba0d486	-0.0049081473
153	0x3c8b0395	0.016969481
154	0xbc88c554	-0.016695656
155	0x3c2ccf2f	0.010547443
156	0xbbb27dbe	-0.0054471185
157	0xbceb72dc	-0.028741293
158	0xbcd0f8e4	-0.025509305
159	0xbcc294a2	-0.023752514
160	0x3caaaa52	0.020833168
161	0xbd092663	-0.033483874
162	0x3cb29776	0.021800738
163	0xbc62136e	-0.013798578
164	0xbd0e8644	-0.034796014
165	0x3c7dd3a3	0.015492353
166	0xbc31a2ff	-0.010842084
167	0x3b53483f	0.0032239107
168	0x3cb6acba	0.02229916
169	0xbce99d87	-0.028517498
170	0xbd028d6a	-0.031873144
171	0x3cbd6c69	0.023122983
172	0x3c5f5d96	0.0136331525
173	0x3c2cd1f2	0.010548102
174	0xbc87401d	-0.016510064
175	0xbcf067f1	-0.029346438
176	0xbc62dc80	-0.013846517
177	0x3ba3f952	0.0050040865
178	0xbd0cb253	-0.03434975
179	0xbcb6b913	-0.022305047
180	0x3b12f4d5	0.0022423763
181	0x3af7e836	0.0018913809
182	0xbb447e93	-0.002998267
183	0xbcc8b6a6	-0.024501156
184	0xbd1017cc	-0.035178944
185	0x3c8593ee	0.01630589
186	0x3d037065	0.03208961
187	0x3c8cc7c9	0.017185109
188	0xbceba2e8	-0.028764203
189	0x3b564d4d	0.0032699883
190	0x3cd36c6f	0.025808541
191	0xbc9c9fa1	-0.019119086
192	0x3ca56f29	0.020194607
193	0xbc96bb26	-0.018399786
194	0xba4a481e	-0.0007716435
195	0x3ca9e240	0.020737767
196	0xbd04b0e2	-0.03239525
197	0xbcfc99a6	-0.030834984
198	0x3c23f263	0.01000652
199	0x3c3aacef	0.01139377
200	0xbc882484	-0.016618975
201	0x3c921194	0.017830648
202	0xbb3cf0f3	-0.002883014
203	0xbc8edb25	-0.01743848
204	0xbd086e8c	-0.03330855
205	0x3c943fcb	0.018096825
206	0x3cc33246	0.023827683
207	0xbb6b410c	-0.0035896925
208	0x3c7d7068	0.015468694
209	0x3ad08f0c	0.0015911772
210	0xbbedbf38	-0.007255461
211	0x3ca128e5	0.01967282
212	0x3ceeac88	0.029135004
213	0x3cd23b87	0.02566315
214	0x3d008bd4	0.03138335
215	0xbb2a5c57	-0.002599498
216	0x3cee83e0	0.029115617
217	0x3add154f	0.0016867312
218	0xbcda48e8	-0.026646093
219	0x3c4ffc0f	0.012694373
220	0xbc484e7f	-0.012225746
221	0x3b7a2900	0.003817141
222	0xbcde4f31	-0.02713737
223	0xbaaaf8dd	-0.0013044138
224	0x3d058d63	0.03260554
225	0xbc97c115	-0.018524686
226	0x3c861781	0.01636863
227	0x3c870014	0.01647953
228	0x3c3afe59	0.01141318
229	0x3be3d91d	0.006953372
230	0xbcc970ed	-0.02458998
231	0xbd045905	-0.03231146
232	0xbcef4d24	-0.029211588
233	0x3ce332de	0.027734216
234	0x3c8516a1	0.016246142
235	0xbd0579bf	-0.03258681
236	0x3b0e691e	0.0021730135
237	0xba0784bf	-0.0005169622
238	0x3cee8102	0.02911425
239	0x3ce17375	0.027520875
240	0xbcaca74c	-0.021075867
241	0xbcaf99f7	-0.02143572
242	0xbc33b1f4	-0.01096772
243	0xbcdf8051	-0.027282866
244	0xbced727e	-0.028985258
245	0x3c44e241	0.012016834
246	0x3ac9f8e1	0.0015409255
247	0xbcd47a13	-0.025937116
248	0xbd014a64	-0.031565085
249	0x3b0ca3a8	0.0021459851
250	0xbd159f28	-0.036528736
251	0xbc8bfd13	-0.017088449
252	0xbc33ce2b	-0.010974447
253	0x3b3609ac	0.002777676
254	0x3ca48e0b	0.020087263
255	0xbaa557b2	-0.0012614636

nonreduce1_3.bias f4 [32]
0	0xbc84dc76	-0.016218405
1	0x3b8182c8	0.003952358
2	0x3ccb9065	0.024849126
3	0x3c5940dd	0.0132600935
4	0xbc5b0d54	-0.013369877
5	0x3ca3c080	0.019989252
6	0xbc665bec	-0.014060002
7	0x3c931da0	0.017958462
8	0x3cfc8d91	0.030829223
9	0x3d165d8f	0.03671032
10	0x3cbe4951	0.02322832
11	0x3d2a2c95	0.041546423
12	0x3bbf8a47	0.0058453414
13	0x3d2d1fc6	0.04226663
14	0x3d5c88b8	0.053841323
15	0x3d33d4ae	0.043904
16	0x3d331499	0.043720815
17	0x3c9175c8	0.017756358
18	0x3d00f95e	0.031487815
19	0x3d32c996	0.04364928
20	0x3b7904a0	0.0037997141
21	0x3bed0e3d	0.0072343634
22	0x3c0850b6	0.008320024
23	0xbc19269f	-0.009347587
24	0xbc08c5bd	-0.008347926
25	0x3beeeed5	0.0072916546
26	0x3d08f3ac	0.03343551
27	0x3a844333	0.0010090828
28	0x3d3cc615	0.046087343
29	0x3bfa998f	0.0076477
30	0x3cd8bc9c	0.026457123
31	0x3d58a0cf	0.052887734

reduce2.weight f4 [16, 32, 4, 4, 4]
0	0xbb934b84	-0.004495086
1	0xbc3db164	-0.011577938
2	0x3b53c8b0	0.0032315664
3	0xbc65a966	-0.0140174385
4	0xbbba4464	-0.0056844223
5	0x3cb246c7	0.021762265
6	0x3b91ddf5	0.004451508
7	0x3b0ae520	0.0021193698
8	0xbc8dc130	-0.017304033
9	0xbc20a255	-0.009804328
10	0x3c1e52f9	0.009663337
11	0x3c530e8f	0.012881889
12	0x3c19e310	0.009392515
13	0x3c65dce9	0.01402972
14	0xbb70810d	-0.0036698014
15	0x3c9a43f6	0.018831234
16	0xbacc67a8	-0.0015594857
17	0x3c30dac3	0.010794344
18	0x3bd6d82b	0.006556531
19	0x3b0fe200	0.0021954775
20	0x3c5e891e	0.013582496
21	0xbc609e4a	-0.013709614
22	0x3c695ada	0.014242852
23	0xbad4c9f6	-0.0016234505
24	0xbc8b5eac	-0.017012917
25	0xbc45005b	-0.0120240105
26	0xb6328069	-2.6598811e-06
27	0x3cac513c	0.02103483
28	0x3c896b24	0.016774721
29	0xb8af7c65	-8.3678206e-05
30	0x3c2b4bf6	0.010455122
31	0xbca833ec	-0.02053257
32	0xbb10b223	-0.0022078834
33	0x3c3201b8	0.010864668
34	0xbc8dff49	-0.017333644
35	0x3c389676	0.011266341
36	0xbc85b66d	-0.016322339
37	0xbc7a11d3	-0.015263039
38	0xbcbd41cd	-0.023102665
39	0x3c29cf03	0.010364297
40	0x3bdda0d7	0.0067635584
41	0xbc87924e	-0.016549256
42	0x3c55770b	0.01302887
43	0xba78784f	-0.00094783766
44	0x3bf3d4b5	0.007441128
45	0xbb12db46	-0.002240853
46	0xbc908527	-0.017641617
47	0x3cb7123f	0.022347568
48	0x3a6c42a6	0.0009012617
49	0x3c0e9938	0.008703522
50	0x3c29d654	0.010366041
51	0xbc1366da	-0.00899669
52	0x3c39f040	0.011348784
53	0xbc847e45	-0.016173491
54	0xbcabe222	-0.020981852
55	0xbc016fd7	-0.0079002
56	0x3bb7de67	0.005611229
57	0xbc719c0d	-0.014746678
58	0x3c80b7b6	0.0157126
59	0x3bab0ebc	0.0052202623
60	0x3c21e0a5	0.00988022
61	0xbc4827bc	-0.012216505
62	0x3c265c01	0.010153771
63	0x3c43e1a7	0.011955655
64	0x3c88444b	0.016634127
65	0x3ba0ec7d	0.004911004
66	0x3c75eb97	0.015009782
67	0xbc9b0abd	-0.018926019
68	0x3b6b5b3b	0.0035912532
69	0x3cb0a21f	0.02156168
70	0x3c759bc6	0.014990753
71	0x3c9acef6	0.018897515
72	0x3b5281b7	0.0032120773
73	0x3c63d2a2	0.013905199
74	0x3ca36806	0.019947063
75	0x3c0ed32b	0.008717339
76	0x3c223722	0.00990084
77	0x3c360a41	0.011110843
78	0xbbb33ac4	-0.005469652
79	0x3c4c9376	0.012486329
80	0x3c7e53c9	0.015522906
81	0xbbf22fea	-0.0073909657
82	0xbbb42bbb	-0.005498377
83	0x3bf1a672	0.007374578
84	0xbb61f138	-0.0034476053
85	0xbc948515	-0.018129865
86	0xbb343431	-0.0027496929
87	0xbbb72f3c	-0.0055903476
88	0xbc80df99	-0.01573162
89	0xbc1674d4	-0.009183127
90	0x3cb238b6	0.021755558
91	0x3c9db133	0.019249534
92	0xbc600a3b	-0.013674314
93	0x3c0d6fcf	0.008632614
94	0x3b29e609	0.0025924465
95	0xbb938dcb	-0.004502987
96	0xbc0a53ac	-0.0084428005
97	0x3cb32982	0.021870378
98	0x3bc005c1	0.005860061
99	0x3cab1b3a	0.020887006
100	0xbbefc54e	-0.0073172217
101	0xbc94ec82	-0.018179182
102	0xbc55a66e	-0.013040168
103	0xbc6bde16	-0.014396211
104	0x3c8af173	0.016960835
105	0x3c977739	0.018489467
106	0xba945135	-0.0011315705
107	0x3c821145	0.015877375
108	0x3c08d0c9	0.0083505595
109	0xbb14119a	-0.00225935
110	0x3c9bc04c	0.019012593
111	0x3c21dcf3	0.009879339
112	0x3cba069b	0.022708228
113	0x3ab966b4	0.0014144988
114	0xbc8c6144	-0.017136224
115	0x3c685caa	0.014182249
116	0x3ade42d1	0.0016957169
117	0xbc84699c	-0.01616364
118	0xbc16e197	-0.009209058
119	0x3c4730f4	0.012157667
120	0xbc494aca	-0.0122858975
121	0xbc8982d9	-0.016786026
122	0xbbf33320	-0.007421866
123	0xbc15187b	-0.009100075
124	0xbc21792f	-0.009855553
125	0xbc4be9a8	-0.012445845
126	0xbc355792	-0.011068242
127	0xb9a2ddb7	-0.00031064238
128	0x3c98b55c	0.018641166
129	0x3c13933d	0.009007272
130	0x362879e6	2.5104905e-06
131	0x3c62b01b	0.013835932
132	0x3bfd0945	0.0077220523
133	0xbc966d94	-0.018362798
134	0xbbd5dc0f	-0.006526477
135	0xbb310fcb	-0.002701747
136	0xbca5fa7c	-0.020261042
137	0x3bfb47de	0.0076684793
138	0xbc3bfabe	-0.011473356
139	0xb7ed1eca	-2.8266939e-05
140	0xbc2ee682	-0.0106750745
141	0x3bbb4a78	0.0057156645
142	0x3c6121aa	0.013740936
143	0xbbe86902	-0.007092596
144	0xbc84d479	-0.016214596
145	0x3ba7bf30	0.005119227
146	0xbc5cbcd0	-0.013472751
147	0x3cba77c2	0.022762183
148	0x39bc37db	0.0003589977
149	0xb957060c	-0.0002050625
150	0x3ca6f3be	0.020379897
151	0xbc3c83f6	-0.011506071
152	0x3c944f36	0.018104177
153	0xbb1d9250	-0.0024043508
154	0xbc34db0c	-0.011038553
155	0xbc17595e	-0.009237615
156	0x3cada2f9	0.021195875
157	0x399585b6	0.00028519117
158	0x3b86c95b	0.004113359
159	0x3b306e95	0.002692138
160	0x3c1aad09	0.009440669
161	0xbc214cb0	-0.009844944
162	0xb95df64e	-0.00021167958
163	0xbc5deed0	-0.013545707
164	0x3c77a1e7	0.015114284
165	0x3c876399	0.016526984
166	0xbc5d4080	-0.0135041475
167	0x3c9d4331	0.019197078
168	0xbc52c0fc	-0.012863394
169	0xbc131a39	-0.00897842
170	0xbbfeb382	-0.007772864
171	0xbc169a5e	-0.009192077
172	0xbc4ead2f	-0.012614532
173	0x3bd7ad48	0.006581936
174	0x3c0231b0	0.007946417
175	0xbbbf943f	-0.0058465297
176	0xbc57dae1	-0.013174743
177	0x3b18a0b8	0.0023289155
178	0x3bbf6efc	0.005842088
179	0xbc79a889	-0.015237936
180	0x3c964443	0.018343097
181	0x3cad58a5	0.021160433
182	0x3bc33855	0.005957643
183	0xbca9da26	-0.020733904
184	0xbc1c9e80	-0.009559274
185	0x3c44d2cd	0.012013149
186	0x3babf8a7	0.0052481475
187	0x3c7f6c68	0.015589811
188	0xbc950279	-0.018189656
189	0xbc2441c2	-0.0100254435
190	0x3b8dc421	0.004326359
191	0x3c7081d7	0.014679394
192	0x3bddeda1	0.0067727123
193	0xbbe2e9a9	-0.006924827
194	0x3b861597	0.004091929
195	0x3c81af52	0.01583067
196	0x3b0f6b73	0.0021884113
197	0x3b42f1ec	0.0029746247
198	0x3c9fcbdb	0.019506386
199	0xbbc08077	-0.005874689
200	0x3bc5a4bf	0.006031602
201	0x3c7fb566	0.015607214
202	0xbc9c5a0d	-0.019085908
203	0x3a802e6b	0.0009779459
204	0xbb97c8d5	-0.0046320953
205	0x3c9d77a2	0.019222084
206	0xbc03595d	-0.008016911
207	0xbc580742	-0.013185324
208	0xbbe3d752	-0.0069531584
209	0x3cb4fc56	0.02209298
210	0xbbb59aa1	-0.005542115
211	0x3cb5df50	0.02220121
212	0x3af26402	0.0018492939
213	0x3c8d82f2	0.017274354
214	0xbc4b7cb1	-0.0124198655
215	0x3bd7f21e	0.006590142
216	0xbc03bff9	-0.008041375
217	0x3c9f1122	0.01941735
218	0xbc1247e0	-0.008928269
219	0x3c3ebbf6	0.011641493
220	0xbc1f4281	-0.009720446
221	0x3b0f9a08	0.0021911878
222	0x3c3c0182	0.011474969
223	0xbba0367d	-0.004889308
224	0x3c9f0618	0.019412085
225	0x3c02ef68	0.007991649
226	0xba661528	-0.0008776956
227	0x399f4e0f	0.00030385
228	0xbb28bb3e	-0.002574637
229	0xbc59019e	-0.0132450145
230	0xbc41be9d	-0.011825231
231	0x3c6ddf96	0.014518639
232	0xbbd2b257	-0.006429951
233	0x3c120a4d	0.008913589
234	0xbca7cf2b	-0.020484528
235	0xbb1715d6	-0.0023053787
236	0xbbcdf456	-0.0062852306
237	0xbc3a0068	-0.011352636
238	0xbc2d667f	-0.010583519
239	0xbc9f5b44	-0.019452699
240	0xb9947e3d	-0.00028322815
241	0xbc8cddf5	-0.017195681
242	0x3c237d8b	0.009978662
243	0xbbd07ca5	-0.006362515
244	0xbba69135	-0.005083228
245	0x3b9ab9fb	0.0047218776
246	0x3ca22590	0.019793302
247	0xbc8d39eb	-0.017239532
248	0xbbe3bc87	-0.0069499644
249	0xbc82d959	-0.01597278
250	0xbc98b737	-0.018642051
251	0x3b7e3541	0.0038789066
252	0xbc84687d	-0.016163105
253	0x3c23961c	0.009984519
254	0xbb3234f1	-0.00271922
255	0x3cc038d5	0.0234646

reduce2.bias f4 [16]
0	0xba200f24	-0.0006105772
1	0xbc94a38c	-0.018144391
2	0x3baafd0b	0.0052181534
3	0xbc078ab8	-0.008272819
4	0x3bd3dc35	0.0064654597
5	0x39b52ff0	0.00034558726
6	0x3ba0d6cc	0.0049084183
7	0x3ce1df51	0.027572306
8	0x3c2ff888	0.010740407
9	0xba2fc594	-0.00067051616
10	0xb8f24158	-0.000115516305
11	0x3d127068	0.03575173
12	0x3bbc7b47	0.0057520005
13	0x3caea0e0	0.021316946
14	0x3cd92789	0.02650811
15	0xbbce3fa0	-0.006294206

nonreduce2_1.weight f4 [16, 16, 3, 3, 3]
0	0x3b1cb57d	0.0023911886
1	0xbd1737e5	-0.03691854
2	0xbc189a5b	-0.009314145
3	0xbd0aff6b	-0.03393499
4	0x3cb41b98	0.021985814
5	0xbcc74aaa	-0.024327595
6	0x3c786298	0.015160225
7	0x3bf38cdb	0.0074325628
8	0xbcdab82e	-0.026699152
9	0x3ada89c5	0.0016673139
10	0xbc3073e3	-0.010769817
11	0xbc183e66	-0.009292221
12	0x3d0ba498	0.034092516
13	0x3d292144	0.04129149
14	0x3cee18f1	0.029064627
15	0x3c8860ee	0.016647782
16	0x3cc839a2	0.024441544
17	0xbcde11f2	-0.027108166
18	0xbbf686c4	-0.0075233895
19	0xbd224f56	-0.039626442
20	0xbb950fe1	-0.004549012
21	0xbd2279f0	-0.03966707
22	0xbd3c4943	-0.045968305
23	0xbcf2105d	-0.029548818
24	0x3d229a8c	0.03969817
25	0x3c222e21	0.009898693
26	0x3d3c018a	0.045899905
27	0x3cbcb7ed	0.023036921
28	0x3cc20f71	0.023689004
29	0x3cf5e99c	0.03001862
30	0xbcd1b380	-0.025598288
31	0x3c9ddbd3	0.01926986
32	0x3cef557d	0.029215569
33	0x3d153a57	0.03643259
34	0x3c283977	0.010267607
35	0x3c497ac7	0.012297339
36	0xbce91f70	-0.028457373
37	0x3d0db6b7	0.03459808
38	0x3d346736	0.044043742
39	0xbc6dbc4a	-0.014510224
40	0x3d13bcd4	0.036068752
41	0xbd247417	-0.040149774
42	0x3d132756	0.035926186
43	0xbcb8536e	-0.02250072
44	0xbc854a7c	-0.016270868
45	0x3d33628f	0.043795165
46	0xbd44dee8	-0.048064142
47	0xbc4007e7	-0.011720634
48	0x3c4250c7	0.011860079
49	0xbc91fc10	-0.017820388
50	0xbd210ee2	-0.039320834
51	0x3d2ed51e	0.042683713
52	0x3d0b5412	0.034015723
53	0x3d3435fc	0.043996796
54	0x3a1702d0	0.0005760612
55	0x3d14abff	0.03629684
56	0x3b458a00	0.003014207
57	0x3d0dc802	0.03461457
58	0x3bc4221b	0.005985511
59	0x3b973ded	0.0046155364
60	0x3bc8f609	0.0061328453
61	0xbc50ddc3	-0.012748185
62	0xbcb4a903	-0.022053247
63	0x3c380c52	0.011233406
64	0x3d222893	0.039589476
65	0xbc6b3595	-0.014356037
66	0xbc9c77a1	-0.019100012
67	0x3bcd18e1	0.0062590693
68	0xbc4779ed	-0.012175065
69	0xbc8d6121	-0.017258229
70	0x3c3ffae9	0.0117175365
71	0xbcb569a9	-0.02214511
72	0xbcc5cccd	-0.024145508
73	0xbb748024	-0.0037307823
74	0x3b38bcb8	0.0028188657
75	0x3cb845ea	0.022494275
76	0x3c3fe9c5	0.01171345
77	0x3d246e44	0.04014422
78	0xbcad79d6	-0.02117626
79	0xbb8c6dc5	-0.0042855465
80	0x3d08a1d9	0.033357475
81	0x3cf0d8f1	0.02940032
82	0xbc963ef4	-0.018340565
83	0x3d0332e6	0.032030962
84	0x3ccc1f95	0.024917403
85	0xbd1f0e10	-0.03883177
86	0x3d02daab	0.03194682
87	0xbb882b03	-0.004155518
88	0xbd39ae5a	-0.04533229
89	0xbd3065c1	-0.04306579
90	0xbcaa5018	-0.020790145
91	0x3d075481	0.033039574
92	0x3cbf6706	0.023364555
93	0xbd174bd6	-0.036937557
94	0xbd339edf	-0.043852683
95	0x3bfb5ba5	0.007670837
96	0xbc99cf09	-0.01877548
97	0x3b339aa7	0.0027405412
98	0xbd031f38	-0.032012194
99	0xbcc5ffe7	-0.024169875
100	0xbd2ad8d8	-0.041710705
101	0x3d3447f2	0.044013925
102	0x3d38441a	0.04498682
103	0x3cf7aee0	0.030234754
104	0xbd0cb8b0	-0.03435582
105	0x3cd67bec	0.026182137
106	0x3c91af2c	0.017783724
107	0xbcf67035	-0.030082801
108	0xbcbc5a29	-0.02299221
109	0xbd47bdc6	-0.048764966
110	0xbd22dce7	-0.03976145
111	0x3c1f5f3a	0.009727294
112	0x3c99ec8a	0.018789548
113	0xbd46f176	-0.04857012
114	0xbb62b7dd	-0.0034594454
115	0xbcf74405	-0.030183801
116	0xbd1ba4a1	-0.0379988
117	0x3c8597fd	0.016307825
118	0x3c9f3c4e	0.019437935
119	0x3ce99cf4	0.028517224
120	0x3cf3e5d1	0.029772671
121	0x3c34689e	0.011011271
122	0x3bb71a06	0.005587819
123	0x3aa02785	0.0012218809
124	0x3c10b25d	0.008831588
125	0xbd1b7c39	-0.037960265
126	0xbd83c52b	-0.06434091
127	0xbd7e1c7f	-0.062038895
128	0xbd673364	-0.056445494
129	0x3cfa7aa1	0.030576052
130	0xbbc74103	-0.006080748
131	0x3ce8ee68	0.028433993
132	0xbb1144ea	-0.002216632
133	0xbc685806	-0.014181143
134	0xbcd7c108	-0.026337162
135	0xbd3ef537	-0.046620574
136	0x3c9d8ee1	0.019233169
137	0x3cdac086	0.02670313
138	0x3d490b4a	0.04908303
139	0xbcde888c	-0.02716472
140	0x3cdb783a	0.026790727
141	0xbcaf204a	-0.021377701
142	0xbcb39575	-0.021921853
143	0xbd2eb18e	-0.042649798
144	0x3c840261	0.016114416
145	0x3c19399f	0.009352117
146	0x3be89200	0.0070974827
147	0xbc92639c	-0.017869763
148	0xbd1dd446	-0.038532518
149	0x3d43ecf7	0.04783341
150	0xbd043b3d	-0.032283057
151	0xbd0a77b0	-0.03380555
152	0xbd0b08bc	-0.033943877
153	0xbd372785	-0.044715423
154	0xbc96efcf	-0.018424897
155	0x3c4b9816	0.012426397
156	0x3c9e7c10	0.019346267
157	0x3d4620f0	0.048371255
158	0x3d1db9ee	0.038507394
159	0xbd1ccc74	-0.03828092
160	0x3cd35fdb	0.025802543
161	0xbcc31c95	-0.02381734
162	0x3cfe08ba	0.03101002
163	0xbd36fd11	-0.044674937
164	0x39ebd7ca	0.00044983468
165	0x3d431dc2	0.0476358
166	0xbbfc0936	-0.0076915277
167	0x3d35b541	0.04436231
168	0x3d2e0299	0.042482946
169	0xbd4b9c2c	-0.049709484
170	0x3d1aad12	0.03776271
171	0x3c4c1a07	0.012457377
172	0x3d193ed8	0.037413448
173	0xbced963e	-0.029002305
174	0x3b832cca	0.004003142
175	0x3c64b7d0	0.01395984
176	0x3d0735b5	0.033010203
177	0xbd2796e4	-0.040915385
178	0xbb2ce43c	-0.0026381155
179	0xbc8161bd	-0.015793676
180	0x3c45fa50	0.012083605
181	0xbce8e1bd	-0.028427953
182	0x3bfbaf77	0.007680829
183	0xbcb2bc71	-0.021818371
184	0xbd3c0fe7	-0.045913603
185	0x3c0b7624	0.008512054
186	0xbcc57c66	-0.02410717
187	0xbc709892	-0.014684813
188	0x3ca6c150	0.02035585
189	0xbae46396	-0.0017424698
190	0xbc67f2ca	-0.0141570065
191	0x399c92fc	0.0002986415
192	0xbce7550a	-0.028238792
193	0xbb36f493	-0.0027916774
194	0x3d07df3e	0.033171885
195	0x3c9e4192	0.019318376
196	0xbcfe5531	-0.031046482
197	0x3d3f44dc	0.04669653
198	0x3be5bf17	0.007011305
199	0x3d44de1a	0.048063375
200	0xbd364666	-0.04450073
201	0x3d151ab0	0.036402404
202	0x3c3d7001	0.011562348
203	0x3ca3f448	0.020013943
204	0x3d30e46c	0.04318659
205	0x3d2dd2bd	0.042437304
206	0x3ad19807	0.0015990742
207	0x3c7e2461	0.015511603
208	0xbcad7efa	-0.021178711
209	0x3cc35586	0.023844492
210	0xbb1f58c6	-0.0024314388
211	0xbd1efd82	-0.038815983
212	0xbc42fc75	-0.011901011
213	0xbacdb94f	-0.0015695485
214	0x3d3b2f07	0.045699146
215	0xbb9cdd1a	-0.0047870995
216	0x3d490cac	0.04908435
217	0xbcda7d78	-0.026671156
218	0x3c5088a2	0.012727888
219	0x3d1c840d	0.03821187
220	0xbca9f4d7	-0.020746632
221	0xbca4ef65	-0.020133683
222	0xbcc4b3de	-0.024011549
223	0x3d40a7ca	0.047035016
224	0x3ced84e6	0.028994035
225	0x3d1a3e94	0.037657335
226	0x3d14b636	0.036306582
227	0x3d0ad758	0.033896774
228	0xbd3dd6df	-0.046347495
229	0x3cefaa83	0.029256111
230	0x3d15f866	0.036613844
231	0x3cfc7b21	0.030820431
232	0xbbf49b4e	-0.007464803
233	0x3c77a1f9	0.015114301
234	0xbc37d9c1	-0.01122135
235	0xbc59dd83	-0.013297441
236	0xbc95df08	-0.018294826
237	0xbbe2b750	-0.006918825
238	0x3d0f7edc	0.035033092
239	0xbb118149	-0.0022202304
240	0xbbbc9975	-0.005755598
241	0x3cf6ae69	0.030112462
242	0x3c921679	0.017832981
243	0x3cd34d29	0.025793629
244	0x3d0fe55c	0.035130844
245	0xbd2d5b56	-0.042323433
246	0xbd07ce50	-0.03315574
247	0xbd234265	-0.03985824
248	0x3c8daca1	0.01729423
249	0x3ce34266	0.027741622
250	0xbd24ad23	-0.04020418
251	0x3cd51190	0.026009351
252	0xbbb30bb6	-0.0054640425
253	0x3cc12daa	0.023581345
254	0x3b945ff1	0.0045280387
255	0x3b1b400b	0.0023689296

nonreduce2_1.bias f4 [16]
0	0xbcbeba80	-0.02328229
1	0x3989a23c	0.0002625155
2	0x3d53be56	0.05169519
3	0xbcb331ca	-0.021874327
4	0x3c37ade4	0.011210892
5	0x3c900c42	0.01758397
6	0x3d568c5d	0.052379955
7	0xbd169fe3	-0.036773574
8	0x3d3dbb6d	0.04632132
9	0xbd008a50	-0.031381905
10	0x3ca1a734	0.019733049
11	0x3c754b57	0.014971576
12	0x3d56b5c5	0.052419443
13	0xbcc96ef1	-0.024589034
14	0x3ce6ca71	0.028172703
15	0x3d7029c0	0.058633566
